results/runs/single_assembly_rerun/Average_TD3_5_Peg-in-hole-single_assembly_seed_5/23000_actor.pth (torch_old, 510312 bytes, 6 tensors)

l1.weight f4 [400, 12]
000000 42 3f 43 3e b4 0b 5d be 18 e6 70 3e 9c 24 3d 3e
       0.190671 -0.21586496 0.23525274 0.18470997
000010 30 5e 78 3e 54 a4 62 be fa 69 46 be d6 a8 0c 3e
       0.2425468 -0.22132999 -0.19376364 0.13736281
000020 f2 f7 89 be 28 15 92 3e 60 af 7b 3d 28 b3 18 3d
       -0.2694698 0.28531766 0.061446548 0.03728023
000030 a3 d9 2c be 94 a8 c8 bc b0 f9 1c 3e 59 fd 59 3e
       -0.16879897 -0.024494447 0.15329623 0.2128805
000040 a6 18 e7 3e b0 8c b1 3d aa 72 dd be b0 ac 1d 3f
       0.45135993 0.08669412 -0.43251544 0.61591625
000050 10 78 a4 3d b3 14 e4 3d be cd 84 bd 54 00 84 3e
       0.080307126 0.111367606 -0.06484555 0.257815
000060 a0 73 15 3f f8 90 ac be a2 eb 86 bc 58 e5 f7 bb
       0.58379555 -0.33704352 -0.01646978 -0.0075651817
000070 11 3e 34 3e 46 5c 81 bd 42 04 89 be 27 3b e0 be
       0.17601801 -0.06316428 -0.2676106 -0.4379513
000080 0e 05 ff bd 90 5b fb bd 0a f7 14 3e 1a d8 be be
       -0.12452136 -0.122733235 0.14547363 -0.37274247
000090 7b 86 63 3f 1e 72 bd be e8 04 aa bb d7 75 5d 3e
       0.88877076 -0.37001127 -0.005188573 0.21626984
0000a0 b5 70 83 be 06 b8 a6 bd 2d 1f 3d 3d ae 93 13 3e
       -0.25671926 -0.081405684 0.04617231 0.14411804
0000b0 a5 64 5c 3b 7a d2 94 3e 22 18 52 be aa 56 9a be
       0.0033629325 0.2906683 -0.20517018 -0.30144244
0000c0 2f 64 0c 3e 1b 74 4c bd e2 d2 b0 3e 3d 24 d6 3c
       0.13710092 -0.049915414 0.3453589 0.026140327
0000d0 d1 14 87 bd e3 f0 12 be 84 fe b0 bd 84 30 f4 bc
       -0.06595767 -0.14349703 -0.08642295 -0.02980829
0000e0 ba aa 50 3e 2f 84 c9 be 7b d6 57 3d dd fe 85 3e
       0.20377627 -0.3935866 0.05269478 0.26171008
0000f0 e5 99 af be 1c 5d 68 be a3 46 46 bd 61 f2 a7 3e
       -0.342971 -0.22691768 -0.04840721 0.32802108
000100 58 6d b5 be 28 e3 6e 3e 1e d1 b6 bc 2a f1 7a 3e
       -0.35434985 0.2332884 -0.022316512 0.2450606
000110 b8 10 ba 3d ee 45 8f be 21 34 7f 3e 95 18 30 be
       0.0908522 -0.2798304 0.2492223 -0.17196877
000120 30 40 3c bd 58 b4 5f 3e f6 44 88 3e 86 bf 81 3e
       -0.04595965 0.2184614 0.26615113 0.25341433
000130 68 02 2a 3e 62 60 89 3e d6 03 d5 bd b0 84 96 bc
       0.1660248 0.26831347 -0.10401122 -0.018373817
000140 20 36 ca bd 90 cf ad bc 30 c6 0f bd fc ee 1d 3e
       -0.09873605 -0.021217138 -0.035101116 0.15423197
000150 45 45 a2 3e 17 cd 9f be 83 1e 0f bc 63 d4 1f be
       0.31693473 -0.3121116 -0.008735302 -0.15608363
000160 48 76 13 3c e8 7e e5 bd 45 d9 b1 bd 78 fc d8 bd
       0.009000368 -0.11205846 -0.08684019 -0.105950296
000170 c9 fe 5d be b4 0a 36 3d 2a d9 a8 be c8 60 86 bd
       -0.21679224 0.0444438 -0.32978183 -0.06561428
000180 24 79 0b bf b3 5c 80 3c c1 78 9c 3d c7 ec 60 3d
       -0.5448172 0.015669202 0.076402195 0.05491331
000190 54 86 20 3f 08 82 87 be 0b b7 35 bf 1c de 93 be
       0.6270497 -0.26466393 -0.70982426 -0.28880394
0001a0 1c f5 a9 38 ce f2 5a 3d 43 26 aa 3d e1 db 39 be
       8.104203e-05 0.053454213 0.08308079 -0.18150283
0001b0 97 4d 06 bf 94 24 36 3e c9 e7 3a bd ed 24 57 3d
       -0.5246214 0.17787391 -0.045631204 0.05252545
0001c0 1c c8 e1 be 00 5d e1 bb b9 f9 83 bd 27 ae 08 3f
       -0.44097984 -0.0068775415 -0.06444115 0.53390735
0001d0 95 e7 d8 be 83 da b3 3e 68 53 07 3f 90 dc 4f 3f
       -0.42364183 0.3512765 0.5286164 0.81195927
0001e0 40 c4 b2 3d bf 9d 02 be 0e 28 4d 3e 0c b3 dd bd
       0.08728838 -0.12755488 0.20034811 -0.10825166
0001f0 8e 2e 1f be c0 10 86 3e e4 9c 9c 3d 00 9a 02 bb
       -0.15545103 0.26184654 0.07647112 -0.0019928217
000200 98 02 4e be 96 dc 82 bd 33 15 63 be 0d e4 46 be
       -0.20118177 -0.0638973 -0.22176056 -0.19422932
000210 75 c2 bf be 8d d9 40 3e c2 4b 52 3c d6 38 2a 3e
       -0.37453046 0.18832989 0.012835445 0.16623244
000220 94 1f 9e 3d c6 8c 89 be 0a 6f 39 3e 9f 15 b6 bd
       0.07720867 -0.26865214 0.18108764 -0.08890843
000230 63 40 dd be 19 33 d7 3e 8e 30 f5 bd 72 3f 42 3e
       -0.43213186 0.42031172 -0.11972152 0.18969515
000240 17 d8 45 3e 2b 94 87 3e 8e b5 79 3b 42 3f 25 be
       0.19320713 0.2648023 0.00381026 -0.16137412
000250 b8 52 f2 3e 91 27 19 be 06 f4 10 bf 76 33 04 3e
       0.47328734 -0.149565 -0.5662235 0.12910256
000260 5a 87 89 3d 32 6f cc 3d f7 03 06 3e f6 e5 82 be
       0.067152694 0.09982146 0.1308745 -0.2556607
000270 5b d8 43 be e5 bc 27 be a5 1b e1 3d e3 3e 7f 3e
       -0.19125502 -0.16380651 0.10991601 0.24926333
000280 40 8e d5 be 18 9c 29 3e 12 9a d7 3d 08 db c3 3d
       -0.4171009 0.16563451 0.105274335 0.09563261
000290 c2 e5 6f 3e b1 15 37 be c4 ed 84 3d e2 8c 09 be
       0.2342749 -0.17879368 0.06490663 -0.13432649
0002a0 1f d3 00 3f 5e 7c 12 3f bc 86 be 3c 70 01 a0 bd
       0.50322145 0.5722102 0.023257606 -0.07812774
0002b0 02 75 42 3e 34 03 25 bd fd 44 5c be f4 0e f1 be
       0.18989947 -0.040286258 -0.21510692 -0.4708172
0002c0 dd e4 9c be c3 f4 9e be 77 fc 74 be 90 4e 4b be
       -0.3064336 -0.31046113 -0.23924433 -0.19854188
0002d0 e2 49 25 be a8 4b e2 bd 0b 6c 0a 3e 5c ee 11 be
       -0.16141465 -0.110495865 0.13517778 -0.14251083
0002e0 99 e2 a7 be 60 6e 49 3d 1e 5a b5 bd 7a 94 16 3c
       -0.32790068 0.049177527 -0.08855079 0.009190673
0002f0 f3 1c ea 3d 88 48 03 bf 72 b5 65 bb 95 dd b7 bd
       0.11431303 -0.5128255 -0.0035050777 -0.0897781
000300 36 c2 d9 3e 58 7e 2a 3f 1f f7 fc 3c d7 36 e4 be
       0.42530984 0.66599035 0.030879555 -0.4457309
000310 a9 e0 74 be 9c 55 cd 3d 73 93 77 bb a7 e0 b1 be
       -0.23913826 0.10026094 -0.0037777096 -0.3474171
000320 0e 5b 97 be 75 22 8f 3d 2d f9 9b be 0a 76 81 3e
       -0.29561657 0.06988994 -0.30463544 0.2528537
000330 82 d0 39 3e 00 9d 4e bb 52 14 1b 3e ce 11 4f 3e
       0.18145946 -0.0031526685 0.1514447 0.20221636
000340 36 ba 3c 3e 71 c3 8c be 74 f5 85 3e a4 53 9c 3d
       0.18430409 -0.2749286 0.26163828 0.07633141
000350 dc 85 92 be 70 1d 93 3d a8 8d 4b be f0 ce 88 3e
       -0.28617752 0.07183349 -0.19878256 0.2672038
000360 c0 c3 fb bd 62 40 e7 bd 71 e4 a0 bd 38 a9 a3 3e
       -0.12293196 -0.11291577 -0.07856072 0.3196504
000370 ae 53 19 be 00 25 fd 3d d9 fe c6 be a8 61 3b 3f
       -0.14973328 0.12360573 -0.38866308 0.73195887
000380 d6 fa 83 3c c3 e8 e2 3e d8 9f d0 bc b4 49 1c 3f
       0.016110819 0.44318208 -0.025466844 0.6104996
000390 74 aa a5 bb 51 73 3b 3f 0f c1 3c bd 8c 06 cc be
       -0.00505572 0.73222834 -0.046082553 -0.39848745
0003a0 3e 0a 91 3d 14 38 26 3e 60 62 87 be 40 ad cc bd
       0.07082032 0.1623233 -0.26442242 -0.09993982
0003b0 50 d8 3a be 38 24 a2 3e fd 3c 0f bd 52 44 c9 3e
       -0.18246579 0.31668258 -0.034970272 0.39309937
0003c0 30 c9 e8 3e 8c da 9e 3d d8 1a fe 3d f9 74 8c 3e
       0.45465994 0.07756528 0.12407464 0.27432993
0003d0 58 b4 ad be 96 91 1b 3e 33 df 81 bd d4 b8 52 be
       -0.33926654 0.15192255 -0.063414 -0.20578319
0003e0 1a 8c c1 3d af 83 23 bf e0 2c 1f be 21 55 1f bf
       0.094505504 -0.6387281 -0.15544462 -0.6223927
0003f0 4e c8 b3 bd e0 ba 94 bc 74 fe eb 3d 08 94 6c be
       -0.087784395 -0.018155515 0.115231425 -0.23103344

l1.bias f4 [400]
000000 80 2c c4 3c 69 a9 27 3e 0c 65 00 3f 1a 6e 75 3c
       0.023947 0.16373219 0.50154185 0.014979864
000010 e2 22 04 be 40 5a c3 be 94 3f d8 3d 5f b6 8a 3e
       -0.12903932 -0.38154793 0.105590016 0.27092263
000020 5d a2 3a 3e ea 79 62 3e ab ad 26 be a3 b9 8f 3d
       0.18225999 0.22116819 -0.16277187 0.07017829
000030 79 51 a3 bd e6 32 24 be 72 fb 0c be 94 f2 27 bf
       -0.07974524 -0.16035041 -0.13767794 -0.6560452
000040 d3 2f 9e 3e 4b 69 89 be 7f 39 bc be 0b 8d 8f 3e
       0.30895862 -0.26838145 -0.36762616 0.28037295
000050 2b 46 0a 3e aa 3e ec bd ee 01 ea bd 5c 7e 55 bf
       0.1350333 -0.1153539 -0.11426149 -0.83395934
000060 82 1b 46 be 41 f6 9b be ba 05 ac bd 27 f4 c4 3e
       -0.19346431 -0.30461314 -0.0839953 0.38467523
000070 b4 f9 d7 be 45 73 18 be 50 7c af be e1 89 b0 bc
       -0.42182696 -0.14887722 -0.3427453 -0.02155012
000080 90 ed 9e be e1 71 d3 bd a1 66 0a bf 19 d7 6a bf
       -0.3104062 -0.10324455 -0.5406285 -0.9173446
000090 fe 5e 39 3e a7 b4 b4 be 5e 54 2a 3e 81 b5 7f be
       0.18102643 -0.35294077 0.16633746 -0.24971582
0000a0 68 3a dc 3e 25 b4 7e be 9d 11 12 be 37 7d 9f bd
       0.4301331 -0.24873407 -0.14264531 -0.07787555
0000b0 70 d3 1a bc ec 34 3e bd 87 dc 1a 3f 03 fa e9 3d
       -0.009449825 -0.04643719 0.6049275 0.11424639
0000c0 d4 48 b0 be 2f 4d 9c 3e 7d 44 fb bd 92 3d bc be
       -0.34430563 0.30527636 -0.122689225 -0.36765724
0000d0 cb b6 88 3c f0 fe fe 3d 09 9f c4 be a4 5d d5 be
       0.016688725 0.12450969 -0.38402584 -0.41673005
0000e0 98 49 4b bd 7f 70 58 be 78 b2 a6 be 6e 34 e0 bd
       -0.04963073 -0.21136664 -0.32558036 -0.109475
0000f0 8f c4 02 bf 26 a5 8c 3e 4a c6 4e bf 64 33 a8 be
       -0.51081175 0.27469748 -0.80771315 -0.32851708
000100 e5 df ad 3e 9b 46 a1 3e 98 9e 26 be 1f bd 28 3e
       0.3395988 0.3149918 -0.16271436 0.16478394
000110 92 3f 10 3e c2 82 7c be d6 54 9d bd 62 d9 84 3e
       0.1408675 -0.24659255 -0.07682197 0.259471
000120 89 1e 94 3d e8 e3 61 3d ba 52 d1 bd 62 65 a6 be
       0.072323866 0.05514899 -0.10220857 -0.32499224
000130 93 cc 42 be 61 ca 97 bc 34 99 25 be 6f 37 51 bf
       -0.19023351 -0.018529119 -0.16171724 -0.8172521
000140 98 8d 7f be 75 6d f2 3e 23 09 89 be 7b 84 97 3e
       -0.24956357 0.47349134 -0.26764783 0.29593262
000150 37 3c 40 3e a8 81 95 bc 52 53 bb bd 63 56 cb be
       0.1877297 -0.018250301 -0.091467515 -0.39714345
000160 f0 28 09 bd b2 f5 8e be 10 a8 11 3f 7f 5a 07 be
       -0.033486307 -0.27921826 0.5689707 -0.13218115
000170 26 4c 5b be 9b 0e 83 3d 18 77 07 bf 7c 5b 19 be
       -0.21415767 0.0639927 -0.529161 -0.14976305
000180 3f ff dd bc 3a 63 4d 3e 43 df 08 bf a6 8a 5c bf
       -0.02709925 0.20057383 -0.5346567 -0.8614906
000190 a5 6a 9b be 7e a0 20 3e b8 62 64 3e 04 d6 5d be
       -0.303548 0.15686223 0.22303283 -0.21663672
0001a0 2e 3c 46 3e 25 fb 13 3d 68 92 7d 3e a8 83 a5 bd
       0.19358894 0.036128182 0.24762881 -0.08081752
0001b0 df b8 ab 3e 40 95 a4 be b2 5e 03 bf 5d 86 34 3e
       0.33539483 -0.3214512 -0.5131637 0.1762938
0001c0 e5 56 de bd a9 2a fe bd ac 45 7a be 0a 25 fb 3d
       -0.108564176 -0.124104805 -0.2444064 0.12262924
0001d0 c0 fc a4 bd 46 81 84 3d 5e 3a 24 be d4 18 94 3e
       -0.08056021 0.064699695 -0.1603789 0.28925192
0001e0 60 2b 21 be da 55 66 3e 89 8d 39 bf a0 7e 61 3e
       -0.15739202 0.22493687 -0.7248159 0.2202096
0001f0 4d db 9d be 62 5a 17 3e 41 48 6f 3e 9b 83 60 3e
       -0.30831376 0.14780572 0.23367406 0.21925204
000200 08 f8 8d 3e 91 ac 28 be 36 e8 d3 be 88 eb 4b be
       0.27728295 -0.16472079 -0.413881 -0.19914067
000210 ba 12 90 be 77 46 8f 3e 0e c1 66 3d 9e 27 7f 3e
       -0.28139287 0.27983448 0.056336455 0.24917457
000220 38 a4 31 be 07 d2 04 be 98 6b 1d bc d5 6d 60 3d
       -0.173478 -0.12970744 -0.009608172 0.054792244
000230 a5 26 68 be 4e f7 de 3e 53 18 e5 be 51 f6 84 3d
       -0.22670992 0.43548054 -0.4474512 0.064922936
000240 bc c4 2a be 7d f5 7c 3e 2b c6 19 be ba 6d 50 bf
       -0.1667661 0.24703021 -0.15017001 -0.8141743
000250 c9 d7 9c be ef cb 03 3e d2 33 9b 3e 56 1c bf 3e
       -0.3063338 0.12870763 0.30312973 0.37326306
000260 1b c5 8f be 0f 23 70 be ce 1f 07 be 1b 5b 26 be
       -0.28080067 -0.23450874 -0.13195726 -0.16245691
000270 71 bc 0b bf 49 28 1e bf 90 95 b3 3e 31 0f 85 be
       -0.54584414 -0.6178022 0.35075045 -0.25988153
000280 a0 9d 55 3c 49 16 46 be e9 21 92 be d8 e8 c0 bd
       0.013038069 -0.19344439 -0.28541496 -0.094194114
000290 33 a2 8e bd 8f bb 0b bf 20 15 eb 3d 13 69 19 be
       -0.06964531 -0.54583067 0.11478639 -0.14981489
0002a0 cb fc 04 3e 60 bf 91 3e 0a cf 08 3e 14 6a db be
       0.12987058 0.2846632 0.13360229 -0.4285437
0002b0 3f a2 1b 3e 56 13 26 be ca 22 f0 3e 42 07 7c 3e
       0.1519861 -0.16218314 0.46901542 0.24612144
0002c0 9c 22 ba 3d 70 71 a1 be a4 f6 99 be a8 4c 10 3e
       0.090886325 -0.31531858 -0.30070984 0.14091742
0002d0 96 1d 1f 3b 60 ba 78 3e 97 d4 c8 be 22 b3 96 3d
       0.002427911 0.24289846 -0.39224693 0.073583856
0002e0 d4 85 d3 be b4 ac b3 3e d0 9b 88 3d e5 f9 a6 3e
       -0.4131304 0.350927 0.06670344 0.3261253
0002f0 be e7 86 3e b0 53 21 3e 08 28 48 bf cc 0d d5 be
       0.2634868 0.1575458 -0.7818608 -0.4161209
000300 c8 08 6e bc 90 35 ab 3c a2 4b 08 3f 9b d0 06 be
       -0.014528461 0.020899564 0.53240407 -0.13165514
000310 fd aa db be 54 f1 dc bd 8e fd 0c bf 6a 45 e4 3e
       -0.4290389 -0.10788217 -0.55074394 0.4458421
000320 d1 e3 a9 bd bc fc 31 3e 25 30 04 bf 22 cd 3a 3e
       -0.08295406 0.17381567 -0.5163596 0.18242314
000330 ab b0 4f bf af 6a 35 bd 0f 71 c7 be 97 54 93 3d
       -0.8112895 -0.044291195 -0.38953444 0.071938686
000340 5c fe f0 3b 81 08 17 bf d7 2d e4 3e 30 f8 a8 bd
       0.0073545408 -0.5899735 0.44566223 -0.08250463
000350 85 01 02 3e 89 e1 af 3d b2 ef 1c 3e ce 95 22 be
       0.12695892 0.08587939 0.15325812 -0.15877458
000360 d4 ab e1 be 15 ad 15 be 8a 24 ef bc 47 51 00 be
       -0.44076407 -0.14616807 -0.029192228 -0.12531005
000370 90 08 fd 3c 1f 70 94 be 78 62 e6 bc bd 0c 45 3e
       0.030887872 -0.28991792 -0.028123125 0.1924314
000380 54 53 0e 3e 4d c7 e7 bc 4e 64 e3 3d ae d7 09 3e
       0.13898975 -0.028293276 0.11103116 0.13461182
000390 d3 23 06 bf e0 da 2e 3e 65 92 53 be 6e fa 3b bf
       -0.52398413 0.17075682 -0.20661314 -0.73429
0003a0 63 da 09 3e e2 7f 34 3e 25 ca f2 3d 8e 87 9d 3e
       0.13462214 0.17626908 0.11854962 0.30767483
0003b0 3c 16 2b 3e 68 b2 e3 be b3 03 9a 3e f1 98 65 be
       0.167077 -0.4447205 0.30080947 -0.22421624
0003c0 1a 60 d3 be 69 fb 35 3f 7c df 6a 3e 7a c9 0c 3d
       -0.41284257 0.71086746 0.22936815 0.03437183
0003d0 b8 aa 81 be 13 b0 f0 be d9 ce 47 be c4 c3 4e 3d
       -0.2532556 -0.47009334 -0.195125 0.050479665
0003e0 8f eb af be a0 e1 72 3c ed ce 48 be 9f c8 0c be
       -0.34359404 0.014824301 -0.19610186 -0.13748406
0003f0 ae 5d 85 be f1 62 a5 bd bb 99 5a be 1f 83 ae be
       -0.26048034 -0.08075512 -0.21347706 -0.34084412

l2.weight f4 [300, 400]
000000 b3 88 f7 bc 69 58 93 3c 3b 4a 00 be 1d b7 6c bd
       -0.03021655 0.017986493 -0.12528317 -0.057791818
000010 d7 44 09 3d 65 e4 61 3c d4 d1 4a bc fe e3 84 bc
       0.033512916 0.013787364 -0.0123791285 -0.016221996
000020 bf 8f 21 3d 09 36 b1 bc 90 0e a7 bb e6 1b 2d 3d
       0.039443728 -0.021632211 -0.0050981715 0.042262934
000030 ff 8b b4 bc 35 ae 4e bd e8 15 00 3d 37 3c 3e 3d
       -0.022039412 -0.050459106 0.03127089 0.046444144
000040 fb 2a 30 3d b6 d2 29 bd 60 c6 26 bd dd 49 16 3d
       0.04300974 -0.041460715 -0.04071653 0.036691535
000050 7d e9 33 bc f9 9d 42 3d 67 b5 a1 bb ec b4 20 3d
       -0.010980961 0.047513936 -0.004934955 0.03923504
000060 8b 87 e4 3c 5e e4 77 bc 22 bc fc 3c fd 13 2b bd
       0.027896663 -0.015130131 0.030851427 -0.04176711
000070 03 ba 1b 3d 40 87 1f bc e2 c0 e6 bc 70 0c 9b bd
       0.03801919 -0.009736836 -0.028168146 -0.07570732
000080 c6 78 82 3c fc 7f b5 bc 23 92 e8 bc 0f c2 96 3c
       0.01592673 -0.022155754 -0.028389996 0.018403081
000090 22 ca 93 3b ca 17 51 3c 9f f1 05 3c 93 7a c9 bc
       0.00451018 0.012762019 0.008175283 -0.02459458
0000a0 57 a3 07 3d 41 10 e3 3c f3 d6 b6 bb 0a 57 5a bb
       0.033114757 0.027717711 -0.005579823 -0.003331604
0000b0 c7 d2 30 3d 1b f6 01 bd 51 c8 c4 bc ba 5d b4 bb
       0.043169763 -0.031728845 -0.0240213 -0.005504337
0000c0 bf 48 0b 3d d8 ab 53 bd ab 46 6e bd 04 8c 60 bc
       0.034004923 -0.051677555 -0.058172863 -0.013705257
0000d0 a6 44 67 bd 40 2e cb 3b 47 e3 e4 3b dd 14 4d 3d
       -0.056461953 0.006200582 0.0069851014 0.050068725
0000e0 50 68 61 bb 35 88 01 bd 29 6e 1f 3c d8 15 ed bb
       -0.003439445 -0.031624038 0.009730854 -0.00723527
0000f0 10 b3 22 3d fe fd e6 3c b4 a0 0f 3d d3 79 3a bd
       0.03972155 0.028197285 0.035065368 -0.045526337
000100 67 c2 9a 3c af 56 37 bd 69 cb 05 3d 5e 88 80 bc
       0.018891526 -0.044760402 0.03266469 -0.015690025
000110 d7 5c 79 bd 14 aa 17 bc c2 3f d0 3c d8 c3 25 3c
       -0.060879555 -0.009256858 0.025421027 0.010117494
000120 e9 e9 95 bb 23 12 d9 bc 68 5d 28 bc 32 ac 48 bc
       -0.0045750034 -0.026497906 -0.010276176 -0.012248086
000130 a2 b2 8b 3c 66 2b 14 bd 92 ed 4a be fb 1c dc bc
       0.017052952 -0.0361742 -0.19817188 -0.026869288
000140 5b d3 10 3d bc e0 40 3d 75 d4 83 3d db 09 3a 39
       0.035357814 0.047089323 0.06437007 0.00017742014
000150 6a ab ed 3c a7 b6 9b 3d 52 7a fd 3c 52 09 aa bc
       0.0290124 0.076031975 0.030942116 -0.020756397
000160 5c 92 82 bc 3a 52 11 3d ba 16 1a bc 01 19 99 bc
       -0.01593893 0.035478808 -0.0094048325 -0.01868868
000170 e3 ee 34 3c ff 76 02 bd 1a cc 28 3d 08 d0 9c 3c
       0.011043283 -0.031851765 0.04121027 0.019142166
000180 a0 f3 1b 3d 54 f2 97 bc a6 b6 b0 3c 45 43 24 bd
       0.038074136 -0.018548168 0.021571469 -0.040103216
000190 5b 1e 3b 3d 7a 05 c2 3c b0 ec fc 3b a4 4e 80 3b
       0.045683246 0.023684252 0.007718645 0.0039156247
0001a0 e3 15 99 3c 92 b7 10 3d 07 10 4b 3d 2a b2 9d 3c
       0.018687194 0.035331316 0.04957583 0.019249994
0001b0 c7 e4 9d 3c e6 6c b1 bb 4e 4b 9f bb 15 93 39 3d
       0.019274129 -0.005414593 -0.004861272 0.045306284
0001c0 23 a4 44 3b b8 d6 16 3c 7e aa 2f 3d ff 2d 66 bc
       0.003000506 0.009206466 0.042887203 -0.014049052
0001d0 57 70 87 3b 06 f1 f5 3a d0 bb 76 bb de d8 07 3d
       0.004133265 0.0018763847 -0.0037648566 0.033165805
0001e0 b6 d3 a8 bc 42 25 ae 3d 87 ab 1c bd 0b 3f 38 bd
       -0.020608764 0.085032 -0.03824952 -0.044981997
0001f0 53 ee ec bd 71 56 15 3d e1 9f c2 bd a7 9b ae bb
       -0.11568894 0.03645939 -0.09503151 -0.005328614
000200 b4 98 04 3c 7f 4b 31 bd 7d 13 d8 3c c8 18 63 bd
       0.008093048 -0.04328489 0.02637648 -0.055443555
000210 8a a8 19 bd 23 f7 59 bc fe 6a 1f bd b6 7f 34 be
       -0.037514247 -0.013303551 -0.038920395 -0.17626843
000220 44 61 01 3c 2b 01 9e bc 51 aa 50 bd 0b 47 9f bc
       0.007896725 -0.019287666 -0.050943676 -0.019443056
000230 0e 56 2f 3d 28 a5 22 3c 4b f8 05 bc e1 6e 25 bd
       0.042806678 0.009927072 -0.008176873 -0.040388945
000240 4f 46 60 bd 0e 1f e6 bd 00 99 ed bc 16 cb 15 3d
       -0.05475455 -0.11236392 -0.02900362 0.03657063
000250 c6 52 b1 bc 06 e7 cd bb 32 c0 3e bd 14 33 19 be
       -0.021645915 -0.0062836437 -0.04657001 -0.14960891
000260 cf 8b 38 bd e2 30 29 3d 96 48 c9 bc 02 50 f1 3c
       -0.045055207 0.041306384 -0.024570744 0.029457096
000270 03 7c 92 bc 94 b2 31 3d 7c c2 ab 3c 5a c0 f6 bc
       -0.017881399 0.043383196 0.02096676 -0.030121017
000280 b0 82 d6 bc 20 f7 08 bd 23 45 b8 3c e9 06 4c 3d
       -0.026185364 -0.0334388 0.022493904 0.049811278
000290 3e f9 8e 3c dd 66 6b 3c 6a fb 04 bd b2 4d b6 3c
       0.017452832 0.014367786 -0.03246633 0.022253845
0002a0 51 da 61 bc c6 de c8 3c 38 d3 1a bd 51 b7 b7 3c
       -0.013784961 0.02452029 -0.03779909 0.02242628
0002b0 b7 3d 14 3d 8b 25 4a bd 38 23 46 bd 19 58 76 bd
       0.03619167 -0.04935221 -0.04837343 -0.06014261
0002c0 b0 7f 35 3d d5 7d dd 3d fb c8 2f 3d e7 47 42 bd
       0.044311225 0.10815016 0.04291628 -0.047431853
0002d0 b1 dc e1 bc 26 a1 fa 3c 9a 52 68 3c 58 a1 20 bd
       -0.027571054 0.03059442 0.01417985 -0.03921637
0002e0 04 ad 96 bc ea 24 b7 3c 39 52 21 3d 6e dd 30 be
       -0.018393047 0.02235647 0.039385054 -0.17271969
0002f0 f7 ed ba 3b e2 ac fb bc d6 fd 9d 3c ca 38 88 3b
       0.005704637 -0.030722085 0.019286077 0.0041571604
000300 45 99 b9 bc 20 07 b4 3b fc ac 2b bc ac 67 f9 3c
       -0.022656092 0.0054940134 -0.010478254 0.030444942
000310 d5 61 af bc 4b 21 23 3d 48 1e 52 3c 25 95 f5 bb
       -0.021408955 0.039826673 0.012824602 -0.007494586
000320 9e 94 0a be 32 7c 4c bd ed 4e 9a 3c 61 b4 6b bc
       -0.13533255 -0.04992313 0.018836463 -0.014386267
000330 60 1f 11 3d 82 92 0e 3b e9 ad 4e bc dc 73 b7 3b
       0.035430312 0.0021754806 -0.012614706 0.0055985283
000340 e3 f0 3d 3d 2e b5 39 bd 01 5c c5 bd 6b 13 f3 3c
       0.046372306 -0.045338802 -0.09636689 0.029672345
000350 4f 4d cb bc af 6d e7 bc 2d 99 cd bc c9 77 c5 bc
       -0.024817137 -0.028250543 -0.025097454 -0.02410497
000360 63 b8 25 bd c7 77 e2 3b 03 b6 c5 bd 40 f9 e1 bb
       -0.040459048 0.006911251 -0.096538566 -0.006896168
000370 d4 4a 72 bc 7a 24 9c 3c 87 4e 12 3d 49 7e 0d bc
       -0.014788348 0.019060362 0.03571942 -0.008636066
000380 bd d1 33 bd 1d ab f9 bc f8 ae a8 3b 50 84 a3 bc
       -0.043901194 -0.030477101 0.005147811 -0.019960552
000390 13 65 1a bd 65 e0 00 bd 63 2e b6 bc 9a 72 93 bc
       -0.037694048 -0.031464 -0.022238916 -0.017998982
0003a0 ae 6e 16 bd 38 59 3e 3c 38 7c 0d be b3 65 1c 3d
       -0.036726646 0.011617951 -0.13816917 0.038182925
0003b0 43 27 13 3d 7c 67 2e 3d d5 02 48 bd bb 5e af bc
       0.035926115 0.04257916 -0.048830826 -0.021407476
0003c0 a1 ed 87 bd cf 21 69 bd 3b 14 23 bd 38 e9 1a 3d
       -0.06637121 -0.056917008 -0.039814215 0.03782007
0003d0 0c cf 14 bc d5 ac f8 3a 3a ba 0a bd 26 e6 35 bd
       -0.009082567 0.0018972406 -0.033869006 -0.04440894
0003e0 fa 7d 8a bc 51 02 45 3d e2 e4 81 bb 3b 82 88 3c
       -0.016905773 0.048097912 -0.0039640525 0.016663661
0003f0 73 ac 21 3d f6 2e cf bd 26 6e b1 3c 30 31 3a bd
       0.0394711 -0.10116379 0.021658968 -0.045457065

l2.bias f4 [300]
000000 3b 76 00 bc 01 f4 1c 3d 27 9d 04 bd ee 3f 21 bd
       -0.007840688 0.038318638 -0.032376435 -0.03936761
000010 ea a6 fc 3c ef 66 b0 bd 05 12 89 bd fb 4f 41 bc
       0.03084131 -0.08613383 -0.0669289 -0.011798854
000020 ec 5c dc bb 7d 8b 12 3d 02 0b ae 3c 85 ef ee 3b
       -0.0067249443 0.035777558 0.021245483 0.0072917365
000030 2f 1d 13 bd 52 d4 98 bb 9f 3b d6 3b fe 07 87 bc
       -0.035916504 -0.0046639824 0.006537869 -0.016483303
000040 7a 08 e7 3d 99 6e 67 3b dc 35 c5 3a f0 02 07 3e
       0.11280914 0.0035313724 0.0015045959 0.13184714
000050 f5 2a 84 bd 4c 71 aa bc 18 f0 26 3d e1 97 63 be
       -0.06453506 -0.020805977 0.040756315 -0.22225906
000060 5d 18 02 bd 9a 2b 39 be 8b 90 a3 bd ea ff 36 be
       -0.031761516 -0.18083039 -0.07986554 -0.17871061
000070 82 93 9c 3d 72 70 95 be c0 35 06 bd df ed 20 bd
       0.076453224 -0.2918735 -0.032766104 -0.03928935
000080 1a 1f db bb ee a8 4d bd 05 2e 21 bd b8 62 a8 3d
       -0.006687057 -0.050209932 -0.03935053 0.08221954
000090 11 f4 88 3e 3b 18 3f bd be 26 59 be cc cc 54 3c
       0.26748708 -0.046653967 -0.21206185 0.0129882805
0000a0 07 1d 4f bc 0b 3e 4d bd 23 cc 76 3d dd 6a 0e 3c
       -0.012641198 -0.050107997 0.060253274 0.00869247
0000b0 33 dc fc bc 19 27 2a bc 79 dd 84 3c 46 e3 cd bd
       -0.030866718 -0.010385298 0.016218888 -0.100531146
0000c0 c7 71 47 bd ec 0c 1c 3c 62 a9 5f 3e d0 1d 84 3e
       -0.04869249 0.009524565 0.21841958 0.25803995
0000d0 bd 5b 63 bd 17 80 6b bd 73 24 30 3d c4 f7 18 bd
       -0.05550741 -0.057495203 0.04300351 -0.037345663
0000e0 25 e2 45 bd 1c 8f c6 bc ac 2f ee 3c d6 8a e5 3c
       -0.04831137 -0.024238162 0.029075466 0.028020304
0000f0 4b bd c6 3d 76 5e 26 3d 1f 27 32 3d 37 bc 1a be
       0.097040735 0.04061743 0.04349434 -0.15110861
000100 e2 8e da 3c 8f 16 55 3e 3b 61 c5 ba db a3 1f bd
       0.02667946 0.20809387 -0.0015058884 -0.038974624
000110 22 6b a8 3d 83 44 96 bd 89 a3 50 bd 84 18 48 bc
       0.08223559 -0.07337286 -0.05093721 -0.012212876
000120 e0 83 2f bd 29 dd 75 bd 05 d8 65 be f4 65 79 3c
       -0.042850375 -0.060025368 -0.22445686 0.015222061
000130 fa d6 14 be 5f d1 f2 3c ca b1 0e bd 16 87 fb 3b
       -0.14535132 0.029640852 -0.03483752 0.0076760156
000140 ca 49 b1 bc d1 86 89 bd 53 40 c7 3b 0c a8 db 3c
       -0.02164163 -0.06715167 0.006080666 0.02681353
000150 b2 8b 12 bd cc 73 11 bd 98 28 95 3c e9 b6 ce 3c
       -0.035777755 -0.035510823 0.018207833 0.025233703
000160 45 b6 d6 bc 48 7e 7f be 86 09 8f be 41 88 4b bd
       -0.02620996 -0.24950516 -0.27936953 -0.04969049
000170 e9 30 11 3e 6c ed 4b 3e 7d 00 d8 3c d6 7a 8c bc
       0.14178814 0.19914788 0.02636742 -0.017148416
000180 6e 11 5f 3c b0 94 84 3c 94 bf a6 bc 56 b1 89 bd
       0.013614995 0.016184181 -0.020355023 -0.06723277
000190 e5 56 2b 3d af 36 85 bd 6e 8b 59 bd d1 54 e8 bc
       0.041830916 -0.06504571 -0.053111486 -0.028360756
0001a0 66 f5 10 be db c1 f8 ba a4 6f 55 bd 87 c1 d1 bc
       -0.14156112 -0.0018978672 -0.052108422 -0.025604976
0001b0 5e a5 f5 bc 83 9c ca 3c 15 9f 38 bc 3b 56 12 3e
       -0.02998608 0.024732834 -0.011268397 0.14290707
0001c0 94 21 1f bd b9 2b 93 be 3c 13 18 3e 30 87 f6 bb
       -0.038850382 -0.28744295 0.14851087 -0.00752344
0001d0 5e 1e 23 bd d1 99 37 bd ff 98 60 bd bc 91 ab 3c
       -0.039823882 -0.044824425 -0.05483341 0.020943515
0001e0 57 59 a0 bd fb d8 2f bd f9 cd ce bb 66 1f de 3c
       -0.0782954 -0.042931538 -0.006311175 0.027114581
0001f0 51 7e c4 3e 48 f5 09 bd 7e 6c 44 3d ac b7 8a 3c
       0.38377622 -0.033681184 0.04795503 0.016933285
000200 4c 05 11 3a c3 36 e5 3d d3 8f b2 bd e9 18 41 bd
       0.00055321003 0.111920856 -0.087188385 -0.047142897
000210 13 1f f9 3c 09 cc 36 be 0a 25 89 3b 48 c4 80 3b
       0.030410325 -0.1785127 0.0041853236 0.0039296485
000220 a5 84 16 3e 2a b1 5b 3d 97 8f ac bd 88 d3 c6 bd
       0.14699037 0.053635754 -0.08425825 -0.09708315
000230 73 95 35 3c 8a d3 f3 bc 24 c6 f2 3a d8 a3 95 bc
       0.011082995 -0.029763956 0.0018522185 -0.018266603
000240 d7 06 d5 3c 03 cf ce bb f0 05 62 be 85 ac 39 be
       0.026004238 -0.006311299 -0.22072577 -0.18132217
000250 a5 fd 17 bc 4b f2 a0 bd 33 37 1f be 51 4f 53 3c
       -0.009276782 -0.07858714 -0.155484 0.0128973285
000260 a9 df 77 3e 9b f3 6a be f6 b0 31 3d aa be 38 be
       0.24206413 -0.2294449 0.043381654 -0.18041483
000270 44 bd 1c 3c 8c 18 0a bd 75 68 f8 3c d7 2c b6 bc
       0.009566609 -0.033714816 0.030323246 -0.022238178
000280 b0 aa 03 3e d9 e5 76 3d 9a b5 0e 3d 5f 1c 36 3d
       0.12858081 0.060277794 0.034841157 0.04446065
000290 5f c7 db bc 45 ca 66 bd 8f 62 51 bd ae 28 2d bd
       -0.026828466 -0.056345243 -0.051119383 -0.042275123
0002a0 ca 98 95 3e cc c4 f0 bd ec 0b 9c bd 11 aa 1d 3a
       0.2921813 -0.11756286 -0.076194614 0.00060144166
0002b0 f5 e3 14 bc d2 79 4a bd 0b cd dc bb e9 fe a7 ba
       -0.009087552 -0.049432583 -0.00673831 -0.0012817058
0002c0 a3 d7 9a bd b0 a6 a0 3c 09 1f 44 be f5 7f e4 3c
       -0.07560661 0.019610733 -0.19152464 0.027893046
0002d0 be b8 0d bd 8b c5 a7 3e 7e 2d 48 be 56 0a c8 3d
       -0.034600012 0.327679 -0.19548604 0.097675964
0002e0 0a 33 97 3b 50 03 86 bc ff 9e 13 bc 2d 97 37 3e
       0.0046142386 -0.016359001 -0.009010076 0.17928763
0002f0 65 a7 c8 bc 90 bd f2 3c 15 d7 41 3c ec 60 cf 3b
       -0.024493882 0.029631406 0.011831065 0.0063286927
000300 5b 26 2b 3a 2b 9f 62 ba c1 fe a1 bc 6f 57 c1 bc
       0.0006528848 -0.00086449337 -0.019774796 -0.023601262
000310 e7 c4 f4 bd b2 00 f5 3c 60 d1 8a be 53 44 00 3d
       -0.11951619 0.029907558 -0.27112865 0.03131516
000320 48 30 09 bd 7b e5 05 be 9d 4c 50 bb a4 aa 0e 3e
       -0.03349331 -0.13075821 -0.0031783946 0.13932282
000330 ca a8 91 be dc c4 9c bc 5e 69 9d 3c c8 17 cf 3a
       -0.28449088 -0.019136839 0.019215282 0.0015799934
000340 e7 8e ba ba 26 32 7b bd 8c e0 dc 3d 9f 22 6d bd
       -0.0014233262 -0.061327122 0.107850164 -0.057894345
000350 8b 4d 01 3d 88 4d a8 be 09 5d 13 3c 69 11 a1 bd
       0.03156809 -0.32871652 0.008994349 -0.07864649
000360 dd 8d 0b bd 55 b5 ec bc bf e8 50 bb f2 13 f4 3b
       -0.03407084 -0.02889506 -0.0031877009 0.0074486667
000370 e9 a4 23 3e c2 09 9b be 24 5a ed bb 25 19 86 bd
       0.15980877 -0.30280882 -0.0072434116 -0.06547765
000380 79 20 72 bd e9 f2 46 bb ee 99 3c bc a0 49 5a 3e
       -0.059113 -0.0030357188 -0.011511309 0.21317148
000390 53 f8 c6 3c 47 c0 8b bd 97 83 1a bd e2 28 d3 bc
       0.024288332 -0.06823783 -0.03772315 -0.02577633
0003a0 e6 c4 6c bc 25 5f 1c 3e e9 97 aa 3a a1 17 66 bd
       -0.014451241 0.1527067 0.0013015243 -0.056174878
0003b0 9a cf a3 bd 27 9f b8 be bf 63 ce 3b 93 a1 a5 3c
       -0.07998581 -0.36058924 0.0062985118 0.020218646
0003c0 51 0c fa 3b 8a f6 64 bd d0 46 0e bd b4 67 be bd
       0.0076308628 -0.05589918 -0.0347355 -0.092971236
0003d0 d3 05 44 bd 41 ac fd bc c2 86 48 3e ea 6e 62 be
       -0.047857117 -0.030965926 0.19582656 -0.22112623
0003e0 99 5b e6 3b 48 63 44 bd c3 50 84 3d fe 59 7f bd
       0.0070299623 -0.047946244 0.064607166 -0.062341683
0003f0 e5 94 38 bd 78 a9 89 bd a8 82 ee bc d3 0e b9 ba
       -0.045063872 -0.06721777 -0.029115036 -0.0014118798

l3.weight f4 [6, 300]
000000 f6 cd c3 3b 63 72 3e 3d 1d d8 93 bd 90 d5 1b bc
       0.00597548 0.046495806 -0.07218955 -0.0095113665
000010 d8 30 14 3d 2c 7a d6 3a aa ac 38 3d b8 d2 98 39
       0.036179394 0.0016363314 0.04508654 0.00029148697
000020 f5 d1 13 bc a3 04 e5 bd 2b 0d 4b 3d 86 14 3a bd
       -0.009022226 -0.11182525 0.049573105 -0.04542973
000030 fc 6e d1 bc dd 9f 53 be 4d 6f 5e bd e6 94 31 3d
       -0.025565617 -0.20666452 -0.054305363 0.04335489
000040 b0 ed 44 bd cc 15 87 3c 82 0b 0d 3c 6c 4e 51 3e
       -0.04807824 0.016489886 0.008608701 0.20440072
000050 30 95 21 3c e8 65 fb 3c 6d 0c dd bb 38 bc 00 bd
       0.009862229 0.030688241 -0.006745866 -0.0314295
000060 05 dc f6 bc 38 9f d7 bd ff 4e 6f bd d0 3c ec bc
       -0.03013421 -0.105284154 -0.058424946 -0.028837591
000070 42 95 43 3d ab e4 8e 3d ee 81 32 bd d6 48 4f bd
       0.047749765 0.06977209 -0.04358094 -0.05060657
000080 7e 0e 0f bc b3 a6 8b 3c 25 04 13 bd 05 df ef bd
       -0.008731483 0.017047262 -0.035892624 -0.117124595
000090 26 38 be bc 45 f7 c6 3a ed a7 7b bc 98 46 3f 3c
       -0.023220133 0.0015179893 -0.015359861 0.011674546
0000a0 f5 1c 57 3d 52 8e 0c bd cf 55 44 3d a8 f9 32 bc
       0.05251785 -0.034315415 0.047933396 -0.0109237805
0000b0 99 7e b9 3b 00 26 ff bb a8 8b 69 bd 8f a0 ad bd
       0.0056608436 -0.0077865124 -0.057017952 -0.0847789
0000c0 ad aa dd 3c 4f a7 d9 bc e4 48 2b be 50 ab 95 be
       0.027058924 -0.026569037 -0.16727024 -0.29232264
0000d0 a5 81 0d bc a1 e9 0a 3d f9 55 5b be 30 38 37 bb
       -0.008636867 0.033914212 -0.21419515 -0.0027957074
0000e0 0b b4 d3 3c 6e 21 09 3d cf 4e 5d 3b 5c 6e 0e bd
       0.025842687 0.033479147 0.0033768897 -0.034773216
0000f0 92 3c 57 bd a0 4b 62 bd cd b1 6a bd c3 fc 70 3e
       -0.052548 -0.055247903 -0.05729847 0.23533921
000100 bb 95 f6 bc ff ed 4a 3e 9c c1 53 3d e7 f8 05 3d
       -0.030100694 0.19817351 0.051698312 0.032708075
000110 3e d4 db bd 4a e9 fa bc 95 91 7d bd 2f db fc bc
       -0.10733841 -0.030628819 -0.061906416 -0.030866234
000120 55 94 2d 3d b0 58 ca bc 01 47 fc bc 2e 43 69 bd
       0.04237779 -0.024700493 -0.030795576 -0.056948833
000130 00 a9 7e 3e 4a 8c 37 bd ea 13 7b 3c 22 d6 ff 3c
       0.24869156 -0.044811524 0.015324572 0.031230036
000140 84 d5 56 3d bc 26 97 3c 11 0c d6 bc 0e ee 11 be
       0.052449718 0.018451087 -0.0261288 -0.14250967
000150 ea 63 40 3d 2a 31 00 bd 4e 80 f7 3c f8 4a 2b bd
       0.046970285 -0.031296887 0.030212548 -0.041819543
000160 6d 5f 22 3d 66 39 a9 bc 08 33 82 3a 06 5c a5 bc
       0.039641786 -0.020657253 0.0009933421 -0.020185482
000170 45 ce 80 3e 05 73 c6 3d 19 96 1c bd 1d 6c 3f 3d
       0.2515737 0.09689907 -0.03822908 0.046733964
000180 41 bc 12 bd 6c 7d 39 bd 75 9a 15 bd 6a d2 18 3c
       -0.035824064 -0.045285627 -0.036524255 0.00932751
000190 7c 24 8a 3c 93 55 9d 3e 59 3c 26 3c 7b d1 65 3d
       0.0168631 0.3072935 0.010146224 0.05610798
0001a0 52 62 88 bd 1c 0b eb bb a7 5b bd bd 8f 74 2b bc
       -0.06659378 -0.007172955 -0.09245997 -0.010464801
0001b0 8b 63 d2 bc c7 99 6e bd dc c6 d0 bc d3 a6 24 3c
       -0.025682231 -0.058252122 -0.025485449 0.01004954
0001c0 ab 2f 71 3d 84 64 64 bd 0c da 31 be 47 81 ef b9
       0.05888335 -0.05575992 -0.17368335 -0.0004568195
0001d0 b4 52 0d 3d 1e f5 ca bc e7 42 6a bd 42 7a de 3b
       0.0345027 -0.024775084 -0.05719271 0.0067894766
0001e0 a7 ae 30 bc 37 7f 0c bd c6 ed cc bc 84 05 34 3d
       -0.010783828 -0.03430101 -0.025015723 0.043950573
0001f0 14 26 0f 3e 8b a9 84 bd 31 2a 17 3d 88 83 13 3d
       0.1397937 -0.0647765 0.03690547 0.03601411
000200 b0 7f c0 be 4f 97 1c 3e 9d 95 e5 3d ae f6 b2 bc
       -0.37597418 0.15292095 0.11210177 -0.021846142
000210 c2 c9 2c bd 5d 58 37 3e 73 a6 22 bc 8b e0 d8 3b
       -0.0421846 0.17904802 -0.00992738 0.0066185645
000220 dc 2e 2a 3e 06 e0 8b 3d 22 30 11 be 95 22 11 bb
       0.16619438 0.068298385 -0.14178517 -0.0022145857
000230 90 98 09 3d 34 5e 56 bc e2 92 63 3d a6 6d ae 3c
       0.03359276 -0.013083983 0.05556 0.021292519
000240 69 52 9b 3b 0e 1e 5f bd e6 65 70 bd 97 8a 59 3e
       0.0047400487 -0.05447202 -0.058690928 0.21244274
000250 1f c5 37 3d 04 09 0e bc ce 46 ad 3b 0d 14 67 3d
       0.044865724 -0.008669142 0.0052879816 0.056415606
000260 de 8b 8d 3e 40 ff 36 be 7a b3 b7 3d 50 86 1b 3e
       0.27645773 -0.17870808 0.08969779 0.15187955
000270 f5 0d 4a bb 89 34 b1 bc 91 78 0e 3e d2 c7 8f bd
       -0.0030831073 -0.021631496 0.1391318 -0.070205346
000280 5e f8 e4 bd e2 20 69 3b 80 71 ff 3a 7d 5e 40 3b
       -0.11180185 0.0035572578 0.0019488782 0.0029353194
000290 78 02 ac 3c ad ce c6 bd e7 af 25 be 02 3d 87 bc
       0.020997271 -0.09707389 -0.16180383 -0.016508583
0002a0 be b8 7e 3d bc da 33 3c 69 2e aa bb 63 7a 32 bd
       0.062187903 0.010977443 -0.005193521 -0.04357375
0002b0 0d b1 b5 3c fc 3a dc 3d 63 13 a5 3c 4c c1 15 3d
       0.022179151 0.10753438 0.020150846 0.036561295
0002c0 83 2f be 3c 59 a7 dc bc e9 e4 81 bd 4e ab 1c be
       0.023216015 -0.026935266 -0.06342489 -0.15299723
0002d0 bf 4c cf bd e0 11 b5 bc 9e a3 dc bc 5b 77 71 3d
       -0.1012206 -0.02210325 -0.026933488 0.058951717
0002e0 30 95 df 3c 18 6f f1 bc 42 8a c5 3b d6 77 99 bd
       0.027292818 -0.029471919 0.0060284445 -0.0749356
0002f0 0d a9 c1 bc eb 93 37 bd f1 6b 7c bd 5e 90 ec bc
       -0.02364018 -0.0448188 -0.06162638 -0.028877433
000300 0b 0f 24 3d 9f 6a fd bc 0e 1b 1f ba 75 e7 73 3c
       0.04005341 -0.03093463 -0.00060694 0.014886727
000310 98 da 1b 3e ac 65 49 be 29 1c 1e bd 0c 34 5a bd
       0.15220106 -0.19667691 -0.038601074 -0.053272292
000320 c4 b3 6c bc 48 f7 3f 3d fb 92 4c 3d 8f 5d 2b 3e
       -0.014447156 0.046866685 0.04994486 0.16734909
000330 86 3a db bd f3 5e f4 3c 82 b9 b5 bc 52 de 79 bd
       -0.10704522 0.029830432 -0.022183184 -0.061003037
000340 e5 43 57 3d db a6 c8 bb 05 f6 51 3e 75 33 00 3d
       0.052554984 -0.0061234063 0.20504005 0.031299073
000350 26 d8 85 bc 09 c9 04 bd 5d 75 30 bd 48 4a 5b 3b
       -0.01633842 -0.032418285 -0.043080676 0.0033461023
000360 26 5e 9e bc 8d cf 07 3d 36 98 6a 3c 91 e6 5f bd
       -0.019332003 0.03315692 0.0143185165 -0.054663245
000370 3c e3 fd 3d ec de 6c b9 92 a3 6f 3c 1e 97 54 3c
       0.12396857 -0.00022589759 0.014626401 0.012975482
000380 0d 86 16 bd 26 bb b5 bc 2e 51 3d bd b5 30 52 3e
       -0.036748935 -0.022183966 -0.046219997 0.20526393
000390 6b d0 2f bd d9 ae 67 3d 81 25 f6 bc f4 3f ee 3c
       -0.042923372 0.056563232 -0.03004718 0.02908323
0003a0 3a 8c fe bc 2d 3b 9c bd cf e7 8c b8 51 cb 35 bd
       -0.031072725 -0.076284744 -6.718898e-05 -0.04438335
0003b0 2a 84 bb bc 3d 5a 0d bb 2e d8 a2 bb 2c d9 08 bc
       -0.02289017 -0.0021568679 -0.0049696183 -0.008352559
0003c0 e4 42 54 3d 1d 01 d4 3c 08 91 8e 3c ec 32 82 3d
       0.051821604 0.025879437 0.01740314 0.06357369
0003d0 e4 b5 e7 3c d2 75 ce bc ed e6 dd 3d 15 e2 7f 3d
       0.028284974 -0.025202665 0.10835061 0.062471468
0003e0 5d 5b 99 3c 5d 61 ce bd b3 82 f6 3d c0 fa af 3c
       0.018720323 -0.10077164 0.12036648 0.021481872
0003f0 cc 6f 94 3c d6 d3 d5 bd aa 0b be 3c 2f 1f 26 3e
       0.018119715 -0.10440795 0.023198921 0.16222833

l3.bias f4 [6]
000000 bd a3 1a be dc 53 3d 3e 0d a3 8d 3d a1 b3 a6 3c
       -0.15101524 0.18489021 0.06915865 0.020349326
000010 6d f2 c3 3e a4 60 62 3d
       0.38270894 0.055267945
