results/runs/single_assembly_rerun/Average_TD3_5_Peg-in-hole-single_assembly_seed_5/39000_actor.pth (torch_old, 510312 bytes, 6 tensors)

l1.weight f4 [400, 12]
000000 42 3f 43 3e b4 0b 5d be 18 e6 70 3e 9c 24 3d 3e
       0.190671 -0.21586496 0.23525274 0.18470997
000010 30 5e 78 3e 54 a4 62 be fa 69 46 be d6 a8 0c 3e
       0.2425468 -0.22132999 -0.19376364 0.13736281
000020 f2 f7 89 be 28 15 92 3e 60 af 7b 3d 28 b3 18 3d
       -0.2694698 0.28531766 0.061446548 0.03728023
000030 1c 1f 89 bd 1d e5 19 be 90 0b 92 3e a1 90 e5 3e
       -0.06695387 -0.15028806 0.28524446 0.44836906
000040 73 bf a8 3e b0 8c b1 3d 4a d9 0d bf d2 30 09 3f
       0.32958564 0.08669412 -0.5540968 0.5359012
000050 18 3c 89 3d 69 fc 67 3d 7c e2 f0 3c 4b a0 4a 3e
       0.06700915 0.0566372 0.029404871 0.1978771
000060 66 5a 12 3f 16 b4 9c be 00 5e b5 3d 0c ae 3c 3e
       0.5716919 -0.30606145 0.0885582 0.18425769
000070 e6 7a f5 bd 46 5c 81 bd 3a 8a cd bd 5f e7 83 be
       -0.11986332 -0.06316428 -0.1003613 -0.2576246
000080 98 de 9e be 31 94 73 3d a7 8d 9e bd 80 9a ff 3d
       -0.310292 0.0594675 -0.07741862 0.124806404
000090 9b 76 9b 3f 82 98 84 be 9f 63 cb 3d b2 49 e3 bb
       1.214557 -0.25897604 0.099311106 -0.0069362754
0000a0 5c 99 19 bd 06 b8 a6 bd 8b 8f 39 3e f9 85 85 3e
       -0.03749977 -0.081405684 0.18121164 0.26078776
0000b0 e0 17 92 3d b3 b6 bd 3e 34 27 c7 be 9b 9a d6 be
       0.0713346 0.3705345 -0.38897097 -0.4191483
0000c0 cd bf a0 3e 89 6f 0d 3f 81 a3 e5 3e c8 04 8c be
       0.31396332 0.55248314 0.44851306 -0.27347398
0000d0 e2 d1 31 be e3 f0 12 be a1 ea 74 bc 90 17 41 3d
       -0.1736522 -0.14349703 -0.014948518 0.04714161
0000e0 4e 6c 24 3e 24 6e b8 be d6 47 8a bd 74 f5 33 3e
       0.1605694 -0.3602153 -0.06751983 0.17574102
0000f0 86 83 d3 be b3 00 9b be 67 e5 3f bd 88 ec 80 bd
       -0.41311282 -0.3027397 -0.046849634 -0.06295115
000100 21 d2 fb 3d 28 e3 6e 3e be 3f 04 be 94 ab 9a 3e
       0.12295938 0.2332884 -0.1291494 0.3020903
000110 46 96 12 bb c2 ef 54 be 46 89 8a 3e 0a 14 ee be
       -0.0022367402 -0.20794585 0.27057856 -0.46499664
000120 30 40 3c bd 58 b4 5f 3e f6 44 88 3e 86 bf 81 3e
       -0.04595965 0.2184614 0.26615113 0.25341433
000130 68 02 2a 3e 62 60 89 3e d6 03 d5 bd b0 84 96 bc
       0.1660248 0.26831347 -0.10401122 -0.018373817
000140 20 36 ca bd 90 cf ad bc 30 c6 0f bd fc ee 1d 3e
       -0.09873605 -0.021217138 -0.035101116 0.15423197
000150 12 09 df 3e 25 1e e8 be 2c fc 57 3c 39 5f cc 3d
       0.43561608 -0.45335498 0.013182681 0.099791
000160 55 46 a9 be e8 7e e5 bd 25 71 12 3d 4b 4e 86 bd
       -0.33061472 -0.11205846 0.035752434 -0.06557902
000170 75 b1 3b be 15 7a ff 3d f9 f2 de be 74 dd 04 3f
       -0.18329413 0.12474457 -0.43544748 0.5190041
000180 c9 47 14 bf f3 5b 1f 3e 91 d6 a3 3d b1 22 2b bd
       -0.57922035 0.1556242 0.0799991 -0.04178113
000190 20 b3 42 3f 08 82 87 be 2b 39 4c bf c2 89 5f be
       0.76054573 -0.26466393 -0.7977473 -0.21829894
0001a0 d4 5a ad bc 69 a7 b2 3d 03 72 0e 3e 28 92 92 3d
       -0.021161474 0.08723337 0.1391068 0.07156783
0001b0 29 95 03 bf 54 50 88 3e 68 bd 0b 3d 7a 66 e1 3d
       -0.51399475 0.26623785 0.03411618 0.11005874
0001c0 d5 5b 8b bf 00 5d e1 bb 2a 81 34 be 47 2a a2 3e
       -1.08874 -0.0068775415 -0.17627397 0.3167288
0001d0 90 67 4a bf 05 75 00 3e 1c 3b 24 3f 0f 52 2c 3f
       -0.79064274 0.1254464 0.64152694 0.6731271
0001e0 40 c4 b2 3d bf 9d 02 be 0e 28 4d 3e 0c b3 dd bd
       0.08728838 -0.12755488 0.20034811 -0.10825166
0001f0 8e 2e 1f be c0 10 86 3e e4 9c 9c 3d 00 9a 02 bb
       -0.15545103 0.26184654 0.07647112 -0.0019928217
000200 98 02 4e be 96 dc 82 bd 33 15 63 be 0d e4 46 be
       -0.20118177 -0.0638973 -0.22176056 -0.19422932
000210 9a a9 09 bf ef 58 41 3e 21 a4 e2 3c 57 19 7c 3e
       -0.53774416 0.18881582 0.027666153 0.24619041
000220 e5 ed e6 bd c6 8c 89 be 8b 83 04 3e 85 01 7f be
       -0.112758435 -0.26865214 0.12940805 -0.24902923
000230 1e 20 01 bf 6b 6d 83 3e 08 f8 8c bd 64 8a 82 3d
       -0.5043963 0.25669417 -0.06883246 0.06374052
000240 4f 8f a2 3e 67 26 70 3d 17 9e b0 3d 4a d3 01 3e
       0.3174996 0.058630373 0.08623903 0.12678257
000250 a8 5b 90 3e 91 27 19 be 95 1e e0 be 7e 66 b2 3e
       0.28194928 -0.149565 -0.43773332 0.3484382
000260 b5 bd 4c b9 9a 4f 9a 3e b9 5d 09 3d 58 68 2e be
       -0.00019525627 0.30138856 0.033536647 -0.17031991
000270 a1 f5 2f bf 46 3e b2 be 37 60 1c 3e 72 8f f3 3e
       -0.68734175 -0.34813136 0.15271078 0.47570378
000280 70 ae 08 bf 18 9c 29 3e e8 ec 8c 3d 0d af 44 3d
       -0.5339117 0.16563451 0.06881124 0.048018504
000290 de ad 2c 3e 8a be 94 be 42 c0 d7 3c 72 00 2b be
       0.168632 -0.2905162 0.026336793 -0.16699389
0002a0 67 fc 26 3f 8f 2c 6e 3f 46 8a 66 3a 8b ec 15 be
       0.65228885 0.9303674 0.0008794408 -0.14641015
0002b0 f3 8c b2 3e 34 03 25 bd 4f 7b cc be 38 88 0c bf
       0.3487316 -0.040286258 -0.39937827 -0.54895353
0002c0 61 23 aa be 75 ad bb be 68 36 8a 3b 2c 44 bd be
       -0.33230117 -0.36655775 0.0042179115 -0.36966074
0002d0 db bb 1f be 45 71 71 bd 68 23 66 3e b4 c9 2d be
       -0.15599005 -0.058945913 0.22474444 -0.16971475
0002e0 c9 b3 a8 be 60 6e 49 3d ac f5 3c bd 22 ce 5c bd
       -0.32949665 0.049177527 -0.04613273 -0.05390752
0002f0 85 61 db 3c e8 59 ed be 4e 3d 69 bd 74 04 2f be
       0.0267799 -0.46357656 -0.05694323 -0.17091542
000300 0c 29 1b 3f e9 03 8d 3f d4 9b 91 bb 0f a4 16 bf
       0.6060951 1.1016818 -0.004443625 -0.58844084
000310 ba e5 98 be 9c 55 cd 3d fa ce 5c be d8 01 ab be
       -0.29862767 0.10026094 -0.2156333 -0.33399844
000320 6c 35 cf be a3 47 11 3e a0 53 01 bd 50 a3 e5 3d
       -0.40470445 0.14187483 -0.03157389 0.1121279
000330 82 d0 39 3e 00 9d 4e bb 52 14 1b 3e ce 11 4f 3e
       0.18145946 -0.0031526685 0.1514447 0.20221636
000340 36 ba 3c 3e 71 c3 8c be 74 f5 85 3e a4 53 9c 3d
       0.18430409 -0.2749286 0.26163828 0.07633141
000350 dc 85 92 be 70 1d 93 3d a8 8d 4b be f0 ce 88 3e
       -0.28617752 0.07183349 -0.19878256 0.2672038
000360 e0 a9 a8 bd 0e 64 ac bb 5f 01 20 3e 64 a7 c3 3e
       -0.08235526 -0.005260951 0.15625523 0.38213646
000370 e4 52 64 be 00 25 fd 3d a1 28 f1 be 9c fe 24 3f
       -0.22297245 0.12360573 -0.4710131 0.64451003
000380 1a ff 27 bd 3f 12 da 3e ba e4 7f 3c aa 88 c1 3e
       -0.04101477 0.42592046 0.0156184975 0.3779958
000390 11 f2 3d bd 5a dc 98 3f 15 ca 7c bd 65 4f 01 bf
       -0.04637343 1.1942246 -0.061716158 -0.5051177
0003a0 67 73 7a be 14 38 26 3e 89 fb e3 be 5e bd 6b be
       -0.24458085 0.1623233 -0.44527844 -0.23021457
0003b0 3a 82 7d be fc 39 68 3e 4c b6 7c 3e cc c0 09 bc
       -0.24756709 0.2267837 0.24678916 -0.008407783
0003c0 77 ca fd 3e 25 1d da 3c be 60 62 3e 91 75 4d 3e
       0.4956853 0.026625225 0.22107217 0.2006438
0003d0 51 0b 73 be 96 91 1b 3e a7 76 2a be 41 78 6e be
       -0.23734786 0.15192255 -0.16646825 -0.2328806
0003e0 a2 66 62 3d 46 00 2b bf 2e 90 36 be 23 80 16 bf
       0.05527366 -0.6679729 -0.17828438 -0.5878927
0003f0 4e c8 b3 bd e0 ba 94 bc 74 fe eb 3d 08 94 6c be
       -0.087784395 -0.018155515 0.115231425 -0.23103344

l1.bias f4 [400]
000000 80 2c c4 3c b7 07 09 3e 41 8b 36 3f c8 bf b0 bd
       0.023947 0.13381849 0.71306235 -0.08630329
000010 d2 d6 6b be a8 85 3e bf 94 3f d8 3d 91 6f 3e 3f
       -0.23031166 -0.74422693 0.105590016 0.74388987
000020 6d a1 77 3e 6e 51 e8 3e ab ad 26 be 8f d8 68 3d
       0.24182673 0.45374626 -0.16277187 0.05684715
000030 c2 a3 ec bd 42 1c 5a be 71 84 f9 bd ed 1f 3e bf
       -0.11554672 -0.21299842 -0.12183464 -0.74267465
000040 5c 6d db 3e 4b 69 89 be 66 2e 11 bf 56 77 14 3f
       0.42856872 -0.26838145 -0.56711423 0.5799459
000050 05 77 3e 3e aa 3e ec bd 88 14 17 be 9e ff 99 bf
       0.1860009 -0.1153539 -0.14753926 -1.2031133
000060 e7 5f bf be a5 3b b9 be 3d 14 41 be 60 df 18 3f
       -0.37377855 -0.36178318 -0.18855377 0.59715843
000070 c7 c3 f7 be f6 bf 71 be ae 87 d9 be 19 d7 41 be
       -0.48391554 -0.23608384 -0.42486328 -0.1892971
000080 14 23 a3 be 1e fc 93 be 64 79 3f bf 8b a7 b3 bf
       -0.318627 -0.28903288 -0.747946 -1.4035505
000090 9c 10 36 3e 82 40 ed be f5 81 47 3e fa 98 0d bf
       0.17779773 -0.46338278 0.19483168 -0.5531155
0000a0 1a 6d 41 3f 6e a4 ef be 8b 78 91 be c1 ef 5c be
       0.755571 -0.46805137 -0.2841228 -0.21575834
0000b0 56 f7 ab be 4b 6a 46 3e 05 20 7c 3f c7 51 d5 3d
       -0.3358714 0.19376485 0.9848636 0.104159884
0000c0 e6 47 fc be 52 0d c9 3e fb a3 0d bf ac 2e 32 bf
       -0.49273604 0.39267975 -0.5532834 -0.69602466
0000d0 b3 0f 03 bd f0 fe fe 3d 8a 93 01 bf a4 5d d5 be
       -0.031997394 0.12450969 -0.5061575 -0.41673005
0000e0 98 49 4b bd aa 22 10 be 5b 67 5b bf 6e 34 e0 bd
       -0.04963073 -0.14075723 -0.8570458 -0.109475
0000f0 1d 09 5d bf 26 a5 8c 3e d3 ee 9b bf 25 f8 a6 be
       -0.8634203 0.27469748 -1.2182258 -0.32611194
000100 21 5e 2c 3f 7e 1b 1a 3f 98 9e 26 be d6 10 94 3e
       0.6733113 0.601982 -0.16271436 0.28919095
000110 d0 fe 3f 3e c2 82 7c be d6 54 9d bd 62 d9 84 3e
       0.18749547 -0.24659255 -0.07682197 0.259471
000120 1f 6b 05 3e e8 e3 61 3d ba 52 d1 bd 9f d4 27 bf
       0.13029145 0.05514899 -0.10220857 -0.6555881
000130 c0 05 c2 3d e0 dd 13 be a8 1d a8 be b2 54 8e bf
       0.09473753 -0.14440107 -0.32835126 -1.1119597
000140 4e a7 40 bf 98 76 50 3f f2 c4 25 be c1 2c 91 3e
       -0.75255287 0.8143096 -0.1618841 0.28354457
000150 54 a2 18 3e e0 fc de 3d 0b 02 53 be 97 36 37 bf
       0.14905673 0.10888076 -0.20606248 -0.7156767
000160 f0 28 09 bd fa 67 0f bf 62 df 33 3f 8f a7 c4 be
       -0.033486307 -0.5601803 0.7026273 -0.38409087
000170 7b 70 c2 be 90 92 c0 3d fe 00 78 bf 67 64 1c be
       -0.3797644 0.094029546 -0.96876514 -0.15272675
000180 cf f2 9b 3e 3a 63 4d 3e 37 12 7f bf 9e 16 81 bf
       0.30458686 0.20057383 -0.9963717 -1.0085027
000190 14 1c 01 bf 7e a0 20 3e b8 62 64 3e a2 16 30 be
       -0.5043347 0.15686223 0.22303283 -0.17196134
0001a0 82 2f 6f 3e a0 bd 87 bd 68 92 7d 3e fb 7b 4f be
       0.23357967 -0.06627965 0.24762881 -0.20262139
0001b0 09 93 28 3f 3a 52 f7 be 4a 99 1a bf 39 3a 01 3f
       0.6584936 -0.4830492 -0.6039015 0.50479466
0001c0 98 6b c9 bd 4c eb 5c be b7 12 8b be 0a 25 fb 3d
       -0.09834975 -0.21574134 -0.27162716 0.12262924
0001d0 0d ee df bd da 66 54 3d 20 22 5d bd fe cc ab 3e
       -0.109340765 0.0518559 -0.053987622 0.33554834
0001e0 66 16 01 bf 4c f6 47 3d d5 09 8f bf d9 59 61 3e
       -0.504248 0.04881887 -1.1174875 0.2200693
0001f0 d4 28 20 bf 62 5a 17 3e d1 2d 99 3e c1 70 77 3e
       -0.625623 0.14780572 0.29917768 0.24164106
000200 08 f8 8d 3e 91 ac 28 be 07 f1 04 bf 54 c1 9a be
       0.27728295 -0.16472079 -0.5193028 -0.30225623
000210 bf 3e 14 bf 23 f0 a3 3e 0e c1 66 3d eb 9e be 3e
       -0.5790824 0.32019147 0.056336455 0.3723062
000220 c2 13 a5 be 53 20 94 be ec de 36 be c1 58 8d bd
       -0.32241637 -0.2893091 -0.17858475 -0.06901694
000230 36 73 aa be 69 cb b0 3e 4d 32 31 bf 03 dc 87 bb
       -0.33291024 0.3453019 -0.6921738 -0.0041461005
000240 21 91 4d be 2e 74 97 3e 2b c6 19 be df a5 7d bf
       -0.20074894 0.29580826 -0.15017001 -0.99081224
000250 91 16 db be ec 41 04 3f 66 67 06 3f b1 7e c3 3e
       -0.42790654 0.5166309 0.52501523 0.38182595
000260 f3 3b 5f be 48 48 d2 be 3a fd 52 be 1b 5b 26 be
       -0.21800213 -0.4107077 -0.20604411 -0.16245691
000270 7c 6f 2b bf bb 71 43 bf cd 51 cf 3e 80 93 89 be
       -0.66966987 -0.76345414 0.40492097 -0.26870346
000280 a0 9d 55 3c a6 08 9d be 23 59 9c be d8 e8 c0 bd
       0.013038069 -0.3067066 -0.30536756 -0.094194114
000290 33 a2 8e bd 4a b0 53 bf 20 15 eb 3d 13 69 19 be
       -0.06964531 -0.8269087 0.11478639 -0.14981489
0002a0 84 6a 0f 3e 3e 7a 8f 3e 0a cf 08 3e cb 7c 16 bf
       0.14005476 0.2802295 0.13360229 -0.5878417
0002b0 10 70 4a 3c 56 13 26 be be a7 10 3f 5e 3e 96 3e
       0.012355819 -0.16218314 0.56505954 0.29344457
0002c0 f6 6e 89 3d 74 56 95 be 91 b0 a9 be d3 bf ee 3d
       0.06710617 -0.2916752 -0.33142522 0.11657681
0002d0 be 63 91 be 60 ba 78 3e 90 25 40 bf 9f 46 05 3e
       -0.2839641 0.24289846 -0.75057316 0.13015221
0002e0 34 92 d4 be 00 55 49 3f d0 9b 88 3d e7 5a c4 3e
       -0.41517794 0.78645325 0.06670344 0.38350603
0002f0 63 9f 6e 3e 04 c6 86 3e ce b6 62 bf d7 8e 09 bf
       0.23302989 0.2632295 -0.8856019 -0.5373358
000300 a4 f0 2a be e6 c3 34 bc d8 50 c7 3e 41 31 39 be
       -0.1669336 -0.011033034 0.38928866 -0.18085195
000310 7d 7a 08 bf 54 f1 dc bd 3f 01 68 bf 29 fc 00 3f
       -0.533119 -0.10788217 -0.906269 0.50384766
000320 82 c7 b6 bd bc fc 31 3e 87 60 6b bf c5 83 ce 3e
       -0.08924772 0.17381567 -0.91944164 0.40334907
000330 ff 5a 99 bf 4b 94 c1 bd cb 03 32 bf 97 54 93 3d
       -1.1980895 -0.09452113 -0.6953704 0.071938686
000340 9e ab c3 bb c1 74 42 bf a4 db 56 3f f7 0e c2 bd
       -0.005971386 -0.759594 0.83928895 -0.094755106
000350 f7 65 91 3e 2c 4e db 3d b2 ef 1c 3e e9 ae 92 be
       0.28398106 0.107082695 0.15325812 -0.2864907
000360 25 15 4f bf 15 ad 15 be 79 4a aa be 7e d1 49 be
       -0.8089164 -0.14616807 -0.33259943 -0.19708821
000370 90 08 fd 3c 65 4d d0 be 16 64 61 be e3 67 ff 3e
       0.030887872 -0.40684047 -0.22010836 0.49883947
000380 54 53 0e 3e 5c e6 d2 3d a4 65 0d 3d 44 73 a3 3e
       0.13898975 0.10297844 0.03452076 0.31923878
000390 ea 69 15 bf 30 02 d8 3e 65 92 53 be c8 0a 58 bf
       -0.5836474 0.4218917 -0.20661314 -0.8439145
0003a0 36 7f 01 3e b8 59 22 3e df 69 9a 3e 97 d5 a2 3e
       0.12646183 0.15854537 0.30158898 0.3180358
0003b0 3c 16 2b 3e 7b 83 16 bf 46 dc b4 3e ff b8 86 be
       0.167077 -0.58794373 0.35324305 -0.26313016
0003c0 9f a5 14 bf 14 a5 56 3f 7c df 6a 3e e9 12 72 3d
       -0.5806522 0.8384564 0.22936815 0.059100065
0003d0 b8 aa 81 be 26 5c 4c bf d3 fe cc be 37 71 51 3e
       -0.2532556 -0.7982811 -0.40038165 0.20453344
0003e0 a7 4d 07 bf a0 e1 72 3c df 15 6c be 9f 06 41 be
       -0.52852863 0.014824301 -0.23055218 -0.18850182
0003f0 ae 5d 85 be b1 6a 40 be bb 99 5a be 00 a5 0b bf
       -0.26048034 -0.187907 -0.21347706 -0.54548645

l2.weight f4 [300, 400]
000000 b3 88 f7 bc 69 58 93 3c 6a ce 01 be 00 d2 74 bd
       -0.03021655 0.017986493 -0.12676397 -0.059770584
000010 d7 44 09 3d 5f 07 37 3c d4 d1 4a bc f1 a4 f3 bc
       0.033512916 0.011171191 -0.0123791285 -0.029741736
000020 bf 8f 21 3d 09 36 b1 bc 90 0e a7 bb e6 1b 2d 3d
       0.039443728 -0.021632211 -0.0050981715 0.042262934
000030 ff 8b b4 bc 35 ae 4e bd 74 b0 99 3c 37 3c 3e 3d
       -0.022039412 -0.050459106 0.018760897 0.046444144
000040 fc e6 f1 3c b6 d2 29 bd 60 c6 26 bd 15 3f a6 3c
       0.029529087 -0.041460715 -0.04071653 0.020293752
000050 7d e9 33 bc f9 9d 42 3d 67 b5 a1 bb ec b4 20 3d
       -0.010980961 0.047513936 -0.004934955 0.03923504
000060 8b 87 e4 3c 7d 86 cc bc 22 bc fc 3c a5 b3 57 bd
       0.027896663 -0.024966473 0.030851427 -0.052661557
000070 03 ba 1b 3d 40 87 1f bc a8 34 28 bd 70 0c 9b bd
       0.03801919 -0.009736836 -0.041065842 -0.07570732
000080 c6 78 82 3c fc 7f b5 bc 23 92 e8 bc d7 a8 a7 3b
       0.01592673 -0.022155754 -0.028389996 0.005116563
000090 22 ca 93 3b ca 17 51 3c 9f f1 05 3c 6e 2a 16 bd
       0.00451018 0.012762019 0.008175283 -0.036661558
0000a0 57 a3 07 3d f8 de c9 3c bc 87 b0 bc 0a 57 5a bb
       0.033114757 0.024642453 -0.021549098 -0.003331604
0000b0 c7 d2 30 3d d0 8d 0b bd 51 c8 c4 bc ba 5d b4 bb
       0.043169763 -0.03407079 -0.0240213 -0.005504337
0000c0 4f 1f ca 3c ff fe 86 bd 80 5c 93 bd 04 8c 60 bc
       0.024673132 -0.065916054 -0.07195377 -0.013705257
0000d0 a6 44 67 bd 40 2e cb 3b 47 e3 e4 3b dd 14 4d 3d
       -0.056461953 0.006200582 0.0069851014 0.050068725
0000e0 50 68 61 bb 35 88 01 bd 7a cf e1 b9 d8 15 ed bb
       -0.003439445 -0.031624038 -0.00043069926 -0.00723527
0000f0 59 3b f3 3c fe fd e6 3c 00 46 91 3c d3 79 3a bd
       0.029691385 0.028197285 0.017733574 -0.045526337
000100 41 67 6b 3b af 56 37 bd 69 cb 05 3d cc a0 db bc
       0.0035919698 -0.044760402 0.03266469 -0.026810072
000110 f0 dd 8d bd 14 aa 17 bc c2 3f d0 3c d8 c3 25 3c
       -0.06927097 -0.009256858 0.025421027 0.010117494
000120 df 7a 8e bc 23 12 d9 bc 68 5d 28 bc 32 ac 48 bc
       -0.017392574 -0.026497906 -0.010276176 -0.012248086
000130 3f 38 bc 3b e2 b4 30 bd 92 ed 4a be 86 af 18 bd
       0.0057440097 -0.043141253 -0.19817188 -0.037276767
000140 59 8b d8 3c 76 62 31 3d 75 d4 83 3d db 09 3a 39
       0.026433634 0.04330679 0.06437007 0.00017742014
000150 6a ab ed 3c be ea 8f 3d 52 7a fd 3c 52 09 aa bc
       0.0290124 0.070271954 0.030942116 -0.020756397
000160 5c 92 82 bc 8d 7b b7 3c 9e 6d a8 bc 01 19 99 bc
       -0.01593893 0.02239778 -0.020560082 -0.01868868
000170 e3 ee 34 3c ff 76 02 bd 41 67 e8 3c 08 d0 9c 3c
       0.011043283 -0.031851765 0.028369548 0.019142166
000180 63 94 00 3d 54 f2 97 bc 2e 65 a7 3b 45 43 24 bd
       0.031391513 -0.018548168 0.005108497 -0.040103216
000190 5b 1e 3b 3d 7a 05 c2 3c b0 ec fc 3b a4 4e 80 3b
       0.045683246 0.023684252 0.007718645 0.0039156247
0001a0 e3 15 99 3c e3 ee e4 3c 07 10 4b 3d de 54 0f 3c
       0.018687194 0.027945941 0.04957583 0.008748261
0001b0 c7 e4 9d 3c e6 6c b1 bb 4e 4b 9f bb cf da 10 3d
       0.019274129 -0.005414593 -0.004861272 0.035364922
0001c0 23 a4 44 3b b8 d6 16 3c 7e aa 2f 3d ff 2d 66 bc
       0.003000506 0.009206466 0.042887203 -0.014049052
0001d0 57 70 87 3b 06 f1 f5 3a d0 bb 76 bb de d8 07 3d
       0.004133265 0.0018763847 -0.0037648566 0.033165805
0001e0 b6 d3 a8 bc 41 8e 91 3d a3 d5 31 bd 0b 3f 38 bd
       -0.020608764 0.07107211 -0.04341663 -0.044981997
0001f0 53 ee ec bd 71 56 15 3d e1 9f c2 bd 18 e6 92 bc
       -0.11568894 0.03645939 -0.09503151 -0.017931983
000200 b4 98 04 3c 7f 4b 31 bd 8a f5 2c 3c 83 89 8d bd
       0.008093048 -0.04328489 0.010556588 -0.06910994
000210 8a a8 19 bd ad 16 e8 bc fe 6a 1f bd 74 88 34 be
       -0.037514247 -0.028331125 -0.038920395 -0.17630178
000220 44 61 01 3c 0e 6b 0d bd 51 aa 50 bd 0b 47 9f bc
       0.007896725 -0.034525923 -0.050943676 -0.019443056
000230 0e 56 2f 3d 28 a5 22 3c d3 63 48 bc e1 6e 25 bd
       0.042806678 0.009927072 -0.012230831 -0.040388945
000240 4f 46 60 bd 0e 1f e6 bd 00 99 ed bc 2d ab a7 3c
       -0.05475455 -0.11236392 -0.02900362 0.020467365
000250 c6 52 b1 bc 9b fe 94 bc 32 c0 3e bd 14 33 19 be
       -0.021645915 -0.018187812 -0.04657001 -0.14960891
000260 cf 8b 38 bd e2 30 29 3d 96 48 c9 bc 02 50 f1 3c
       -0.045055207 0.041306384 -0.024570744 0.029457096
000270 03 7c 92 bc 94 b2 31 3d 7c c2 ab 3c 5a c0 f6 bc
       -0.017881399 0.043383196 0.02096676 -0.030121017
000280 b0 82 d6 bc 20 f7 08 bd 23 45 b8 3c e9 06 4c 3d
       -0.026185364 -0.0334388 0.022493904 0.049811278
000290 3e f9 8e 3c a5 48 0f bb 6a fb 04 bd b2 4d b6 3c
       0.017452832 -0.0021863368 -0.03246633 0.022253845
0002a0 51 da 61 bc c6 de c8 3c 38 d3 1a bd 51 b7 b7 3c
       -0.013784961 0.02452029 -0.03779909 0.02242628
0002b0 b7 3d 14 3d 8b 25 4a bd 38 23 46 bd 19 58 76 bd
       0.03619167 -0.04935221 -0.04837343 -0.06014261
0002c0 b0 7f 35 3d 7c 9d c8 3d fb c8 2f 3d e7 47 42 bd
       0.044311225 0.09795663 0.04291628 -0.047431853
0002d0 b1 dc e1 bc 26 a1 fa 3c 1d ef 33 3c 58 a1 20 bd
       -0.027571054 0.03059442 0.010982302 -0.03921637
0002e0 04 ad 96 bc ea 24 b7 3c 39 52 21 3d 6e dd 30 be
       -0.018393047 0.02235647 0.039385054 -0.17271969
0002f0 f7 ed ba 3b e2 ac fb bc d6 fd 9d 3c ca 38 88 3b
       0.005704637 -0.030722085 0.019286077 0.0041571604
000300 45 99 b9 bc 20 07 b4 3b fc ac 2b bc 7c 3d 7c 3c
       -0.022656092 0.0054940134 -0.010478254 0.015395518
000310 a4 70 d0 bc 4b 21 23 3d 40 39 87 39 25 95 f5 bb
       -0.025444336 0.039826673 0.0002579186 -0.007494586
000320 9e 94 0a be 32 7c 4c bd 34 bd 17 3c 43 f1 7d bc
       -0.13533255 -0.04992313 0.009261418 -0.015499416
000330 0f af b2 3c 82 92 0e 3b e9 ad 4e bc dc 73 b7 3b
       0.02181199 0.0021754806 -0.012614706 0.0055985283
000340 e3 f0 3d 3d 2e b5 39 bd e6 fa d6 bd 6b 13 f3 3c
       0.046372306 -0.045338802 -0.10497074 0.029672345
000350 79 f1 06 bd af 6d e7 bc 2d 99 cd bc c9 77 c5 bc
       -0.03294513 -0.028250543 -0.025097454 -0.02410497
000360 b7 df 4a bd c7 77 e2 3b 03 b6 c5 bd 40 f9 e1 bb
       -0.049529757 0.006911251 -0.096538566 -0.006896168
000370 d4 4a 72 bc 7a 24 9c 3c 87 4e 12 3d a0 a9 08 bc
       -0.014788348 0.019060362 0.03571942 -0.008341223
000380 bd d1 33 bd 1d ab f9 bc f8 ae a8 3b 9e a9 e9 bc
       -0.043901194 -0.030477101 0.005147811 -0.028523263
000390 13 65 1a bd 53 33 19 bd 63 2e b6 bc 9a 72 93 bc
       -0.037694048 -0.037402462 -0.022238916 -0.017998982
0003a0 ae 6e 16 bd 38 59 3e 3c 38 7c 0d be b3 65 1c 3d
       -0.036726646 0.011617951 -0.13816917 0.038182925
0003b0 43 27 13 3d 7c 67 2e 3d d5 02 48 bd bb 5e af bc
       0.035926115 0.04257916 -0.048830826 -0.021407476
0003c0 a1 ed 87 bd cf 21 69 bd 3b 14 23 bd 38 e9 1a 3d
       -0.06637121 -0.056917008 -0.039814215 0.03782007
0003d0 0c cf 14 bc 38 1d 7d bc 3a ba 0a bd 26 e6 35 bd
       -0.009082567 -0.015448861 -0.033869006 -0.04440894
0003e0 e2 85 8a bc 51 02 45 3d e2 e4 81 bb 3b 82 88 3c
       -0.016909543 0.048097912 -0.0039640525 0.016663661
0003f0 73 ac 21 3d f6 2e cf bd 26 6e b1 3c 30 31 3a bd
       0.0394711 -0.10116379 0.021658968 -0.045457065

l2.bias f4 [300]
000000 9d 2c 9c bc 7a 4c a2 bb d2 9a 86 bd da fc a6 bd
       -0.019064242 -0.0049529644 -0.065724984 -0.08153696
000010 ea a6 fc 3c ef 66 b0 bd 05 12 89 bd 8f eb eb bc
       0.03084131 -0.08613383 -0.0669289 -0.028798847
000020 ec 5c dc bb 09 81 49 bd 02 0b ae 3c 85 ef ee 3b
       -0.0067249443 -0.049195323 0.021245483 0.0072917365
000030 10 72 13 bd 3a 3c 61 bd 9f 3b d6 3b ae ae 8d bc
       -0.03599745 -0.054989077 0.006537869 -0.017295208
000040 19 e7 84 3e 99 6e 67 3b dc 35 c5 3a 23 87 8e 3c
       0.25957564 0.0035313724 0.0015045959 0.017398423
000050 f5 2a 84 bd 4c 71 aa bc 52 10 1f ba 3c c3 98 be
       -0.06453506 -0.020805977 -0.00060678006 -0.29836452
000060 06 a6 8f bd 68 f6 8a be 8b 90 a3 bd 60 e0 b7 be
       -0.07014088 -0.27141118 -0.07986554 -0.35913372
000070 c8 13 69 3e bd 2c 90 be b3 cc 74 bd df ed 20 bd
       0.22761452 -0.28159133 -0.05976553 -0.03928935
000080 e5 c2 59 bc ee a8 4d bd 40 99 90 bd 58 8c 3f 3e
       -0.013291095 -0.050209932 -0.0706048 0.1870588
000090 98 75 12 3f 3b 18 3f bd b0 ce 80 be cc cc 54 3c
       0.57210684 -0.046653967 -0.2515769 0.0129882805
0000a0 07 1d 4f bc 4a a8 80 bd 8b 5f 1f 3d 55 e9 8c bc
       -0.012641198 -0.062820986 0.038909476 -0.017201105
0000b0 33 dc fc bc 19 27 2a bc 79 dd 84 3c e3 3e 61 3b
       -0.030866718 -0.010385298 0.016218888 0.0034369759
0000c0 c7 71 47 bd ec 0c 1c 3c 14 cf 7c 3e eb 6b cc 3d
       -0.04869249 0.009524565 0.24688369 0.09981521
0000d0 bd 5b 63 bd 17 80 6b bd a3 07 61 3e c4 f7 18 bd
       -0.05550741 -0.057495203 0.2197557 -0.037345663
0000e0 09 53 8e bd a9 e4 51 bd 53 b3 09 3b d6 8a e5 3c
       -0.069494314 -0.051243458 0.0021011427 0.028020304
0000f0 af cd 39 3e 76 5e 26 3d 47 96 49 3c 9f 54 0c be
       0.18144868 0.04061743 0.012303895 -0.13704155
000100 ab 47 14 bc da 55 17 3f 9d 04 4f bd d6 c9 b9 3a
       -0.00905029 0.59115374 -0.05054151 0.0014174532
000110 41 8c 88 bc d0 a6 cd bd 89 a3 50 bd 0f c7 bd bc
       -0.01666844 -0.100415826 -0.05093721 -0.023166208
000120 f4 20 bb bc 29 dd 75 bd 30 60 f7 be 66 74 24 3c
       -0.022842862 -0.060025368 -0.48315573 0.010037517
000130 fe 39 5c be c0 99 ba 3a ca b1 0e bd e4 3b 93 bd
       -0.21506497 0.0014236495 -0.03483752 -0.071891576
000140 83 df 16 3e 05 09 91 bd 53 40 c7 3b c3 f9 6f be
       0.147337 -0.070817985 0.006080666 -0.2343512
000150 3f fc ba bd d7 f8 87 bd 88 6b 02 bd 46 98 34 3b
       -0.091301434 -0.06639259 -0.03184083 0.0027556582
000160 45 b6 d6 bc e0 bd 55 be bd 7e c7 be 41 88 4b bd
       -0.02620996 -0.20873213 -0.3896388 -0.04969049
000170 0e 93 6e 3e 7b 3b c1 3e 20 2a 02 bd d6 7a 8c bc
       0.23298284 0.37740692 -0.031778455 -0.017148416
000180 b9 b7 a7 3e b0 94 84 3c 94 bf a6 bc 56 b1 89 bd
       0.32757357 0.016184181 -0.020355023 -0.06723277
000190 e5 56 2b 3d ff f0 38 bd 6e 8b 59 bd e2 57 13 bd
       0.041830916 -0.045151707 -0.053111486 -0.035972483
0001a0 3e 1e 06 bc db c1 f8 ba b8 bb 7f be 87 c1 d1 bc
       -0.008185921 -0.0018978672 -0.24973953 -0.025604976
0001b0 5e a5 f5 bc fe fb 23 3d 15 9f 38 bc 0c c1 a1 3e
       -0.02998608 0.04003524 -0.011268397 0.31592596
0001c0 94 21 1f bd ad 94 92 be d9 00 8d bb 22 b5 aa bc
       -0.038850382 -0.28629056 -0.0043030796 -0.020838324
0001d0 3e 90 92 bd 6e 34 95 bd 1c 96 9c bd 08 1e 4b bb
       -0.07156418 -0.07285391 -0.076458186 -0.0030993242
0001e0 0e 28 a1 bd fb d8 2f bd f9 cd ce bb 68 db 1c 3c
       -0.07868968 -0.042931538 -0.006311175 0.009573795
0001f0 c7 37 0b 3f f2 63 7f bd 41 b2 af 3c ac b7 8a 3c
       0.54381984 -0.062351175 0.021447303 0.016933285
000200 82 7b c8 bd a1 bb 52 be 52 d7 2a be 09 ec 4b bd
       -0.09789182 -0.20579387 -0.166837 -0.049785648
000210 13 1f f9 3c aa 89 b5 bd 0a 25 89 3b ae 03 40 be
       0.030410325 -0.08864148 0.0041853236 -0.18751404
000220 3c 15 af 3e 7c 40 3f bd 96 b3 8a be 4f 49 2d 3b
       0.34195888 -0.046692356 -0.27090138 0.00264414
000230 73 95 35 3c 8a d3 f3 bc 89 91 a0 b9 23 4b 28 bd
       0.011082995 -0.029763956 -0.0003062601 -0.04108728
000240 92 c6 c8 bd 03 cf ce bb 28 c4 ab be 45 e5 2e bd
       -0.09803499 -0.006311299 -0.33548093 -0.042699117
000250 a5 fd 17 bc ee f2 a0 bd 33 37 1f be 57 a4 a4 bc
       -0.009276782 -0.07858835 -0.155484 -0.020097895
000260 c2 c0 de 3e b6 21 d7 be c5 df 94 3d 76 c6 73 be
       0.43506438 -0.42017907 0.07269243 -0.23806176
000270 44 bd 1c 3c 8f 02 e4 3d 52 a3 ac 3c d7 2c b6 bc
       0.009566609 0.111333005 0.021073971 -0.022238178
000280 ea 6b 67 3e 6c b9 c0 3e 1d de 0d 3d 85 bd a5 bd
       0.2259976 0.37641466 0.03463565 -0.080927886
000290 46 bb b6 bd 07 58 c2 bd 7e ac 93 be 04 6d 2f bd
       -0.08922438 -0.09489446 -0.2884254 -0.042828575
0002a0 94 51 2b 3f d7 a6 1d be 92 31 90 3d 11 aa 1d 3a
       0.66921353 -0.15395676 0.07040705 0.00060144166
0002b0 f5 e3 14 bc fa 17 12 be be 43 8c bc 0d f4 5c bd
       -0.009087552 -0.14266959 -0.017122146 -0.053943682
0002c0 a3 d7 9a bd 48 c9 c7 3b ad c0 9f be 94 be 7c be
       -0.07560661 0.0060969926 -0.31201687 -0.24682075
0002d0 ca b9 8d be 83 c4 0d 3f 9c 03 a6 be 51 27 c0 3c
       -0.27680808 0.5537798 -0.3242463 0.023456248
0002e0 0a 33 97 3b 50 03 86 bc 88 f9 6e bc 46 53 3f 3e
       0.0046142386 -0.016359001 -0.01458586 0.1868411
0002f0 65 a7 c8 bc d5 53 ac 3a 15 d7 41 3c d4 43 d0 bd
       -0.024493882 0.0013147542 0.011831065 -0.10169187
000300 9e d5 c0 bc 93 66 b6 bc c1 fe a1 bc 08 2d b8 be
       -0.02353936 -0.022265708 -0.019774796 -0.35971856
000310 c6 ef e0 bd 28 b6 c8 3c 1c 76 d5 be e5 bf 2b 3c
       -0.10983233 0.024500921 -0.41691673 0.010482763
000320 ef 2e 90 bd 42 95 c4 be 1c 9a 60 3d f8 cc 2f bc
       -0.07040202 -0.38395125 0.05483447 -0.010730021
000330 59 ad d8 be d0 22 26 bd 5e 69 9d 3c 27 ab c7 bd
       -0.42319754 -0.040560544 0.019215282 -0.097494416
000340 e7 8e ba ba f3 6a 93 bd ac 7c ef 3e 65 e1 96 bd
       -0.0014233262 -0.07198133 0.46774805 -0.07367209
000350 6d f1 ff 3b 5b a2 b1 be 64 b1 bc 3b d5 32 9e bc
       0.0078107626 -0.3469418 0.0057584513 -0.019311348
000360 dd 8d 0b bd 72 3c 8d bd bf e8 50 bb f2 13 f4 3b
       -0.03407084 -0.06896295 -0.0031877009 0.0074486667
000370 68 00 97 3e 1c 0b 25 be 24 5a ed bb 25 19 86 bd
       0.29492497 -0.16117519 -0.0072434116 -0.06547765
000380 79 20 72 bd 3f 19 28 bc ee 99 3c bc c3 dd eb 3e
       -0.059113 -0.010259925 -0.011511309 0.46067628
000390 ef 46 72 b8 72 19 c5 bd 28 f0 3d bd d6 25 45 bd
       -5.776336e-05 -0.09623994 -0.04637161 -0.048131786
0003a0 e6 c4 6c bc 50 71 1b 3e bf f2 d3 bb 89 81 af bd
       -0.014451241 0.15179944 -0.0064681466 -0.08569629
0003b0 b5 28 07 3d 77 3e ef be fa 7b 84 bc 99 15 e2 3c
       0.032997806 -0.46727344 -0.016172398 0.02759819
0003c0 51 0c fa 3b 1e 53 71 be af 93 4d bd ca 39 0e be
       0.0076308628 -0.23566863 -0.05018967 -0.13889232
0003d0 d3 05 44 bd 41 ac fd bc a6 bf dd 3e 6a 60 99 be
       -0.047857117 -0.030965926 0.4331028 -0.2995637
0003e0 27 68 97 3b 05 51 cb bd 01 a9 82 3d aa 9a 88 bd
       0.00462057 -0.099275626 0.06379891 -0.06670125
0003f0 e5 94 38 bd 80 5a a3 be a8 82 ee bc 9d ac 87 3d
       -0.045063872 -0.31904984 -0.029115036 0.0662472

l3.weight f4 [6, 300]
000000 c3 fb 09 3c 96 41 3a 3e 5d 62 ba bd a6 19 ea 3c
       0.008421841 0.18189082 -0.091007926 0.028576683
000010 d8 30 14 3d 2c 7a d6 3a aa ac 38 3d b8 d2 98 39
       0.036179394 0.0016363314 0.04508654 0.00029148697
000020 f5 d1 13 bc 96 e4 22 be 2b 0d 4b 3d 86 14 3a bd
       -0.009022226 -0.15907511 0.049573105 -0.04542973
000030 fc 6e d1 bc f5 55 15 be 4d 6f 5e bd e6 94 31 3d
       -0.025565617 -0.14583571 -0.054305363 0.04335489
000040 91 c9 9f bd cc 15 87 3c 82 0b 0d 3c 81 29 88 3e
       -0.078021176 0.016489886 0.008608701 0.26594165
000050 30 95 21 3c e8 65 fb 3c 8e a3 c6 bc 3b 1e 48 bc
       0.009862229 0.030688241 -0.02424791 -0.012214239
000060 38 52 63 3c d6 57 c6 bd ff 4e 6f bd 66 fd bd bc
       0.013874583 -0.09684722 -0.058424946 -0.023192119
000070 27 6b 2f be c3 81 0a 3e 22 ff 9e bc d6 48 4f bd
       -0.17130719 0.13526063 -0.019408766 -0.05060657
000080 53 34 a2 3c b3 a6 8b 3c 26 04 13 bd f3 23 03 be
       0.01980034 0.017047262 -0.035892628 -0.12806682
000090 3a 51 be bd 45 f7 c6 3a 3d ad 4e bc 98 46 3f 3c
       -0.092928365 0.0015179893 -0.012614545 0.011674546
0000a0 f5 1c 57 3d 53 e1 e9 bb 5d 5f 1a 3d d8 34 7e bd
       0.05251785 -0.0071374564 0.0376886 -0.062062114
0000b0 99 7e b9 3b 00 26 ff bb a8 8b 69 bd f2 2f 4f bd
       0.0056608436 -0.0077865124 -0.057017952 -0.050582834
0000c0 ad aa dd 3c 4f a7 d9 bc 04 a2 a3 bd 64 25 7e be
       0.027058924 -0.026569037 -0.079898864 -0.24818951
0000d0 a5 81 0d bc a1 e9 0a 3d ee 20 4c be 30 38 37 bb
       -0.008636867 0.033914212 -0.19934437 -0.0027957074
0000e0 ff e2 d2 3c 6e 21 09 3d fa a1 54 3c 5c 6e 0e bd
       0.025743006 0.033479147 0.012978071 -0.034773216
0000f0 f5 e6 28 be a0 4b 62 bd 68 80 e9 bc a4 6e c2 3e
       -0.16494353 -0.055247903 -0.028503612 0.37975037
000100 de ad af bc a2 27 cb 3e 12 5b a4 3d 05 5d b2 3d
       -0.021445211 0.39678675 0.08025183 0.08709148
000110 b4 62 ac bb 2b ee d5 bc 95 91 7d bd 2f db fc bc
       -0.0052607898 -0.026114544 -0.061906416 -0.030866234
000120 a9 0f 61 3d b0 58 ca bc 07 6e 1c 3c 2e 43 69 bd
       0.054946575 -0.024700493 0.009547717 -0.056948833
000130 51 46 9c 3e 6e 8c 37 bd ea 13 7b 3c 90 9a e2 3c
       0.30522397 -0.04481166 0.015324572 0.027661592
000140 20 96 e7 3d 45 1d 78 3c 11 0c d6 bc c6 0a 02 be
       0.11307931 0.015143697 -0.0261288 -0.12699422
000150 2e 1a 87 bc 37 28 ff bc 9d 75 81 3d ad fa 21 bd
       -0.016491976 -0.031147106 0.06321261 -0.039545704
000160 6d 5f 22 3d 1d a0 f1 3c 48 14 3b 3b 06 5c a5 bc
       0.039641786 0.029495293 0.0028546024 -0.020185482
000170 18 7b 97 3e f7 5f 8c 3e cf e2 21 bd 1d 6c 3f 3d
       0.295861 0.27416965 -0.039522942 0.046733964
000180 81 29 90 bd 6c 7d 39 bd 75 9a 15 bd 6a d2 18 3c
       -0.07039166 -0.045285627 -0.036524255 0.00932751
000190 7c 24 8a 3c fe 21 c2 3e 59 3c 26 3c 21 cf 72 3d
       0.0168631 0.3791656 0.010146224 0.059279565
0001a0 14 d8 bd bd 1c 0b eb bb a5 da 65 be 8f 74 2b bc
       -0.09269729 -0.007172955 -0.22446688 -0.010464801
0001b0 8b 63 d2 bc ba 37 90 bc dc c6 d0 bc 41 8a cb bd
       -0.025682231 -0.017604697 -0.025485449 -0.09938479
0001c0 ab 2f 71 3d 11 b5 00 bd b8 6d d8 bd e1 69 71 b8
       0.05888335 -0.03142268 -0.10567802 -5.7557485e-05
0001d0 f6 1d 45 bc fb c9 0d 3b e7 42 6a bd ca 6d 5d 3b
       -0.012031069 0.0021635282 -0.05719271 0.0033787363
0001e0 4d 4b 23 bc 37 7f 0c bd c6 ed cc bc 84 05 34 3d
       -0.009966684 -0.03430101 -0.025015723 0.043950573
0001f0 28 34 8f 3e 11 e9 c9 bd 2a 39 b6 3b 88 83 13 3d
       0.2796948 -0.09858907 0.0055610137 0.03601411
000200 54 54 0d bf df d8 4c 3e 37 32 76 3e ae f6 b2 bc
       -0.552068 0.20004605 0.24042593 -0.021846142
000210 c2 c9 2c bd b8 77 6a 3e 73 a6 22 bc cb 30 bc bb
       -0.0421846 0.22897232 -0.00992738 -0.0057431213
000220 83 d9 1f 3e d9 d5 98 3e 20 cc 16 be 23 e6 df 3e
       0.15610318 0.29850653 -0.14726305 0.43730268
000230 90 98 09 3d 34 5e 56 bc e2 92 63 3d a6 6d ae 3c
       0.03359276 -0.013083983 0.05556 0.021292519
000240 35 18 22 be 0e 1e 5f bd ad 11 41 bd 5d 26 23 3e
       -0.15829547 -0.05447202 -0.047135998 0.15932603
000250 1f c5 37 3d 04 09 0e bc ce 46 ad 3b 18 5d e2 3c
       0.044865724 -0.008669142 0.0052879816 0.027632281
000260 42 7c 58 3e c7 ad 12 be db cc 0e 3e c2 96 2a 3d
       0.2114115 -0.14324103 0.13945334 0.04164768
000270 f5 0d 4a bb ad 29 b1 bd 42 01 67 3e d2 c7 8f bd
       -0.0030831073 -0.08650527 0.22559074 -0.070205346
000280 e5 67 00 bf b9 4a 94 3d 5a 6a 17 bc 58 8d 83 3d
       -0.5015853 0.07240815 -0.009241665 0.064234436
000290 a9 c7 c3 3d 73 7c 9a bd 10 06 0f be 02 3d 87 bc
       0.095595665 -0.07543268 -0.13967156 -0.016508583
0002a0 67 29 58 3e e2 34 5b be 63 73 d7 bd 63 7a 32 bd
       0.21109544 -0.21406892 -0.10520055 -0.04357375
0002b0 0d b1 b5 3c b1 76 36 3e c3 a8 4b 3d df dc e7 3b
       0.022179151 0.17818715 0.04972149 0.0070758904
0002c0 83 2f be 3c 54 fd 8b bd dd 23 0a be 05 56 8a be
       0.023216015 -0.06835428 -0.13490243 -0.27018753
0002d0 21 49 77 bc 40 54 c0 3d dc 39 8a bb ad a0 2e 3d
       -0.015093119 0.093910694 -0.004218323 0.0426337
0002e0 30 95 df 3c 18 6f f1 bc 4f 8c c5 3b 5a 11 0e bd
       0.027292818 -0.029471919 0.006028689 -0.034684516
0002f0 0d a9 c1 bc 4f 2e 38 bd f1 6b 7c bd 67 89 19 be
       -0.02364018 -0.04496604 -0.06162638 -0.14993821
000300 0d 3d 86 3d c5 36 ff bc 0e 1b 1f ba f6 d9 3e bd
       0.06554613 -0.031154046 -0.00060694 -0.046594582
000310 e7 66 55 3e 21 1a 16 bf 32 8b 09 bd 8f 94 59 bd
       0.20840035 -0.5863362 -0.033580013 -0.053120192
000320 36 30 af 3d 82 35 59 3d c4 78 99 bb be b0 76 3e
       0.085541174 0.053029545 -0.004683586 0.2409086
000330 b3 f3 d8 bd 08 43 2b 3d 82 b9 b5 bc 56 7c 7f bd
       -0.10593357 0.041811973 -0.022183184 -0.062374435
000340 e5 43 57 3d 15 b6 81 3c 80 2a 19 3f 4d 30 00 3d
       0.052554984 0.015833894 0.59830475 0.031296063
000350 6f 90 85 bc a1 f0 0d 3d 6e 70 30 bd f5 0f a0 be
       -0.016304223 0.03465331 -0.04307597 -0.31262174
000360 26 5e 9e bc 55 15 24 3b 36 98 6a 3c 91 e6 5f bd
       -0.019332003 0.002503713 0.0143185165 -0.054663245
000370 f5 a9 28 3e dd 6d af 3d 92 a3 6f 3c 1e 97 54 3c
       0.16471083 0.08565877 0.014626401 0.012975482
000380 0d 86 16 bd 26 bb b5 bc 2e 51 3d bd a4 4f 50 3e
       -0.036748935 -0.022183966 -0.046219997 0.2034288
000390 f9 ca 2f bd 56 b3 67 3d 2b ac cf bc fc 83 bd ba
       -0.04291818 0.056567512 -0.02535065 -0.001445889
0003a0 3a 8c fe bc c8 b2 0a bc 12 f6 ed 38 99 cf 5d bc
       -0.031072725 -0.008465476 0.00011346875 -0.013538265
0003b0 e0 cf 4a be 65 e3 13 3b b4 2b f8 bc 40 1c ab 3e
       -0.1980586 0.0022565958 -0.030294277 0.3341999
0003c0 e4 42 54 3d ed 8d df bb 8c 30 a5 3d d9 49 ee 3d
       0.051821604 -0.006822339 0.080659 0.11635179
0003d0 e4 b5 e7 3c d2 75 ce bc b7 c9 4b 3e a2 96 3a 3d
       0.028284974 -0.025202665 0.19901167 0.04555381
0003e0 1d 6b b4 be 34 e2 ee bd 7c 7c 71 3e a0 db b2 3c
       -0.3523797 -0.116642386 0.23582643 0.021833241
0003f0 cc 6f 94 3c 04 1b 00 be aa 0b be 3c 8f aa 46 3e
       0.018119715 -0.12510306 0.023198921 0.19401

l3.bias f4 [6]
000000 85 8b c6 bc c2 b9 b7 3e 95 77 09 3d 74 44 82 bd
       -0.02423645 0.3588391 0.033561308 -0.06360713
000010 b9 9d b3 3e ca b9 95 bb
       0.3508127 -0.004569267
