results/runs/single_assembly_rerun_nochange/Average_TD3_10_Peg-in-hole-single_assembly_seed_1/74000_actor.pth (torch_old, 510312 bytes, 6 tensors)

l1.weight f4 [400, 12]
0.07176039 0.009959882 0.03307963 0.15704492 -0.27176425 0.10359814 -0.39553818 0.70959705
-0.39117137 0.522247 0.2269224 0.20910813 -0.06342192 -0.037675828 0.1784926 -0.12527877
0.119964704 0.16899331 0.49572855 -0.1572246 -0.36273274 -0.35473794 -0.40361238 -0.15403384
-0.52014154 -0.38461062 0.17842433 0.526356 0.03712408 0.24944103 0.38194332 0.4681896
0.32475007 -0.2839629 -0.5233849 0.16294737 0.25348902 -0.04808432 0.123541236 -0.13415062
0.28325325 -0.12213799 0.2164846 0.003418386 -0.15207909 0.14838329 -0.15323457 0.08490071
-0.46956417 0.38982046 -0.06061557 -0.0995474 -0.18263613 -0.25928444 0.29865643 0.53895223
-0.17047343 0.3431165 0.017933425 -0.044777453 -0.1866053 0.18750736 0.17525518 0.25602454
-0.16181962 -0.047517657 -0.0055921674 0.042163163 -0.21908084 -0.20485033 0.1570406 -0.067692
0.1720317 0.011888949 0.085679844 0.06347638 0.100759104 0.14354502 -0.2806454 0.15159643
-0.19222267 -0.2161782 0.031229371 -0.043178864 0.17032765 -0.053217955 -0.050179042 0.28097793
-0.002486891 0.46394747 -0.6488019 -0.41070923 -0.14629482 0.19772618 0.35266504 -0.28155476
0.5713987 0.06605898 -0.008508578 -0.050427247 -0.022582335 -0.17740485 -0.20970319 0.42236096
-0.79137564 0.020351123 0.57764125 0.32780936 -0.5959923 -0.39048156 0.17839076 0.7108183
0.9616101 -0.12061368 0.009245072 0.67913604 0.31264636 0.23548901 -0.35308123 0.3152707
-0.5128569 -0.42252654 0.111809276 -0.1958066 0.4038888 0.047567606 -0.5478498 0.24265964
0.1869259 0.33505017 0.030659335 0.6440441 0.24908645 0.16261657 0.21146336 0.20828423
0.17940491 0.07873775 -0.16595829 -0.21099529 -0.16369544 -0.009362516 -0.20305395 0.123500325
0.113149025 -0.026202258 0.15304404 0.09283776 0.17018877 0.19257717 -0.076876745 0.23017435
-0.07574393 -0.04061242 -0.28524652 -0.19554505 -0.16864502 -0.12347297 0.20523924 -0.09433356
-0.21572149 0.11106771 0.09242499 0.18697217 -0.14938134 0.06258911 -0.10509236 -0.064858004
0.099611245 0.0352547 0.19136257 0.41528863 -0.03449144 0.108746015 0.2913052 0.41283882
-0.20542935 0.18554108 -0.3757609 0.14551558 0.103109844 0.32827485 0.007145266 -0.066426866
-0.08599934 0.64295506 -0.9526681 0.039370332 -0.21947084 0.25518495 0.58688277 0.12324282
-0.16602992 0.48309472 0.17444572 -0.51618457 0.095223755 0.2688789 0.51824254 -0.17586781
0.09003507 -0.19474393 -0.012517928 -0.103427455 0.7290323 -0.005590144 -0.048094835 0.028015133
-0.19017975 -0.13048184 -0.16637681 0.5134086 -0.87388617 0.5948519 0.40069672 0.55320394
0.25975925 -0.1268718 0.07824922 -0.012523189 0.16357099 0.39452255 -0.5019054 -0.67443067
-0.14666626 -0.39894432 0.0934039 -0.0021261242 0.36027187 0.46718782 0.0028333594 -0.2622146
0.029755598 -0.2550179 -0.33703285 0.359089 -0.32052204 0.4543059 0.30731437 -0.019012254
0.27964565 -0.27789047 -0.09037939 -0.103420556 -0.23087125 0.12778223 -0.73800087 -0.33545938
-0.045734458 0.2690261 0.684191 -0.27183834 -0.57068765 0.25830245 0.27171263 -0.09734486
00000000: 1df7 923d c62e 233c 827e 073d 62d0 203e
00000010: af24 8bbe 432b d43d fb83 cabe 27a8 353f
00000020: 9d47 c8be fbb1 053f 585e 683e 7120 563e
00000030: 5ae3 81bd f851 1abd c4c6 363e 1449 00be
00000040: 0eb0 f53d 950c 2d3e 22d0 fd3e 7cff 20be
00000050: 1bb8 b9be 36a0 b5be 48a6 cebe 0cbb 1dbe
00000060: ff27 05bf afeb c4be deb4 363e 44bf 063f
00000070: 6b0f 183d 786d 7f3e 138e c33e 8cb6 ef3e
00000080: a445 a63e 9663 91be 8efc 05bf addb 263e
00000090: 50c9 813e 10f4 44bd 3003 fd3d c85e 09be
000000a0: 9206 913e 7c23 fabd 24ae 5d3e 0007 603b
000000b0: 9fba 1bbe caf1 173e 86e9 1cbe 6ce0 ad3d
000000c0: b76a f0be 8c96 c73e 0848 78bd 82df cbbd
000000d0: f704 3bbe eec0 84be 7fe9 983e c6f8 093f
000000e0: 9690 2ebe f7ac af3e 1ee9 923c 9068 37bd
000000f0: 7615 3fbe ee01 403e 1876 333e a615 833e
00000100: 0bb4 25be e0a1 42bd 803e b7bb 48b3 2c3d
00000110: ba56 60be 49c4 51be 40cf 203e 1aa2 8abd
00000120: 1429 303e dec9 423c ea78 af3d e8ff 813d
00000130: ca5a ce3d 77fd 123e c1b0 8fbe 183c 1b3e
00000140: 05d6 44be d15d 5dbe bdd4 ff3c 52dc 30bd
00000150: 5f6a 2e3e 12fb 59bd 8a88 4dbd 57dc 8f3e
00000160: 1cfb 22bb 868a ed3e e217 26bf 7b48 d2be
00000170: 4fce 15be bb78 4a3e 8390 b43e f227 90be
00000180: 2f47 123f ee49 873d 9067 0bbc cd8c 4ebd
00000190: 97fe b8bc 9ea9 35be 6fbc 56be b23f d83e
000001a0: 9897 4abf 66b7 a63c 4ce0 133f a1d6 a73e
000001b0: f492 18bf 33ed c7be 11ac 363e 30f8 353f
000001c0: 142c 763f 4e04 f7bd a478 173c dcdb 2d3f
000001d0: 2f13 a03e 0824 713e 10c7 b4be 296b a13e
000001e0: 974a 03bf 6655 d8be 43fc e43d 8681 48be
000001f0: 83ca ce3e 40d6 423d e23f 0cbf c57b 783e
00000200: 8169 3f3e b28b ab3e 4929 fb3c 13e0 243f
00000210: 8510 7f3e f584 263e da89 583e 7648 553e
00000220: ecb5 373e 4241 a13d f8f0 29be 260f 58be
00000230: c79f 27be 3d65 19bc 60ed 4fbe bded fc3d
00000240: adba e73d 1ea6 d6bc 94b7 1c3e b921 be3d
00000250: f745 2e3e f332 453e 8e71 9dbd d3b2 6b3e
00000260: a21f 9bbd 3559 26bd d50b 92be f63c 48be
00000270: 48b1 2cbe 66df fcbd 3c2a 523e f431 c1bd
00000280: 18e6 5cbe 7877 e33d 5049 bd3d a275 3f3e
00000290: 6cf7 18be b82e 803d aa3a d7bd 46d4 84bd
000002a0: fb00 cc3d 3b67 103d 8df4 433e b6a0 d43e
000002b0: e546 0dbd 3bb6 de3d f525 953e 9c5f d33e
000002c0: 125c 52be 7bfe 3d3e bc63 c0be 0902 153e
000002d0: 412b d33d a413 a83e d622 ea3b cf0a 88bd
000002e0: 6c20 b0bd b498 243f 0ee2 73bf c942 213d
000002f0: f7bc 60be 9aa7 823e f33d 163f bb66 fc3d
00000300: bf03 2abe 3158 f73e e6a1 323e ac24 04bf
00000310: ac04 c33d 7faa 893e 8bab 043f b116 34be
00000320: 4f64 b83d f46a 47be ff17 4dbc c6d1 d3bd
00000330: dca1 3a3f 872d b7bb 17ff 44bd fe7f e53c
00000340: 7bbe 42be 089d 05be af5e 2abe bf6e 033f
00000350: 01b7 5fbf 3748 183f 1f28 cd3e c69e 0d3f
00000360: 2aff 843e aeea 01be 2141 a03d 102e 4dbc
00000370: 277f 273e dcfe c93e df7c 00bf 7da7 2cbf
00000380: ae2f 16be 6e42 ccbe 8b4a bf3d 7256 0bbb
00000390: 8e75 b83e 3e33 ef3e e2af 393b fe40 86be
000003a0: 03c2 f33c b591 82be 928f acbe 83da b73e
000003b0: 771b a4be c89a e83e 4f58 9d3e 96bf 9bbc
000003c0: b72d 8f3e a947 8ebe d418 b9bd 28ce d3bd
000003d0: 8369 6cbe 58d9 023e a0ed 3cbf 55c1 abbe
000003e0: 0e54 3bbd cabd 893e 2427 2f3f 652e 8bbe
000003f0: 9618 12bf 3840 843e eb1d 8b3e be5c c7bd

l1.bias f4 [400]
0.19589236 0.073511355 0.2924658 -0.15741737 -0.5296613 0.09471321 0.009587874 0.042770993
0.23550525 0.1326588 0.29823273 -0.21701418 -0.010496169 0.03729418 -0.5860248 -0.24632858
0.058882676 -0.14204189 0.045834966 -0.39961842 0.34366843 -0.33828288 0.24018948 -0.13475464
-0.19814576 0.18909536 -0.21596855 -0.14806852 0.18150719 0.1322721 0.25624937 0.19307676
0.19298147 0.1923598 -0.12559378 -0.17608131 -0.24698913 -0.30624053 0.16992685 0.019785535
0.20132908 -0.058327828 -0.37106165 -0.038206227 0.20124511 -0.268369 -0.1710506 -0.44176573
0.042815685 -0.17209652 0.08128375 0.23223542 -0.28044304 -0.034782317 -0.06213676 0.053965803
0.00923325 -0.2520023 0.062960714 -0.04597565 0.1598118 0.14082137 0.061964598 0.12282859
-0.35207266 -0.17628105 -0.13109544 0.18690316 0.16570354 -0.033032835 -0.3529603 -0.07349918
-0.56074685 -0.3746685 -0.1798447 0.18549952 -0.1953797 0.11803813 0.3213623 -0.21584454
-0.0032813058 -0.3686073 -0.24943492 -0.07550308 -0.21053813 0.28398958 -0.0082087815 -0.46779326
0.11810691 -0.11444929 -0.15456033 0.08657373 0.05125321 -0.26648048 -0.15778014 0.03623408
-0.1402776 0.029421294 -0.26960486 0.30462244 -0.06151019 0.08321033 -0.24436867 0.25470775
-0.2508846 -0.37751096 0.12159571 -0.033093784 -0.21075082 0.13301204 0.15920123 0.1906537
-0.046764314 -0.24663976 -0.67905074 -0.32265458 -0.15961514 -0.05502838 0.27271914 0.22235258
0.02506122 0.20843798 0.16696045 -0.15617569 0.43814516 -0.17605086 0.08913422 -0.031103337
0.26772845 -0.12198947 -0.40594998 -0.15293643 0.15114309 -0.09763151 0.39287132 0.17212322
-0.42086428 -0.5002606 -0.41577294 -0.3854344 0.27188095 -0.0126204835 0.23384823 0.17773359
-0.50754917 -0.0807488 -0.35145482 -0.14904377 -0.15579572 -0.18241702 -0.014877409 0.082669824
-0.3381055 0.015719712 -0.40938208 -0.36748365 -0.40992936 -0.3254483 -0.55617744 -0.29010502
0.06568081 -0.34557015 0.38301176 0.25954372 0.119527474 0.05061311 0.010829617 -0.36836645
-0.036302328 -0.04606397 -0.37335998 0.043269157 -0.21953195 0.014303478 -0.49854624 0.4989387
-0.00703859 -0.12712242 -0.21841072 -0.3216411 -0.08995059 0.0013080064 -0.29817128 -0.37233737
-0.07273489 -0.29245782 -0.30974033 -0.030391566 0.2247436 0.109975345 -0.2596275 0.00861405
-0.088025555 -0.13962232 -0.26651144 -0.32504976 0.23991454 0.1618037 0.007845069 0.34496608
-0.0031541926 0.042943902 0.032249033 -0.012233755 -0.29000396 0.13693638 0.06905671 0.17991504
-0.14505714 0.4910345 0.10689339 -0.08312907 -0.2060148 0.1400124 0.10201997 0.33511123
-0.025073238 0.21879861 0.021438308 0.03372565 0.06243942 -0.018184625 0.0506299 -0.30667856
0.13810313 -0.29477847 -0.11237148 0.27348527 -0.43970105 0.14394343 -0.05773583 -0.14039397
0.10092484 0.28190148 0.22139265 -0.024002839 0.008059583 0.068204105 0.26085842 0.06306782
-0.19305691 0.36949345 -0.2250117 -0.16120054 -0.3562456 0.034429163 -0.64342237 -0.29464576
-0.077008456 0.19555664 0.18394443 -0.10749542 -0.024019003 -0.20610735 -0.29687476 0.12916781
00000000: 0298 483e 1f8d 963d 14be 953e 0532 21be
00000010: e297 07bf 00f9 c13d 7516 1d3c a330 2f3d
00000020: 4a28 713e b5d7 073e f6b1 983e f738 5ebe
00000030: 20f8 2bbc c8c1 183d b905 16bf 8f3d 7cbe
00000040: f62e 713d 6e73 11be 72bd 3b3d c99a ccbe
00000050: 4ff5 af3e 6a33 adbe 3bf4 753e 1ffd 09be
00000060: b9e6 4abe 37a2 413e dc26 5dbe 469f 17be
00000070: 05dd 393e 5672 073e 1e33 833e eab5 453e
00000080: ef9c 453e f8f9 443e a89b 00be a94e 34be
00000090: b8ea 7cbe 8fcb 9cbe 4e01 2e3e 4615 a23c
000000a0: 3629 4e3e 29e9 6ebd cbfb bdbe 227e 1cbd
000000b0: 3313 4e3e a967 89be e327 2fbe 1e2f e2be
000000c0: 805f 2f3d 123a 30be 1878 a63d 1fcf 6d3e
000000d0: 3b96 8fbe e777 0ebd 1e83 7ebd 3f0b 5d3d
000000e0: 0f47 173c 7206 81be 8cf1 803d f750 3cbd
000000f0: b4a5 233e 7a33 103e 97ce 7d3d 8e8d fb3d
00000100: de42 b4be 0583 34be e23d 06be 8b63 3f3e
00000110: 30ae 293e 704d 07bd 36b7 b4be bd86 96bd
00000120: 1b8d 0fbf 8dd4 bfbe 3629 38be 96f3 3d3e
00000130: 9e11 48be fabd f13d 9989 a43e 5a06 5dbe
00000140: 2d0b 57bb 19ba bcbe de6b 7fbe 5ca1 9abd
00000150: 4f97 57be 1567 913e 207e 06bc 9982 efbe
00000160: 09e2 f13d 6464 eabd 1045 1ebe 914d b13d
00000170: e3ee 513d 2170 88be 1e91 21be 306a 143d
00000180: eea4 0fbe ed04 f13c a609 8abe 79f7 9b3e
00000190: 1cf2 7bbd 2d6a aa3d c83b 7abe 0e69 823e
000001a0: f273 80be 1e49 c1be 2c07 f93d 598d 07bd
000001b0: 10cf 57be 4f34 083e a605 233e b93a 433e
000001c0: f08b 3fbd 228f 7cbe 45d6 2dbf fb32 a5be
000001d0: 2772 23be 7065 61bd d8a1 8b3e 65b0 633e
000001e0: 304d cd3c c470 553e aef7 2a3e 85ec 1fbe
000001f0: 9054 e03e ad46 34be 008c b63d 6dcc febc
00000200: b413 893e 9ed5 f9bd add8 cfbe 5e9b 1cbe
00000210: 41c5 1a3e 07f3 c7bd 6e26 c93e 1241 303e
00000220: 867b d7be 1411 00bf 31e0 d4be a857 c5be
00000230: fb33 8b3e 25c6 4ebc e975 6f3e cbff 353e
00000240: beee 01bf a05f a5bd e3f1 b3be ee9e 18be
00000250: ea88 1fbe 87cb 3abe 60c0 73bc cc4e a93d
00000260: 2a1c adbe a0c6 803c 879a d1be d126 bcbe
00000270: 43e2 d1be 29a1 a6be a561 0ebf a588 94be
00000280: a983 863d 92ee b0be 1e1a c43e eae2 843e
00000290: d2ca f43d b14f 4f3d b56e 313c 879a bcbe
000002a0: c0b1 14bd 93ad 3cbd 0a29 bfbe 003b 313d
000002b0: fccc 60be 2359 6a3c 7441 ffbe e574 ff3e
000002c0: f9a3 e6bb 612c 02be 0fa7 5fbe 24ae a4be
000002d0: 0438 b8bd 6971 ab3a e8a9 98be 01a3 bebe
000002e0: 08f6 94bd 08bd 95be 4996 9ebe bcf7 f8bc
000002f0: 3023 663e c13a e13d e5ed 84be f221 0d3c
00000300: be46 b4bd 27f9 0ebe 3074 88be ec6c a6be
00000310: 28ac 753e deaf 253e 9b88 003c 659f b03e
00000320: 92b6 4ebb f2e5 2f3d 9017 043d 1670 48bc
00000330: 667b 94be 0d39 0c3e 9b6d 8d3d a63b 383e
00000340: dc89 14be e068 fb3e ecea da3d 933f aabd
00000350: 8bf5 52be 695f 0f3e d9ef d03d b393 ab3e
00000360: 6466 cdbc be0c 603e 649f af3c e823 0a3d
00000370: 7ac0 7f3d ecf7 94bc 4c61 4f3d f904 9dbe
00000380: e86a 0d3e 34ed 96be 0523 e6bd 4306 8c3e
00000390: 7f20 e1be e865 133e 687c 6cbd 70c3 0fbe
000003a0: afb1 ce3d 6455 903e c1b4 623e 9aa1 c4bc
000003b0: 570c 043c 98ae 8b3d 3c8f 853e b429 813d
000003c0: b6b0 45be 3f2e bd3e 7869 66be c111 25be
000003d0: d365 b6be 9805 0d3d 54b7 24bf cfdb 96be
000003e0: 9cb6 9dbd 0040 483e ee5b 3c3e 8f26 dcbd
000003f0: 80c3 c4bc ce0d 53be f8ff 97be 9144 043e

l2.weight f4 [300, 400]
0.0029144858 -0.010176481 -0.03569572 0.03237528 -0.030423326 -0.024700476 -0.049622934 -0.016080717
-0.03638343 0.034503393 -0.055134945 -0.015863925 -0.019480044 0.008287944 -0.051651217 -0.05360624
-0.07485032 -0.08180959 -0.057848163 -0.027347514 -0.054433122 0.008703364 -0.12855978 0.0053941812
0.021739865 -0.026519649 -0.047582477 0.0038568769 -0.07499654 0.064701125 -0.0499464 -0.0033071525
-0.025494993 -0.0315498 -0.109600626 -0.07027366 -0.04455489 -0.014384669 -0.08968182 -0.06061464
-0.050966695 0.0048904605 -0.04815936 0.0070632333 0.025007358 -0.0861035 0.006425162 -0.049615707
-0.014934789 -0.0049974546 -0.03105778 -0.0545962 -0.033152066 -0.10244237 -0.013668927 -0.0045569874
-0.071443506 -0.007576864 0.00886517 -0.01241639 0.04413476 -0.0046172813 -0.060147982 -0.041765336
-0.014854489 -0.079507604 -0.028750438 -0.00232925 -0.048124522 -0.004480821 -0.037279516 -0.090939656
-0.09544937 -0.007860925 -0.021795351 -0.07891627 -0.00045083903 0.0072070467 -0.067484304 -0.071871534
-0.0531007 -0.08500093 -0.028682092 -0.041075528 0.05075995 -0.070446335 0.0437732 -0.027497603
-0.067967676 0.034585904 0.04682022 0.036877543 0.01389182 -0.06739778 -0.059175488 -0.0023957267
-0.030816143 -0.007915923 -0.060581677 -0.061904464 0.00767513 -0.017051402 0.02509282 -0.01067416
0.023823466 -0.084880225 0.009894269 -0.06292356 -0.003922522 -0.039532483 0.007839612 -0.030432355
-0.0072602187 0.0013706232 -0.08483184 -0.09261958 -0.0034293733 0.04222111 -0.0044857077 0.020947339
0.035746794 -0.005497415 -0.06914541 -0.055352528 -0.06783991 -0.068753764 0.04701968 -0.0052771694
-0.039961122 0.004970098 -0.00500055 -0.07713662 -0.088494994 -0.1044521 -0.16933724 -0.05242955
-0.055020954 -0.07452313 -0.048758123 -0.03091036 -0.05510603 -0.07352036 0.06027197 0.0010617288
-0.004933921 -0.018410524 0.0055351015 -0.03836874 -0.089628 -0.053432565 -0.07010866 -0.0070282742
-0.0663624 -0.017013691 -0.012359414 -0.070460014 -0.07863747 -0.023834052 -0.0678869 -0.08076976
-0.03642398 0.023353986 0.022852363 -0.133864 -0.09195572 -0.076364346 -0.0625282 -0.046483647
-0.090270765 -0.023422489 -0.053651787 -0.038851716 -0.004691016 -0.021618746 -0.013493029 -0.051304936
0.031944685 0.007394428 0.0029651448 -0.007975479 -0.015804062 0.00072094053 -0.0061914963 0.045571294
0.056682397 -0.059127025 -0.014202955 0.0012991505 -0.0037903474 -0.08267214 -0.07366933 0.027722325
0.037277374 -0.12516531 -0.004138477 -0.03680633 0.01497471 -0.04416343 -0.068791926 -0.021821925
0.0075939116 -0.075079784 -0.06312553 -0.071973965 -0.049679086 0.03352602 -0.01546372 -0.030000465
-0.056940887 -0.018631954 -0.0036141723 -0.13040331 0.0015962941 0.1216898 0.027705383 0.016612437
-0.0035805681 -0.1102673 -0.05620978 0.03747203 -0.05193314 -0.010201682 -0.032002244 -0.053387083
-0.012607263 -0.0418678 0.008873962 0.05958113 -0.033650573 -0.014360458 -0.015335708 -0.056872923
-0.018736914 -0.048744805 0.02693593 -0.06325855 0.027696272 -0.050497003 0.021524467 -0.0478918
-0.057356134 0.009819834 -0.06974411 -0.047407154 -0.04847061 0.02251998 0.004412991 -0.07458617
-0.046549447 -0.0062272954 -0.025795562 0.04668765 -0.020009147 -0.074009776 -0.058939375 -0.050889373
00000000: f500 3f3b 41bb 26bc ad35 12bd f19b 043d
00000010: 573a f9bc a758 cabc 6b41 4bbd b5bb 83bc
00000020: cb06 15bd 6e53 0d3d 2ed5 61bd 10f5 81bc
00000030: 9d94 9fbc 28ca 073c 3a90 53bd 3792 5bbd
00000040: 204b 99bd c98b a7bd 32f2 6cbd e507 e0bc
00000050: 44f5 5ebd 8e98 0e3c 2da5 03be acc1 b03b
00000060: cd17 b23c bc3f d9bc d8e5 42bd a8c3 7c3b
00000070: c997 99bd 0682 843d 9994 4cbd d0bc 58bb
00000080: e0da d0bc 5d3a 01bd 4b76 e0bd a3eb 8fbd
00000090: 307f 36bd adad 6bbc 1aab b7bd 0f47 78bd
000000a0: 74c2 50bd 2840 a03b c042 45bd b272 e73b
000000b0: 3bdc cc3c 0857 b0bd 2a8a d23b d739 4bbd
000000c0: 0cb1 74bc b0c1 a3bb e36c febc 44a0 5fbd
000000d0: 76ca 07bd 4ecd d1bd a3f3 5fbc c852 95bb
000000e0: f950 92bd 5847 f8bb 383f 113c 1d6e 4bbc
000000f0: a6c6 343d 904c 97bb bb5d 76bd 2112 2bbd
00000100: 3e60 73bc e2d4 a2bd 0a86 ebbc 55a6 18bb
00000110: 381e 45bd dad3 92bb 68b2 18bd 923e babd
00000120: f67a c3bd 1ccb 00bc 2a8c b2bc da9e a1bd
00000130: 975e ecb9 1729 ec3b 3635 8abd 6231 93bd
00000140: 1f80 59bd f814 aebd b5f6 eabc d03e 28bd
00000150: aae9 4f3d 2b46 90bd 874b 333d a742 e1bc
00000160: a332 8bbd f3a9 0d3d 8fc6 3f3d e80c 173d
00000170: 849a 633c d907 8abd ff61 72bd a001 1dbb
00000180: 2372 fcbc cab1 01bc 7e24 78bd 898f 7dbd
00000190: a87f fb3b 62af 8bbc 758f cd3c ace2 2ebc
000001a0: 6e29 c33c afd5 adbd 921b 223c 11de 80bd
000001b0: 8088 80bb d0ec 21bd b771 003c 464d f9bc
000001c0: 21e7 edbb 7ca6 b33a 51bc adbd 56af bdbd
000001d0: 56bf 60bb 0bf0 2c3d d8fc 92bb c199 ab3c
000001e0: 3b6b 123d a923 b4bb 1c9c 8dbd 55b9 62bd
000001f0: a7ef 8abd c6ce 8cbd b597 403d 1bec acbb
00000200: 46ae 23bd 34dc a23b a7db a3bb cef9 9dbd
00000210: dd3c b5bd fcea d5bd be66 2dbe 5ec0 56bd
00000220: a75d 61bd 959f 98bd 99b6 47bd b937 fdbc
00000230: dcb6 61bd d891 96bd bedf 763d b529 8b3a
00000240: bbac a1bb abd1 96bc cc5f b53b 8a28 1dbd
00000250: e38e b7bd 1bdc 5abd 2195 8fbd 704d e6bb
00000260: 03e9 87bd 4c60 8bbc 247f 4abc 574d 90bd
00000270: af0c a1bd a13f c3bc 4908 8bbd 9e6a a5bd
00000280: 5031 15bd dc50 bf3c e134 bb3c a513 09be
00000290: 4853 bcbd e964 9cbd c90e 80bd a365 3ebd
000002a0: e1df b8bd 85e0 bfbc fac1 5bbd fa22 1fbd
000002b0: 18b7 99bb cc19 b1bc de11 5dbc 2025 52bd
000002c0: 6ed8 023d f54c f23b e052 423b 95ab 02bc
000002d0: 8577 81bc 80fd 3c3a 09e2 cabb f7a8 3a3d
000002e0: cd2b 683d 2e2f 72bd 83b3 68bc 4248 aa3a
000002f0: 7a67 78bb 0350 a9bd f2df 96bd ee19 e33c
00000300: 29b0 183d 562b 00be 109c 87bb 3cc2 16bd
00000310: 7c58 753c b6e4 34bd c8e2 8cbd e5c3 b2bc
00000320: 59d6 f83b 6ec3 99bd f547 81bd 1667 93bd
00000330: 4c7c 4bbd 9452 093d 8b5b 7dbc 89c3 f5bc
00000340: d93a 69bd 0aa2 98bc c0db 6cbb 7288 05be
00000350: be3a d13a 8038 f93d 66f6 e23c ce16 883c
00000360: f7a7 6abb d2d3 e1bd 3a3c 66bd 457c 193d
00000370: d8b7 54bd f524 27bc c914 03bd 6aac 5abd
00000380: b28e 4ebc 927d 2bbd 1864 113c 580b 743d
00000390: 2fd5 09bd 2048 6bbc 9f42 7bbc 95f3 68bd
000003a0: 287e 99bc a2a8 47bd bda8 dc3c b38d 81bd
000003b0: 4be3 e23c f2d5 4ebd 1454 b03c 312a 44bd
000003c0: 44ee 6abd 5ee3 203c 00d6 8ebd 012e 42bd
000003d0: 1e89 46bd d27b b83c da9a 903b a2c0 98bd
000003e0: a2aa 3ebd 570e ccbb 3751 d3bc 8d3b 3f3d
000003f0: 39ea a3bc 7092 97bd 6a6a 71bd 6071 50bd

l2.bias f4 [300]
-0.11195238 -0.034449913 -0.047746964 -0.07130114 -0.28044844 -0.049937766 -0.0614715 -0.037553158
0.010407584 -0.021604633 -0.30317676 0.050077233 -0.28954923 -0.0094417455 -0.042533744 -0.24964967
-0.32363197 0.022537166 -0.16975981 -0.0051220558 -0.08396749 -0.042060733 -0.21362881 -0.08740381
0.037601028 -0.06250444 0.046081446 -0.026680898 0.02394462 -0.02008977 -0.049074385 -0.06249469
0.036810778 0.10365766 0.0079425825 -0.019285202 -0.056586936 -0.012451695 -0.020145167 -0.05159573
-0.105304584 0.011246178 -0.01798965 0.0018288973 -0.16758281 -0.062540606 0.09218448 -0.06245506
-0.0074881986 -0.06555698 0.036005694 -0.15387751 -0.40308556 0.007351979 0.037942097 -0.0552279
0.020879434 0.10571425 -0.09108849 0.019101074 -0.101705484 -0.01664006 0.0069318484 -0.38240734
0.056316104 -0.0010946939 0.10160073 0.104045786 -0.2605824 -0.066063285 -0.001387737 -0.01880454
-0.030215934 0.09514985 0.108130604 -0.06819236 0.054557066 0.027455207 -0.038850244 -0.02895277
-0.10916945 -0.015831646 0.0778968 -0.054851055 0.008526857 -0.068229936 -0.091000825 0.021558397
-0.0024101879 -0.0023259923 0.015290042 0.11434558 -0.0943254 0.050889287 -0.12560609 0.02093056
-0.043843385 -0.061349828 0.12583545 -0.03444643 -0.05134295 -0.12182441 -0.082706794 0.05113443
0.107304245 -0.0022449542 -0.0065066963 -0.085253604 -0.0045902147 -0.016080642 0.19036 -0.18022597
-0.11941089 -0.005323345 -0.21627742 0.03793339 -0.062578015 0.21130298 -0.060970165 0.03544152
-0.13692296 0.080457 -0.056089807 0.059170812 0.07258135 0.020698223 -0.17190655 -0.037579305
-0.055130135 -0.06444776 0.118581146 -0.06312849 -0.05821338 0.025439352 0.15126418 -0.021684581
-0.019000122 -0.15022476 0.02050536 -0.3597973 -0.103574455 -0.22048713 0.03390925 0.06424204
-0.013652549 -0.03693741 0.1625834 -0.018931484 -0.053559035 -0.017331213 -0.0919499 -0.02963068
-0.06561773 0.0427665 -0.017034676 0.013295337 -0.007173553 -0.05509664 -0.15192096 -0.050427537
-0.01469407 -0.058963165 -0.14666262 -0.029126877 0.1460802 -0.0011230484 0.09152745 -0.024797922
-0.0013826648 -0.021943111 0.02834239 -0.010219857 0.007553409 -0.20305645 -0.02789665 -0.112919524
-0.048406646 -0.08303894 -0.011601893 -0.0655521 -0.06892659 -0.035313044 -0.04180627 0.117075175
-0.051271904 0.0103513375 -0.045134477 -0.13883853 0.01627079 -0.04261112 -0.008687105 -0.03101746
-0.0518414 -0.045141365 -0.02888523 -0.10811056 0.0717843 -0.04609271 -0.067138545 -0.12035348
-0.031242462 -0.04908845 -0.09576476 -0.12745747 0.0055348882 0.0036268178 -0.052211545 -0.07545921
-0.049571857 -0.05774185 -0.03802372 -0.017477745 0.00033140738 -0.008161188 -0.01523247 -0.0070082573
-0.03927466 -0.0085495105 0.030823538 -0.015717233 -0.0074961134 0.022319004 -0.07351934 -0.039466772
-0.29345652 0.017407682 0.057180353 -0.12551321 -0.1664929 -0.042382937 -0.042652868 0.045978557
0.09843413 -0.0018197126 -0.00661107 -0.049183846 -0.023309099 -0.092868015 0.03392093 -0.0060818275
-0.054776255 -0.0324106 0.0010620531 -0.046380866 -0.06664384 0.10080182 -0.059369188 -0.1428119
-0.0872952 0.027894065 -0.14849786 0.032270823 -0.092499524 -0.0072035254 0.08212834 -0.36143488
00000000: 4a47 e5bd 5a1b 0dbd 5292 43bd 5506 92bd
00000010: f096 8fbe 8b8b 4cbd 8ac9 7bbd 57d1 19bd
00000020: 9284 2a3c 33fc b0bc fc39 9bbe c91d 4d3d
00000030: cc3f 94be 8db1 1abc dd37 2ebd 2aa4 7fbe
00000040: 17b3 a5be dd9f b83c 84d5 2dbe ebd6 a7bb
00000050: 26f7 abbd e047 2cbd 83c1 5abe c500 b3bd
00000060: 8903 1a3d 5402 80bd e6bf 3c3d e691 dabc
00000070: 8227 c43c 4d93 a4bc 3902 49bd 6ffa 7fbd
00000080: e6c6 163d 784a d43d 9b21 023c 00fc 9dbc
00000090: b4c7 67bd 3202 4cbc 7a07 a5bc 0b56 53bd
000000a0: eea9 d7bd e441 383c 085f 93bc 9cb7 ef3a
000000b0: d49a 2bbe 4a15 80bd 37cb bc3d e1d0 7fbd
000000c0: 905f f5bb bd42 86bd b57a 133d 1192 1dbe
000000d0: 3b61 cebe dfe8 f03b 2c69 1b3d a736 62bd
000000e0: 590b ab3c b680 d83d 9a8c babd db79 9c3c
000000f0: f74a d0bd bc50 88bc 8f24 e33b e5ca c3be
00000100: b7ab 663d d57b 8fba 0b14 d03d f515 d53d
00000110: 0e6b 85be 304c 87bd bae4 b5ba fb0b 9abc
00000120: 6887 f7bc eddd c23d 9473 dd3d 70a8 8bbd
00000130: 3b77 5f3d bee9 e03c 6f21 1fbd 5c2e edbc
00000140: 3c94 dfbd 5eb1 81bc 5c88 9f3d 80ab 60bd
00000150: 3bb4 0b3c 23bc 8bbd a45e babd 3c9b b03c
00000160: 3ef4 1dbb ad6f 18bb 1683 7a3c 042e ea3d
00000170: ad2d c1bd 4971 503d e29e 00be 9176 ab3c
00000180: 1f95 33bd f549 7bbd 02db 003e b317 0dbd
00000190: fc4c 52bd 147f f9bd 2e62 a9bd 5672 513d
000001a0: 54c2 db3d 1520 13bb 2036 d5bb 7199 aebd
000001b0: 8369 96bb 8dbb 83bc bbed 423e 288d 38be
000001c0: b28d f4bd 746f aebb d477 5dbe 0b60 1b3d
000001d0: e728 80bd cf5f 583e dabb 79bd 212b 113d
000001e0: 8835 0cbe a4c6 a43d 6dbe 65bd 185d 723d
000001f0: 88a5 943d 528f a93c 4508 30be c2ec 19bd
00000200: 23d0 61bd 30fd 83bd acda f23d 8249 81bd
00000210: 2771 6ebd 3066 d03c ffe4 1a3e dda3 b1bc
00000220: 25a6 9bbc 85d4 19be dbfa a73c 5a37 b8be
00000230: d81e d4bd 61c7 61be 6de4 0a3d 5591 833d
00000240: f1ae 5fbc ae4b 17bd 437c 263e 3316 9bbc
00000250: b860 5bbd 30fa 8dbc 3b50 bcbd 0abc f2bc
00000260: 9762 86bd ed2b 2f3d 4e8c 8bbc afd4 593c
00000270: 2010 ebbb 04ad 61bd 2b91 1bbe 1b8d 4ebd
00000280: 66bf 70bc 5c83 71bd ba2e 16be 7d9b eebc
00000290: 0c96 153e 4033 93ba be72 bb3d 0325 cbbc
000002a0: 883a b5ba 0ac2 b3bc 4d2e e83c 3071 27bc
000002b0: 9682 f73b 08ee 4fbe 8487 e4bc 5a42 e7bd
000002c0: 0c46 46bd 5210 aabd de15 3ebc 2e40 86bd
000002d0: 6229 8dbd 69a4 10bd 0d3d 2bbd 1cc5 ef3d
000002e0: 7d02 52bd a898 293c eede 38bd b02b 0ebe
000002f0: 524a 853c ff88 2ebd 5c54 0ebc 5418 febc
00000300: a657 54bd 27e6 38bd b8a0 ecbc 1269 ddbd
00000310: a603 933d b6cb 3cbd ef7f 89bd e37b f6bd
00000320: 31f0 ffbc f810 49bd 5120 c4bd 3684 02be
00000330: 025e b53b e8af 6d3b c6db 55bd 5c8a 9abd
00000340: dc0b 4bbd b882 6cbd c3be 1bbd 7d2d 8fbc
00000350: bfc0 ad39 81b6 05bc 9c91 79bc 86a5 e5bb
00000360: 77de 20bd 3f13 0cbc a581 fc3c 6dc1 80bc
00000370: f5a1 f5bb 58d6 b63c 4f91 96bd e9a7 21bd
00000380: ef3f 96be 8e9a 8e3c f235 6a3d 8986 00be
00000390: 1d7d 2abe bb99 2dbd c6b4 2ebd 0354 3c3d
000003a0: d597 c93d 6c83 eeba ada1 d8bb 0075 49bd
000003b0: b9f2 bebc 9631 bebd acf0 0a3d 114a c7bb
000003c0: 115d 60bd fac0 04bd 9734 8b3a ddf9 3dbd
000003d0: 917c 88bd 2f71 ce3d 1b2d 73bd 483d 12be
000003e0: d3c7 b2bd 1882 e43c d30f 18be 692e 043d
000003f0: 6470 bdbd 8d0b ecbb e732 a83d fe0d b9be

l3.weight f4 [6, 300]
0.021747079 -0.10264034 -0.012142994 0.048643466 0.029591927 0.0025140208 -0.06010001 -0.06527627
-0.053348515 0.020655872 -0.061293483 -0.0044494723 -0.06830859 -0.09345367 0.024547044 -0.07077601
-0.014227227 0.03491203 -0.057418622 0.024210878 0.023360437 0.022182617 -0.008385274 -0.08577616
-0.025241826 -0.040598407 0.0037715416 -0.053316336 0.007867753 0.0078573525 0.02752312 -0.07749889
0.04127887 -0.026893865 0.039249074 0.028868437 -0.016736012 0.026758753 -0.036065236 0.009811971
-0.12404244 -0.032936163 -0.09808548 -0.03441362 -0.029517563 -0.08229974 -0.052348386 -0.017315336
0.00873558 0.033260964 0.04397523 -0.033611536 -0.12054902 0.060993053 0.027904835 -0.2026646
-0.05059942 -0.028384 -0.06958913 -0.09497943 -0.054745324 -0.026521673 -0.05366452 -0.0612046
-0.026394183 0.03699885 0.00607715 -0.058853127 -0.049490925 -0.008534239 -0.011904944 -0.060326923
0.006134958 -0.05002778 0.0013595604 0.00077493524 -0.054000326 -0.07901505 -0.16593835 0.02453128
0.032289058 -0.061360076 -0.012744446 0.008035158 -0.099449776 -0.0632691 -0.061070956 0.014432803
-0.07500992 0.010822202 -0.07440889 -0.018082352 -0.09635913 -0.00400298 -0.032334946 -0.00020719702
-0.0065470594 0.016829181 0.039577886 -0.044026382 -0.050833113 -0.00011253017 -0.031540122 0.0013789403
-0.09325578 -0.006396106 -0.026432265 -0.053240377 -0.038707003 -0.05242934 -0.007949925 -0.045010664
-0.088185586 -0.036887117 -0.079426356 -0.02027079 -0.118701555 0.025201088 -0.011395411 -0.11881172
-0.0780915 -0.03625237 -0.050210074 0.0051877038 -0.0038145073 0.022276632 0.0093301525 0.01303523
0.012940858 0.011469999 -0.058503747 -0.03052912 0.0074831005 -0.07735714 -0.055784058 -0.007834309
-0.037914112 0.04171998 -0.050125126 -0.09519915 -0.041618146 -0.08506303 0.020673778 -0.009328016
-0.038342062 -0.04756567 -0.012402737 -0.033964075 -0.02477196 -0.010976544 -0.05854037 -0.028577926
-0.021201864 0.02652312 -0.090110876 -0.04540657 -0.0151036335 0.008853704 -0.05238054 0.041983653
0.023573587 -0.02832732 0.01006781 -0.028900214 -0.19808036 -0.046531253 -0.011549698 0.008454381
0.05030717 -0.041247316 -0.05660897 -0.050700553 -0.004187938 -0.062828965 0.009030786 -0.023795288
-0.10028071 -0.104917124 0.003812071 0.028165594 0.019785479 -0.039838027 0.020445468 -0.12532496
-0.016500037 0.0034647537 0.029114973 -0.08320094 0.023949273 -0.021591417 0.022395441 0.021586772
0.050451033 -0.011239056 0.008950407 -0.028982745 0.04768456 -0.009526447 0.049300343 -0.07247018
0.025632327 -0.0009962203 0.023552084 -0.06476112 -0.03943727 -0.04913205 0.012351059 -0.045248568
0.022525953 0.051253416 0.005292043 -0.041764814 -0.05039531 -0.044348568 -0.05790338 -0.06324915
-0.040321685 -0.11284393 0.018577717 -0.042962655 0.022589657 0.01976352 0.05124981 -0.021630041
-0.062574856 -0.056748822 -0.08482946 0.031894017 0.0072063226 -0.020448927 -0.021351403 0.021910727
-0.041161366 0.0080882525 -0.03728127 0.0055420874 -0.017184515 -0.07666866 0.008863366 0.038577586
-0.062252916 0.0006514266 0.05074217 -0.118311845 -0.059269186 -0.008302502 -0.0019893125 -0.015917642
-0.062249664 0.022228675 -0.03902326 0.01907292 -0.016258474 0.0006596689 -0.069439396 -0.12215626
00000000: ee26 b23c 1935 d2bd 69f3 46bc 5f3e 473d
00000010: c56a f23c 45c2 243b 6e2b 76bd 91af 85bd
00000020: f983 5abd 8136 a93c e00e 7bbd e1cc 91bb
00000030: 60e5 8bbd a364 bfbd e216 c93c 03f3 90bd
00000040: 5119 69bc ebff 0e3d ca2f 6bbd e455 c63c
00000050: 635e bf3c 52b8 b53c 6362 09bc 69ab afbd
00000060: f2c7 cebc 844a 26bd f82b 773b 3b62 5abd
00000070: bfe7 003c 20bc 003c 2b78 e13c bdb7 9ebd
00000080: 0814 293d 8650 dcbc a3c3 203d 807d ec3c
00000090: f619 89bc 2c35 db3c 24b9 13bd 64c2 203c
000000a0: f609 febd 12e8 06bd 0ae1 c8bd 4cf5 0cbd
000000b0: d1ce f1bc c48c a8bd 436b 56bd e4d8 8dbc
000000c0: ae1f 0f3c a63c 083d 5f1f 343d 40ac 09bd
000000d0: 68e2 f6bd dad3 793d ae98 e43c 4f87 4fbe
000000e0: 5641 4fbd 9085 e8bc bf84 8ebd 9384 c2bd
000000f0: a23c 60bd fb43 d9bc 54cf 5bbd adb1 7abd
00000100: 9d38 d8bc 1b8c 173d d422 c73b fa0f 71bd
00000110: ffb6 4abd 31d3 0bbc f40c 43bc 5d19 77bd
00000120: c207 c93b eee9 4cbd 4733 b23a 0625 4b3a
00000130: 722f 5dbd a4d2 a1bd beeb 29be d3f5 c83c
00000140: 8841 043d b454 7bbd 15ce 50bc e5a5 033c
00000150: 53ac cbbd 3b93 81bd 8a25 7abd 9077 6c3c
00000160: cd9e 99bd 9b4f 313c b063 98bd 7121 94bc
00000170: f057 c5bd 6e2b 83bb a671 04bd 0743 59b9
00000180: b788 d6bb 5add 893c 6c1c 223d 0255 34bd
00000190: 6236 50bd 2dfe ebb8 3730 01bd 8fbd b43a
000001a0: e3fc bebd 6d96 d1bb 7a88 d8bc 9512 5abd
000001b0: 3c8b 1ebd 26c0 56bd 6740 02bc 1a5d 38bd
000001c0: a59a b4bd f216 17bd 49aa a2bd ee0e a6bc
000001d0: cd19 f3bd 8372 ce3c d1b3 3abc 8f53 f3bd
000001e0: 70ee 9fbd 5d7d 14bd 14a9 4dbd 9dfd a93b
000001f0: d0fc 79bb 7c7d b63c 7fdd 183c b891 553c
00000200: e405 543c aaec 3b3c a0a1 6fbd 3418 fabc
00000210: cc34 f53b 6c6d 9ebd d37d 64bd 795b 00bc
00000220: d44b 1bbd 92e2 2a3d 0150 4dbd c6f7 c2bd
00000230: ca77 2abd 8735 aebd 0e5c a93c 89d4 18bc
00000240: 910c 1dbd 38d4 42bd d934 4bbc ea1d 0bbd
00000250: 91ee cabc f6d6 33bc 07c8 6fbd 411c eabc
00000260: 88af adbc 0447 d93c 0d8c b8bd 3dfc 39bd
00000270: 3b75 77bc 200f 113c fa8c 56bd 0df7 2b3d
00000280: 651d c13c b20e e8bc 75f3 243c 24c0 ecbc
00000290: 94d5 4abe 8e97 3ebd f23a 3dbc 3e84 0a3c
000002a0: e40e 4e3d f2f2 28bd cfde 67bd 62ab 4fbd
000002b0: f83a 89bb 79ac 80bd ddf5 133c 56ee c2bc
000002c0: f95f cdbd cade d6bd f0d3 793b 88bb e63c
000002d0: 2815 a23c 332d 23bd 417d a73c 3055 00be
000002e0: 162b 87bc ec10 633b 8682 ee3c 4165 aabd
000002f0: 4431 c43c 7ce0 b0bc a576 b73c bed6 b03c
00000300: bea5 4e3d 0424 38bc baa4 123c 396d edbc
00000310: e350 433d d114 1cbc 28ef 493d 3f6b 94bd
00000320: e3fa d13c 9b93 82ba 4df0 c03c 7aa1 84bd
00000330: fa88 21bd b03e 49bd 195c 4a3c 9056 39bd
00000340: 5988 b83c 1aef 513d e068 ad3b 9511 2bbd
00000350: 506b 4ebd d8a6 35bd 182c 6dbd c588 81bd
00000360: 5a28 25bd b81a e7bd 4c30 983c 9cf9 2fbd
00000370: f20d b93c 1be7 a13c 52eb 513d 7c31 b1bc
00000380: 3f27 80bd 7471 68bd 11bb adbd 4da3 023d
00000390: 0423 ec3b 8284 a7bc 23e9 aebc 207e b33c
000003a0: d298 28bd 9784 043c 3fb4 18bd 669a b53b
000003b0: 8ac6 8cbc 7504 9dbd a737 113c 8803 1e3d
000003c0: eafc 7ebd 80c4 2a3a 06d7 4f3d 7b4d f2bd
000003d0: 3fc4 72bd 3807 08bc 205f 02bb b765 82bc
000003e0: 81f9 7ebd e918 b63c dbd6 1fbd d03e 9c3c
000003f0: 7e30 85bc a1ed 2c3a 3e36 8ebd 102d fabd

l3.bias f4 [6]
-0.0030457058 0.05057015 0.21750548 0.04090144 -0.082943104 -0.14272973
00000000: 779a 47bb a522 4f3d c2b9 5e3e 4588 273d
00000010: 13de a9bd be27 12be
