results/runs/single_assembly_step/Average_TD3_20_Peg-in-hole-single_assembly_seed_2/5000_actor.pth (torch_old, 510312 bytes, 6 tensors)

l1.weight f4 [400, 12]
00000000: 1245 8c3c 9d2c ee3d 58a2 033d e23d 49be
00000010: 7a23 7c3e 532b 593d 4d4e f0bb 5e7f d2be
00000020: 09c4 c73d b75c c6be 905e 123c 3a4e 55be
00000030: 68c3 adbd 2914 823e 64b2 2f3d 1c69 e23d
00000040: 31b2 e43d e716 2dbe 9c34 0dbe ee21 8d3e
00000050: 4641 8fbe 9b97 e6bc 0c53 9cbb f2c3 4d3e
00000060: 08f1 d9bb 7b46 2c3e 99e7 1b3c f9d2 76be
00000070: d528 aabd e037 51be f559 97be dd6a 2dbe
00000080: b22b 2ebd d64b 6d3e 046f 3abc 6235 5abd
00000090: 4dad 6abd c8de e93d 5cd3 17bd 02b4 a7be
000000a0: acdf 8cbe 6d7f 28be 305b 093e c85e 9e3e
000000b0: fbf8 a13d 058c 9b3e 7d25 283e 3675 213e
000000c0: c072 fa3c c094 b43c b6bb 1d3e 1292 463e
000000d0: 4649 543e 5655 2b3e 4c24 90bd a08d 52bc
000000e0: f84a 70bd 3ef6 2b3e 1051 033d c0cb 883e
000000f0: 9f67 093e 47f5 82be f547 d73d d318 8e3e
00000100: 7849 833e 88df 8bbb 4910 e63d 545f 80be
00000110: 2dcf e4bd 1a4b 193e 520e 89be e237 823e
00000120: fa4e bfbe ee6a cf3e 16dd 133b 7579 3abe
00000130: 638b 9ebd 3b01 b3be 8767 5cbc 01c5 78bd
00000140: 0c09 763e 86b6 763d 8329 a8be 6f15 d23d
00000150: f90d febb 2a5c 813d 36f9 b63c ed52 2aba
00000160: a5ce 31be e2b9 7fbe 3d0a 193d 12b6 31be
00000170: 08b7 5e3e 71a6 883d b488 ce3d 4be0 bf3d
00000180: af8b d3be e357 dd3d 64f8 09be 494e 99be
00000190: 7372 89be e086 54bc 0af5 84be a4ad 743e
000001a0: 38b5 4e3e bb4b 1f3e 2cb7 613e 7513 953e
000001b0: fae7 91be 109c 323d 3e1a 893e 873a 56be
000001c0: 689e 03be 6012 79bc d2e3 37be 08dd 5ebd
000001d0: d8b9 2ebd e0af 833e 90b2 94bc 224c 203e
000001e0: 9306 bc3e 0574 25be c6fb 3dbe 8c9f e23e
000001f0: ea21 a73e c200 afbd 5b46 9ebe e42f 673e
00000200: d0db f7be 37d6 70be 218a cfbd 6a58 3a3e
00000210: 1e6e f1bd c6d0 83be 642b e53d e485 153e
00000220: 9871 dd3d ce43 7dbe caea 8f3e 506d b2bc
00000230: 89ac 8cbe 7c00 32bd 1813 413e 4a22 083e
00000240: b5e0 7d3d 6f2e b53d 9f6d 4ebe fe2e a53e
00000250: 8ffc c63e 65c7 88be edf1 a1bd a2cb 32be
00000260: 6a06 c7be 6da4 f8bd 1670 fabc d6d2 afbe
00000270: a065 57be c066 ce3b 9e05 893e c8ab d33d
00000280: 00ad 44be 4ae4 4b3e 401d c23c 686c 90be
00000290: 405a 603c 94c2 3d3e f8d0 2dbe 609e 59bc
000002a0: db92 c43d 33c9 0cbf f8b4 1cbe 930a 9f3e
000002b0: 31d2 e03e 6bbf f93c 206d cbbe 0cf9 f2bc
000002c0: 79a6 edbe 4098 0abd 378f 8c3e 0eb5 a53d
000002d0: bc98 95be 3547 7e3a 3dee 783d 9af7 80bd
000002e0: 47bd a9be 50d8 07be e943 34be f94b a73d
000002f0: d6a3 953e cbdf d93d d845 593e f2e1 47be
00000300: 2053 023f e1fa 25be 13c6 aabd 5215 d03d
00000310: 57b9 253e 9ab3 2dbe c8d6 563d 9f9e 0a3e
00000320: b1f1 76be d3a4 85be 33e4 bbbd 5472 6fbe
00000330: 0bc7 bb3d 99e6 ea3e cc6d 003c 6d6a 9fbe
00000340: 21b8 f9bc 3a2f 91be a55a 99be 2010 50be
00000350: 63d6 923c 2123 58be a54d 1cbe 22b8 923d
00000360: 2573 13bc 1811 1f3b d897 f93c b3bb fa3d
00000370: 90a9 94be 965f 2fbe 7e0d d63e 1cba b83e
00000380: 19f0 0a3c 3f2e c23c e2b8 80be 8dd8 d03e
00000390: 86c7 e53e a2e7 0cbf 2c65 30bd b5fc d73e
000003a0: 3597 b63e cf3b 37be 8c55 f8bd 953d abbd
000003b0: cdfc f6bd 550f 41be 600c 61be 8b5a 3dbe
000003c0: 3a68 f5bd 273b 7f3d bb80 37be 4ef9 2ebe
000003d0: d284 653e fbfa e23d 1354 e83c cea7 953d
000003e0: 1c59 82be 0545 2fbe 04f2 11be ce0f 03bd
000003f0: c530 ea3d 930f c5be 255e 33be 59b0 963e
0.017122779 0.11629603 0.032137245 -0.19652513 0.24622908 0.053019833 -0.007333553 -0.41112798
0.097541876 -0.3874261 0.008933678 -0.20830622 -0.084845364 0.25406006 0.042894736 0.11055204
0.111668 -0.16903268 -0.137896 0.2756495 -0.27979487 -0.028148463 -0.004770642 0.20094278
-0.0066510476 0.16823761 0.009515666 -0.24103917 -0.08308569 -0.20431471 -0.2956082 -0.16935296
-0.04252214 0.2317346 -0.011379007 -0.053273566 -0.05729418 0.11419445 -0.037066802 -0.32754523
-0.27514398 -0.16454859 0.13413692 0.30931687 0.079088174 0.30380264 0.1642055 0.15767369
0.030572295 0.022043586 0.15403637 0.19391659 0.20731077 0.16731772 -0.07038173 -0.012851149
-0.058665246 0.16793153 0.03205973 0.2671795 0.13418435 -0.25577757 0.105117716 0.27753314
0.2564199 -0.0042685904 0.11233575 -0.2507273 -0.11172328 0.14970055 -0.26768738 0.2543326
-0.37364942 0.40511268 0.0022562197 -0.18210395 -0.0774143 -0.34961876 -0.013452417 -0.060734753
0.24026889 0.06023266 -0.3284417 0.102579944 -0.0077531305 0.06316407 0.02233563 -0.0006497342
-0.17363985 -0.24973252 0.03736328 -0.1735461 0.21749508 0.06672371 0.10084668 0.09368952
-0.41317508 0.10807779 -0.1347366 -0.2994254 -0.2684513 -0.01297161 -0.259682 0.23894364
0.20186317 0.15556233 0.22042531 0.29116407 -0.28497297 0.043605864 0.26777834 -0.20920764
-0.12853396 -0.015202135 -0.17958 -0.05441001 -0.042657703 0.2572012 -0.018151551 0.15654042
0.36723766 -0.16157539 -0.18553075 0.4426235 0.32643062 -0.085450664 -0.30913052 0.22576863
-0.4840989 -0.23519216 -0.10133768 0.1819779 -0.11788581 -0.2574522 0.11189917 0.14601856
0.10812682 -0.24732897 0.28108817 -0.02178064 -0.27475384 -0.043457493 0.1885494 0.1329433
0.061981875 0.08846747 -0.20159005 0.32262415 0.38864562 -0.26714626 -0.07907472 -0.17460492
-0.3887208 -0.12140737 -0.030571025 -0.34340543 -0.2103486 0.00629887 0.26762098 0.10335499
-0.1920662 0.19911304 0.023695588 -0.28207707 0.013693392 0.18531257 -0.16974247 -0.013282388
0.09598323 -0.54994506 -0.15303409 0.31062755 0.43910363 0.030486783 -0.39731693 -0.02965977
-0.4641607 -0.033836603 0.27453014 0.08091174 -0.2921809 0.0009699942 0.060774077 -0.06297226
-0.3315222 -0.1326611 -0.1760403 0.081687875 0.2922656 0.10638388 0.2121805 -0.19519785
0.5090809 -0.16208984 -0.08338561 0.101603165 0.16183983 -0.16963044 0.052450925 0.13537072
-0.24115635 -0.26102313 -0.09174385 -0.23383456 0.09168824 0.45879057 0.007838678 -0.31135884
-0.030483307 -0.28356344 -0.2995197 -0.20318651 0.017924493 -0.2110715 -0.15263994 0.07164027
-0.008999621 0.0024271663 0.030467913 0.12242832 -0.29035616 -0.17126307 0.4180717 0.3607949
0.008480095 0.023703692 -0.25141054 0.40790215 0.44878787 -0.55040944 -0.043065235 0.42184988
0.35662237 -0.17893909 -0.12125692 -0.08361355 -0.12059937 -0.18853505 -0.21977377 -0.1849157
-0.1198277 0.06231227 -0.179202 -0.1708729 0.22413948 0.11083027 0.028360402 0.07307397
-0.2545861 -0.17116173 -0.14252478 -0.031997494 0.11435083 -0.38488445 -0.17516382 0.29431418

l1.bias f4 [400]
00000000: 55de 363e 2d76 54be 6fd4 ccbc 23e3 88bd
00000010: c008 4dbc 8f8f 57bd 239c 21bd 58ab 503e
00000020: 41a0 74be cc2f 213e 2a3c 02bd 5e5e 433e
00000030: 7367 8abe f85c 3c3d ca90 4abe 3b81 253e
00000040: 3dc8 8c3e 088f 8e3e 56d5 2d3e 4a56 db3d
00000050: 44c9 493d 12de 463e 25f8 8cbd 11af d7bd
00000060: daf2 8ebc d6e5 90bd fc49 13be 9d2c 863d
00000070: db51 37be 2b90 7abe 06df 47be d926 9f3d
00000080: 0e9d 3cbe 94a8 633e 4361 a0be 4cd5 e43d
00000090: f9ef 94be 94f9 afbd 7ae6 16be ee3e 183d
000000a0: 3ec4 83be 2be0 92be e7ee 96bd 5816 323d
000000b0: 038f 82be 05f4 953d 958a 2bbe b740 263e
000000c0: fb31 3b3e fa69 f0bc 1ff3 583d f29b 8d3e
000000d0: 7afa a4bd 585b a13d c18a 063e 12cb 93be
000000e0: c166 5bbe d2d2 b5bd a2cf 8b3e 5818 753e
000000f0: 6621 80be b382 203d 86f8 743e 4b72 8d3e
00000100: ce33 d83d 16f3 14be c7d5 02be b8a6 073d
00000110: 6cdb 283e c765 463e 9d52 45be 8e6e 8e3e
00000120: 031b 7fbe c269 343e 8048 c33d 7c82 03be
00000130: 829a 73be 5a98 56be c9dd c63d 2ded 6a3c
00000140: 37e0 72be 2b53 68be 7014 9cbe 0947 0c3c
00000150: 6f2d b8bc 1071 f03d 8e70 303c 63af 033d
00000160: 70f8 753e e481 83be f5a7 6a3e ac0a d13d
00000170: 932a bdbd 5a19 67be 3529 23be 23b8 503e
00000180: 2850 26be 23c7 c6bd 47c7 01bd fc50 9f3d
00000190: 4284 273e 4a39 56be a252 ae3e 20b5 323e
000001a0: ad02 b2bc 1d43 19be 78af 42be c075 653d
000001b0: 58fd c9be 206f ad3e 2e8e 543c 1066 49ba
000001c0: 0fb0 0c3e ae3e ffba b938 92be 9754 8abe
000001d0: 2c59 5d3e 3339 d23e 71b4 f73d f646 833e
000001e0: e8df adbe 5448 79be a4e6 cf3d c05a 863e
000001f0: 3ccd b23d 3322 ed3d e5f4 203e b168 ba3d
00000200: f38f b9bd e5f2 13be 1344 9abd 966f 5a3e
00000210: 5a0a 8cbd 2a91 78be df4f 083e e68b 253e
00000220: 3412 b33d a2f8 a2be be05 29be 8cd6 013e
00000230: eeac 823e 85e2 f83d 90e3 44be dc91 0539
00000240: 321a 7ebe b6b1 833d b6f2 be3c 2439 473e
00000250: 8360 bdbb b192 663e aa6d e93c 2c04 71be
00000260: 00b5 663e e14a a1bd 485e 8abd a2b1 893e
00000270: 961b 7f3d fdc4 1abe ca8f 1f3e 25e5 ce3e
00000280: 155c af3d 7660 173d d828 163e c4ea 2a3e
00000290: e205 4e3c e8d9 81be d3b1 3ebe 143e d63c
000002a0: a243 78be 30ce 053e f8e5 78be 0fba 7e3e
000002b0: 6464 22be 66f1 b23d 3e0e ccbe f1db c03d
000002c0: efca a03d 0c38 b83d 0772 1c3c b174 ac3b
000002d0: 7440 8c3e e43f d23d 76d1 6d3d 7a95 24bd
000002e0: e9ff b1bd 7cfd 4dbe 3960 883c 8a83 a83e
000002f0: 67d8 9a3e dd4b d43d 018a fc3d 42da 5cbe
00000300: 2e59 2cbe c3b4 883e c0a4 b5bc bc4a 8fbe
00000310: 7632 f1bb 340d 54be 950f 253e 934b 55bc
00000320: bd62 9ebe 1892 db3d 5937 703d 70e9 393e
00000330: 34be 57be a6f7 0e3e 3841 49be e796 853b
00000340: 0fc5 303e 3b9f e4bd db49 86be 12f8 b2be
00000350: fa76 2a3e b271 953e 48d6 60bd c223 c63d
00000360: 8caf e93d 092f 7bbe dd6d 9f3d 92a9 03be
00000370: 2b10 95be 8be5 9c3d 9b56 a93e 7506 273d
00000380: 1355 15be e90a 2d3e 8a46 86bd 0f59 9b3d
00000390: cbe5 3bbd 07dc 03be 5a99 d6be 8e2d 613e
000003a0: 2026 27bd 65f9 44be 182c 133d 4020 f2bb
000003b0: 16d0 bcbd c874 413e 38e1 e23e 0b11 c6be
000003c0: de43 183c fb4b 1bbe 427f 96bd ba49 be3d
000003d0: de3e 46be 3e21 88be d82f 96bd dbe9 553e
000003e0: d994 58be 8a06 cebc 7400 0fbe bad3 febd
000003f0: 1bcf bc3e deaf 913e f4f6 83be 2aec bebd
0.1785825 -0.20748205 -0.02500364 -0.06683948 -0.012514293 -0.052627143 -0.039455544 0.20377862
-0.23889257 0.1574089 -0.03179566 0.19078967 -0.2703205 0.0459871 -0.19781795 0.16162579
0.2749652 0.278435 0.16975912 0.10709818 0.049264207 0.1942065 -0.06883267 -0.10531438
-0.017449785 -0.07075088 -0.14383692 0.06551478 -0.17902319 -0.24469058 -0.1951867 0.077710815
-0.18419287 0.22232276 -0.31324205 0.11173496 -0.29089335 -0.08592525 -0.14736357 0.03716939
-0.25735658 -0.28686652 -0.07369786 0.04347834 -0.25499734 0.07321934 -0.16752084 0.16235624
0.18280785 -0.029347409 0.052966233 0.2765804 -0.08055587 0.078787506 0.13138868 -0.28865868
-0.21425916 -0.088781014 0.2730685 0.23935068 -0.2502548 0.039187144 0.23922929 0.2762626
0.10556756 -0.14545855 -0.12776862 0.03311798 0.16489953 0.19374762 -0.19269796 0.27818722
-0.24912648 0.17618468 0.09535313 -0.12842745 -0.23789409 -0.20956555 0.09710271 0.014338774
-0.23718344 -0.22687976 -0.30484343 0.008561858 -0.022482602 0.11740315 0.010769023 0.032149684
0.24020553 -0.25685036 0.22915633 0.102071136 -0.09236636 -0.22568265 -0.15933688 0.20382743
-0.16241515 -0.09705951 -0.031684186 0.077791184 0.16359046 -0.20920292 0.3404742 0.17451906
-0.021729792 -0.14967008 -0.19012249 0.0560205 -0.39451098 0.33873844 0.012973351 -0.000768275
0.13739036 -0.0019473636 -0.285589 -0.27017662 0.21616048 0.41059265 0.12094963 0.25640076
-0.3395989 -0.24343997 0.10151413 0.26241112 0.087305516 0.115787886 0.1571842 0.091019996
-0.09060659 -0.14448126 -0.075325154 0.21331629 -0.06837912 -0.24274126 0.13311718 0.16166648
0.08743706 -0.31830317 -0.16506097 0.126795 0.2552256 0.1215258 -0.19227433 0.00012738205
-0.2481468 0.0643038 0.023309093 0.19455391 -0.0057793274 0.22516896 0.028494675 -0.23536748
0.22529984 -0.0787561 -0.06756264 0.26893336 0.062282167 -0.15114208 0.15582195 0.40409198
0.08562485 0.036957227 0.14664018 0.16691118 0.012574645 -0.25361562 -0.18622522 0.026152648
-0.2424455 0.13066936 -0.24306476 0.24875663 -0.15858608 0.08737449 -0.39854616 0.094169505
0.078512065 0.08995065 0.009548671 0.005262934 0.27392924 0.102660924 0.058061086 -0.040181614
-0.08691389 -0.20116228 0.016647445 0.32912856 0.30243227 0.10366032 0.1233101 -0.21567634
-0.16830894 0.2670041 -0.022173285 -0.27986705 -0.0073607517 -0.20708162 0.16119225 -0.013018507
-0.30934706 0.107212245 0.058646534 0.18155456 -0.2106865 0.13961658 -0.19653785 0.004076827
0.17262672 -0.11163183 -0.26228222 -0.34954888 0.16646948 0.29188305 -0.054891855 0.09674789
0.11410436 -0.24529661 0.07784627 -0.12857655 -0.29113898 0.07660969 0.33073887 0.040777642
-0.14583234 0.16898693 -0.06556423 0.07585346 -0.045873445 -0.12876903 -0.41913873 0.21990034
-0.040807843 -0.19235761 0.035930723 -0.0073890984 -0.09219377 0.18892205 0.44312453 -0.38684878
0.009293525 -0.15165703 -0.07348491 0.09291406 -0.1935992 -0.26587862 -0.07333344 0.2088999
-0.21150531 -0.025149602 -0.13965017 -0.124427274 0.3687676 0.2845449 -0.25774348 -0.093223885

l2.weight f4 [300, 400]
00000000: 6406 2e3d 86ab 82bc 5b88 4e3d 0a5b 01bc
00000010: d068 adbc 62d6 3cbd f1ab c2bc 9849 4ebd
00000020: 2627 2fbd 38b3 17bd 9ce1 3ebb 0096 1d3a
00000030: 592c 1ebc 40d6 a53b a0a4 c03c d8d6 a43c
00000040: 1443 f73c 1aee 4cbc fa05 293d d12e 403c
00000050: 7432 c7bc a3ee 80bd 9a12 d4bc 7918 93bb
00000060: 2dda 7d3c 94ba 0ebc 026c 77bd ddd2 6a3c
00000070: 82f9 15bd 9d84 6cbd 94cf 8f3c 994d a13b
00000080: 1eee e33c 0d31 2c3d e721 62bd b005 f8bb
00000090: aa1c dd3c 54d3 263c 02d0 57bd c870 063d
000000a0: c094 113c cd7d a2b8 46eb d2bc 974a b8bc
000000b0: a8cd d53b a426 61bd 3de3 eabc a48c 1dbc
000000c0: 0a1c 74bc eb6d 3ebd 855c d43c f587 b6bc
000000d0: fb98 2cbd 3240 f63c 3269 0c3d 22f5 e9bc
000000e0: d6bf 3abd d87d 05bd e817 183d 7872 85bc
000000f0: 9c28 243d d1f0 11bd 3da8 3dbd a0f8 58bc
00000100: 7e8b 15bd a6c9 17bd d0f1 c5bb 201a 2dbc
00000110: 67d9 ccbc 8cdd 333d dfeb ed3c 5dd3 cf3b
00000120: b833 4bbc 6080 a8bc b533 e63c 1d92 0e3c
00000130: 3d05 0bbd 1d98 6b3c de87 dd3c b46e 9e3c
00000140: 9b4b babb c254 16bd 3f54 273d f6bd 523d
00000150: 5444 97bc 8fcd 4fbd 393b 0cbd eae1 213d
00000160: 5843 d33b 25c6 a33c 2048 08bb a21e 9e3c
00000170: 9916 42bd 2564 c0bc 4d41 c4bc cc9d 0b3c
00000180: ade5 66bd 30b5 ba3c 2c67 09bd 40bc adbc
00000190: 47e8 06bd 2ec4 10bd 16f2 4bbc a96e cd3c
000001a0: a5e8 c03c 2aa4 b73c 8a69 56bc 9653 55bc
000001b0: a84b fabc 7ee5 afbc 047e 4cbd e3df 1ebd
000001c0: 3e5b 163d 879c 1ebd 8fb2 51bd 7a12 adbc
000001d0: 4642 d33c 966f 53bc 6d0f f0bc b0a9 d4bb
000001e0: c288 933c 22b6 b13c d41b 303d 5090 04bb
000001f0: 95c7 153d 3efe d53c d2fd 2cbd 527a 053c
00000200: 380d 38bd 7a0e d4bc 7bec febb 821d f23c
00000210: a452 72bd cd19 043d c486 40bc 0c04 5bbc
00000220: 80e9 703a 5911 b33c da9b 82bc ded9 b63c
00000230: 832c 19bc 5f81 3abd f0c9 e53b 1437 2dbd
00000240: 094b 3bbd e015 a1bc 49a2 4d3d 9708 55bd
00000250: 7daf f0bc 01a3 a43b a790 303d 97e6 fdbc
00000260: 8c5a c53c 08e1 42bd 0063 96ba 3909 dbbc
00000270: 3fc4 84bc 3246 833c 30ca f83b 014c 3e3d
00000280: 302a 133d 49b9 143d 9063 77bd 26ec e63c
00000290: 20b5 e53c 5076 b33b 672d d83b 95aa 5ebd
000002a0: 514a 493b 87b8 873b 10d6 38bd a376 0fbd
000002b0: 7853 063d 8dc5 043d ea50 ccbc 02f9 e3bc
000002c0: 94b2 71bc 3000 90bb 21a8 12bd 4d37 fbbc
000002d0: c911 a03b c039 b83b 3a5b 903c 6eda ad3b
000002e0: 2fb5 38bd b397 c83c 977a 82bc d6bb 85bc
000002f0: d9d8 7c3c 9983 c83c 5840 bfbc 7d89 0cbd
00000300: 5af3 e5bc f9f1 783c d513 28bd 21d8 1aba
00000310: dcb0 b6bc 7d36 b4bc 3fd1 013d 3dca 33bc
00000320: f00c 59bc f262 593c 9216 cf3c 18b4 383c
00000330: 5673 f93c eeab 903c 79c8 063d 94fb 1b3d
00000340: 7b3b f83c 6f55 0a3c 2bc2 38bd 0063 b33c
00000350: fb98 eb39 a8cc 273d 3147 1dbb 0ff5 64bc
00000360: dd54 b53c 32ce 953c e0ea babc 409f ab3b
00000370: ad15 213c 406d 5cbd 9ac9 32bd 341c 24bd
00000380: f725 62bc 579c f93c 9da6 9ebc 76b3 20bc
00000390: 5861 3fbc 8803 5cbc c9c8 5abd c8f5 09bd
000003a0: bd7d 9cbc 9606 44bd bf5e 583c 9929 273d
000003b0: ca3a d2bc 7e7c 4abd e9f0 a1ba 567d 373c
000003c0: ffdb 4cba 398e 0f3d 90b7 bdbb 38d7 d9bc
000003d0: 3182 0d3d 2732 0e3d 8e12 1ebd c9d6 083d
000003e0: f429 3abc 8663 ac3a ee63 db3c 8009 7d3b
000003f0: a35b 2fbd bd9d e6bc 6420 543c 1387 3c3d
0.042486563 -0.01595093 0.050423007 -0.007895241 -0.021168143 -0.04610289 -0.023763629 -0.050363153
-0.042761944 -0.03703615 -0.0029126173 0.00060114264 -0.009654128 0.005060941 0.023516 0.020121977
0.030183353 -0.01250794 0.041265465 0.011729912 -0.02431605 -0.06295516 -0.025887776 -0.0044890014
0.015493912 -0.008711476 -0.06040574 0.0143325 -0.036614902 -0.057743657 0.017555036 0.0049225804
0.027823504 0.042038966 -0.055208113 -0.0075690374 0.026991207 0.0101822205 -0.052688606 0.0328224
0.008885562 -7.748194e-05 -0.025746953 -0.022496505 0.0065247603 -0.05496849 -0.028672809 -0.009616051
-0.014899263 -0.046491545 0.025923023 -0.022281626 -0.04213808 0.030059908 0.03428001 -0.028559271
-0.045593105 -0.032590717 0.037132174 -0.016289935 0.04007779 -0.03563005 -0.046303023 -0.013242871
-0.036509983 -0.03705754 -0.006040789 -0.010565311 -0.02500601 0.043912455 0.029043136 0.006342335
-0.012402467 -0.020569026 0.028100828 0.008701828 -0.033940542 0.014379528 0.027042326 0.019339897
-0.0056852824 -0.036701925 0.040851828 0.051450692 -0.018465199 -0.050733145 -0.034236167 0.03952209
0.006447237 0.019991944 -0.0020794943 0.019301716 -0.047384832 -0.023485253 -0.02395692 0.008521508
-0.05637138 0.022791475 -0.033545658 -0.021207929 -0.03293636 -0.03534334 -0.0124478545 0.025077181
0.023548434 0.022417147 -0.013086686 -0.013020417 -0.030553654 -0.021471735 -0.049924865 -0.038787734
0.03670811 -0.038723495 -0.051195677 -0.021126974 0.025788438 -0.012905022 -0.02930423 -0.006489955
0.018009547 0.021693293 0.04299529 -0.0020227619 0.03656729 0.026122209 -0.04223425 0.008146839
-0.04493448 -0.02588581 -0.0077796555 0.029555086 -0.059160843 0.032251168 -0.011750881 -0.013367664
0.00091900676 0.021858858 -0.015943456 0.022320684 -0.009348991 -0.045533534 0.007012598 -0.042288855
-0.045725856 -0.019663751 0.050203595 -0.052010145 -0.029380554 0.0050243144 0.0431067 -0.030993743
0.024091028 -0.047577888 -0.0011473596 -0.026737796 -0.016206859 0.016024683 0.007592462 0.0464592
0.035928905 0.036309514 -0.060397685 0.028188776 0.028040469 0.0054767504 0.0065972093 -0.0543619
0.0030714462 0.0041418704 -0.04512602 -0.03502525 0.032794446 0.03241496 -0.024940927 -0.027828697
-0.014752049 -0.0043945536 -0.03580487 -0.030666018 0.0048849327 0.0056221187 0.017621625 0.00530558
-0.045094665 0.024486398 -0.015927596 -0.016324919 0.01543256 0.024476813 -0.023346111 -0.034310807
-0.02807014 0.0151944095 -0.04103454 -0.00059068395 -0.02230113 -0.021998638 0.031693693 -0.01097351
-0.013247713 0.013268219 0.025279317 0.011273406 0.030450504 0.017660107 0.03290603 0.03808172
0.0303018 0.0084432205 -0.045107048 0.021897793 0.00044936672 0.04096666 -0.0023998732 -0.013974442
0.022135193 0.018286798 -0.022817075 0.00523749 0.009831828 -0.053815126 -0.043649293 -0.04006596
-0.013802997 0.030470056 -0.019366557 -0.009808412 -0.011680923 -0.013428576 -0.05341414 -0.03368166
-0.019102925 -0.047857843 0.013206183 0.040811155 -0.025662798 -0.04943513 -0.0012355122 0.011199316
-0.00078147644 0.035047743 -0.0057897046 -0.026591882 0.03454799 0.034715798 -0.038591914 0.03340796
-0.0113625415 0.0013152219 0.026781049 0.0038610399 -0.042812 -0.028151387 0.012947176 0.046027254

l2.bias f4 [300]
00000000: 89f7 1ebd 4758 22bd 5fa2 8e3c 74a9 ba3c
00000010: bdcc b0bc 6c9e 063d 7cff 05bd 3c83 0cbd
00000020: f8df 393d 8e75 52bd c59d 62bd 5a24 74bb
00000030: 07be 453d 9455 c43c 746a b5bc a1b2 0dbd
00000040: 8d26 133d cfe7 173d 0171 913c cc37 89bc
00000050: eceb 263c f16e 92bc a643 0d3d dfb4 23bd
00000060: b13b 1a3c 9a4f 953c a2c7 ddbc e8cd 843c
00000070: 7928 063d 455d 72bc c288 17bd 7afc 86ba
00000080: 227f 253c 160c 5abc 6a16 8f3d ecd4 d43c
00000090: 1575 8dbd e80b b43b b3e2 333d 9e06 8d3d
000000a0: bc35 173c c040 82bb 4c66 363d 3fd5 8abc
000000b0: 48f3 893c a49e 12bd e2c7 8abd 85be ed3c
000000c0: abd2 a7bb de89 10bd 4f54 38b9 98b6 e9ba
000000d0: 8a73 593b 578a f33b 488e 5bbd a38c 34bd
000000e0: 8103 09bd fbcc 12bd 055d 38bd 4a82 25bd
000000f0: f82b 0abd 3ad4 dfbc 044d d6bc 2078 d0bc
00000100: a607 02bd f89d a13c 5121 cc3c fab3 00bd
00000110: 7300 06bd 2488 fc3c 3205 9abc ad37 1cbd
00000120: 1d44 8b3c b016 2dbc 2a32 dc3d 70d5 a73d
00000130: a4df 45bc 13c6 de3c dcc7 f43c 16f6 5c3d
00000140: 8ca9 a63c faa0 27bc 7622 f8bc 45cc 03bc
00000150: 1502 76bd 8892 57bd 5491 283d 15ba 97bd
00000160: f451 c23c ac6a b7bc 8c6d 50bc dc37 d53d
00000170: ebc5 c238 e21d da3b 2638 87bd b03f 75bd
00000180: 59b5 a0bd ae2f c1bc f118 79b7 41d3 38bd
00000190: 6195 803d e730 38bb e644 be3c e1a1 b7bc
000001a0: c8b1 1a3d 4e9c 973d 998f 133d dd09 56bc
000001b0: a700 68bd 9118 5fbd b7af 7d3b 9957 0ebc
000001c0: 4523 06bc cd30 063d 2e90 edbb bfe3 08bd
000001d0: c573 4a3d 7ad8 e03c 95ae fbbc b9c9 143e
000001e0: 32e6 ea3c 7198 f93b 022b cb3c 4e26 f0bc
000001f0: 6c8f c0bb 94e6 dcbb 363a 59bd 5e09 933b
00000200: d571 cdbb 8408 293b 797d 54bd c829 053d
00000210: 1858 d2bc 12d3 cb3d cdf7 e1ba 5807 813c
00000220: e65e 08bc 62ba 33bd 5bd5 82bb 1905 8fbc
00000230: 1ba0 1fbd 7319 cc3c debd 54bc 8e6b 1cbc
00000240: f2f1 d13d a1b8 013d ef1d 2dbd 79ac 8c3d
00000250: 8417 97bb 65d4 06bd 420b 75bc 940e d63c
00000260: a911 e43c c21f 0fbd 086a 413c 571a 3a3d
00000270: 9a1c bbbc 23cf 81bc b1c0 c43c 08c9 a8bc
00000280: 6d42 dd3c 4499 7c3d 573f 00bd 3380 d2bc
00000290: 02e4 5b3c 724a 5b3c 8370 3b3d c214 fe3c
000002a0: 4441 b4bb e9e9 e6bb 82fd 7e3d 5225 12bd
000002b0: 6cba 8cbc 698d 69bd c065 22bc 507e 98bc
000002c0: f8e8 063d 85e8 a5bc c081 00bb 3cad f83c
000002d0: 9cdd 2ebd baca d43c 1983 bebc 82a3 0bbd
000002e0: 7f25 56bd 3e42 71bb c01e 173d a78f 5abd
000002f0: 74d4 dd3c bb66 753c 12e3 2bbd 1ba8 3e3c
00000300: 3c47 8e3c b858 6dbc 2c9f 473d 9201 46bd
00000310: 22ac 113d 53fb 38bb 168c 07bc 2801 c7bc
00000320: 0344 23bd b4f7 6ebc 748a 013d 7d17 663c
00000330: 8d52 833c d2e3 97bd 9ba5 b0bc e3a4 9b3c
00000340: ffb1 21bd 81d0 803c 5132 123d e229 e23c
00000350: d4c5 5a3c 087e e7bb 9c2c 5f3d f003 c13b
00000360: 0ab3 02bd 4cb8 bbbd 2505 04bd 01f1 3dbd
00000370: e7d4 74bd f02a a7bb f26d 33bd 2530 043d
00000380: d582 50bd 4a8f a13c 9984 2c3c 9581 ee3c
00000390: f096 61bd 3128 533a c28f 22bd 4550 b93d
000003a0: 97fb 61bd 1af8 0f3c 0c87 783c 00c0 7138
000003b0: 00a0 8639 2345 0539 2dba 1f3d a481 bd3c
000003c0: d1dc aabc 515a 81bc 98c2 8cbd 707d 133d
000003d0: 4365 3ebd b210 23bd fffa c73b 42db 493d
000003e0: 5b34 6abd ec7a 043d 2527 92bc f03c 2cbd
000003f0: 75f0 4bbd 840e 003d 274e 163d 2bd8 d03c
-0.038810287 -0.03963497 0.017411409 0.02278588 -0.021582002 0.032865927 -0.032714352 -0.034304842
0.04537961 -0.05138164 -0.055326242 -0.0037253113 0.048276927 0.023966588 -0.022145487 -0.034594182
0.035925437 0.037086304 0.01775408 -0.016750239 0.010188084 -0.017875167 0.034488343 -0.039967414
0.009413646 0.018226434 -0.027072731 0.016211465 0.03275344 -0.014792745 -0.036995657 -0.0010298633
0.010101112 -0.013308546 0.06986697 0.025980435 -0.06907097 0.0054945834 0.04391737 0.06886028
0.00922912 -0.003975004 0.04453115 -0.016947387 0.016839638 -0.035795823 -0.06776406 0.02902151
-0.005121549 -0.03528773 -0.00017579015 -0.0017830906 0.003318044 0.007432263 -0.053602487 -0.044079434
-0.033450607 -0.035840016 -0.045010585 -0.040407456 -0.033733338 -0.027322877 -0.02615977 -0.025447905
-0.031745575 0.019728646 0.02491823 -0.03142164 -0.032715272 0.030826636 -0.018801305 -0.038139034
0.017000252 -0.010564491 0.107517555 0.08195007 -0.012077246 0.027194059 0.029880457 0.053945623
0.020344518 -0.010231251 -0.03028987 -0.008044307 -0.06006058 -0.052629977 0.04115422 -0.07408539
0.023720719 -0.022389732 -0.0127214305 0.10411045 9.287506e-05 0.0066563943 -0.06602506 -0.05987519
-0.07847089 -0.023582306 -1.4847364e-05 -0.045123342 0.06278492 -0.002810532 0.023226213 -0.022416057
0.0377672 0.0740286 0.036025617 -0.013063875 -0.056641247 -0.054466788 0.003870947 -0.008687877
-0.00818712 0.032761384 -0.0072498536 -0.03342032 0.049426813 0.027446974 -0.030722896 0.14530076
0.028674219 0.0076170494 0.024800781 -0.02931514 -0.005876472 -0.0067413542 -0.05303403 0.0044872006
-0.0062696734 0.002579243 -0.051877473 0.03251055 -0.025676772 0.09952368 -0.0017239988 0.015750572
-0.008323407 -0.04387892 -0.003992719 -0.017458485 -0.038971048 0.024914479 -0.012984721 -0.009547127
0.102512255 0.031670216 -0.042264875 0.06868834 -0.0046109576 -0.0329174 -0.014956297 0.026129998
0.027840452 -0.034942396 0.011805065 0.045435276 -0.022840787 -0.01584584 0.024017664 -0.020603672
0.027009213 0.061669603 -0.031310406 -0.025695896 0.0134210605 0.013384448 0.045761596 0.031015757
-0.0055009443 -0.007046927 0.062253483 -0.035680123 -0.017178737 -0.057019625 -0.009911954 -0.018614918
0.03293702 -0.020252476 -0.0019608587 0.030356042 -0.042691812 0.025975574 -0.023255872 -0.03409148
-0.052281853 -0.0036813165 0.03689456 -0.053359654 0.027078845 0.014978106 -0.041964598 0.011636759
0.017367952 -0.014486484 0.048735783 -0.04834134 0.03556455 -0.0028225973 -0.008273145 -0.024292544
-0.039859783 -0.014585424 0.03162618 0.014043686 0.016030574 -0.074165 -0.021563342 0.018999523
-0.03947639 0.015724422 0.035692517 0.027607862 0.01335283 -0.0070645846 0.054485902 0.005890362
-0.031909026 -0.09166011 -0.03223147 -0.046372417 -0.059773352 -0.005101554 -0.043806024 0.032272477
-0.05090602 0.019721646 0.010529661 0.029114524 -0.055075586 0.0008055 -0.03968788 0.09048513
-0.055171575 0.008787179 0.015168916 5.763769e-05 0.0002567768 0.00012709624 0.03899591 0.023133107
-0.020857247 -0.015790137 -0.06873053 0.0360083 -0.04648329 -0.039810844 0.006102919 0.049281366
-0.057178836 0.03234379 -0.017840931 -0.042050302 -0.049789865 0.031263843 0.036695626 0.025493702

l3.weight f4 [6, 300]
00000000: ead1 8bbb 1cd0 45bd e282 f8bd 21fc 36bd
00000010: 9efa 01bd bcf8 e8bb 3a2c 5dbd 5307 e3bc
00000020: eb70 a13d cf53 263d 200a 333d 02dc 4b3d
00000030: 6438 bc3d 28aa 46bd eea6 a53d 0d06 403c
00000040: 84bf 47bd 0416 81bb 2cda e53d 70e2 81bc
00000050: 1b4b c3bb 8a87 25bb ab9a ca3c c883 6e3d
00000060: 2651 09bd f4f8 4ebd 9955 b63c 6f2d 0bbc
00000070: 4c70 cebb 1d30 25bc 652d dfbb c506 223d
00000080: dbac a7bb 634e 4b3d 25c8 6dbd 8596 563d
00000090: 224c 2d3d a3cf b9ba 3bf9 b6bd eebf 67bd
000000a0: 84bd b639 c852 a0bd ec1f b2bc 2e73 2ebc
000000b0: 6cf6 ecba f81b 913d e2d9 f33c fc49 e0bd
000000c0: b010 dabd 3140 263d 8e33 0e3d 48f6 fdbc
000000d0: d576 12bc a634 0d3d 5773 c73b 7353 023d
000000e0: 5c24 0abc f873 273d 282e c1bb a8ab 363b
000000f0: 0db8 10bd 9029 723b e3d1 823c a554 e8bc
00000100: 366d 25bd 9fab 0c3d 50c6 0c3e f29e 343c
00000110: 9340 1ebd ac13 6c3c 9431 153d d626 883c
00000120: b904 b63c 1f8f 2dbd 9d5b b03d c63f 3bbd
00000130: f9bc 1bbd 40d9 073d ceeb 5ebb 5dda e93c
00000140: 8364 9638 adf4 a83d c837 ea3c d150 473d
00000150: 9e32 c83b 9f3f 09bc 5313 fdbc 6ba6 96bc
00000160: e860 023d 7eeb 883c 5dde f6bc e099 103d
00000170: 7673 27bd b032 05bc fabb 6dbd c6d0 07bd
00000180: 2061 b3bb 7daf 0fbd 2379 5c3d 8a01 3a3d
00000190: 7274 bf3d 04f4 b9bc 0065 9d3c 3c0c d23c
000001a0: e9ec b23c 76b2 d2bd 5d60 bc3d 8a50 3c3d
000001b0: 6c5c 11bc f8fc f0bb a5f7 e4bc 8a1b 9b3d
000001c0: d5db 843d 03f3 083d cd00 f7bc 7000 083d
000001d0: 7673 113d 2101 0a3c 1bba 2bbd 38c6 4b3d
000001e0: 00f0 293a 4639 0f3c d6c3 1cbd 741e 9c3d
000001f0: 5ad3 ab3c f0a3 52bb daf7 333a da34 37bd
00000200: 14c4 323d 6195 48bd bc41 8d3c 2020 653b
00000210: dd8b 383d f5b3 3cbb d7ea 2c3d 0a64 61bd
00000220: b6fa 1f3d bbf8 c33c 78eb be3d e7fd 9ebc
00000230: c9f6 9cbd 32b6 bfbc 4211 f43b dece 803d
00000240: 3e97 ff3d dd10 a5ba 71a7 1cba 0c44 03bd
00000250: 87da 9a3c 71ae 47ba d281 b7bc 56b4 9c3d
00000260: e7b0 343b 04af d23b 9083 883c 4cc8 de3c
00000270: 1d12 ca3d 4ea0 23bd 5430 43bd 5d76 d93d
00000280: ffa7 15bd fec8 babc 604f d23b 6034 b33c
00000290: 8c08 d6bc f7cf c4bd 24e9 babc c079 01bd
000002a0: e9e6 11bd 4357 ca3b 3c55 193d c54b 07bd
000002b0: 23f3 17bd 18fc 213c b17d 47bd c359 47bd
000002c0: 3500 673d b662 ed3c bc41 db3c 03ee 1ebd
000002d0: 80c3 0c3d 18cc bc3c 5dc0 323d a31c 2b3d
000002e0: 66f2 2f3c 6876 9dbd 3624 fb3c 0aea cabc
000002f0: e3e3 09bd 5598 88bb f7f2 e5bc f141 f9bc
00000300: 5eec 533d 1012 6a3d 7bff e5ba a59d fa3d
00000310: 7967 a13d 1ed1 3a3d c23a 57bd d1da 983c
00000320: 4c20 febc 5043 cb3c 2190 1ebb e07d 693c
00000330: 24fb 33bd ea86 eebc 3c2f 67bc 2c4c 9d3d
00000340: 1d9d 83bb 814a 08bb 0498 df3b 4256 8e3b
00000350: 8680 3dbd b42f b9bc 0f31 c5bd 76dc a1bc
00000360: cd6f 38bc 04b0 eebc a312 363d 5870 943d
00000370: 2e60 0dbc 4029 39bd 630e 7cbb 60ce b33b
00000380: 28ac 04bc 22ba 83bc f702 98bc b818 edbc
00000390: 4c18 46bd c810 8d3b 20f2 253b cbad ca3c
000003a0: 9b6c 0f3c 6528 53bd f8b1 34bc 68a5 303c
000003b0: d8c1 7bbc c1aa 933b d9af 82bd e016 e2bd
000003c0: 7f65 23bc 37ee c63c fb2f 533d 9ec0 6cbd
000003d0: 0aa3 d1bc 5256 c5bd 87fb 153d 1c68 31bd
000003e0: 5f40 ddbd ecc6 26bd f7a3 c03d 66c2 ac3c
000003f0: b545 953c 3a96 e5bc 0727 ef3c 05a7 cabc
-0.004266967 -0.04829417 -0.12134339 -0.044674043 -0.031733148 -0.0071097296 -0.053997256 -0.027713453
0.078828655 0.04060727 0.043710828 0.049770363 0.09190443 -0.048502117 0.0808848 0.011720193
-0.048766628 -0.003939392 0.112232536 -0.015855044 -0.005959881 -0.002525779 0.024731955 0.058231145
-0.033524655 -0.05053039 0.022257613 -0.008494719 -0.006300008 -0.010082272 -0.0068108314 0.039557237
-0.0051170415 0.049635302 -0.0580522 0.05238964 0.042308934 -0.001417626 -0.08934256 -0.056579523
0.00034854945 -0.07828289 -0.021743737 -0.010647578 -0.001807881 0.07085413 0.02976698 -0.109516114
-0.10647714 0.04058856 0.034717135 -0.031001225 -0.008939465 0.034474038 0.0060867476 0.031817865
-0.00843152 0.04088208 -0.005895395 0.0027873311 -0.035331775 0.0036951043 0.015969222 -0.028360674
-0.040387355 0.034343358 0.13747525 0.011024224 -0.0386358 0.014408987 0.036424235 0.01662008
0.022219049 -0.04237282 0.08611224 -0.045715116 -0.038022015 0.03316617 -0.0034015062 0.028546507
7.171279e-05 0.08249793 0.028591052 0.048661057 0.0061095497 -0.008376985 -0.030893004 -0.018389901
0.0318307 0.016713854 -0.030135328 0.035302997 -0.040881597 -0.008129761 -0.058040597 -0.033158086
-0.0054742247 -0.035079468 0.053826462 0.045411624 0.09348382 -0.022699364 0.0192132 0.0256406
0.021841483 -0.10287945 0.09198067 0.045975246 -0.008872133 -0.007354375 -0.027950117 0.07573612
0.06487242 0.03343488 -0.030151749 0.033203542 0.035510503 0.008423121 -0.04192553 0.049749583
0.0006482601 0.008741682 -0.0382727 0.07622996 0.020974804 -0.0032141171 0.0006865241 -0.044728138
0.043644026 -0.048970584 0.017243259 0.0034961775 0.04505526 -0.0028793786 0.04221615 -0.055027045
0.039057456 0.023922315 0.09322256 -0.01940818 -0.07664258 -0.023402307 0.0074483464 0.06289457
0.12480019 -0.0012593527 -0.00059758784 -0.032047316 0.01890303 -0.00076172414 -0.02240077 0.07651584
0.0027571262 0.006429555 0.016664296 0.027195118 0.09866736 -0.0399478 -0.04765351 0.10618279
-0.036537167 -0.022800919 0.0064181536 0.02187556 -0.026127122 -0.09609979 -0.022816248 -0.03161025
-0.035620604 0.006174953 0.0374348 -0.033031244 -0.037097108 0.009886764 -0.048703853 -0.048669588
0.05639668 0.028977733 0.026764743 -0.038801204 0.03436613 0.023046538 0.043640483 0.041775357
0.010738945 -0.076886 0.030656915 -0.024769802 -0.033664595 -0.00416855 -0.028069956 -0.030426951
0.05173909 0.057146132 -0.0017547453 0.122370996 0.07881064 0.045609586 -0.05254627 0.018659027
-0.03102126 0.02481237 -0.0024194794 0.014251202 -0.04394068 -0.029117066 -0.014110383 0.07680544
-0.004016532 -0.002079636 0.0068235416 0.004343779 -0.046265148 -0.022605754 -0.09628498 -0.019758444
-0.011257124 -0.029136665 0.044451367 0.0724799 -0.008628888 -0.045205355 -0.0038460724 0.0054872483
-0.008097686 -0.016079966 -0.018556101 -0.02894245 -0.048363015 0.004304979 0.002532132 0.024741074
0.008753921 -0.051552195 -0.011028759 0.010781623 -0.01536604 0.0045064394 -0.063811965 -0.11039519
-0.009972929 0.024283512 0.05155943 -0.05780088 -0.025590438 -0.09635605 0.03661683 -0.043312177
-0.108032934 -0.04071705 0.09406274 0.02108879 0.018221715 -0.028025735 0.029193414 -0.024737844

l3.bias f4 [6]
00000000: 4d2d 65bc b44c 423d eed5 23bc c012 8bbc
00000010: 7d93 393d ae02 ec3b
-0.013987851 0.04743643 -0.009999735 -0.016976714 0.04530667 0.007202468
