results/runs/single_assembly_rerun/Average_TD3_5_Peg-in-hole-single_assembly_seed_1/30000_actor.pth (torch_old, 510312 bytes, 6 tensors)

l1.weight f4 [400, 12]
000000 5b 9b 17 bf 39 ee f6 bd 30 d2 10 3e 84 47 70 bd
       -0.5922143 -0.12057156 0.1414268 -0.058661953
000010 ad 67 e5 bd 46 47 31 3e de c4 91 be 88 fa a9 3d
       -0.11201415 0.17312345 -0.2847051 0.08299738
000020 5f 56 b8 bd 2c 4b 05 be cb 31 38 3e c0 fa 77 3e
       -0.09000849 -0.13016957 0.17987745 0.24216747
000030 99 f0 fd 3e ef 36 23 bf 62 cb 02 3d f8 bf 3d 3f
       0.49597624 -0.63755697 0.031932242 0.74121046
000040 d6 29 ff be 00 27 97 ba 31 63 2e 3f 53 a9 78 3e
       -0.49836606 -0.0011532009 0.68120104 0.24283342
000050 19 8d c9 3d 3e ce 37 bc b2 9a ca be a6 8f 3f 3e
       0.09841365 -0.011218606 -0.39571148 0.18707141
000060 98 aa 52 3e 71 72 3a be b1 ec c3 3e f9 6c 15 3f
       0.20572889 -0.18207718 0.3826652 0.58369404
000070 ed 35 53 be 24 40 37 3e 3c 51 8f 3e 94 0b f1 3e
       -0.2062604 0.17895561 0.27991664 0.47079146
000080 38 62 45 3e f7 ea 52 be 5b a4 13 bf d2 3c 19 bf
       0.19275749 -0.20597444 -0.5767266 -0.5985843
000090 50 c9 81 3e 10 f4 44 bd 30 03 fd 3d c8 5e 09 be
       0.25348902 -0.04808432 0.123541236 -0.13415062
0000a0 92 06 91 3e 7c 23 fa bd 24 ae 5d 3e 00 07 60 3b
       0.28325325 -0.12213799 0.2164846 0.003418386
0000b0 9f ba 1b be ca f1 17 3e 86 e9 1c be 6c e0 ad 3d
       -0.15207909 0.14838329 -0.15323457 0.08490071
0000c0 00 f4 d8 be 11 5a 91 3e d7 a5 e7 3d e8 42 18 bd
       -0.42373657 0.28389028 0.11310928 -0.03717318
0000d0 0c 33 41 bd 7a b5 8f bd 61 57 9e 3e 75 bc e7 3e
       -0.047167823 -0.07017036 0.3092604 0.4526097
0000e0 2b 46 de bd c7 15 84 3d c7 1f a9 3b 9e 1c 94 3e
       -0.10853227 0.06449466 0.005161259 0.28928083
0000f0 76 15 3f be ee 01 40 3e 18 76 33 3e a6 15 83 3e
       -0.1866053 0.18750736 0.17525518 0.25602454
000100 0b b4 25 be e0 a1 42 bd 80 3e b7 bb 48 b3 2c 3d
       -0.16181962 -0.047517657 -0.0055921674 0.042163163
000110 ba 56 60 be 49 c4 51 be 40 cf 20 3e 1a a2 8a bd
       -0.21908084 -0.20485033 0.1570406 -0.067692
000120 9a 5f 01 3e a4 c4 b9 3c c2 ba ff 3d e8 ff 81 3d
       0.12634125 0.022676773 0.12486793 0.06347638
000130 89 1d d6 3d a4 88 12 3e b9 6e 73 be c7 7a fc 3d
       0.10454852 0.14309937 -0.23772706 0.123281054
000140 99 a6 6d be 38 3a 64 be d3 f4 91 3b 34 92 3c bd
       -0.23208083 -0.22287834 0.004454234 -0.046037868
000150 71 d5 d2 be 03 2c 67 3c b1 51 f2 3d fb de bb bb
       -0.41178468 0.014109614 0.11831988 -0.0057333685
000160 a4 a6 46 3e a4 43 26 3e 6c f5 14 3e 26 06 94 be
       0.19399506 0.1623674 0.14546746 -0.2891094
000170 e3 fb 3d be 33 45 1a 3e 81 60 c7 be 39 4c e7 3d
       -0.18553118 0.1506546 -0.38940814 0.11293835
000180 90 3d 85 be 44 f9 b8 3e b0 c7 88 3c 41 b4 78 be
       -0.2602353 0.36127675 0.01669678 -0.24287511
000190 57 29 80 3e 88 c5 5a bd a4 50 2c 3e cf 2e bc 3d
       0.2503154 -0.053411037 0.16827637 0.091886155
0001a0 11 fe d0 be e3 35 9f be 15 a7 50 3e ed 67 44 bd
       -0.40818837 -0.310958 0.20376237 -0.047950674
0001b0 6f 1d 58 3e ea 06 9d bd f8 d3 04 3e da 6b b3 3e
       0.21104978 -0.076673344 0.12971485 0.35043222
0001c0 2e 9a 69 3e 22 28 44 be d1 a0 70 be f5 60 79 3e
       0.22812721 -0.19155934 -0.23498847 0.24353392
0001d0 9d 72 86 bc b0 dd 16 3e a4 25 df bd fc 08 01 3f
       -0.016412074 0.14733005 -0.10895851 0.50404334
0001e0 7d 5d 9f 3d 73 83 dd be 49 18 c8 3e 95 0f 78 3e
       0.07781503 -0.4326435 0.39081028 0.24224694
0001f0 73 48 87 be e9 9c 23 be 48 b8 2d be d0 0a 43 bd
       -0.26422462 -0.15977825 -0.16964829 -0.047617733
000200 df 12 71 3e a3 cf 14 3e ef 0a 58 be aa f6 06 3f
       0.23542355 0.14532332 -0.21097921 0.5272013
000210 5b db 73 3f 5c cf 22 3f de 02 29 3e d0 e3 c9 3d
       0.95256585 0.63597655 0.16505 0.09857905
000220 cd ed 15 3e e0 b4 98 3d 81 f7 5a be 5a ec b2 be
       0.14641495 0.07456374 -0.21383478 -0.34945947
000230 8f 99 03 bd 3d 7f 8e bd 36 71 5b be dc d4 54 3d
       -0.032128867 -0.069578625 -0.21429905 0.05196081
000240 0c 06 96 3e 04 ce 0c 3d d3 f0 4f 3e 2a f4 52 bd
       0.29301488 0.03437616 0.20306711 -0.051502384
000250 d0 c8 34 be 7c 12 47 3e 7f e4 51 be 40 6e ed 3e
       -0.17654729 0.19440645 -0.2049732 0.46373177
000260 e3 d1 5a be 02 95 90 3e 77 0a c3 be 5f 7f 28 be
       -0.21369128 0.28238684 -0.38093922 -0.16454838
000270 48 b1 2c be 66 df fc bd 3c 2a 52 3e f4 31 c1 bd
       -0.16864502 -0.12347297 0.20523924 -0.09433356
000280 18 e6 5c be 78 77 e3 3d 50 49 bd 3d a2 75 3f 3e
       -0.21572149 0.11106771 0.09242499 0.18697217
000290 6c f7 18 be b8 2e 80 3d aa 3a d7 bd 46 d4 84 bd
       -0.14938134 0.06258911 -0.10509236 -0.064858004
0002a0 4b 10 61 3d f9 db 8e be 00 59 98 3c cd 1a ea 3e
       0.05494718 -0.279022 0.018597126 0.45723572
0002b0 57 f6 cd bc ac 09 92 3d 42 70 3f 3e 2e e3 68 3e
       -0.025141878 0.07130751 0.18695167 0.22742912
0002c0 ad ad 6a 3e db 13 20 be d9 62 d0 be 72 d7 2f 3e
       0.22917815 -0.15632574 -0.40700415 0.1717203
0002d0 e8 e1 cb be 70 e8 1e 3f 6c 2b 1c 3e a8 eb df 3d
       -0.3982079 0.6207342 0.15250939 0.1093362
0002e0 cd b2 14 bf da d0 87 3e ee 98 ad be 51 54 6d be
       -0.5808533 0.2652653 -0.3390574 -0.23176695
0002f0 56 e5 c0 bc 77 91 20 bd 12 eb f4 3d c2 54 25 be
       -0.023546856 -0.039201226 0.119588986 -0.16145614
000300 67 eb 26 3f 5c 02 bf be 4e 23 eb 3d 6f 1e 8b be
       0.65202945 -0.37306488 0.11481343 -0.27171656
000310 5f c9 2c be 66 e8 3d 3e 36 31 a2 3e a6 0d 69 bf
       -0.16873692 0.18545684 0.3167817 -0.9103645
000320 60 b4 9d 3d 64 80 08 bf fc de b8 3e cd f5 12 bf
       0.077004194 -0.5332091 0.36107624 -0.5740631
000330 a1 11 27 3e bc 9c 5a 3e f4 d0 18 3d 2f c8 11 be
       0.16315319 0.21348852 0.03730865 -0.1423652
000340 cd d1 36 bd a4 58 0b 3e c1 26 90 be 3d f1 17 3e
       -0.044633675 0.13608032 -0.28154567 0.14838119
000350 c3 1a 3e bf 96 11 9a 3e c6 89 f2 3e 2e a8 d4 3e
       -0.74259585 0.30091542 0.47370738 0.4153456
000360 1a 6a 16 3e fe 88 27 bc b3 32 84 bb 31 9b cd be
       0.14688912 -0.010225533 -0.004034364 -0.40157464
000370 23 20 da 3c bc 16 86 3e b1 3d e9 be ff d9 04 bf
       0.026626652 0.2618922 -0.4555488 -0.51895136
000380 7a e8 01 3d 24 4b ad be 70 2f 70 bd ed 93 1d be
       0.031715848 -0.3384639 -0.05863899 -0.1538846
000390 16 84 06 3e ad d3 f0 3e bc 64 bb 3a 22 05 67 be
       0.13136324 0.47036496 0.0014296989 -0.22560552
0003a0 0b 83 08 3e 8c e2 7b bd d5 3a 6e bc d4 f6 7b bd
       0.13331239 -0.06149535 -0.014540394 -0.06151469
0003b0 c1 58 c2 be 81 1a 60 3d b8 72 af bc 3c 72 92 be
       -0.3795834 0.054712776 -0.021417007 -0.2860278
0003c0 16 32 86 be 73 11 31 3f fe 2a d2 3d 0d 2a 4e 3e
       -0.26210088 0.6916725 0.10262106 0.20133229
0003d0 ab 6c 29 bf 40 43 d8 3b 2c 72 e0 be 7c 46 e5 be
       -0.6618144 0.0065998137 -0.43837106 -0.44780338
0003e0 86 da cc 3d 26 2e 0a 3e 3b 95 0e 3f 46 5e f8 be
       0.100026175 0.13494167 0.5569646 -0.48509425
0003f0 1a 78 6f 3e ba 83 4d be 83 3c 2b 3d 0d b0 99 3e
       0.23385659 -0.20069781 0.041805755 0.3001713

l1.bias f4 [400]
000000 f0 98 6e 3e f3 1a 69 3e fc e3 2d be 05 32 21 be
       0.23300529 0.22764187 -0.169815 -0.15741737
000010 23 d3 41 bf 00 f9 c1 3d 4d 5b 52 bc 2e e1 f1 be
       -0.75712794 0.09471321 -0.012839151 -0.4724211
000020 04 91 92 3d 33 24 fd 3e 69 06 9c bd e3 b6 d3 bd
       0.07156566 0.4944168 -0.0761841 -0.10337617
000030 3a 5e 85 3e c8 c1 18 3d d1 06 6d bf eb 15 19 bf
       0.26048452 0.03729418 -0.92588526 -0.5979907
000040 ce 66 38 3f 6b 5d 68 be 04 91 d1 be 70 8a e4 be
       0.7203187 -0.22691886 -0.4093095 -0.4463687
000050 85 6b 54 3e 52 38 5f be c0 9e 2d be b9 7c c9 be
       0.2074414 -0.21798828 -0.1695509 -0.39352968
000060 21 56 3f be 26 6c ff 3e c1 73 83 be 55 ca a5 3e
       -0.186852 0.49887198 -0.2567425 0.3238093
000070 e4 e8 38 3e 00 e0 93 be 42 63 f8 3d c2 fd 44 3e
       0.1805759 -0.28881836 0.12128307 0.19237426
000080 f9 ce 1c 3d f8 f9 44 3e 35 ee 45 bd 4f 50 48 3e
       0.038283322 0.1923598 -0.048322875 0.19561885
000090 d3 0e 58 bf df 9d 9d be 77 6e 4e be 55 11 aa 3e
       -0.8439762 -0.3078451 -0.20159326 0.33216348
0000a0 07 b0 23 3f 15 75 09 bc 90 0f b1 be 9e 31 d1 3e
       0.6394047 -0.008389731 -0.34582186 0.40858167
0000b0 39 67 41 3d 20 af f9 be c2 cf 72 bf 18 45 9f bf
       0.04721758 -0.48766422 -0.94848263 -1.2442961
0000c0 d9 ca 3e 3f 1c 9f 08 3f 18 78 a6 3d ad 51 da bd
       0.7452827 0.5336778 0.08128375 -0.1066011
0000d0 1f 3e c8 be 1f 41 73 be d9 84 4e be b7 06 12 be
       -0.39109895 -0.2375531 -0.20167865 -0.14260374
0000e0 f7 c7 1f bf 72 06 81 be 4c da 3f 3d 23 38 ab 3e
       -0.624145 -0.2520023 0.046839043 0.33441266
0000f0 73 94 c2 bc 7a 33 10 3e 48 b6 d8 be 41 1d cb 3d
       -0.023752427 0.14082137 -0.4232657 0.09917689
000100 0b c8 7b bf 3c a2 ec be 3a b9 06 be ee 59 c1 3e
       -0.98352116 -0.46217525 -0.13156596 0.37763923
000110 21 0f 74 bd 8f cc e5 be 07 6e 3e bf 74 b9 3a bf
       -0.05958474 -0.44882628 -0.7438664 -0.7293923
000120 07 e4 24 bf 2e 6a f9 be 36 29 38 be c3 9a a5 3e
       -0.6441044 -0.4871382 -0.1798447 0.32344636
000130 1e ab 74 3e 00 6f 4e bd 2b 07 19 3f 45 85 9a be
       0.23893401 -0.050398827 0.5977656 -0.30179802
000140 a7 7f a5 be c1 ea 50 bf 41 10 ca be 2c eb e6 be
       -0.32323954 -0.81608206 -0.39465526 -0.45101297
000150 2d ee a8 be 86 37 78 3c 20 7e 06 bc db a5 a9 be
       -0.32994214 0.015149957 -0.0082087815 -0.3313435
000160 6b 7b ef bd ab 93 15 be a1 6d 08 be 0d 17 a1 3c
       -0.11693462 -0.14607112 -0.1332307 0.019664312
000170 12 d8 55 3d 93 49 8c bf 30 09 ed bd 59 16 da ba
       0.052208014 -1.0959953 -0.11574018 -0.001663874
000180 cb cb 53 be 83 2c ab be 3f c1 a0 be 40 14 8b bd
       -0.2068321 -0.33432397 -0.31397435 -0.06790972
000190 1c f2 7b bd a5 d4 ac 3e 11 70 82 3d da fc 4c 3f
       -0.06151019 0.33755985 0.06369031 0.8007332
0001a0 f2 73 80 be 9d f5 83 bf 8f 1b d5 ba ea 92 25 be
       -0.2508846 -1.030933 -0.0016258823 -0.16169325
0001b0 fe 59 0a bf 34 42 35 3d 22 9b 6d be da b1 bf 3e
       -0.5404357 0.04425259 -0.2320371 0.37440377
0001c0 b2 bb b4 be 55 d9 aa 3d 7e 5c 1b bf a9 76 e2 be
       -0.3529945 0.08342234 -0.60688007 -0.44231156
0001d0 75 3a 0c bf 70 65 61 bd a2 0a d1 3d fb 88 c6 3e
       -0.547767 -0.05502838 0.10207106 0.38776383
0001e0 30 4d cd 3c 90 11 4f 3e fc 2f 82 3d 33 8c 5c bf
       0.02506122 0.20221543 0.063568085 -0.8615143
0001f0 93 8a 2d 3f ed ac c4 bd 00 8c b6 3d 63 2a 06 be
       0.6778957 -0.096032955 0.08913422 -0.13102107
000200 a1 a6 83 3e c8 60 a8 be 1c c1 80 be a8 da 0b bf
       0.25713065 -0.32886338 -0.2514733 -0.5463052
000210 b2 02 1e 3e 48 5b 15 be f5 8b f3 bd 41 6d 84 3c
       0.15430716 -0.14585602 -0.11891929 0.016165378
000220 93 98 5a bf dc c7 0f bf 86 08 75 bf 3f 5c b2 bf
       -0.8538906 -0.56164336 -0.9571613 -1.3934401
000230 74 5e 8e 3e 52 da 55 3e 2b a0 b6 3d a7 6c b3 3e
       0.27806437 0.20884064 0.08917268 0.35043833
000240 fb f1 74 bf cd 5f 58 be 60 df 30 bd cf e0 2a be
       -0.9568173 -0.21130295 -0.043181777 -0.1668732
000250 cf ec d7 bc f4 46 23 bf 31 2c 97 3e cc 4e a9 3d
       -0.026358036 -0.6378014 0.29525903 0.082669824
000260 1e 48 19 bf 4b e4 ac 3c 47 a2 f4 be ae 53 8a bf
       -0.5987567 0.021104952 -0.47780058 -1.0806787
000270 44 07 8d bf 87 0d b3 bf 70 65 97 bf 23 f9 2a bf
       -1.1017842 -1.3988503 -1.1827831 -0.667864
000280 6a 7f b3 3d 71 8b dc be af 23 13 3f cb 8b 8b be
       0.08764537 -0.43075135 0.57476324 -0.2725509
000290 99 8a a4 be 0d 5d cd 3c 6b 55 a9 be f5 37 9e bf
       -0.32136992 0.025068784 -0.3307298 -1.2360827
0002a0 dd 06 fa 3e 0d ca 0d bf 2a 47 22 bf 00 3b 31 3d
       0.4883336 -0.5538643 -0.6338984 0.043269157
0002b0 fc cc 60 be 6c 17 31 3e 9d d6 15 bf 2d 72 c7 bd
       -0.21953195 0.17294091 -0.585306 -0.09738574
0002c0 b5 a4 22 3f 0f fe 2a be 0f a7 5f be 5f 7f 04 bf
       0.63532573 -0.16698478 -0.21841072 -0.5175685
0002d0 56 48 3d be 30 cb 44 bc f9 4f a8 3d d3 62 60 be
       -0.18484625 -0.012011334 0.082183786 -0.21912698
0002e0 9f 6d 86 3e 64 1e 5e bf b2 85 0e bf 1b b4 ad be
       0.2625551 -0.8676512 -0.5567275 -0.33926472
0002f0 6b e5 75 3e db 1c 75 bf bb fc 36 bf 44 c7 a6 be
       0.24013297 -0.95747155 -0.71479386 -0.32573903
000300 be 46 b4 bd 9d 53 a2 3e 5f f0 58 bf b5 b6 05 bf
       -0.088025555 0.31704417 -0.8474178 -0.52231914
000310 28 ac 75 3e fc ad 68 3d ad 54 d5 3c 0c 5d c8 3e
       0.23991454 0.05680655 0.026041353 0.3913349
000320 f8 d4 23 bc 77 54 cb bd 66 4a 3b be 54 72 e4 bd
       -0.009999506 -0.0992822 -0.182901 -0.11154619
000330 d7 02 3e 3e 17 09 79 3e 4d 27 8d bd f5 e0 03 3f
       0.18555771 0.24319874 -0.06892262 0.5151513
000340 c3 f9 8a bf 95 99 49 3f 42 8b 23 bd 48 d5 d2 be
       -1.0857471 0.7874997 -0.03992773 -0.41178346
000350 3a 5b 9c bf 88 0d 81 3e 07 7f a5 3d 25 86 ee bd
       -1.221534 0.25205636 0.08080869 -0.1164668
000360 3e 49 20 bf ac 98 41 3f 2a fb 25 3f e8 23 0a 3d
       -0.6261176 0.75623584 0.6483637 0.03372565
000370 ac 3f 12 bf d5 85 a3 be 3b 1f 48 3f 54 48 9c bf
       -0.57128406 -0.31938043 0.78172654 -1.2209573
000380 04 13 8b 3f b8 e5 dc be 85 54 54 be d9 3a 51 bd
       1.0865178 -0.43144011 -0.20735367 -0.051081512
000390 de f1 9b bf e8 65 13 3e a6 b6 f5 3e 49 a8 d9 be
       -1.2183187 0.14394343 0.47990912 -0.42511204
0003a0 e5 91 4a be 13 10 81 be f6 bb 2b 3f b7 29 f7 3e
       -0.19782217 -0.25207576 0.6708368 0.48274013
0003b0 5b 55 9b 3c 94 87 ec 3d 5a b2 f2 bc 70 93 66 3e
       0.0189616 0.11549297 -0.02962606 0.2251718
0003c0 79 4b 60 3e 1d 85 79 3e 12 4d 73 bf 95 6e 63 be
       0.2190379 0.24367185 -0.95039475 -0.22210152
0003d0 e7 c0 38 bf df ac 00 3d f3 34 4d bf de 40 69 bf
       -0.72169346 0.031414863 -0.8015892 -0.91114604
0003e0 33 56 f8 be 44 61 d2 3e ee 5b 3c 3e 60 43 ba bc
       -0.48503265 0.41089833 0.18394443 -0.022737205
0003f0 ce 13 bf 3d 53 fb be be 96 89 7c bf 89 6d 0a be
       0.09329949 -0.3730112 -0.9864744 -0.13518347

l2.weight f4 [300, 400]
000000 26 8b 54 3d 81 77 f9 3e b4 06 b1 bd f1 9b 04 3d
       0.051890515 0.48723987 -0.08643857 0.03237528
000010 a8 a7 c9 3d a7 58 ca bc 6b 41 4b bd 75 6a 9f 3c
       0.09846431 -0.024700476 -0.049622934 0.019459942
000020 50 7f b5 bd bf 33 7d be 5a 9c 12 be af 80 94 bc
       -0.088621736 -0.24726771 -0.14317456 -0.018127767
000030 72 97 8a be 28 ca 07 3c f6 c4 3a 3e 65 e8 04 be
       -0.2706867 0.008287944 0.18239197 -0.12979276
000040 92 bd 5f bf 69 c3 64 be 0e 32 99 be 37 30 15 3d
       -0.87398636 -0.22340168 -0.29921 0.036422934
000050 82 f3 1e be 12 79 b3 bd 7c 83 2d be b4 6e 25 3e
       -0.15522578 -0.08763327 -0.16944689 0.16155511
000060 f8 5c 31 3c 61 22 c3 bd 46 05 dc be dc 60 96 bd
       0.010825388 -0.09528042 -0.42972773 -0.07342693
000070 5d c2 95 be 69 92 9d bd 4e 5b a5 bd 08 bd 1d bc
       -0.2924985 -0.07693941 -0.080740556 -0.009627588
000080 23 c3 57 be 5d 3a 01 bd b2 71 1c be 77 0b c6 bc
       -0.21070533 -0.0315498 -0.15277746 -0.024175389
000090 78 ea 2d bf 33 d6 18 3c d7 5a c6 be 33 21 01 be
       -0.67935896 0.009328413 -0.3874118 -0.12610321
0000a0 75 a2 48 be 49 34 a6 3b 5d 00 6e 3b ff 57 66 3e
       -0.19593222 0.005072151 0.0036316135 0.22494505
0000b0 2a 3f 9e 3d f9 45 2a 3d 7e 06 8a be a2 6b b4 bd
       0.07726891 0.041570637 -0.26958078 -0.08809592
0000c0 98 10 08 bf f9 f6 7b bd e3 6c fe bc 0e 2a 97 bd
       -0.5315032 -0.06151483 -0.03105778 -0.07381068
0000d0 b2 98 3a be 48 6a 36 3e 4b 7e 85 3c f5 9e 3f be
       -0.18222311 0.1781398 0.016295573 -0.18712981
0000e0 3d 22 68 bd 58 47 f8 bb 38 3f 11 3c 1a 2e 77 3e
       -0.056673277 -0.007576864 0.00886517 0.2413868
0000f0 ef bc fb 3c 90 4c 97 bb 91 90 d8 bc 5a 05 2f 3e
       0.030729739 -0.0046172813 -0.026436122 0.17091885
000100 59 cc 11 3d c8 90 10 be d6 79 ec bc 27 3e ac bd
       0.03559527 -0.1411773 -0.02886669 -0.08410292
000110 9c ad 7d be c6 40 a8 3c 2e de d5 3b e3 b8 a3 3c
       -0.24773258 0.020538699 0.00652673 0.019985622
000120 3f c6 c0 be 5f 9c d1 bd 2a 8c b2 bc 35 b1 38 be
       -0.3765125 -0.102349035 -0.021795351 -0.18036349
000130 76 ed c6 3d 92 01 09 be 20 09 29 3e e7 f8 a2 be
       0.09713261 -0.13379505 0.16507387 -0.31830522
000140 d2 e2 3c 39 70 1c 78 bd c7 95 a3 bc 0a 7b 92 bd
       0.00018013574 -0.060573995 -0.01996888 -0.07152374
000150 ff ca 94 be a7 7c 42 be 87 4b 33 3d d9 13 c0 3e
       -0.29061124 -0.18992864 0.0437732 0.37515143
000160 18 d4 4f bd 93 a5 24 3d 84 53 cd 3d 7e 1f 2a be
       -0.050739378 0.040196966 0.10025695 -0.16613576
000170 84 9a 63 3c 66 11 22 3e 38 fd 41 be 1c 5a 9e bc
       0.01389182 0.1582695 -0.18944252 -0.019330077
000180 fb 4e 90 be 8d b4 e4 bc ad 76 3b 3e a2 8e 2f be
       -0.28185257 -0.027918125 0.1830699 -0.17144254
000190 a8 7f fb 3b 49 e7 89 3c d2 12 5f 3e 7a 9b dd bd
       0.00767513 0.016833918 0.21784523 -0.108206704
0001a0 6e 29 c3 3c f2 9b 6f 3d 2f 9a 55 bd 36 29 29 bc
       0.023823466 0.05849833 -0.052148994 -0.010324767
0001b0 06 d4 f0 be 70 cf da 3e 75 77 34 be 0a a9 3f 3e
       -0.4703676 0.42736387 -0.17623694 0.18716827
0001c0 c6 26 07 3d 3a 35 a0 bd 86 fe 95 3e a1 5f a9 3c
       0.03299596 -0.07822652 0.29295748 0.020675482
0001d0 f0 c9 e4 bd 0b f0 2c 3d 79 b8 2a be a7 6a b0 3e
       -0.11171329 0.04222111 -0.16671933 0.3445637
0001e0 3b 6b 12 3d b9 ae 26 bc 87 cf 44 be 05 c2 e6 bc
       0.035746794 -0.010173493 -0.1921979 -0.028168688
0001f0 44 c6 59 3c dd e4 6a bd b5 97 40 3d 71 05 92 be
       0.013291899 -0.057347167 0.04701968 -0.28519776
000200 6c 4e 23 bd db a6 a2 bd d0 31 b2 3e 03 fd a6 be
       -0.03986971 -0.079419814 0.3480363 -0.32614908
000210 77 01 12 be 4f ec 60 be 5e 26 fb be 4a 49 73 bd
       -0.14258371 -0.21965145 -0.4905271 -0.059396066
000220 6e 44 75 bd fd 8a 20 3d d4 cc 0d be 8e 62 0c be
       -0.059879713 0.03919505 -0.13847667 -0.1370947
000230 14 59 df 3c b4 98 e7 3d 18 52 24 be e9 5a 2d bf
       0.027264155 0.11308423 -0.16046941 -0.6771684
000240 54 66 ed 3c 89 a5 7f 3d db f8 cc bd b8 cd 16 3e
       0.028979458 0.062413726 -0.10008403 0.14726913
000250 de b4 24 bd e9 f0 e1 3d bd 01 0d 3e 70 4d e6 bb
       -0.04021155 0.11032278 0.13770194 -0.0070282742
000260 40 8d 5b bd 5a fc b2 be dc bb b5 be 36 40 96 bd
       -0.053601503 -0.34958154 -0.35494888 -0.07336466
000270 72 55 0c bd 81 67 4b be 7a 03 fb bd 2f a2 91 bd
       -0.034261174 -0.19863702 -0.122565225 -0.07111012
000280 55 ee 91 3c ce cc d5 bd fa 94 93 bd e0 f3 c4 be
       0.01781384 -0.10439454 -0.072061494 -0.38467312
000290 74 e6 55 3c 48 f4 0b bd 86 4f 7f bd 88 e1 86 bd
       0.013055433 -0.03416851 -0.0623317 -0.065859854
0002a0 7f 26 17 be 75 9a 92 3e ee f3 80 bc fa 22 1f bd
       -0.14760779 0.28633466 -0.015741315 -0.038851716
0002b0 18 b7 99 bb e7 bf 03 be 5b d7 59 3b e2 af 85 be
       -0.004691016 -0.12866174 0.0033239934 -0.2611075
0002c0 8c 13 1f be e1 69 8e 3d e0 52 42 3b dd c9 43 3e
       -0.155348 0.069537885 0.0029651448 0.19119973
0002d0 94 75 9d 3c 07 5e 0d bd 7a e5 4e 3d fa b6 f8 bd
       0.019221105 -0.0345135 0.050511815 -0.12144275
0002e0 6d cb da be 19 9f 80 3e a1 cb a9 bd 98 8d 32 be
       -0.42733327 0.25121382 -0.08290792 -0.17436826
0002f0 98 e8 33 3d 36 5c 8c be 36 85 87 be d9 14 2c 3d
       0.04392299 -0.274141 -0.2646882 0.04201207
000300 29 b0 18 3d ad f5 58 bd d7 49 89 3b 24 21 61 bc
       0.037277374 -0.05296867 0.0041897106 -0.0137408115
000310 7c 58 75 3c ac ec 89 bd 31 06 b6 3e 22 5e e0 bd
       0.01497471 -0.06734595 0.355516 -0.109554544
000320 18 92 a8 3d 22 28 6a be b1 61 a2 be 4f 2d 18 be
       0.0823099 -0.22866872 -0.31715158 -0.14861034
000330 18 46 8d 3c ca e8 bd bc d5 d6 59 bd 24 01 f2 bd
       0.017245337 -0.023182292 -0.053183395 -0.11816624
000340 d0 9d 69 3d 8e dd 26 be ea 47 6c bd ae 00 82 be
       0.057035267 -0.16295454 -0.05768577 -0.25391144
000350 44 07 84 be 76 16 37 3e ad e6 8b 3c d6 2b 2e be
       -0.25786793 0.17879662 0.017077768 -0.1700891
000360 14 ba c8 bd c2 82 94 be b9 5b 2c be 45 7c 19 3d
       -0.098011166 -0.2900601 -0.16831864 0.03747203
000370 20 0a 88 3c 34 0d 36 3e c4 ab a6 3e 6e 15 85 3d
       0.01660639 0.17778474 0.32552922 0.06498228
000380 ba 18 8d 3e 62 c3 a6 be 94 45 32 bd 1e 13 90 be
       0.27557927 -0.3257094 -0.043523386 -0.28139585
000390 34 c9 49 be 20 48 6b bc da 73 bd 3c 3f bc 18 3d
       -0.19705659 -0.014360458 0.023126531 0.0372889
0003a0 49 c1 55 3a 19 4f 36 bd 8f c0 ee 3c 0f 0f 9a bd
       0.0008154107 -0.044509027 0.029144553 -0.075224034
0003b0 30 f4 d6 3d 2b c9 9f be b5 12 d4 3c 89 ec 64 be
       0.10495794 -0.31208166 0.025887826 -0.22355856
0003c0 b7 bb eb bd 2a c6 d1 bd fc c3 ac 3e 98 d7 3c be
       -0.11510413 -0.10242875 0.33743274 -0.18441617
0003d0 18 0e f3 3b d2 7b b8 3c a8 0d 1b 3d f3 1b 1b 3d
       0.0074174516 0.02251998 0.03785482 0.03786845
0003e0 45 34 3d bd 45 5b 28 bc 37 51 d3 bc ce e1 11 3e
       -0.046192426 -0.010275667 -0.025795562 0.14246294
0003f0 e1 7c 12 be 43 87 95 3d 16 8b 9d bc cb 44 a7 3d
       -0.1430545 0.0730119 -0.01923136 0.08167418

l2.bias f4 [300]
000000 e3 c5 4b 3d 85 6d c9 be c0 ed dc bc 1c fb 43 bd
       0.049749266 -0.3934137 -0.026968837 -0.0478469
000010 9a 78 0f bd b8 06 82 bd 67 47 ad bd 02 51 a8 bd
       -0.035027124 -0.06348938 -0.084608845 -0.08218576
000020 99 b7 ba bc 41 3c 6d bd df 6b 80 bd 3e 69 22 bc
       -0.022792624 -0.05791879 -0.06270575 -0.009912787
000030 37 8a 91 be fb 3e 27 bd d1 60 a4 bd 12 03 4f 3e
       -0.28425762 -0.040831547 -0.08026279 0.20216015
000040 1e 63 13 bd 6e 78 99 3e d5 eb 33 3e 27 bd f9 3d
       -0.035983197 0.29974693 0.17570432 0.12194281
000050 d2 79 86 3e c1 32 eb be c0 d4 86 bc f9 6f b4 3b
       0.26264817 -0.4593716 -0.016458869 0.0055065122
000060 7c 11 62 be 56 c4 20 3e 84 53 4a 3e b9 74 22 3e
       -0.22076982 0.15699896 0.19758421 0.15864839
000070 e2 0e be be a1 52 18 be 05 8c d9 bd e5 df 52 bd
       -0.3712073 -0.1487527 -0.1062241 -0.051483054
000080 2c 8b 92 3c b6 b9 78 bd 6a a9 ef 3d fc 49 ec 3d
       0.017888628 -0.060723983 0.11702235 0.11537549
000090 cf 92 95 bd 5b 52 35 bd 66 5c e5 be 93 f5 74 bd
       -0.07303392 -0.044267993 -0.44797057 -0.05980451
0000a0 97 49 0e bd 06 f5 94 bd 15 40 04 bd 22 85 02 bf
       -0.03473815 -0.07273297 -0.032287676 -0.50984395
0000b0 12 a5 a2 bd 6a 27 73 3b b2 0c 13 3d 0c fd a3 bd
       -0.07941641 0.003710235 0.03590078 -0.08007249
0000c0 6c e9 9a be ac 0d 2b bd 0b 73 62 3e 8f af ab bd
       -0.30256212 -0.041761085 0.22114198 -0.083830945
0000d0 d1 75 78 bd 0d 79 ed bc df ad ad 3c d0 5a 1e 3e
       -0.060659233 -0.028988386 0.021201072 0.1546433
0000e0 d4 66 c1 bc fd e1 4d 3e a9 c1 16 bd 8e 24 99 bc
       -0.023608603 0.20105739 -0.036805782 -0.018694188
0000f0 7c 7d 3a be db 23 99 be 2c 80 05 bc 49 be 36 bd
       -0.18211931 -0.29910168 -0.008148234 -0.044615064
000100 70 f1 e7 be 16 a5 b6 3b c4 c5 ba 3b 31 3b be 3a
       -0.4530139 0.005573879 0.005699845 0.001451349
000110 84 d6 6e 3e 79 4c d6 bc 73 e3 96 bc 6f 7b 63 3e
       0.23324019 -0.026159512 -0.018419003 0.22215055
000120 0d e3 44 3b bf 7e db 3c f3 93 36 3e 82 9d 51 3d
       0.003004256 0.026793836 0.17829876 0.0511756
000130 ce 39 03 3a d7 ad b7 bd 6c 87 e1 bd f2 07 7d 3e
       0.0005005867 -0.08968704 -0.11012158 0.24710062
000140 ad 78 be be 54 98 6c be 39 97 1c be 82 78 82 bd
       -0.37201443 -0.23104984 -0.15292062 -0.06370641
000150 78 45 93 be 37 e5 d1 bc fa 04 0b bf 5d 4e 48 3e
       -0.28763938 -0.025621993 -0.5430447 0.19561143
000160 ca 31 0a be 91 d9 06 bb 2a 6f 9b be 31 33 d9 3b
       -0.13495556 -0.0020576457 -0.3035825 0.006628417
000170 55 d6 4d be 85 93 01 bd 20 da f2 3d 23 5f 02 bf
       -0.20101292 -0.031634826 0.1185801 -0.5092642
000180 6a 19 f8 bc 18 2b 7d 3e 18 0c 94 be 65 86 a1 3e
       -0.030285556 0.2472347 -0.28915477 0.31547847
000190 2b 03 c3 bd 0c 68 59 bd 42 ed 68 3e 7b 98 a9 be
       -0.095220886 -0.053077742 0.22746757 -0.33124146
0001a0 b6 a2 28 3b 05 39 16 be 8f 69 d8 bd 1f 7f a7 bd
       0.002573175 -0.14670189 -0.10567009 -0.08178543
0001b0 96 82 5e be 01 98 c4 3c b6 29 d6 3c 46 a0 2b bf
       -0.21729502 0.023998262 0.026142936 -0.6704143
0001c0 e1 ba a5 be 9f 63 76 be 39 b8 06 be 1f eb 23 bc
       -0.3236914 -0.2406144 -0.13156213 -0.010004788
0001d0 51 b3 8a 3b fb 83 74 3c 6d 32 1c bf 67 fb 80 bd
       0.004232802 0.014924045 -0.61014444 -0.06297951
0001e0 8d 3f 9d bd a5 3d 4e bd 8a 09 3b bd fc 49 9a be
       -0.07678137 -0.050351758 -0.045663394 -0.3013457
0001f0 58 ab 8e bd 81 5e 6d bb c6 e6 ee 3b 0d be 89 bd
       -0.06966275 -0.0036219659 0.007290694 -0.067257024
000200 f0 7c 02 3f 67 50 1e 3d e8 1c 03 3c 84 fc 56 bd
       0.5097189 0.038650896 0.008002497 -0.05248691
000210 74 0d 3d bd a7 f2 d6 bb 67 5b 22 3e c8 5d 5e 3e
       -0.046155408 -0.006559688 0.1585518 0.21715462
000220 01 1a 33 bd ce a0 89 3e 68 e8 ce bc 04 69 de bc
       -0.04372597 0.26880497 -0.025257304 -0.027149685
000230 9c 6b d8 3d 2e 8d 2f bd 45 b8 03 3d 34 53 25 bd
       0.105674 -0.04285925 0.032158155 -0.04036255
000240 0d 5e 27 be 3b 92 00 bf 9c 9a 0d bf fe ab e5 bd
       -0.16344471 -0.5022313 -0.5531404 -0.112144455
000250 d6 28 39 bf 44 d1 b1 bc c9 af 47 bf 85 eb 74 bd
       -0.72327936 -0.021706231 -0.780026 -0.05979492
000260 67 f8 2e bd 7b a1 a5 3e 86 36 02 3d b0 dc de bd
       -0.042717364 0.32349762 0.03179028 -0.108819366
000270 56 47 68 3b 5a 03 57 bd d3 13 60 be 37 2e cb bb
       0.003544291 -0.05249343 -0.21882562 -0.0062005776
000280 c2 7a 95 3d e4 04 96 bd b1 f6 45 bd 3c 71 34 bd
       0.07298805 -0.073251516 -0.048330966 -0.0440533
000290 eb 0f 56 bb 05 d0 56 bd d2 52 f2 bc cf 1c e6 3d
       -0.0032663296 -0.052444477 -0.029580507 0.112359636
0002a0 b0 7b 47 3e 3e eb 06 3e a6 ea 12 bd be ca 20 3e
       0.19480777 0.13175675 -0.03586831 0.1570234
0002b0 1e 24 06 be d5 5d bb 3d 3f 62 56 3e 0c 1c 49 3d
       -0.13099715 0.091487564 0.20935915 0.049099013
0002c0 e8 d7 90 be 90 b7 73 be e9 09 e2 bc 3b f2 56 3e
       -0.28289723 -0.23800492 -0.027592616 0.20990841
0002d0 01 8c a5 bd b2 b9 17 bd 7b c3 4e bd de 0a 93 be
       -0.08083344 -0.037042327 -0.050479393 -0.28719229
0002e0 15 ad 0d 3e d1 03 01 3e 7c 95 9d bd 61 44 81 bd
       0.13835557 0.12599112 -0.076945275 -0.0631187
0002f0 7b 3e bd bb 77 01 a6 bd f1 ec 35 bd 77 3d 89 3d
       -0.0057752705 -0.08105748 -0.044415418 0.067011766
000300 2b c4 20 bc c8 ba a4 bd 3d 23 89 bc ff d6 35 be
       -0.009812395 -0.08043438 -0.016740436 -0.17757796
000310 de e8 a9 3d 07 24 9e bd 82 91 47 bf 97 c1 30 be
       0.08296369 -0.077217154 -0.779564 -0.17261349
000320 4f 8d 9a bd f0 55 41 bb 3f af a9 bd 58 4a f1 bc
       -0.07546484 -0.0029500686 -0.08285379 -0.029454395
000330 89 21 31 be be e8 a8 bd d5 4e 27 3e 36 47 72 bd
       -0.17297949 -0.08247517 0.16338666 -0.059149943
000340 7e fc 01 be 34 5f 38 bd 78 f0 a7 bd b2 9f 3d bd
       -0.12693974 -0.045012668 -0.08200163 -0.046294875
000350 cc 5e 0d bf 6e 30 99 be cf 7a 1d bd 3f c9 15 3e
       -0.55222774 -0.2991976 -0.038447198 0.1462755
000360 92 52 1e 3e b7 3d 12 3c f2 ff f6 bc 68 eb 4e be
       0.15461186 0.008925847 -0.030151341 -0.20206988
000370 4b 4b da be 82 24 a8 bd 7c c3 9c 3e 91 62 42 3e
       -0.4263557 -0.08210088 0.30617893 0.18982913
000380 69 1b 97 3c 03 38 ed bb 2d 35 0a 3e bf 3b d6 3d
       0.018445687 -0.007239343 0.13496847 0.104606144
000390 2e f7 60 3e fb 8f 3a 3e 56 73 f9 be 15 ac 74 3e
       0.21969292 0.18218987 -0.48720807 0.23893769
0003a0 d0 09 12 bd 81 ae eb bc de 14 26 bc be 8b 00 be
       -0.03565389 -0.028769733 -0.010136811 -0.12553307
0003b0 58 19 cc bd 91 8f f8 be ec 42 c6 3c 24 d1 67 3e
       -0.099657714 -0.48547032 0.024201833 0.22638375
0003c0 2c 8c d1 bd 8c 49 63 bd 7c e2 7a 3d 93 7d 41 bd
       -0.10231814 -0.05549006 0.06125115 -0.047238898
0003d0 47 52 9f bd c5 cf 88 3b 71 cd 79 be f3 f4 2f bd
       -0.07779365 0.0041751587 -0.24394776 -0.04295821
0003e0 6a e9 fb 3d 18 bc 36 3d 72 dd bc be 68 d6 65 3b
       0.123003796 0.044612974 -0.368877 0.0035070423
0003f0 8a c7 8b bd 2b a7 65 bc 79 ea a7 bd 8c 2c 93 be
       -0.068251684 -0.014016907 -0.08199019 -0.28744924

l3.weight f4 [6, 300]
000000 c2 6e d6 3e 0e 2f a7 be c0 5d 84 3c 96 89 48 3d
       0.41881377 -0.32653087 0.016157985 0.048959337
000010 a1 9f 1b be dc c0 2c bd df 40 9e 3d ea 9e 49 3c
       -0.15197612 -0.042176113 0.07727217 0.0123059545
000020 01 16 22 bb 8b b8 94 3d 60 11 79 bd a9 c1 26 3b
       -0.0024732354 0.07261761 -0.060807586 0.002544502
000030 1f df 3d be b0 d7 63 bd b0 12 be 3c 84 bd b0 be
       -0.18542145 -0.055625618 0.02320227 -0.3451959
000040 62 93 a2 3e e1 ae 21 bd 80 d2 f4 bd fd b7 05 3e
       0.3175307 -0.03947342 -0.11954212 0.13058467
000050 aa b3 34 bd 14 81 90 3e b1 da bb 3c 2d 5a 0c bd
       -0.044116654 0.2822348 0.022931429 -0.034265686
000060 08 d0 00 3e f7 9e 28 3e 83 df 85 bd 26 c3 8e 3e
       0.12579358 0.1646689 -0.06536772 0.2788326
000070 c2 7c ae be 4e 99 ef 3c c3 8e 2b bc b0 b4 0e bd
       -0.34079558 0.029247906 -0.010471049 -0.034840286
000080 e2 6b 34 3c e8 9e 87 3b 77 6f 07 be 5e bb 58 3d
       0.011012049 0.004138816 -0.13226114 0.052913062
000090 f5 24 26 bd b3 6f 0a 3d 37 85 58 be b9 91 3a 3d
       -0.04056259 0.03379793 -0.21144567 0.04554913
0000a0 c5 ac b5 bc a6 a3 40 be e0 b0 3f bd 70 86 b5 bd
       -0.02217711 -0.18812427 -0.04679954 -0.088635325
0000b0 fe 55 ea 3d 96 34 d5 bc 65 e9 27 3e b8 2e 7e bc
       0.11442183 -0.026026051 0.16397627 -0.015514068
0000c0 a3 e2 ca 3d 14 3d 08 3d cd 65 47 be a1 4e 62 3d
       0.09906509 0.033261374 -0.19472428 0.055250768
0000d0 c1 db ba bd 06 a3 74 3e c3 2e f9 3c 5c ce 71 3c
       -0.09123946 0.23890314 0.030417806 0.014758673
0000e0 96 40 c8 bc 4f 74 55 3d 38 7a 38 bd 48 f9 96 3d
       -0.02444486 0.052112874 -0.045038432 0.073717654
0000f0 30 58 e8 bd 9b 0d 2c 3d 01 a6 57 bd cb c6 a0 3c
       -0.113449454 0.042005163 -0.052648548 0.019626042
000100 d6 fd 44 3d f8 ed 36 3d 11 f7 3a 3d 1b b6 95 3d
       0.04809364 0.04466054 0.045645777 0.073101245
000110 b3 1a 83 be b4 c7 93 bc f4 0c 43 bc e5 1f 89 be
       -0.25606307 -0.018039562 -0.011904944 -0.26782146
000120 fd 12 f7 bc 28 36 5b be 7b 39 37 3e 36 6b 68 3c
       -0.030160422 -0.21407378 0.17893021 0.014185717
000130 e6 8a 49 3c c7 01 63 bc df 01 2b bc 8b 46 a4 3c
       0.012301182 -0.013855404 -0.010437458 0.020053169
000140 d5 c1 1b 3e 89 06 cf 3c ab 4a 0b bd 41 54 0a 3c
       0.1521066 0.02527167 -0.034006756 0.008442939
000150 91 69 55 be ed 38 3c bd 00 fd b6 bc 05 cf 84 3d
       -0.20841052 -0.045952726 -0.022337437 0.06484798
000160 49 14 00 3e e2 1b b3 3d be 7a fd bd ae a3 1d bd
       0.12507738 0.087455526 -0.12376927 -0.038486175
000170 28 22 0f 3e 20 93 2f bc cc 6a 4c be 95 30 bf bd
       0.13977873 -0.01071623 -0.19962615 -0.09335438
000180 8f f8 83 3c 99 2d f3 3c f4 e5 61 3d 9c 4e a5 3c
       0.016109733 0.029684829 0.05515094 0.020179085
000190 53 06 b8 bd 88 89 92 3d 37 54 ab 3d 11 5e 01 3e
       -0.08985581 0.07155138 0.08365672 0.1263354
0001a0 8d 7d 83 be 8b 0e df be 3e fa d7 be 32 c5 bd 3d
       -0.25681725 -0.43565783 -0.42183107 0.09266128
0001b0 22 85 45 bd cf 45 89 bc 94 6e f9 bd 45 48 8a be
       -0.04822267 -0.01675692 -0.12179294 -0.27008262
0001c0 f3 fe 7e 3e d8 db bd be 5b 01 b0 3d 92 a7 b2 bc
       0.24901943 -0.3708179 0.085940085 -0.02180842
0001d0 42 4c 7f bd 1d 1b 9a bc f9 b9 ce 3d db 97 d9 bc
       -0.062328584 -0.018811757 0.10094065 -0.026561668
0001e0 1d 83 9b bd db 50 64 3c f4 b7 38 3d 04 21 29 3d
       -0.07593367 0.013935293 0.045097306 0.04129125
0001f0 21 cb bc 3d f5 0f f6 3c 02 47 15 3c 43 7d 65 3d
       0.09218431 0.030036906 0.009111168 0.056027662
000200 0b 82 ae 3f 79 41 81 bd f2 9d bb bc ee f5 13 3c
       1.3633436 -0.06311316 -0.022902463 0.009030802
000210 1e 72 87 bd b2 08 11 bd 71 d3 1c be 74 f7 23 3d
       -0.06613563 -0.035408683 -0.15315033 0.04003091
000220 4b ad 96 bb 92 39 ee 3e 16 ce cc bc a9 ae 85 3a
       -0.004598295 0.46528298 -0.025000613 0.0010199148
000230 99 04 ad be 96 06 d8 3c da 56 a9 3c eb 7e 86 3c
       -0.3379257 0.026370328 0.020671297 0.016417941
000240 fa 4a 63 3d 14 82 28 3e 9b 65 34 3e 80 1b b4 3c
       0.055491425 0.16455871 0.17616884 0.02198577
000250 98 39 b2 bc 30 8d 33 bc 21 a1 7f 3e 82 85 87 bd
       -0.021755978 -0.010958955 0.2496381 -0.066172615
000260 f2 b6 9b bc 5f 69 27 be fe c1 61 bd 29 12 51 bd
       -0.019008134 -0.1634879 -0.055116646 -0.05104271
000270 62 77 77 bc 03 39 d6 3d 5f 49 c9 be 4e 58 cc bd
       -0.015104147 0.10460093 -0.3931379 -0.0997778
000280 26 19 81 be bb b5 85 3d cf d0 0e be 6b 5c 37 3d
       -0.252145 0.06528803 -0.13946842 0.04476587
000290 53 c1 b7 bc 03 d5 87 bc 8d 8c 04 3d cf 01 63 3d
       -0.022431051 -0.016581064 0.032360602 0.055421647
0002a0 ef bd 45 3e 52 14 67 3e 87 6c e1 bc 57 b4 73 be
       0.19310735 0.22566345 -0.02751757 -0.23799263
0002b0 48 e1 0d 3d dd bf 3f be 0e 79 54 3b 6f 19 5e 3e
       0.034638673 -0.18725534 0.0032420787 0.2168939
0002c0 e7 f4 0b bf 7b 65 42 be 08 ae 79 3c 5b 12 22 bd
       -0.54670566 -0.18984024 0.015239246 -0.039568286
0002d0 08 da a4 3c 9b ce 97 bc f7 8e 85 3c e9 2f 46 bd
       0.020123497 -0.018531134 0.016303523 -0.048385534
0002e0 a0 f5 96 3d 05 b6 db 3d db a8 88 3e 82 64 03 3c
       0.07371068 0.10728077 0.26691326 0.008019568
0002f0 ad c9 b4 bc 1c ed b0 bc fb 89 b8 3c 02 bf af be
       -0.022068823 -0.021597438 0.022526732 -0.34325415
000300 fd e7 76 3d 1c 0c 9f bc 8a 6c a5 3c 23 7e 11 3e
       0.060279835 -0.019414954 0.020193357 0.14208274
000310 39 e3 22 3e af 16 6c 3c 2b 93 57 3c a7 c0 d7 3d
       0.15906991 0.014409705 0.013157646 0.105347924
000320 eb 84 70 3d 7d 4d a7 3d 2c 3a f4 3c 9d e0 f2 bc
       0.05872051 0.081690766 0.029812895 -0.02964812
000330 9b e0 24 3e c7 1f 06 bd f5 0d 51 3e 59 55 39 bd
       0.16101305 -0.03274515 0.2041548 -0.04524741
000340 ca 20 d8 3c 90 ef 51 3d da e6 1f 3b 75 3c 2b bd
       0.026382823 0.051253855 0.0024399073 -0.041805703
000350 95 5f 3c ba 44 b8 af 3d 74 09 0e bd 63 53 7d be
       -0.00071858737 0.08580068 -0.034676984 -0.24738841
000360 2d b3 ca bc 67 a4 ef 3c 8c ed 82 3c 0b 2d 87 be
       -0.02474364 0.029253198 0.015982412 -0.26401553
000370 4f ea c5 3d 60 c5 29 3b 13 ff a6 3e ee 0a 42 be
       0.096638314 0.0025904998 0.3261648 -0.18949482
000380 16 4d a9 bc 8f 45 5f 3d 0d 7d 5f bc 96 ea 5d 3e
       -0.02066664 0.054509696 -0.013640654 0.21671519
000390 2a 56 a0 3e 83 c1 88 3c af 52 c1 be 79 9f 8a bd
       0.31315738 0.016693836 -0.37758395 -0.06768698
0003a0 0c a7 88 bc 90 bc ac bc 85 df 1a bd 92 80 a9 bc
       -0.016681217 -0.021086007 -0.03781082 -0.02069119
0003b0 b8 e7 b7 3e e8 b5 a8 3e 95 11 18 3c 1c 42 bc 3d
       0.35918975 0.32951283 0.009281536 0.09192297
0003c0 35 58 4c bd 28 4c 2f be 86 45 7a 3d 03 fa 06 bd
       -0.04988881 -0.17118895 0.06110146 -0.032953274
0003d0 3c 5d 2c be c5 22 0e bd e5 d8 aa bd 72 8a d4 3c
       -0.16832441 -0.034701128 -0.083421506 0.025944922
0003e0 b7 18 0b 3d 08 37 03 3d e0 a9 21 bf c2 a4 e2 3c
       0.033959117 0.032034904 -0.63149834 0.027666453
0003f0 43 ee 0d bc 53 c4 ae 3d 3e b0 23 bf fa eb 90 bb
       -0.008662763 0.085335396 -0.639408 -0.004422662

l3.bias f4 [6]
000000 47 28 32 3d fe 97 6f 3d 3a e8 f9 3d 3c 39 3e bd
       0.043495443 0.05849456 0.12202497 -0.0464413
000010 a5 3d 51 bd d1 31 f9 3d
       -0.05108418 0.12167705
