results/runs/single_assembly_rerun/Average_TD3_5_Peg-in-hole-single_assembly_seed_1/6000_actor.pth (torch_old, 510312 bytes, 6 tensors)

l1.weight f4 [400, 12]
0	0xbe4cec50	-0.20012021
1	0x3ce5597d	0.027996773
2	0x3c92521c	0.017861418
3	0xbe097fe9	-0.134277
4	0xbdba23c2	-0.090888515
5	0x3e314746	0.17312345
6	0xbe3df19a	-0.18549195
7	0xb98a5f3e	-0.00026392372
8	0xbdc7e370	-0.09760177
9	0xbe4830ce	-0.19549868
10	0x3e2a7f6b	0.16650169
11	0xbcb8c537	-0.022554977
12	0x3e80edd0	0.25181437
13	0xbe4a7fae	-0.19775268
14	0xbbfb8704	-0.007676007
15	0x3e736ca0	0.23771906
16	0xbda37ca3	-0.07982757
17	0xba972700	-0.0011532009
18	0x3ebd1307	0.3692858
19	0x3e30683d	0.17227264
20	0xbdd202bd	-0.102544285
21	0xbd8d3582	-0.068949714
22	0xbe5595e3	-0.20857958
23	0xbd95226c	-0.07281956
24	0xbe06ef89	-0.13177313
25	0x3d638a81	0.05555201
26	0x3e888053	0.26660404
27	0x3e439b7d	0.19102283
28	0xbe889f89	-0.26684216
29	0x3e374024	0.17895561
30	0x3e49b709	0.19698729
31	0x3eb0d939	0.34540728
32	0x3e575261	0.21027519
33	0xbe92fa40	-0.2870655
34	0xbecef368	-0.4042008
35	0xbe4f9d59	-0.20274867
36	0x3e81c950	0.25348902
37	0xbd44f410	-0.04808432
38	0x3dfd0330	0.123541236
39	0xbe095ec8	-0.13415062
40	0x3e910692	0.28325325
41	0xbdfa237c	-0.12213799
42	0x3e5dae24	0.2164846
43	0x3b600700	0.003418386
44	0xbe1bba9f	-0.15207909
45	0x3e17f1ca	0.14838329
46	0xbe1ce986	-0.15323457
47	0x3dade06c	0.08490071
48	0xbe0afac5	-0.13572223
49	0x3e4ed87f	0.20199774
50	0xbd00ab4c	-0.03141336
51	0x3d65b489	0.056080375
52	0x3b527671	0.0032114054
53	0xbd8fb57a	-0.07017036
54	0x3e69ae86	0.22820482
55	0x3ebae6a2	0.36504084
56	0xbd926b5a	-0.07149382
57	0xbd559a07	-0.052148845
58	0x3e13e1fc	0.14441675
59	0x3e9f88c6	0.31159037
60	0xbe3f1576	-0.1866053
61	0x3e4001ee	0.18750736
62	0x3e337618	0.17525518
63	0x3e8315a6	0.25602454
64	0xbe25b40b	-0.16181962
65	0xbd42a1e0	-0.047517657
66	0xbbb73e80	-0.0055921674
67	0x3d2cb348	0.042163163
68	0xbe6056ba	-0.21908084
69	0xbe51c449	-0.20485033
70	0x3e20cf40	0.1570406
71	0xbd8aa21a	-0.067692
72	0x3e1064f6	0.14101014
73	0x3c86d190	0.016457349
74	0x3dc21ea0	0.094784975
75	0x3d81ffe8	0.06347638
76	0x3dd6f660	0.10496211
77	0x3e1288a4	0.14309937
78	0xbe88e183	-0.26734552
79	0x3e14cad8	0.14530504
80	0xbe4fd877	-0.20297419
81	0xbe5f090e	-0.21780798
82	0x3c8fd0c0	0.017555594
83	0xbd497de0	-0.04919231
84	0xbe2d2eaf	-0.1691234
85	0x3e3f36b0	0.18673205
86	0xbba121af	-0.0049173455
87	0x3e38b2d0	0.18036962
88	0xbdbb14a5	-0.09134797
89	0x3e2643a4	0.1623674
90	0x3e109cab	0.14122264
91	0xbeb215c4	-0.3478223
92	0xbc95daae	-0.018292751
93	0x3d69534e	0.05696421
94	0xbeaa98a2	-0.33319575
95	0xbcfa0ebd	-0.030524606
96	0xbe459aec	-0.1929738
97	0x3ea8c465	0.32962337
98	0xbc5fa180	-0.013649344
99	0xbe7abd99	-0.24486388
100	0x3e97ae1f	0.2962503
101	0xbd5ac588	-0.053411037
102	0x3e1224f6	0.14271912
103	0x3dd6f720	0.10496354
104	0xbedd1cf7	-0.4318616
105	0xbe97650c	-0.2956928
106	0x3e68d292	0.22736576
107	0xbd0be39b	-0.03415261
108	0x3e0072c3	0.12543778
109	0xbd599673	-0.053121995
110	0xbc2923dc	-0.010323491
111	0x3d82638f	0.063666455
112	0x3eebc666	0.46049803
113	0xbe442822	-0.19155934
114	0xbe44d17e	-0.1922054
115	0x3da3762f	0.07981526
116	0x3dcd88ff	0.100358956
117	0x3db7adfe	0.08968733
118	0x3c9d84ef	0.019228427
119	0xbdf86250	-0.121281266
120	0xbeac1f72	-0.3361774
121	0x3d0b13e3	0.033954512
122	0x3eb776d7	0.35832855
123	0xbe07ce2f	-0.13262247
124	0x3da28479	0.079354234
125	0xbe239ce9	-0.15977825
126	0xbdf28af9	-0.11842913
127	0xbbe016d3	-0.0068386584
128	0x3e6b5516	0.22981676
129	0x3e47d43e	0.19514558
130	0xbe820b9b	-0.2539948
131	0x3d63cf76	0.055617772
132	0x3e7f1078	0.24908626
133	0x3e33ed61	0.17571022
134	0x3e4fbf98	0.20287931
135	0x3e52d8ba	0.20590487
136	0x3e3a2f56	0.1818212
137	0x3d98b4e0	0.07456374
138	0xbe331ac8	-0.17490685
139	0xbe610648	-0.21975052
140	0xbe1e8c48	-0.154832
141	0xbca9bbeb	-0.02071949
142	0xbe42e688	-0.19033253
143	0x3de6abd9	0.11263246
144	0x3e2ebc4f	0.17064022
145	0x3a4ab30b	0.0007732368
146	0x3d3628f9	0.04447267
147	0x3d0b5356	0.034015022
148	0x3d90033f	0.07031869
149	0x3e47127c	0.19440645
150	0xbd80e270	-0.062931895
151	0x3f0bbd85	0.5458606
152	0x3d3b9521	0.045796517
153	0x3e9a0d85	0.3008844
154	0xbeca676e	-0.39532036
155	0x3cda12b4	0.026620246
156	0xbe2cb148	-0.16864502
157	0xbdfcdf66	-0.12347297
158	0x3e522a3c	0.20523924
159	0xbdc131f4	-0.09433356
160	0xbe5ce618	-0.21572149
161	0x3de37778	0.11106771
162	0x3dbd4950	0.09242499
163	0x3e3f75a2	0.18697217
164	0xbe18f76c	-0.14938134
165	0x3d802eb8	0.06258911
166	0xbdd73aaa	-0.10509236
167	0xbd84d446	-0.064858004
168	0x3ce50df6	0.027960759
169	0xbe401c0d	-0.187607
170	0xbcc025e2	-0.023455564
171	0x3ed55ec7	0.41673872
172	0xbcfbe87d	-0.030750507
173	0x3d9209ac	0.07130751
174	0x3e9a5c88	0.3014872
175	0x3ee32245	0.44362083
176	0x3e2c38bf	0.16818522
177	0x3e1d438a	0.15357795
178	0xbe96d8d5	-0.29462305
179	0x3ef67e2b	0.48143134
180	0xbf10a3ab	-0.5649974
181	0x3edcd4c8	0.4313109
182	0xbbb5624a	-0.0055353986
183	0xbd802149	-0.06256349
184	0xbe97cf56	-0.29650372
185	0x3e87d0da	0.2652653
186	0xbe8404ae	-0.2578482
187	0xbe133a44	-0.14377695
188	0x3b728c84	0.0037010023
189	0xbd8c9c6d	-0.06865773
190	0x3d29ca1a	0.041452505
191	0x3d4550dd	0.04817282
192	0xbdc359c9	-0.095386095
193	0x3d2fa0c8	0.042877942
194	0x3e05bd23	0.13060431
195	0xbed0a111	-0.40747884
196	0x3e8931dc	0.26795852
197	0x3e3de866	0.18545684
198	0x3e855432	0.26040798
199	0xbf305c5b	-0.68890923
200	0x3e0f0a1e	0.13968703
201	0xbf00a63e	-0.50253665
202	0x3e8fe0b9	0.28101137
203	0xbe277f87	-0.16357242
204	0xbd3e38bf	-0.046440836
205	0x3e3cd258	0.18439615
206	0xbc7f7685	-0.015592222
207	0xbddea711	-0.10871709
208	0x3d42316f	0.047410425
209	0x3e0b58a4	0.13608032
210	0xbe5962d6	-0.21229109
211	0x3df33d73	0.11876955
212	0xbf406f42	-0.75169766
213	0x3e8810fc	0.26575458
214	0x3edae15d	0.42750064
215	0x3ebef774	0.37298167
216	0xbce0b939	-0.027432071
217	0xbdd929cb	-0.106036745
218	0xbc92f6f3	-0.01794002
219	0x3d98a242	0.07452823
220	0xbe6d4c6c	-0.23173684
221	0x3e8616bc	0.2618922
222	0xbe48e273	-0.19617634
223	0xbf1903d5	-0.5977147
224	0x3e1314b5	0.14363368
225	0xbed062b7	-0.40700313
226	0xbe014b62	-0.12626413
227	0xbdecc735	-0.11561433
228	0x3e1279e9	0.14304318
229	0x3ecead7c	0.40366733
230	0xba856e18	-0.0010179905
231	0xbe540251	-0.20704009
232	0x3e38f657	0.18062721
233	0xbd7be28c	-0.06149535
234	0xbd3bafae	-0.045821838
235	0xbbe88e0b	-0.007097011
236	0xbecee20e	-0.4040684
237	0x3dca9130	0.098909736
238	0x3c86a5f5	0.016436556
239	0xbe931a68	-0.28731084
240	0xbe9e6465	-0.3093597
241	0x3e7a5f47	0.24450408
242	0x3d622e8b	0.055220168
243	0x3e60cf2b	0.21954028
244	0xbeb8e3e9	-0.36111382
245	0x3bd84340	0.0065998137
246	0xbf021e02	-0.5082704
247	0xbe950dc2	-0.2911206
248	0xbcd26fc8	-0.025688067
249	0x3e2650fb	0.16241829
250	0x3eea8eca	0.45812064
251	0xbe7eaf8a	-0.2487165
252	0x3e903983	0.28168878
253	0xbe1e6fa0	-0.15472269
254	0xbc53b721	-0.012922079
255	0xbd8300ef	-0.063966624

l1.bias f4 [400]
0	0x3ebc7116	0.36805028
1	0xbc4082ff	-0.011749982
2	0x3dd5236b	0.10407146
3	0xbe213205	-0.15741737
4	0xbf3bd36a	-0.7336947
5	0x3dc1f900	0.09471321
6	0x3b6be100	0.0035992265
7	0xbe87da30	-0.2653365
8	0x3db8ab8e	0.090170965
9	0x3f1095a6	0.56478345
10	0xbc4f2407	-0.012642867
11	0xbe5372f0	-0.20649314
12	0x3e52e29b	0.20594256
13	0x3d18c1c8	0.03729418
14	0xbeebf157	-0.46082565
15	0xbef83855	-0.48480478
16	0x3e631616	0.22176394
17	0xbe4defe0	-0.20111036
18	0xbde35284	-0.11099723
19	0xbee11524	-0.43961442
20	0x3dda57b4	0.10661259
21	0xbdec7795	-0.11546246
22	0x3c599c9d	0.013281968
23	0xbef57f81	-0.4794884
24	0xbe517391	-0.20454241
25	0x3ebfbcf3	0.37448844
26	0xbe185388	-0.14875615
27	0xbd46b581	-0.04851294
28	0x3e5fee6b	0.21868293
29	0xbdf8b8cb	-0.121446215
30	0x3eb4dcbc	0.35324657
31	0x3e44fdc2	0.19237426
32	0x3e285a43	0.16440682
33	0x3e44f9f8	0.1923598
34	0xbe18784f	-0.14889644
35	0x3e43369a	0.19063798
36	0xbec31c83	-0.3810769
37	0xbe52f194	-0.20599967
38	0xbb243b99	-0.0025059937
39	0x3e55f259	0.2089323
40	0x3ee178af	0.44037387
41	0xbd5abc40	-0.053402185
42	0xbea1f870	-0.31634855
43	0xbda1b909	-0.07896621
44	0x3e4cca8c	0.1999914
45	0xbee11d7d	-0.4396781
46	0xbeff9860	-0.4992094
47	0xbf2fcc2d	-0.6867092
48	0x3f014555	0.5049642
49	0x3e57e103	0.21081929
50	0x3da67818	0.08128375
51	0x3e28391d	0.16428037
52	0xbee3478f	-0.44390532
53	0xbe63293f	-0.22183703
54	0xbdf9c94a	-0.12196596
55	0xbdb8664f	-0.09003889
56	0xbe1f1fcf	-0.15539478
57	0xbe810672	-0.2520023
58	0x3d80f18c	0.062960714
59	0x3db65db1	0.08904589
60	0x3b8bd9fd	0.0042679296
61	0x3e10337a	0.14082137
62	0xbe5114f1	-0.20418145
63	0xbd397dfe	-0.04528617
64	0xbef078b7	-0.46967098
65	0xbe996a07	-0.29963705
66	0xbe06625b	-0.13123457
67	0x3e5b86c8	0.21438134
68	0x3e0155ea	0.1263043
69	0xbdcf2e1d	-0.10116217
70	0xbf18ef5e	-0.59740245
71	0xbecf8561	-0.40531448
72	0xbf0d7c2e	-0.5526761
73	0xbed16d53	-0.4090372
74	0xbe382936	-0.1798447
75	0x3e6dd368	0.23225176
76	0x3c416496	0.011803767
77	0x3d1eca7b	0.03876732
78	0x3e749a12	0.23886898
79	0xbe379bc1	-0.17930509
80	0xbe88df59	-0.267329
81	0xbef4f099	-0.4783981
82	0xbe5bcfde	-0.21466014
83	0xbe90eef6	-0.28307313
84	0xbe8191ef	-0.2530665
85	0x3d2de080	0.042450428
86	0xbc067e20	-0.0082087815
87	0xbe3c4a18	-0.1838764
88	0xbb82ec3e	-0.0039954474
89	0xbdf39fe2	-0.118957296
90	0xbe204102	-0.15649799
91	0x3da4cd52	0.08046974
92	0x3d953c48	0.07286888
93	0xbf0520af	-0.52002996
94	0xbd72d582	-0.05928565
95	0x3cd1caf9	0.02560948
96	0xbe7d3077	-0.24725519
97	0xbe9381de	-0.28810018
98	0xbe9ec3d7	-0.3100879
99	0x3d707cab	0.058712643
100	0xbd7bf21c	-0.06151019
101	0x3dc7f120	0.09762788
102	0xbdce932d	-0.10086665
103	0x3ea8568b	0.32878527
104	0xbe8073f2	-0.2508846
105	0xbef5aeae	-0.47984833
106	0xbe8aabf5	-0.27084318
107	0xbe78a7aa	-0.24282709
108	0xbe474bc3	-0.19462495
109	0xbdf4007d	-0.11914156
110	0xbd6a35d1	-0.05718023
111	0x3dfb79c7	0.122790866
112	0xbe0785d8	-0.13234651
113	0x3db2e172	0.087344065
114	0xbf0c4d14	-0.5480511
115	0xbe8f9a2b	-0.28047308
116	0xbefa1d26	-0.48850363
117	0xbd616570	-0.05502838
118	0x3e4a2538	0.1974076
119	0x3e4c1242	0.1992884
120	0x3ccd4d30	0.02506122
121	0x3d7ccbc4	0.061717764
122	0x385ba06d	5.2363077e-05
123	0xbeddf720	-0.43352604
124	0x3e90bbcc	0.28268278
125	0xbce93e73	-0.02847216
126	0x3db68c00	0.08913422
127	0xbda5bddc	-0.080928534
128	0x3e8913b4	0.26772845
129	0xbeac5c4e	-0.33664173
130	0xbd1cd4ae	-0.038288765
131	0xbea21cde	-0.3166265
132	0x3e09ab94	0.13444358
133	0xbd91ffc5	-0.07128862
134	0x3e090ffc	0.13385004
135	0x3c8cb2d9	0.017175125
136	0xbf4529e9	-0.77017075
137	0xbf000968	-0.5001435
138	0xbed91df4	-0.42405665
139	0xbf3e0a6b	-0.74234647
140	0x3e6509d3	0.22367029
141	0x3e1e0170	0.15430236
142	0x3e62632b	0.22108142
143	0xba524214	-0.00080207107
144	0xbf1d2fdb	-0.61401147
145	0x3d9461a2	0.072451845
146	0x3d3e3d93	0.04644544
147	0xbab35d8c	-0.0013684495
148	0x3dbd7cda	0.09252329
149	0xbedc3ec9	-0.4301665
150	0xbdd12c84	-0.10213569
151	0x3da94ecc	0.082669824
152	0xbf16c486	-0.5889362
153	0xbde63487	-0.112404875
154	0xbea3182a	-0.31854373
155	0xbf091756	-0.5355123
156	0xbf04bd13	-0.51851004
157	0xbf32f7e4	-0.699095
158	0xbf4b0af4	-0.7931359
159	0xbf002d6b	-0.500693
160	0x3dcb5b58	0.09929532
161	0xbebe8320	-0.37209415
162	0x3ea246eb	0.3169473
163	0xbe4983b2	-0.19679144
164	0xbe9a65b5	-0.3015572
165	0x3e6e0d6c	0.23247308
166	0xbeb067ed	-0.3445429
167	0xbf1ffb5a	-0.6249291
168	0x3eabefd6	0.33581418
169	0xbe8c0d95	-0.27354112
170	0xbf16a929	-0.5885187
171	0x3d313b00	0.043269157
172	0xbe60ccfc	-0.21953195
173	0x3e4a00ed	0.19726916
174	0xbed2aba0	-0.41146564
175	0x3d91386d	0.070908405
176	0x3e406a37	0.18790518
177	0xbe1ae382	-0.1512585
178	0xbe5fa70f	-0.21841072
179	0xbe8640fa	-0.26221448
180	0xbe3aebd8	-0.1825403
181	0x3c81af80	0.015830755
182	0xbd4785f2	-0.048711725
183	0xbe762ad4	-0.24039775
184	0xbdf0fb06	-0.11766629
185	0xbed77eda	-0.42088968
186	0xbf047320	-0.51738167
187	0xbe645b80	-0.2230053
188	0x3eb66a12	0.356278
189	0xbe518d55	-0.2046407
190	0xbeb0634c	-0.34450758
191	0xbe012f5d	-0.12615724
192	0xbdb446be	-0.088025555
193	0x3d57c863	0.052681338
194	0xbf18dccf	-0.5971193
195	0xbed8484b	-0.42242655
196	0x3e75ac28	0.23991454
197	0x3e7ed776	0.2488688
198	0x3d978b14	0.07399574
199	0x3e4fc54e	0.2029011
200	0x3e475010	0.19464135
201	0xbc4132e2	-0.011791917
202	0xbdb286cc	-0.08717117
203	0x3cc5b392	0.024133477
204	0xbcdc8f13	-0.026923692
205	0x3e139818	0.14413488
206	0xbdb6ce3d	-0.089260556
207	0x3e4b8fee	0.19879124
208	0xbee26afe	-0.44222254
209	0x3edbb8b2	0.4291435
210	0xbd442c65	-0.0478939
211	0xbebd64f3	-0.3699108
212	0xbec280e7	-0.3798897
213	0x3e52dcab	0.2059199
214	0x3dd2b968	0.1028927
215	0x3d70d63e	0.058798067
216	0xbea4aaa1	-0.3216143
217	0x3ed556c1	0.4166775
218	0x3db0a294	0.08624759
219	0x3d0a23e8	0.03372565
220	0xbc018376	-0.007904878
221	0xbda65639	-0.081219144
222	0x3e45f4f9	0.19331731
223	0xbf187f68	-0.59569407
224	0x3f061492	0.5237514
225	0xbeac9598	-0.3370788
226	0xbc87d9b8	-0.016583309
227	0x3e91a63c	0.2844714
228	0xbf383f6c	-0.71971774
229	0x3e1365e8	0.14394343
230	0x3e5aab61	0.21354438
231	0xbed06406	-0.40701312
232	0xbe4a9144	-0.19781977
233	0xbd8ac329	-0.06775505
234	0x3e6dddf8	0.23229206
235	0x3e254962	0.16141275
236	0xbd6e094e	-0.058114342
237	0xbc69a298	-0.014259957
238	0x3d882ebf	0.06649541
239	0x3ebfbf93	0.37450847
240	0xbd1b0924	-0.037850514
241	0x3d5edc16	0.05440911
242	0xbefc18e3	-0.49237737
243	0xbec09d8c	-0.376202
244	0xbefcd7ee	-0.4938349
245	0x3d0d0598	0.034429163
246	0xbf4cee99	-0.8005157
247	0xbf09e02d	-0.5385769
248	0xbef85633	-0.48503265
249	0x3e9fe434	0.31228793
250	0x3e3c5bee	0.18394443
251	0x3db82b87	0.08992677
252	0x3da3a480	0.0799036
253	0xbe05776f	-0.13033842
254	0xbf04a685	-0.5181659
255	0xbe24389b	-0.16037218

l2.weight f4 [300, 400]
0	0x3cef65df	0.02922338
1	0x3dcd6718	0.10029429
2	0xbe3c27ae	-0.18374512
3	0x3d049bf1	0.03237528
4	0x3b89d40f	0.0042061876
5	0xbcca58a7	-0.024700476
6	0xbd4b416b	-0.049622934
7	0x3ce5a567	0.028032972
8	0xbd94c93f	-0.07264947
9	0xbd0d470a	-0.034491576
10	0xbde43ead	-0.11144767
11	0xba20a8db	-0.0006128677
12	0xbe6a0ad9	-0.228557
13	0x3c07ca28	0.008287944
14	0x3ca57560	0.02019757
15	0xbd2381b6	-0.039918624
16	0xbe98bf6f	-0.29833552
17	0xbe2c5d37	-0.16832434
18	0x3d449724	0.0479957
19	0x3d0ba5c5	0.034093637
20	0x3ced3710	0.02895692
21	0x3deda7ef	0.116042964
22	0xbe5a7e7c	-0.21337312
23	0x3c4adac9	0.012381264
24	0x3e1286ef	0.14309286
25	0xbae3a737	-0.001736856
26	0xbe94a178	-0.2902944
27	0x3d55f4ea	0.05223552
28	0xbe47a72d	-0.19497366
29	0xbd33cd24	-0.04389681
30	0x3e724c72	0.23661974
31	0xbc1dbd08	-0.009627588
32	0xbe57c5ee	-0.21071598
33	0xbd013a5d	-0.0315498
34	0xbd65fd72	-0.056149907
35	0x3d0d8e9f	0.034559842
36	0xbedcae16	-0.43101567
37	0x3d60e8f9	0.05490968
38	0xbe9054ba	-0.2818964
39	0xbe059b99	-0.13047637
40	0xbd941235	-0.07230035
41	0x3c7c9ed7	0.01541873
42	0xbda001bf	-0.07812833
43	0x3cb545ce	0.022128012
44	0x3e4aba5f	0.19797657
45	0xbd1cb0ac	-0.038254425
46	0x3d581291	0.05275208
47	0xbb6895e3	-0.003548973
48	0xbeb597ec	-0.3546747
49	0xbc04d3c6	-0.008107131
50	0xbcfe6ce3	-0.03105778
51	0xbdd8341b	-0.10556813
52	0x3cf4a80b	0.029865285
53	0xbd7d1fc9	-0.06179789
54	0x3c855d04	0.016279705
55	0xbde25594	-0.11051479
56	0x3d4bf09e	0.049790017
57	0xbbf84758	-0.007576864
58	0x3c113f38	0.00886517
59	0xbc83d792	-0.016094003
60	0x3ce9f0d5	0.02855722
61	0xbb974c90	-0.0046172813
62	0xbe178d5d	-0.1480002
63	0xbc32ae6d	-0.010905844
64	0x3bbd90be	0.005785077
65	0x3d7c8e36	0.06165906
66	0xbcec5a20	-0.028851569
67	0x3e0f616a	0.14002004
68	0xbe1f70b9	-0.15570344
69	0x3dab9576	0.08378117
70	0x3b366549	0.0027831367
71	0xbcd78039	-0.026306259
72	0xbd58a9b8	-0.05289623
73	0x3d34258c	0.04398112
74	0xbcb28c2a	-0.021795351
75	0xbe3154a1	-0.1731744
76	0x3e40d16a	0.18829885
77	0x3de12dd2	0.10995068
78	0x3d59c96a	0.0531706
79	0xbd6a961e	-0.05727207
80	0xbca3e465	-0.020006368
81	0x3ccab1fb	0.02474307
82	0x3d07918e	0.033097796
83	0x3c0de8c1	0.00866145
84	0xbdf81018	-0.12112445
85	0xbe183ff3	-0.14868145
86	0x3d334b87	0.0437732
87	0x3e3201c1	0.17383482
88	0xbcf76c13	-0.030202901
89	0x3d18c766	0.037299536
90	0x3d48f3b3	0.049060535
91	0xbe276bf6	-0.16349778
92	0x3c639a84	0.01389182
93	0x3c9b922d	0.0189906
94	0xbd9ca9ae	-0.07649551
95	0xbc9e5a1c	-0.019330077
96	0xbca1f59f	-0.019770442
97	0x3bd7c3e4	0.0065846313
98	0xbc8f2a25	-0.01747615
99	0xbdf5fe55	-0.120114006
100	0x3bfb7fa8	0.00767513
101	0xbd1eb6ad	-0.038748432
102	0x3dec09e8	0.11525327
103	0xbd6a7c8d	-0.057247687
104	0x3cc3296e	0.023823466
105	0xbd870e8c	-0.065945715
106	0x3d07731b	0.033068758
107	0xbde288c0	-0.11061239
108	0xbe913cb1	-0.28366616
109	0xbcae0b5c	-0.021245651
110	0x3d75c36e	0.06000083
111	0xbd8dde78	-0.06927198
112	0xbc139778	-0.009008281
113	0x3da42640	0.08015108
114	0x3ce305c0	0.027712703
115	0x3c09e86f	0.008417233
116	0x3cec3684	0.028834589
117	0x3d2cf00b	0.04222111
118	0xbe3b6ed9	-0.18304004
119	0x3da86571	0.082224734
120	0x3d126b3b	0.035746794
121	0x3d62ff18	0.055419058
122	0xbb65195d	-0.0034957745
123	0xbc2e5a0c	-0.010641586
124	0xbcd60c5d	-0.026128942
125	0xbc2c0542	-0.0104993
126	0x3d4097b5	0.04701968
127	0xbe624075	-0.22094901
128	0xbd23ae46	-0.039961122
129	0x3d0ee1a3	0.034883153
130	0x3e02641d	0.12733503
131	0xbdb881a5	-0.09009103
132	0xbe20b1f7	-0.15692888
133	0xbdab7d35	-0.08373491
134	0xbeb16c94	-0.3465315
135	0xbde0fc6a	-0.10985644
136	0xbd1efa89	-0.038813148
137	0x3774e890	1.4597681e-05
138	0xbcf1d265	-0.02951927
139	0x3c94b64f	0.018153338
140	0x3de18608	0.110118926
141	0xbdab5b42	-0.083670154
142	0xbde36869	-0.11103899
143	0xbdd40c79	-0.103539415
144	0x3d9ede06	0.07757191
145	0x3d3726b5	0.04471465
146	0x3d42fb80	0.04760313
147	0x39229b45	0.00015507366
148	0x3db25558	0.08707684
149	0x3caf1303	0.02137137
150	0xbd6cbdd9	-0.05779824
151	0xbbe64d70	-0.0070282742
152	0xbd5b8d40	-0.053601503
153	0xbd468f2c	-0.048476383
154	0xbe1125c3	-0.14174561
155	0x3c02ea64	0.007990453
156	0x3cbab21a	0.022790004
157	0x3c8746ac	0.016513191
158	0xbd3353ab	-0.043780964
159	0xbd89405f	-0.06701731
160	0xbd153150	-0.03642398
161	0xbd8c3e47	-0.06847816
162	0xbde574a4	-0.11203888
163	0xbe31be5a	-0.1735777
164	0xbca73751	-0.02041212
165	0x3c3a208e	0.011360301
166	0xbcff65b8	-0.031176433
167	0x3d08c30f	0.033389147
168	0xbe8458f6	-0.25849122
169	0x3d9b6ba3	0.075888894
170	0xbc9277f4	-0.017879464
171	0xbd1f22fa	-0.038851716
172	0xbb99b718	-0.004691016
173	0x3ca925a4	0.020647831
174	0x3d924924	0.07142857
175	0xbe15f35e	-0.14643618
176	0x3ddae9c2	0.10689117
177	0x3e64a460	0.22328329
178	0x3b4252e0	0.0029651448
179	0x3da9afbf	0.08285474
180	0x3c9d7594	0.019221105
181	0x3a3cfd80	0.00072094053
182	0xbe1c8ae3	-0.15287356
183	0xbde05541	-0.10953761
184	0xbe725969	-0.2366692
185	0x3d9537f4	0.07286063
186	0x3d12895d	0.03577553
187	0xbe1f0f2f	-0.15533136
188	0x3c020b4b	0.007937263
189	0xbd3fd288	-0.046831638
190	0xbba72321	-0.0051006232
191	0x3e08b8b7	0.13351713
192	0x3d18b029	0.037277374
193	0xbd83a94f	-0.064287774
194	0x3c9d2bb6	0.019185882
195	0x3c19bb8c	0.009383094
196	0x3c75587c	0.01497471
197	0x3b47dbf3	0.003049609
198	0x3e13726f	0.14399122
199	0xbe0ed163	-0.13947062
200	0x3e687c06	0.22703561
201	0xbdc34b67	-0.09535866
202	0xbd870170	-0.06592071
203	0xbd32d12f	-0.043656524
204	0x3bfc3b4a	0.0076974975
205	0x3e37374f	0.17892192
206	0xbce8c3b3	-0.02841363
207	0xbd166d09	-0.036725078
208	0xbcd22ebe	-0.025657054
209	0x3d812008	0.063049376
210	0xbd1a74f3	-0.037709188
211	0xbe2366ce	-0.15957186
212	0x3cd0f033	0.02550516
213	0xbd396e97	-0.045271482
214	0x3ce2f666	0.027705383
215	0xbddad571	-0.10685242
216	0x3ca06399	0.019578742
217	0xbdf3a0db	-0.11895915
218	0xbd06a377	-0.032870736
219	0x3d197c45	0.03747203
220	0xbcf207d4	-0.029544748
221	0x3db84ac9	0.08998639
222	0xbcc2d501	-0.023783209
223	0x3d71654e	0.058934502
224	0x3cd8c442	0.02646077
225	0xbd107163	-0.035264384
226	0x3e419e78	0.18908107
227	0xbe249e23	-0.1607595
228	0xbbca8379	-0.0061802235
229	0xbc6b4820	-0.014360458
230	0xbc306dca	-0.010768363
231	0xbd12db3b	-0.035853606
232	0x3a55c149	0.0008154107
233	0x3d1267f7	0.03574368
234	0x3e1e8c5f	0.15483235
235	0xbe0e6a09	-0.13907637
236	0x3e685bea	0.22691312
237	0xbd97cf45	-0.074125804
238	0x3da304ee	0.07959925
239	0xbcc235f8	-0.023707375
240	0x3d3ac2cf	0.04559594
241	0xbe28c5b9	-0.16481675
242	0x3db340cd	0.08752594
243	0xbded1024	-0.11575344
244	0x3cb11b77	0.021619542
245	0x3cb87bd2	0.02251998
246	0x3d1b0da8	0.03785482
247	0xbc0462ed	-0.008080226
248	0xbd3d3445	-0.046192426
249	0x3da59559	0.080851264
250	0xbcd35137	-0.025795562
251	0x3d5c2f5a	0.053756095
252	0x3cff2394	0.031144895
253	0x3d64143e	0.055683367
254	0x3c0e9b4e	0.00870402
255	0xbd513eec	-0.051085398

l2.bias f4 [300]
0	0xbe6554fb	-0.22395699
1	0xbe57bf55	-0.21069081
2	0x3b27e609	0.002561929
3	0xbd43fb1c	-0.0478469
4	0xbb0fa15c	-0.0021916246
5	0xbd0e70ae	-0.03477543
6	0xbd362659	-0.044470165
7	0xbd03157c	-0.03200291
8	0x3c901dc5	0.01759232
9	0xbd1444af	-0.036198314
10	0xbd2e3868	-0.042534262
11	0x3cd9267d	0.02650761
12	0xbd336d5e	-0.043805473
13	0xbc25ba2a	-0.010115186
14	0xbd2cacbc	-0.04215692
15	0x3e1bfb00	0.15232468
16	0xbe1e30a6	-0.15448245
17	0xbce1a28d	-0.02754333
18	0x3e3be0d0	0.18347478
19	0x3db27cae	0.08715187
20	0x3b8919ca	0.0041839825
21	0xbe87495c	-0.26423156
22	0x3df3f550	0.11912024
23	0x3bb46ff9	0.0055065122
24	0xbcf33a4c	-0.029690884
25	0xbddda5a6	-0.108226106
26	0xbd0baf90	-0.034102976
27	0x3dd09180	0.10184002
28	0xbd801e9a	-0.06255837
29	0xbbec727a	-0.007215795
30	0xbd475806	-0.04866793
31	0xbd4cea2b	-0.050028007
32	0x3caee7c6	0.021350753
33	0xbd31b3d5	-0.04338439
34	0xbc932868	-0.017963603
35	0x3dce8f50	0.100859284
36	0xbc9d65da	-0.019213606
37	0xbca9ae83	-0.020713096
38	0xbca8d60a	-0.020609874
39	0xbcf783cb	-0.030214211
40	0xbb9dbbcc	-0.004813647
41	0xbd49ac38	-0.049236506
42	0xbb3328cb	-0.0027337547
43	0xbde9981a	-0.11405964
44	0xbcf4e24d	-0.029893065
45	0x3c9e5adc	0.019330435
46	0xbe0eef33	-0.13958435
47	0xbd5a0960	-0.053231597
48	0xbe131d80	-0.14366722
49	0xbd280072	-0.04101605
50	0x3d23e6c4	0.040014997
51	0xbd4bf978	-0.04979846
52	0xbc1d20cf	-0.009590342
53	0x3d679618	0.056539625
54	0x3d30c677	0.04315802
55	0x3dbe1113	0.092806004
56	0xbcc166d4	-0.023608603
57	0x3cf5afb0	0.029991
58	0x3a183e26	0.00058076007
59	0xbbb4d44d	-0.0055184723
60	0xbce746ad	-0.028231943
61	0xbe1dbabf	-0.15403269
62	0x3ced1d89	0.028944748
63	0xbd36be49	-0.044615064
64	0xbdd05fa9	-0.10174496
65	0x3cd097d1	0.025463017
66	0x3d08b921	0.033379678
67	0x3cdc5385	0.026895294
68	0x3e3a32aa	0.1818339
69	0xba7d8ebc	-0.0009672453
70	0xbc96e373	-0.018419003
71	0x3e673ef5	0.2258261
72	0xbd0810b4	-0.033219054
73	0xbbdcc2ab	-0.0067370734
74	0x3dbcdd98	0.09221953
75	0xbc396943	-0.0113166
76	0x3c86c2fd	0.0164504
77	0xbd563e3b	-0.05230544
78	0xbd324420	-0.043522
79	0x3e275f18	0.16344869
80	0xbe409584	-0.18807036
81	0xbe56203e	-0.20910737
82	0xbd132c1b	-0.035930734
83	0xbd63861a	-0.05554781
84	0xbe27989f	-0.16366814
85	0x3cd15661	0.025553884
86	0xbd4e0e08	-0.05030635
87	0x3e090d97	0.1338409
88	0x3b2d8284	0.0026475498
89	0x3c1c7db0	0.009551451
90	0xbe0c3fc1	-0.13696195
91	0x3d099593	0.03358991
92	0xbdff9d1b	-0.12481137
93	0xbcbf4e6f	-0.02335283
94	0x3e3ea9c0	0.18619442
95	0xbdbff581	-0.09372998
96	0xbcc5b123	-0.024132317
97	0x3e81edf2	0.2537685
98	0xbe34679f	-0.17617653
99	0x3e87c0e3	0.26514348
100	0xbd8605c0	-0.065440655
101	0xbe404353	-0.18775682
102	0xbd25bb1a	-0.040461637
103	0xba87b002	-0.0010352137
104	0xbe065b3a	-0.13120738
105	0xbdb68d17	-0.089136295
106	0xbc0c9933	-0.008581447
107	0x3d13daaa	0.036097206
108	0xbc0a9708	-0.00845886
109	0xbce84688	-0.028353944
110	0x3d13829a	0.036013223
111	0xbe459f96	-0.19299158
112	0xbe7dfffe	-0.24804685
113	0xbd55f749	-0.052237783
114	0xbd47e956	-0.04880651
115	0x3d20741a	0.039173223
116	0x3ca53905	0.02016879
117	0x3d23042a	0.039798893
118	0xbe628d77	-0.22124277
119	0xbd0e451b	-0.034733873
120	0xbd9d3f80	-0.07678127
121	0xbc509b36	-0.012732318
122	0xbd606caf	-0.05479115
123	0xbe260a27	-0.1621481
124	0xbd2b3475	-0.041798074
125	0x3d1f67e3	0.038917433
126	0x3cf1d609	0.029521005
127	0xbd0204e1	-0.031742934
128	0xbc306b8a	-0.010767827
129	0xbb28a487	-0.0025732832
130	0x3c0322ff	0.008003949
131	0xbcbba67c	-0.022906534
132	0xbb320b9f	-0.0027167571
133	0x3d0cb682	0.03435374
134	0x3e408333	0.18800049
135	0x3e53c943	0.20682244
136	0xba801067	-0.0009770513
137	0x3aa25580	0.00123851
138	0x3c211499	0.009831571
139	0x3c93a5a7	0.018023325
140	0xbd4934b5	-0.04912253
141	0xbc70513e	-0.014667807
142	0x3d1b0da2	0.0378548
143	0xbd255330	-0.040362537
144	0xbdf63e08	-0.1202355
145	0xbde7643d	-0.11298416
146	0xbe4d8291	-0.20069338
147	0xbd853f94	-0.06506267
148	0xbd1f2e9c	-0.03886281
149	0xbcb1d144	-0.021706231
150	0xbe52e46a	-0.20594946
151	0xbd6baa4a	-0.057535447
152	0xbd0fe99d	-0.0351349
153	0x3e4a3c55	0.19749577
154	0x3d1c6409	0.03818134
155	0x3c59f4d9	0.013303005
156	0x3b68476a	0.0035442957
157	0xbd63145a	-0.05543933
158	0xbd49ce6b	-0.04926912
159	0xbcfa2a35	-0.030537704
160	0xbe08ff7c	-0.1337871
161	0xbd3f720e	-0.04673963
162	0xbdc8858e	-0.097910985
163	0x3dab470f	0.08363163
164	0x3cc2f3d1	0.023797901
165	0xbcadb18a	-0.021202821
166	0xbcf252d2	-0.029580507
167	0xbd4560b3	-0.048187923
168	0x3cc61096	0.02417783
169	0x3e12ac61	0.1432357
170	0x3caf7459	0.021417784
171	0x3e652dce	0.22380754
172	0x3d3a21df	0.04544246
173	0x3e8edbd2	0.27902085
174	0x3dfe7d91	0.12426294
175	0xbe1cc866	-0.15310821
176	0xbd8892c9	-0.06668622
177	0xbd15e3bd	-0.03659414
178	0x3bd486c2	0.006485791
179	0x3db5ef88	0.088835776
180	0xbd500556	-0.05078634
181	0xbbfccb76	-0.007714684
182	0xbd2c2530	-0.042027652
183	0xbdd14580	-0.10218334
184	0xbd191b4b	-0.037379544
185	0x3c19fb7b	0.0093983365
186	0xbd8dae27	-0.069179825
187	0xbd16b40d	-0.036792804
188	0x3d06b3d7	0.032886352
189	0xbd188f68	-0.037246138
190	0xbbb107d1	-0.005402543
191	0x3cd15f8a	0.025558252
192	0xbd454d85	-0.04816963
193	0xbd3aa9c3	-0.045572054
194	0x3c52b03a	0.0128593985
195	0xbd09e05b	-0.033661228
196	0x3e131df6	0.14366898
197	0xbd5ffde2	-0.05468548
198	0xbe59bded	-0.21263857
199	0xbd9f186b	-0.07768329
200	0xbd7ef5e2	-0.06224621
201	0xbe47d059	-0.19513072
202	0xbd3a3893	-0.04546411
203	0x3c8999ed	0.01679703
204	0xbe0d3f8e	-0.13793775
205	0xbd51aeea	-0.0511922
206	0x3bab9e93	0.0052374094
207	0xbd0602dc	-0.03271757
208	0x3bd50022	0.00650026
209	0xbd385f34	-0.045012668
210	0xbd62bae1	-0.055354003
211	0xbca6bd0c	-0.020353816
212	0xbe49288d	-0.19644375
213	0xbe3e880d	-0.18606587
214	0xbbed909b	-0.0072499043
215	0x3e2cc904	0.16873556
216	0x3d31b968	0.043389708
217	0xbd44884f	-0.047981557
218	0x3d018699	0.031622503
219	0xbb2d51c3	-0.002644644
220	0xbe055f97	-0.13024746
221	0x3cad6d70	0.021170348
222	0xbd4351d9	-0.047685478
223	0xbd3b1c30	-0.04568118
224	0x3e03c143	0.12866692
225	0xbc34bf42	-0.011031928
226	0x3ca2ca58	0.019871876
227	0x3cd64faf	0.026161043
228	0x3cb2315f	0.021752058
229	0x3cbb92bd	0.022897119
230	0xbe8b591c	-0.27216423
231	0x3d64af21	0.05583108
232	0xbd118ada	-0.03553281
233	0xbb1ccdab	-0.0023926299
234	0xbb134f01	-0.002247751
235	0xbd853bce	-0.065055475
236	0xbe00d17d	-0.12579913
237	0xbe336c09	-0.17521681
238	0x3d01945b	0.031635623
239	0xbb543ace	-0.0032383683
240	0xbd508a18	-0.050912946
241	0xbca05a11	-0.019574197
242	0x3bf1b3c7	0.0073761675
243	0xbc5268fc	-0.012842413
244	0xbe7c362f	-0.24630044
245	0x3d312879	0.04325149
246	0xbe492f09	-0.19646849
247	0xbcc6b085	-0.024254093
248	0xbde93d6c	-0.113886684
249	0x3d04171d	0.032248605
250	0xbd0d5336	-0.034503184
251	0x3d0a770b	0.033804934
252	0xbcf51b87	-0.029920353
253	0x3c39d36c	0.011341911
254	0x3caea61d	0.021319443
255	0x3cdea84b	0.027179858

l3.weight f4 [6, 300]
0	0x3d921f22	0.07134844
1	0xbda90515	-0.082529224
2	0xbba1f898	-0.0049429648
3	0x3d488996	0.048959337
4	0xbc45f5b9	-0.012082511
5	0x3b217550	0.0024636574
6	0x3caae860	0.020862758
7	0xbb9570e1	-0.0045605754
8	0xbd5a83f9	-0.053348515
9	0x3d540642	0.05176378
10	0xbd7912ca	-0.060808934
11	0x3bb3461f	0.0054710056
12	0xbe3d7812	-0.18502834
13	0xbd596124	-0.053071156
14	0x3ccaaf8d	0.024741912
15	0xbdc2e3d1	-0.09516109
16	0x3ceb536b	0.0287263
17	0xbcda8692	-0.026675496
18	0xbdceafcf	-0.100921266
19	0x3be9babc	0.007132856
20	0x3c7a4fbe	0.015277801
21	0x3e024a5a	0.12723675
22	0xbc81578d	-0.015788818
23	0xbd0c5a2d	-0.034265686
24	0xbbd7866d	-0.006577304
25	0x3c71b5fb	0.01475286
26	0x3c898e9d	0.016791636
27	0x3d1b3307	0.03789046
28	0xbce983dc	-0.028505258
29	0x3c030d1b	0.00799873
30	0x3ce1ff0e	0.02758744
31	0xbd0e9ca7	-0.034817364
32	0x3c3647d2	0.011125522
33	0x3b807b4d	0.0039209486
34	0x3d2021ca	0.039094724
35	0x3bd1d1f2	0.0064032013
36	0xbcbae544	-0.0228144
37	0x3cdb352c	0.026758753
38	0xbd0fcc99	-0.03510723
39	0x3d3a91b9	0.04554913
40	0xbd2ec7cb	-0.042671006
41	0xbd8c12a1	-0.06839491
42	0xbd516290	-0.051119387
43	0xbe0b0cf6	-0.13579163
44	0xbc3ae900	-0.011408091
45	0xbcd546af	-0.026034681
46	0x3dd42afb	0.103597604
47	0xbc8dda9f	-0.01731616
48	0x3d0bc579	0.03412387
49	0x3d083d14	0.033261374
50	0xbc1a0dca	-0.009402702
51	0x3ce34019	0.027740525
52	0xbd54e96b	-0.051980417
53	0x3d343ee2	0.044005282
54	0x3cffaa14	0.03120903
55	0xbcea28f0	-0.028583974
56	0xbcc84096	-0.02444486
57	0x3c486043	0.012229982
58	0xbd691e03	-0.056913387
59	0xbd5ccb45	-0.05390479
60	0xbd5c01b8	-0.053712577
61	0x3d62fb18	0.055415243
62	0xbd5bcf54	-0.05366452
63	0x3ca0c6cb	0.019626042
64	0x3bb2bc3e	0.005454569
65	0x3d177d42	0.03698469
66	0x3d3a6ab5	0.04551192
67	0xbc32d613	-0.010915297
68	0xbd954bff	-0.07289886
69	0xbc8eef8d	-0.017448211
70	0xbc430cf4	-0.011904944
71	0xbe100d4f	-0.14067577
72	0x3bc561c5	0.006023618
73	0xbd0e58ee	-0.03475278
74	0x3d521d65	0.051297564
75	0xbaf704bc	-0.0018846015
76	0x3b9b67fe	0.0047426214
77	0xbc7547a9	-0.014970698
78	0x3cee9ab0	0.029126495
79	0x3db0f53b	0.08640524
80	0x3d80547f	0.06266116
81	0x3be89b87	0.0070986184
82	0xbc2c3e11	-0.010512845
83	0x3c09dfd6	0.008415183
84	0xbdbb58ee	-0.09147821
85	0xbd299293	-0.04139955
86	0x3a8c85ff	0.0010721086
87	0xbc8935b6	-0.016749244
88	0xbdae26b4	-0.08503476
89	0x3c346dd4	0.011012513
90	0xbba7e57b	-0.0051237918
91	0xbbefa8a9	-0.007313807
92	0x3bc9a91a	0.0061541917
93	0xbc2f9320	-0.01071623
94	0xbdb9f8a0	-0.090806246
95	0xbcfa699b	-0.030567935
96	0xbbd6bac8	-0.006553028
97	0xbd5e18e0	-0.05422294
98	0x3ca5a947	0.02022232
99	0xbcde3275	-0.02712367
100	0xbd4e96aa	-0.050436653
101	0x3d9378f0	0.07200801
102	0xbc5b83a1	-0.013398082
103	0x3c7a465c	0.015275564
104	0xbdbbbcb4	-0.09166852
105	0xbe3768a2	-0.17911008
106	0xbcd5ecf3	-0.026113963
107	0x3c87ae5c	0.016562633
108	0x3c95e864	0.018299289
109	0xbd336b3c	-0.04380344
110	0xbe24fce4	-0.16112095
111	0xbdd00d3a	-0.10158773
112	0x3e305dc5	0.1722327
113	0x3c993f6e	0.018707003
114	0x3a92cabc	0.0011199336
115	0xbc755fac	-0.014976423
116	0xbd8186b1	-0.063245185
117	0x3cb04c50	0.021520764
118	0x3c9367ed	0.017993892
119	0xbd190fe7	-0.03736868
120	0xbd9b8313	-0.0759336
121	0x3c7e1290	0.015507355
122	0xbcfcdc7c	-0.030866854
123	0x3c8585b7	0.016299112
124	0x3d1a1905	0.037621517
125	0x3cba7100	0.02275896
126	0x3c18f0c5	0.009334748
127	0x3c5591b8	0.01303523
128	0x3b3d5f2a	0.0028895834
129	0x3b8ea3cb	0.0043530217
130	0xbcbba0e2	-0.022903863
131	0x3c13b8e2	0.0090162475
132	0xbc422368	-0.011849262
133	0xbd149820	-0.03627789
134	0xbde45bf4	-0.11150351
135	0xbda9a687	-0.08283716
136	0xbd044ff1	-0.0323028
137	0x3d329fc7	0.043609407
138	0x3bf1ce0d	0.0073792995
139	0x3b4657de	0.0030264775
140	0xbd2a787d	-0.041618813
141	0x3ce55887	0.027996315
142	0x3ca95c1b	0.020673802
143	0x3c867ef3	0.016417956
144	0xbc8fb6b7	-0.01754318
145	0x3d4a7f53	0.049437832
146	0x3d7a980d	0.061180163
147	0x3cb74642	0.022372369
148	0xbcca930c	-0.02472832
149	0xbc338d30	-0.010958955
150	0x3c5a81fc	0.013336655
151	0xbd878582	-0.066172615
152	0xbaa97b47	-0.0012930416
153	0xbd50f9f6	-0.05101963
154	0xbd61c2bb	-0.05511735
155	0xbd39fc3c	-0.045406565
156	0xbc777762	-0.015104147
157	0x3c1714ec	0.009221297
158	0xbe0d70e0	-0.1381259
159	0x3d2d6590	0.042333186
160	0xbe051a4c	-0.12998313
161	0xbce80eac	-0.028327309
162	0x3c783347	0.015148944
163	0x3d2c1cbb	0.042019587
164	0xbce80cf0	-0.028326482
165	0xbd352863	-0.04422797
166	0x3d048c8d	0.032360602
167	0x3c88ceeb	0.016700229
168	0x3d264a43	0.040598165
169	0xbda3f7bf	-0.08006238
170	0xbce33e42	-0.027739648
171	0xbe36f942	-0.17868522
172	0x3e08892c	0.13333577
173	0xbe2dd828	-0.16976988
174	0x3cf9f046	0.03051008
175	0x3d6de66c	0.058081076
176	0xbd1d4367	-0.038394358
177	0xbe1e3f49	-0.15453829
178	0x3c79d389	0.015248188
179	0x3d9589d4	0.07301679
180	0x3ca01f53	0.019546187
181	0xbd230602	-0.03980065
182	0x3ca77180	0.020439863
183	0x3c4f5222	0.012653859
184	0xbc872b16	-0.016500037
185	0x3b8e6abe	0.0043462208
186	0x3db09aa6	0.08623247
187	0x3c03a9c0	0.008036077
188	0x3cc6c694	0.024264611
189	0xbcb0e07c	-0.021591417
190	0x3cb776aa	0.02239545
191	0xbdbc9a7f	-0.09209155
192	0x3d4ea4d0	0.050450146
193	0xbc382404	-0.011239056
194	0x3c0f11f1	0.008732305
195	0x3da9e964	0.08296469
196	0x3dc56513	0.09638419
197	0x3c6c85fe	0.014436243
198	0x3de1567f	0.11002826
199	0xbc29c973	-0.010362971
200	0x3cb17055	0.02166001
201	0x3c98dd76	0.018660288
202	0x3d0ea415	0.03482445
203	0xbce1bc1a	-0.027555514
204	0x39cdb742	0.00039237185
205	0xbd0a54ac	-0.033772156
206	0x3c175eb8	0.009238891
207	0xbd39568e	-0.04524856
208	0x3aa104cb	0.0012284754
209	0x3d51ef90	0.051253855
210	0x3bade8eb	0.005307307
211	0xbd2b4934	-0.04181786
212	0xbd8e3b13	-0.06944861
213	0x3c489769	0.01224313
214	0xbd69dde3	-0.057096373
215	0xbe02ddd1	-0.12779929
216	0xbda6febd	-0.08154056
217	0xbbb1c23a	-0.005424765
218	0x3c9c16f7	0.01905392
219	0xbc90c633	-0.017672634
220	0x3c2b9bd3	0.010474163
221	0x3ca1e728	0.019763544
222	0x3d4d8116	0.050171934
223	0xbc9f9f5d	-0.01948517
224	0xbda9365f	-0.082623236
225	0x3bb64ea9	0.0055635762
226	0x3c291de1	0.010322065
227	0x3d06956a	0.032857336
228	0x3cb239d4	0.02175609
229	0xbb12006e	-0.0022278088
230	0xbe35a27e	-0.17737767
231	0xbb573871	-0.0032840038
232	0xbc89d5ae	-0.016825523
233	0x3c1ee9b0	0.00969927
234	0xbd18930d	-0.037249614
235	0xbbdfe553	-0.0068327575
236	0x3d738f86	0.059463046
237	0xbbca1c39	-0.006167915
238	0x3c180f9a	0.009281063
239	0x3d1e0388	0.038577586
240	0xbca512c0	-0.020150542
241	0x3a2a4b89	0.0006496241
242	0x3d18036f	0.03711265
243	0xbd074fd6	-0.03303512
244	0x3c3c0a62	0.011477085
245	0xbcd02380	-0.025407553
246	0xbdabaf5a	-0.08383055
247	0xbc43e17d	-0.011955616
248	0xbcb96363	-0.0226304
249	0x3cb940cd	0.022613907
250	0xbd0f68b8	-0.035011977
251	0x3c9c3ed0	0.01907292
252	0xbb01c21f	-0.0019799543
253	0x3dae8920	0.08522248
254	0xbc8c4212	-0.017121349
255	0xbd68dc3e	-0.056850664

l3.bias f4 [6]
0	0xbd8baefe	-0.068204865
1	0x3dc2e085	0.0951548
2	0x3e1c34c6	0.15254506
3	0x3c892b7d	0.01674437
4	0xbd9b0980	-0.07570171
5	0x3d3e573a	0.046469904
