results/runs/single_assembly_rerun/Average_TD3_5_Peg-in-hole-single_assembly_seed_1/61000_actor.pth (torch_old, 510312 bytes, 6 tensors)

l1.weight f4 [400, 12]
000000 18 7c 1e bf 94 be f8 bd 80 0d 24 3e 29 6b 14 be
       -0.619081 -0.12145725 0.16020775 -0.14494003
000010 42 de 20 bd 46 47 31 3e d3 92 ad be b0 a5 80 3d
       -0.03927446 0.17312345 -0.3390108 0.062816024
000020 9b f0 fe bc 68 9b 3d bd 0f 1f 62 3e 14 8e d8 3d
       -0.031120589 -0.046290785 0.2208216 0.10573974
000030 9c 63 2a 3f c4 4b 1e bf e5 09 98 3d 70 4f c1 3f
       0.6655824 -0.6183436 0.07423762 1.5102367
000040 78 ab 97 bf 00 27 97 ba b6 7b 35 3f 13 f0 17 3d
       -1.1849203 -0.0011532009 0.7089189 0.037094187
000050 e6 38 37 bd 06 ec 5b be 29 c8 d6 be 60 d4 5e bd
       -0.044731997 -0.21476755 -0.41949585 -0.054401755
000060 c7 3e 4e 3e 64 05 04 be ea d0 0b 3f a6 c3 19 3f
       0.20141135 -0.12892681 0.5461565 0.6006416
000070 b8 b6 5e be 24 40 37 3e e8 c3 9a 3e bd 43 b9 3e
       -0.21749389 0.17895561 0.3022759 0.36184493
000080 c3 b3 2d 3d e7 0d 5d be b8 4b 2c bf 3e c3 50 bf
       0.042407762 -0.21587335 -0.6730304 -0.81547916
000090 be a5 80 3e de a4 43 bd fe 9b 1c 3e 66 5f 09 be
       0.2512645 -0.04776465 0.15293881 -0.13415298
0000a0 cb 05 91 3e 7c 23 fa bd e5 d2 3e 3e c5 be cb bc
       0.28324732 -0.12213799 0.18635137 -0.02487124
0000b0 5b 58 3a be 3e ff 0f 3e 7a 2f 0c be 91 23 b7 3d
       -0.18197767 0.14062211 -0.13689986 0.08942331
0000c0 a4 b0 0b bf 3f 31 37 3f 14 1a 2f 3e 0e 4c d3 be
       -0.5456641 0.7155952 0.17099792 -0.41268963
0000d0 ba 67 b1 be 7a b5 8f bd aa f5 b2 3e 2a ad 00 3f
       -0.3464945 -0.07017036 0.34953052 0.5026423
0000e0 d3 aa 19 be 5b e4 bb 3d dc 3c 51 bd 54 4e cb 3d
       -0.1500657 0.09174415 -0.05108343 0.09927049
0000f0 76 15 3f be ee 01 40 3e 18 76 33 3e a6 15 83 3e
       -0.1866053 0.18750736 0.17525518 0.25602454
000100 0b b4 25 be e0 a1 42 bd 80 3e b7 bb 48 b3 2c 3d
       -0.16181962 -0.047517657 -0.0055921674 0.042163163
000110 ba 56 60 be 49 c4 51 be 40 cf 20 3e 1a a2 8a bd
       -0.21908084 -0.20485033 0.1570406 -0.067692
000120 9a 5f 01 3e a4 c4 b9 3c c2 ba ff 3d e8 ff 81 3d
       0.12634125 0.022676773 0.12486793 0.06347638
000130 89 1d d6 3d a4 88 12 3e b9 6e 73 be c7 7a fc 3d
       0.10454852 0.14309937 -0.23772706 0.123281054
000140 99 a6 6d be 38 3a 64 be d3 f4 91 3b 34 92 3c bd
       -0.23208083 -0.22287834 0.004454234 -0.046037868
000150 69 19 d4 be 38 44 4c 3c 0b f7 f6 3d 19 52 a6 bb
       -0.41425636 0.0124674365 0.120588385 -0.005075705
000160 7a b5 46 3e a4 43 26 3e 20 a5 12 3e 01 ae 90 be
       0.19405165 0.1623674 0.14320803 -0.28257754
000170 ce 8e 43 be 78 b6 20 3e cc ad c6 be 78 a5 ef 3d
       -0.19097444 0.15694606 -0.38804471 0.117014825
000180 ea ae 54 be e8 be cf 3e 68 d7 44 3d 65 19 6a be
       -0.2076985 0.40575337 0.04805699 -0.2286125
000190 96 ad 59 3e 88 c5 5a bd 4a e2 2e 3e 78 7d 2f 3e
       0.21257624 -0.053411037 0.1707851 0.17137706
0001a0 68 c9 c1 be 09 95 71 be 30 4b 5e 3e 3f 45 c5 3c
       -0.37848973 -0.23592009 0.2170837 0.02408087
0001b0 dd b1 dd 3e d8 4c ba bd 2e ba 2f 3e 16 64 eb 3e
       0.4329976 -0.09096688 0.17160866 0.45974797
0001c0 1d 6e 59 be 22 28 44 be 17 64 7f be 52 08 14 3e
       -0.21233411 -0.19155934 -0.24940525 0.14456299
0001d0 13 6f 76 be 94 bb 0c 3d a0 c8 bb bd 41 bf 0f 3f
       -0.24065809 0.034358576 -0.091691256 0.56151205
0001e0 ae 2a 5f be 42 11 3a be 15 66 96 3e 00 ac be 3d
       -0.21793625 -0.18170646 0.29374757 0.0931015
0001f0 19 a0 83 bd e9 9c 23 be dc 01 2d be 58 00 03 bd
       -0.064270206 -0.15977825 -0.1689524 -0.03198275
000200 06 63 b1 3e 78 ab 1c 3e 82 a1 21 be 21 36 35 3f
       0.3464586 0.15299785 -0.15784267 0.7078572
000210 0b c4 88 3f 5f 86 4b 3f 71 ec 79 3e f6 8a 9f 3d
       1.0684828 0.7950191 0.24406601 0.077901766
000220 de f5 68 3e e0 b4 98 3d da 61 b4 be 13 9c 8e be
       0.22750041 0.07456374 -0.35230905 -0.2785345
000230 96 ce 1e 3d 17 67 2b 3d 2c 0e f2 bd df b7 4c 3e
       0.038771234 0.04184636 -0.11819109 0.19992016
000240 14 b7 75 3e 74 22 b9 3d 13 ab 71 3e 1a 23 cc bd
       0.2399562 0.090397745 0.23600416 -0.099676326
000250 91 c7 51 be 7c 12 47 3e 69 b4 17 be ee e8 d7 3e
       -0.20486285 0.19440645 -0.14814915 0.421699
000260 17 25 82 be a5 bf 76 3e 2e e9 e0 be 5c e9 59 be
       -0.25418922 0.24096544 -0.43927902 -0.21280426
000270 48 b1 2c be 66 df fc bd 3c 2a 52 3e f4 31 c1 bd
       -0.16864502 -0.12347297 0.20523924 -0.09433356
000280 18 e6 5c be 78 77 e3 3d 50 49 bd 3d a2 75 3f 3e
       -0.21572149 0.11106771 0.09242499 0.18697217
000290 6c f7 18 be b8 2e 80 3d aa 3a d7 bd 46 d4 84 bd
       -0.14938134 0.06258911 -0.10509236 -0.064858004
0002a0 6e 76 8c 3e 3f 17 a9 be 0a 39 10 bd b8 f4 4a 3d
       0.27434105 -0.33025548 -0.035210647 0.04954979
0002b0 67 06 25 3f ac 09 92 3d f9 dd ff bc 07 83 c2 3d
       0.64462894 0.07130751 -0.031233774 0.09497648
0002c0 ab b9 97 3e e4 9a 9b be e3 d2 55 be 80 80 8b 3d
       0.2963384 -0.3039161 -0.20881228 0.06811619
0002d0 c8 50 ae be 39 cc 60 3f 92 d1 04 3e 97 27 04 ba
       -0.34046006 0.8781162 0.1297057 -0.00050413
0002e0 2a 03 07 bf da d0 87 3e 4a 1b c4 be 4f 7e 9c be
       -0.527392 0.2652653 -0.3830207 -0.30565116
0002f0 dd 16 0e bd d9 83 77 bd 19 5e 11 3e 8d ea a8 be
       -0.034689773 -0.060428474 0.14196052 -0.32991448
000300 eb cc 28 3f 35 77 01 bf 91 9b ca 3d 97 ac 13 be
       0.6593768 -0.5057252 0.09892953 -0.14421307
000310 14 e4 8e be 66 e8 3d 3e c4 45 bf 3e 62 19 73 bf
       -0.27908385 0.18545684 0.37357914 -0.94960606
000320 f9 e6 c9 3d a0 f7 fe be 74 2a a8 3e 5e 09 23 bf
       0.09858508 -0.49798298 0.3284489 -0.6368617
000330 b3 95 ec 3d eb 74 3f 3e 1b 7c 45 3d c9 3e 0f be
       0.1155199 0.18696944 0.04821406 -0.13988794
000340 0f ed 2e bd a4 58 0b 3e f0 92 90 be e4 7c 18 3e
       -0.042706545 0.13608032 -0.28237104 0.14891392
000350 df a9 39 bf 97 16 9a 3e 51 73 f2 3e 06 a7 d4 3e
       -0.7252483 0.3009536 0.47353604 0.4153368
000360 aa b1 2c 3e 6d 25 40 be 56 b8 ff bc 2d 64 c0 bf
       0.16864648 -0.18764277 -0.031215828 -1.5030571
000370 3c 89 84 3f bc 16 86 3e 3f 90 36 bf 53 4b 11 bf
       1.0354381 0.2618922 -0.7131385 -0.5675556
000380 3c c6 d3 bc dc cb ec be 16 db 78 3e 5c 79 2f bd
       -0.025851361 -0.46249282 0.24302325 -0.042840347
000390 68 98 9e 3d 9c c8 d7 3e e0 aa ea 3c be 8f 3a be
       0.07743913 0.4214524 0.028645933 -0.18218896
0003a0 ef f8 06 3e 8c e2 7b bd 28 0a 95 bc 71 17 03 ba
       0.13180898 -0.06149535 -0.01819332 -0.00050007465
0003b0 00 ec c5 be 06 ed d7 3d 68 6a d9 bc 44 60 86 be
       -0.38656616 0.105432555 -0.026539996 -0.2624532
0003c0 18 e2 71 be 5e 04 5e 3f 07 ed 13 3e 32 0e 3f 3e
       -0.23621404 0.86725414 0.14445888 0.18657759
0003d0 87 e0 d4 be 40 43 d8 3b 87 12 14 bf 69 4a af be
       -0.4157755 0.0065998137 -0.5784077 -0.34236458
0003e0 6d 5a 8d bd 78 d6 de 3e e3 5a 17 3f 17 68 e8 be
       -0.06902013 0.43523002 0.5912306 -0.45391914
0003f0 90 32 35 3f 42 79 98 be 0c 24 67 3d 61 d0 82 3e
       0.7078028 -0.29780012 0.05643086 0.25549605

l1.bias f4 [400]
000000 a2 ec 8a 3e a0 d7 8a 3e 12 3b b2 be c2 17 2a be
       0.27133662 0.27117634 -0.34810692 -0.16610625
000010 be ae 3f bf 00 f9 c1 3d 4d 5b 52 bc f5 c0 f2 be
       -0.7487601 0.09471321 -0.012839151 -0.4741284
000020 b3 ee 6a 3d 21 a4 08 3f 63 36 25 bd d8 b4 48 bd
       0.057356548 0.5337544 -0.04033507 -0.04900059
000030 41 56 65 3e c8 c1 18 3d e8 16 9e bf c6 0c 0a bf
       0.22396185 0.03729418 -1.235074 -0.5392574
000040 ee ef 5c 3f f7 67 7a be b4 ba f0 be 7d 09 f5 be
       0.86303604 -0.24453722 -0.47017443 -0.478588
000050 a8 40 f5 3e 30 a0 4f be 8b b9 69 be 61 26 0e bf
       0.4790089 -0.2027595 -0.22824685 -0.5552731
000060 d9 c9 ae 3d 2a 37 15 3f 07 12 cb be d6 6e 99 3e
       0.08534593 0.582873 -0.3966219 0.29967374
000070 0c 0f 55 3e db 01 94 be 02 28 7e 3e c2 fd 44 3e
       0.20806521 -0.28907666 0.2481995 0.19237426
000080 bf d7 77 3d 5e a7 2c 3e 4a 84 b7 bd cb c3 72 3e
       0.060508486 0.1686072 -0.08960779 0.23707502
000090 eb 81 8a bf bd b8 0b be 09 43 c2 be 4d c8 58 3e
       -1.0820898 -0.13644691 -0.3794177 0.21170159
0000a0 10 0c 4a 3f c7 8d a5 bc 61 b6 ae be d5 fe 0f 3f
       0.78924656 -0.020209206 -0.3412352 0.5624822
0000b0 e2 8c f2 3d 5b ee 1c bf ca d5 9c bf 93 23 c5 bf
       0.118432775 -0.613012 -1.2252743 -1.5401481
0000c0 b2 29 5a 3f fa 7a 1b 3f 18 78 a6 3d 1c 45 9c be
       0.8521987 0.6073452 0.08128375 -0.30521476
0000d0 68 40 ba be fe 11 d7 bd 46 6c 30 be d7 05 4b be
       -0.36377263 -0.105014786 -0.17228803 -0.19826446
0000e0 a2 3e 4e bf 72 06 81 be 4c da 3f 3d 57 47 cc 3e
       -0.8056432 -0.2520023 0.046839043 0.39898178
0000f0 73 94 c2 bc 7a 33 10 3e c3 d8 fb be ca bc 0d 3e
       -0.023752427 0.14082137 -0.49188814 0.13841549
000100 7d ff 91 bf f8 45 cd be 3a b9 06 be df c4 d7 3e
       -1.1406094 -0.40092444 -0.13156596 0.42142388
000110 58 6a 02 bd 80 b4 08 bf 58 52 14 bf 07 96 7e bf
       -0.0318397 -0.5340042 -0.57938147 -0.99447674
000120 43 db 28 bf bf de 01 bf 36 29 38 be ab f8 f6 3e
       -0.65959567 -0.5073051 -0.1798447 0.48236594
000130 0b ac 4c 3d 45 a1 d0 bd a4 16 10 3f 68 9c b0 be
       0.04996876 -0.1018701 0.56284547 -0.34494328
000140 d0 b9 21 be 6c 72 71 bf 34 8f fd be e2 ae ed be
       -0.15793538 -0.9431522 -0.49523318 -0.46422487
000150 a3 a6 97 be 3d 1c 49 bc 20 7e 06 bc a9 de d9 be
       -0.2961932 -0.012274799 -0.0082087815 -0.4255269
000160 65 32 2a be ab 93 15 be 6a d2 6d bd 17 67 9e 3d
       -0.16620786 -0.14607112 -0.058061995 0.077345066
000170 12 d8 55 3d 3d 90 bb bf 74 ef 42 be 59 16 da ba
       0.052208014 -1.4653393 -0.19036657 -0.001663874
000180 e0 d8 b6 3c 75 29 c7 be e5 ff cb be 12 f7 3b be
       0.022320211 -0.38898817 -0.3984367 -0.18355969
000190 1c f2 7b bd 24 ce b5 3e e4 10 c8 3d a7 d3 7b 3f
       -0.06151019 0.35508835 0.09768847 0.9836983
0001a0 f2 73 80 be f4 56 a5 bf 37 be 6c bd 34 f5 41 be
       -0.2508846 -1.2917161 -0.05779859 -0.18941194
0001b0 bf b4 2c bf 70 c6 5c 3e 5f c7 ae 3d 30 17 c8 3e
       -0.67463297 0.21560073 0.08534121 0.3908019
0001c0 b2 bb b4 be 65 65 31 be 1e 7e 24 bf cb df 00 bf
       -0.3529945 -0.17323835 -0.6425494 -0.5034148
0001d0 f8 b9 d4 be 70 65 61 bd 59 f9 2b 3d 7c cb b5 3e
       -0.41548133 -0.05502838 0.041985843 0.3550681
0001e0 30 4d cd 3c bc 19 e6 3e 88 a2 39 3e 3b a3 85 bf
       0.02506122 0.4494151 0.18128407 -1.0440439
0001f0 5d 67 78 3f f1 99 04 3e 00 8c b6 3d 77 68 2b be
       0.9703272 0.12949349 0.08913422 -0.16739069
000200 a1 a6 83 3e e9 9a 3d bd 96 f6 bf bd f7 09 46 bf
       0.25713065 -0.046290312 -0.093732044 -0.77358955
000210 01 39 ad bd 5f 69 a3 be ea c4 98 be fd fb 5f bd
       -0.08458138 -0.3191633 -0.29837734 -0.054683674
000220 cc 8b 28 bf 82 0f ca be 5d e5 a3 bf 7b 27 e3 bf
       -0.65838313 -0.39464957 -1.2804371 -1.7746423
000230 d7 f2 fb 3e bc 46 03 3f 18 43 a2 bc ab 3d ca 3e
       0.4920871 0.5127981 -0.019807383 0.39500174
000240 a9 6e 97 bf 09 e0 0e be 90 39 a0 bd 1a 1f 9a be
       -1.1830646 -0.1395265 -0.07823479 -0.30101854
000250 b9 e4 0f be 41 25 2d bf 94 23 8c 3e 25 70 9f 3d
       -0.14052095 -0.6763497 0.27370894 0.07785062
000260 1e 48 19 bf c2 91 9f bc a3 31 17 bf 08 d7 ae bf
       -0.5987567 -0.019478682 -0.59060115 -1.3659372
000270 da 19 ab bf f1 3d e4 bf 85 dc ac bf 0e 3b 27 bf
       -1.3367264 -1.7831403 -1.3504797 -0.65324485
000280 00 03 2f 3e d5 50 e3 be c8 88 51 3f 4f a6 6f be
       0.17090988 -0.44397607 0.81849337 -0.23403285
000290 59 5d c0 be cf f4 6b bd 07 2f ce be e7 d0 cf bf
       -0.3757122 -0.057606515 -0.40270254 -1.6235627
0002a0 85 aa 14 3f 8c 97 36 bf 6f 8c 28 bf 00 3b 31 3d
       0.5807269 -0.7132499 -0.65839285 0.043269157
0002b0 fc cc 60 be e5 26 35 3e 5c 60 e7 be b9 11 02 be
       -0.21953195 0.17690618 -0.45190704 -0.12702073
0002c0 96 3c 48 3f 2b da 41 be 0f a7 5f be 9c 43 35 bf
       0.78217447 -0.1893088 -0.21841072 -0.7080629
0002d0 fe 08 54 be 4e c8 a1 bc c8 bf 9b 3e 0b f7 8d be
       -0.20706555 -0.019748833 0.30419755 -0.2772754
0002e0 25 04 85 3d 55 07 9c bf 84 20 27 bf 19 5b c2 be
       0.06494931 -1.2189738 -0.6528399 -0.37960127
0002f0 e2 eb d2 3e e2 f2 9f bf c8 1b 6b bf 98 1e c7 be
       0.4119559 -1.2495997 -0.91839266 -0.3889053
000300 be 46 b4 bd 3c 3e b5 3e c6 2d 61 bf 0c ec f7 be
       -0.088025555 0.35399044 -0.8796047 -0.48422277
000310 28 ac 75 3e 49 95 07 3e bd 25 c7 bd 97 bc 52 3e
       0.23991454 0.13240542 -0.09723995 0.20579754
000320 7d 6a cb bd 29 b1 02 be 52 d6 13 be df d4 d2 3c
       -0.099324204 -0.12762894 -0.14437225 0.02573627
000330 a1 f2 fa 3c a4 de de 3e 1f 09 cb bd 73 0a 22 3f
       0.030633273 0.43529236 -0.09913849 0.63297194
000340 f0 db ba bf 4d 71 8a 3f 63 a8 9b bd dc 73 ea be
       -1.459837 1.0815827 -0.076004766 -0.4579152
000350 df 4e ae bf 10 ee bb 3e 07 7f a5 3d e2 fa 0f be
       -1.361782 0.36705065 0.08080869 -0.14060548
000360 be 12 29 bf d7 48 70 3f da 1d 1d 3f e8 23 0a 3d
       -0.66044223 0.93861145 0.61373675 0.03372565
000370 f5 c4 2d bf d5 56 9c be 5d 10 6d 3f a3 21 d7 bf
       -0.6787866 -0.30534998 0.92603093 -1.680714
000380 9b 75 8d 3f c6 cf 57 be c9 80 9e be 4a da 3c be
       1.1051515 -0.21075353 -0.3095763 -0.18442646
000390 01 43 ae bf e8 65 13 3e 19 c8 12 3f e1 ca e5 be
       -1.3614198 0.14394343 0.57336575 -0.44881347
0003a0 fa ab 3d be 8d 41 ab be 64 fb 25 3f 2c d8 97 3e
       -0.18522635 -0.3344845 0.64836717 0.29657114
0003b0 69 d6 2f be 92 d2 a9 3d 02 f5 31 3e 9f 73 60 3e
       -0.17171635 0.08292116 0.1737862 0.21919106
0003c0 5d db 78 3e 22 8e a0 3d 6b ee aa bf 0c a9 d1 be
       0.2430243 0.0783961 -1.3354009 -0.40949285
0003d0 ba 67 46 bf df ac 00 3d f3 34 4d bf 09 3c 94 bf
       -0.77502024 0.031414863 -0.8015892 -1.1580821
0003e0 e0 08 11 bf 17 04 2c 3f ee 5b 3c 3e 4f a2 2f bd
       -0.5665417 0.6719374 0.18394443 -0.0428794
0003f0 5c 10 65 3d fd 9b 04 bf 94 c5 8e bf ae a1 dc bd
       0.055923805 -0.5180052 -1.1154046 -0.107730255

l2.weight f4 [300, 400]
000000 7d ed bd bc 69 0b e5 3e 3e 7a e3 3c a7 b8 96 3c
       -0.023184532 0.44735268 0.02776825 0.018398596
000010 79 f9 5e 3e a7 58 ca bc 6b 41 4b bd 75 6a 9f 3c
       0.21774854 -0.024700476 -0.049622934 0.019459942
000020 a9 d6 8f bd ca d0 ab be bf 23 28 bd 04 b0 85 be
       -0.07023365 -0.3355773 -0.041049715 -0.26110852
000030 79 93 8a be 28 ca 07 3c ce 2a 39 3e 32 0d c6 bd
       -0.27065638 0.008287944 0.18082735 -0.096704856
000040 cc 7c 36 bf 69 c3 64 be 4f 62 f8 be 37 30 15 3d
       -0.71284175 -0.22340168 -0.48512504 0.036422934
000050 d5 92 23 be 60 35 27 be 7d 6e b8 bd 3f 84 e2 3d
       -0.1597398 -0.16328955 -0.09005449 0.1106038
000060 30 a8 13 3e bd ec 22 be ec ed a9 be 1e 44 70 3d
       0.14419627 -0.15910621 -0.33189332 0.05865871
000070 c1 0f 3c bf cf 53 6c be ad 69 34 be 08 bd 1d bc
       -0.7346154 -0.23078845 -0.17618437 -0.009627588
000080 e5 c1 30 be 5d 3a 01 bd e5 ca 9a be 2c b9 06 be
       -0.17261465 -0.0315498 -0.3023292 -0.13156575
000090 03 ef 1b bf b1 7c cf bc 95 a4 9d be 25 2b 04 be
       -0.6091158 -0.025328012 -0.3078963 -0.12907083
0000a0 91 d6 60 be 49 34 a6 3b 89 cc 7c bd 07 c3 48 3e
       -0.2195685 0.005072151 -0.061718497 0.19605647
0000b0 4c 87 cd 3d 22 c6 a0 be cb cd 0f bf 33 d5 92 bb
       0.100355715 -0.31401163 -0.5617339 -0.0044809817
0000c0 9d 83 14 bf a3 92 4f be e3 6c fe bc 6d ab f8 bd
       -0.58013326 -0.20270781 -0.03105778 -0.12142072
0000d0 78 76 cf be 3f 00 42 3e 24 59 33 be f5 9e 3f be
       -0.40520072 0.18945406 -0.17514473 -0.18712981
0000e0 6e 15 64 bd 58 47 f8 bb 38 3f 11 3c c8 c3 34 3e
       -0.0556845 -0.007576864 0.00886517 0.1765281
0000f0 ef bc fb 3c 90 4c 97 bb 95 c1 80 3d 61 05 2d 3e
       0.030729739 -0.0046172813 0.06286923 0.16896583
000100 e8 b0 be 3d 51 c8 30 be d6 79 ec bc 7a fe 28 3d
       0.09311086 -0.17263915 -0.02886669 0.041258313
000110 dc 72 71 be 56 50 90 bd f6 04 9a be a3 0b c9 3d
       -0.23578972 -0.07046573 -0.3008191 0.09816673
000120 3f 8d cc be 60 25 dd bc 2a 8c b2 bc d7 40 a3 be
       -0.39951512 -0.02699536 -0.021795351 -0.31885406
000130 f5 e7 27 3e 85 15 e1 bd 3e 41 8c 3e 9e 83 a0 be
       0.16397078 -0.10990433 0.27393526 -0.31350416
000140 53 19 1d bf 2b 7c 21 3c b5 f9 2e bc 33 ea 05 bf
       -0.61366767 0.009856264 -0.010679652 -0.52310485
000150 f0 f9 16 be a7 7c 42 be 87 4b 33 3d 8a 91 08 3f
       -0.14743781 -0.18992864 0.0437732 0.53347075
000160 18 d4 4f bd 93 a5 24 3d e6 a3 ec bd dc c4 66 3a
       -0.050739378 0.040196966 -0.11554699 0.0008803138
000170 84 9a 63 3c db 9a 55 3e 79 8e ad bd 1c 5a 9e bc
       0.01389182 0.20859854 -0.0847444 -0.019330077
000180 d7 db 33 be e0 39 f5 bb 9e 65 b2 3e 3f 6a 09 be
       -0.17564331 -0.007483706 0.34843153 -0.13419436
000190 a8 7f fb 3b 8b 7e 33 be 8c 54 9f 3e 0f 06 42 bd
       0.00767513 -0.17528741 0.31119192 -0.04736906
0001a0 6e 29 c3 3c 90 1d 3c 3d 48 75 ca 3d dc 4c 53 3e
       0.023823466 0.04592663 0.09885651 0.20634788
0001b0 42 cf da be 3b 19 e3 3e 79 89 44 3c f1 f4 71 3e
       -0.4273625 0.44355187 0.011995667 0.23628594
0001c0 c6 26 07 3d 1a b7 85 3d 68 d4 9e 3e 51 12 6c bd
       0.03299596 0.065290645 0.31021428 -0.057634655
0001d0 b5 9d 2f 3e 0b f0 2c 3d 42 7e d8 be e6 6c c4 3e
       0.17150004 0.04222111 -0.42283827 0.38364333
0001e0 3b 6b 12 3d b6 63 0a 3e 32 78 bf be 66 12 17 3e
       0.035746794 0.13514599 -0.3739639 0.14753112
0001f0 27 3e 72 3d f6 bb fd bc b5 97 40 3d 71 05 92 be
       0.059141304 -0.030973416 0.04701968 -0.28519776
000200 6c 4e 23 bd 59 a7 78 3d 64 df b3 3e d0 cf a2 be
       -0.03986971 0.06070647 0.3513137 -0.31799173
000210 4d 8e 8c bd 65 f5 c4 bd 8a 48 dc be 44 84 e7 3d
       -0.06863079 -0.09617118 -0.43024093 0.113045245
000220 3f 9a 23 bc 1e be 50 3d 03 7d 50 be 86 8a e1 bd
       -0.009985506 0.05096256 -0.20360188 -0.110127494
000230 5e 7b 35 be f8 98 90 bc ba b4 ef bd 5b a6 c1 be
       -0.17722842 -0.017651066 -0.11704393 -0.37822232
000240 a6 dc 42 bd 99 e9 d0 be 22 07 58 be 76 68 c4 3d
       -0.047573708 -0.4080322 -0.21096471 0.09590237
000250 b6 45 8f be 93 4c 35 3e e2 99 8e 3e c1 93 99 bc
       -0.27982873 0.17704992 0.27851778 -0.018747212
000260 40 8d 5b bd c8 1c f1 bd de 10 6c be d7 d2 6e 3c
       -0.053601503 -0.11773068 -0.2305331 0.014576635
000270 44 61 b5 3c a4 46 c8 bd 13 ad 28 be 5e c5 97 be
       0.022141106 -0.09779099 -0.16472273 -0.29642767
000280 4f b6 00 bd ce cc d5 bd 8a 98 9d bd 8e 1c 9c be
       -0.031423863 -0.10439454 -0.0769511 -0.30490535
000290 f0 e1 13 be 56 11 31 be 86 4f 7f bd 1d 87 7c bd
       -0.14441657 -0.1729177 -0.0623317 -0.06165229
0002a0 a7 35 fa be 6e dc ad 3e ee f3 80 bc fa 22 1f bd
       -0.48869058 0.33957237 -0.015741315 -0.038851716
0002b0 18 b7 99 bb d6 2e 0b bf 55 60 a5 bd 9d c3 23 bf
       -0.004691016 -0.5436834 -0.080750145 -0.6397036
0002c0 14 e3 59 3d 5d 30 e1 3d e0 52 42 3b 36 b9 4c 3e
       0.053195074 0.10995553 0.0029651448 0.19992527
0002d0 94 75 9d 3c 07 5e 0d bd b1 f5 7e be a9 c0 80 3c
       0.019221105 -0.0345135 -0.24898411 0.015716868
0002e0 f6 9a 08 bf c6 68 95 3e 19 48 9d bd 6e 57 be be
       -0.5336145 0.29181498 -0.07679767 -0.3717608
0002f0 48 94 84 be ce d9 a5 be 00 1a 66 be f4 fc 37 3d
       -0.2589438 -0.32392734 -0.22470856 0.04491897
000300 29 b0 18 3d 54 51 d7 3d 50 52 c2 bd 53 c8 57 be
       0.037277374 0.10513559 -0.09488356 -0.21072511
000310 7c 58 75 3c 5a 24 93 be e5 fe da 3e 49 e3 cf be
       0.01497471 -0.28738672 0.42772594 -0.40603092
000320 b6 1a 52 3d f2 24 e4 bd 3c 1e 8f be bb 71 13 be
       0.051295005 -0.11139859 -0.27952754 -0.14398853
000330 df 5e 39 bd 6d ee 99 bd d5 d6 59 bd 49 e9 17 be
       -0.04525649 -0.07516179 -0.053183395 -0.14835085
000340 fa d0 44 3e ed bb ce be ea 47 6c bd 5f 63 c0 be
       0.19220343 -0.4037775 -0.05768577 -0.37575814
000350 06 6f 8c be 45 17 f9 3d ad e6 8b 3c 19 81 f9 be
       -0.27428454 0.121626414 0.017077768 -0.48731306
000360 4d a8 db bd 9b 8d eb be 28 a5 cb 3d 45 7c 19 3d
       -0.1072546 -0.46006474 0.099436104 0.03747203
000370 f7 75 63 bc 2d ce f5 3c 11 89 e8 3e a5 17 7e 3e
       -0.0138831055 0.030005539 0.45417073 0.24813707
000380 78 4b 89 3e 06 5d 1e be c0 b8 ad bd d2 1b 65 be
       0.2681539 -0.15465173 -0.08482504 -0.22373894
000390 77 07 95 be 20 48 6b bc 14 2a 14 be 4c 5e 49 3e
       -0.29107258 -0.014360458 -0.14469177 0.19664878
0003a0 aa bc d6 3d b0 b2 83 bd 95 7b 7e 3e a9 e1 9a 3b
       0.104852036 -0.06430566 0.2485183 0.004726608
0003b0 1f c3 6d 3e 3b c9 9f be eb 87 1b 3d d9 50 cc be
       0.23218964 -0.31208214 0.03797142 -0.39905432
0003c0 dd f9 8f be 2e 69 ca be e1 93 b1 3e ab 06 3b be
       -0.28120318 -0.3953337 0.34683135 -0.18264262
0003d0 91 9b ac bc d2 7b b8 3c a8 0d 1b 3d 77 b3 ab bd
       -0.021070274 0.02251998 0.03785482 -0.083838396
0003e0 a3 f7 00 be 42 de ad 3d 37 51 d3 bc 57 23 18 3d
       -0.12594466 0.08489658 -0.025795562 0.037143078
0003f0 06 df ce bd 81 aa ba 3d 34 00 75 bc 98 ca f4 3d
       -0.10101132 0.09114552 -0.014953662 0.11952704

l2.bias f4 [300]
000000 48 c5 4d be c5 b7 f7 be 56 7f c5 bd 39 e7 cc bd
       -0.20094788 -0.48382393 -0.09643428 -0.1000504
000010 9e 7c d0 bd b8 06 82 bd a8 06 eb bd d8 1b 92 3e
       -0.10180019 -0.06348938 -0.11475879 0.28536868
000020 99 b7 ba bc d8 98 96 3c 5a 27 83 3d be 31 f6 bc
       -0.022792624 0.018383428 0.0640399 -0.030053016
000030 64 ad f1 be fb 3e 27 bd bd 0d ba bd d4 99 a7 3e
       -0.472026 -0.040831547 -0.090846516 0.3273455
000040 d6 16 0c be 41 76 ab 3e e6 0f e1 3e d4 34 95 bd
       -0.13680586 0.33488658 0.43957442 -0.07285467
000050 0f e2 c2 3d 86 00 45 bf d4 a7 83 bd 6d 08 8d bc
       0.095157735 -0.76953924 -0.06428495 -0.017215932
000060 55 46 f3 bd 17 6f 8b 3e 3a 7b ea 3e 52 56 38 be
       -0.11878649 0.27233192 0.4579714 -0.18001679
000070 72 3e 0f bf 7d 45 00 be c6 b2 8b be ca 79 72 bd
       -0.5595466 -0.12526508 -0.2728483 -0.05919818
000080 aa 5a bc 3b fb 17 9c bd 29 2d 42 3e dc ef 30 be
       0.0057481127 -0.076217614 0.1896254 -0.17278999
000090 74 2a cb bd 95 f0 c2 3d 55 86 05 bf 93 f5 74 bd
       -0.09920207 0.09518544 -0.521581 -0.05980451
0000a0 97 49 0e bd 36 93 af 3d 15 40 04 bd 2e 3c 10 bf
       -0.03473815 0.08573 -0.032287676 -0.56341827
0000b0 19 e3 14 be 0e eb da bc a4 db b5 3d 0c fd a3 bd
       -0.14539756 -0.026723411 0.08879784 -0.08007249
0000c0 70 6d 0f bf 31 ea 88 bd e9 11 b3 3e 8f af ab bd
       -0.56026363 -0.066852935 0.34974602 -0.083830945
0000d0 d1 75 78 bd 80 17 09 3d cb b5 e9 bb 66 14 af 3e
       -0.060659233 0.033469677 -0.007132267 0.3419525
0000e0 08 2f 58 bd d1 71 8f 3e a9 c1 16 bd 8e 24 99 bc
       -0.052779227 0.28016523 -0.036805782 -0.018694188
0000f0 d3 e3 be be 3a 02 c2 bb 5f 14 e2 ba 49 be 36 bd
       -0.3728319 -0.0059206756 -0.0017248503 -0.044615064
000100 19 bf f2 be b2 71 a4 ba c4 c5 ba 3b cd c2 d5 bc
       -0.4741142 -0.0012546091 0.005699845 -0.026093865
000110 38 6f da 3d 28 b4 68 bd 2d 0f 34 3d 02 60 25 bc
       0.106657445 -0.056812435 0.043959785 -0.010093691
000120 78 61 8c bc 0b 45 04 bd 3d 75 7f 3e df 72 6f be
       -0.01713632 -0.032292407 0.24947067 -0.23383664
000130 ce 39 03 3a d7 ad b7 bd 6c 87 e1 bd 32 b5 28 3e
       0.0005005867 -0.08968704 -0.11012158 0.1647537
000140 08 63 2e bf a7 1b cc be ff 3b 8e be 82 78 82 bd
       -0.6811986 -0.39864847 -0.27780148 -0.06370641
000150 ba 52 20 be 37 e5 d1 bc 3f 10 4f bf 6e 87 4d 3e
       -0.15656558 -0.025621993 -0.80884165 0.20071194
000160 5c a6 c8 bd b2 b8 e7 bd e2 62 be be 9a d7 aa bc
       -0.097973555 -0.11314525 -0.37184817 -0.02085476
000170 1c 26 df be 84 f0 6d bd 2a 2b 9d 3d d9 6b 0b bf
       -0.43583763 -0.0580907 0.076742485 -0.5446144
000180 6a 19 f8 bc c1 f4 4c 3e 18 0c 94 be 79 07 1e 3e
       -0.030285556 0.20015241 -0.28915477 0.15432538
000190 2b 03 c3 bd 12 60 62 bd 4a 02 79 3e 00 76 af be
       -0.095220886 -0.0552674 0.2431728 -0.34269714
0001a0 18 e7 8d 3b e4 52 a8 bd 72 8d 10 be 44 cc 11 bc
       0.004330527 -0.08218935 -0.14116457 -0.008898798
0001b0 c2 12 59 3d 54 eb 30 bc 99 d8 d5 bb b0 fb 74 bf
       0.052996404 -0.010798294 -0.0065260646 -0.95696545
0001c0 75 22 19 bf e7 73 f8 be fa 10 c8 be ca 75 47 bc
       -0.598182 -0.48525926 -0.39075452 -0.012174079
0001d0 f5 48 13 bc ff 6f 21 be 92 f4 17 bf f0 b2 c0 bd
       -0.008989562 -0.1576538 -0.5935756 -0.094091296
0001e0 8d 3f 9d bd a5 3d 4e bd 8a 09 3b bd 29 7b a8 be
       -0.07678137 -0.050351758 -0.045663394 -0.32906464
0001f0 58 ab 8e bd 81 5e 6d bb 8a 37 e2 bb 0d be 89 bd
       -0.06966275 -0.0036219659 -0.0069035934 -0.067257024
000200 0a 83 df 3e d4 58 bb bb d3 29 ac bc fe bf 5c bd
       0.43654662 -0.0057173762 -0.021016037 -0.053894036
000210 16 14 9c bd a7 f2 d6 bb b1 e9 b0 3b ae 23 38 3d
       -0.076210186 -0.006559688 0.005398952 0.0449559
000220 13 b9 3d 3c 7f 5d d3 3d e6 7f 5c bd 04 69 de bc
       0.01157977 0.10320567 -0.05383291 -0.027149685
000230 7c 89 18 3e 23 41 90 bd 14 b7 0e 3b 34 53 25 bd
       0.14896196 -0.07043674 0.0021776604 -0.04036255
000240 7d cd 98 be 64 e9 67 bf dc c1 1f bf fe ab e5 bd
       -0.29844275 -0.905905 -0.6240518 -0.112144455
000250 48 e2 2a bf 00 ad a5 bd cf d8 96 bf 85 eb 74 bd
       -0.6675153 -0.08089638 -1.1784915 -0.05979492
000260 35 b3 30 bd e9 a4 b7 3e 86 36 02 3d b0 dc de bd
       -0.043139655 0.35868004 0.03179028 -0.108819366
000270 56 47 68 3b 97 39 ab bd bc 27 da bc ae c6 f0 3c
       0.003544291 -0.08360594 -0.026630275 0.029391613
000280 b9 1b 75 3c e4 04 96 bd 43 2f 5b be ac 43 f6 bc
       0.014960223 -0.073251516 -0.21404748 -0.030061565
000290 e4 b2 04 bd 05 d0 56 bd da 77 f2 bc 31 09 73 3e
       -0.032397166 -0.052444477 -0.029598165 0.23733975
0002a0 89 8b e8 3e 7f bb 73 3c 7b 2a f4 bd 5f 49 40 3e
       0.45418957 0.0148762455 -0.11922165 0.18777989
0002b0 c5 98 d9 bd 90 d2 2e 3d d5 b2 0d 3e 28 1b 9f 3d
       -0.106248416 0.042681277 0.1383775 0.077688515
0002c0 e0 62 bb be 2d 65 16 be e9 09 e2 bc e2 55 5d 3e
       -0.36598873 -0.14687033 -0.027592616 0.21614793
0002d0 01 8c a5 bd b2 b9 17 bd 47 03 fe bd 22 02 34 bf
       -0.08083344 -0.037042327 -0.12402969 -0.70315754
0002e0 6d 79 4e 3e c6 e5 43 bc c1 b9 ea bd 61 44 81 bd
       0.20163508 -0.011956638 -0.11461211 -0.0631187
0002f0 7b 3e bd bb 77 01 a6 bd d8 fb 80 bd bc f6 81 3d
       -0.0057752705 -0.08105748 -0.062980354 0.06345889
000300 2b c4 20 bc c8 ba a4 bd 03 d7 b7 3c 82 97 74 be
       -0.009812395 -0.08043438 0.022441393 -0.2388592
000310 b5 c3 ed bd 07 24 9e bd 4b b0 5c bf 93 4f 92 be
       -0.11609594 -0.077217154 -0.862065 -0.28576335
000320 c2 55 dd bd e2 34 80 3e 3f af a9 bd 7f 9d a1 3d
       -0.10807373 0.25040346 -0.08285379 0.07891368
000330 03 a7 93 bd be e8 a8 bd 49 12 f2 bc e8 30 72 bd
       -0.07209589 -0.08247517 -0.029549735 -0.059128672
000340 89 3d 95 bd 34 5f 38 bd 78 f0 a7 bd b2 9f 3d bd
       -0.072871275 -0.045012668 -0.08200163 -0.046294875
000350 45 3b cc be 09 db 19 bf cf 7a 1d bd 0a 5e 50 be
       -0.3988897 -0.60099846 -0.038447198 -0.20348373
000360 a5 0f 82 bc b7 3d 12 3c f2 ff f6 bc 32 b5 e3 bd
       -0.0158766 0.008925847 -0.030151341 -0.11118545
000370 21 2d f5 be 30 ec bf bd 52 3a c5 3e 4f 01 a3 3d
       -0.47885993 -0.09371221 0.38521057 0.07959234
000380 38 48 89 bd d2 30 08 3e ab fb d5 3c 73 d6 ad 3e
       -0.06703228 0.13299873 0.026120981 0.33952674
000390 07 4e a5 3e 02 ee 89 3e d9 91 16 bf e6 f4 12 3e
       0.32286093 0.26939398 -0.58816296 0.14351234
0003a0 bb 3a b6 bd 04 1d b5 be de 75 09 bd 76 60 b7 be
       -0.08897921 -0.353737 -0.033559673 -0.3581578
0003b0 5c aa 9a be cd 28 30 bf 9a 95 78 bc 7b 24 cb 3e
       -0.302081 -0.6881226 -0.015172387 0.3967627
0003c0 2c 8c d1 bd 0b 56 90 be 34 07 fe bc 93 7d 41 bd
       -0.10231814 -0.28190646 -0.031009294 -0.047238898
0003d0 3f 3d 7d be c5 cf 88 3b b7 7f 7c be f3 f4 2f bd
       -0.24730395 0.0041751587 -0.24658094 -0.04295821
0003e0 bf d3 56 3e 5d 78 74 3e 91 81 b6 be 68 d6 65 3b
       0.20979212 0.2387404 -0.35645726 0.0035070423
0003f0 94 34 c1 bd 87 27 3a bd f2 77 3c be 43 8f 90 be
       -0.094338566 -0.045447852 -0.1840513 -0.282343

l3.weight f4 [6, 300]
000000 73 51 d0 3e 2f c1 da be fc 2a b1 3c ca 43 64 3d
       0.4068714 -0.42725512 0.021626942 0.05572871
000010 d9 3f 5b be dc c0 2c bd fc b3 8a 3d 01 5a b4 3d
       -0.21411075 -0.042176113 0.067726105 0.088062294
000020 01 16 22 bb 1c a5 6c 3d 21 2d 6f be 1f d6 6a 3d
       -0.0024732354 0.057774648 -0.23357059 0.057333108
000030 d1 3a 46 be b0 d7 63 bd b0 12 be 3c 1d a0 db be
       -0.19358374 -0.055625618 0.02320227 -0.42895594
000040 64 e8 39 3e 68 99 91 be a9 0b ab be bc 9b 1e 3c
       0.18155056 -0.28437352 -0.33407333 0.009680685
000050 74 6d 81 3d b4 a7 45 3f f8 6a 19 3e 6d 55 0c bd
       0.06319705 0.7720902 0.14982212 -0.034261156
000060 2c 86 ac 3e 93 69 1c 3e 05 df fc be a9 67 d3 3e
       0.33696115 0.15274648 -0.493889 0.41290024
000070 d9 86 fd be a2 25 96 3e b5 86 71 be 77 11 0e bd
       -0.49516943 0.29325587 -0.23586543 -0.034684625
000080 5a c3 34 3c 28 9f 86 3a 77 95 ef 3c 8a b1 b2 bc
       0.011032904 0.0010270821 0.029246075 -0.021813173
000090 05 25 26 bd dc ec 78 3c 82 07 37 be b9 91 3a 3d
       -0.04056265 0.01519319 -0.17873958 0.04554913
0000a0 c5 ac b5 bc 8e b6 25 be e0 b0 3f bd e8 83 3c bc
       -0.02217711 -0.1618292 -0.04679954 -0.011506058
0000b0 de 32 31 bc 96 34 d5 bc 83 76 28 bc b8 2e 7e bc
       -0.01081535 -0.026026051 -0.010282162 -0.015514068
0000c0 74 79 4f 3f 40 fc 07 3d f7 50 d5 be a1 4e 62 3d
       0.810447 0.03319955 -0.41663334 0.055250768
0000d0 c1 db ba bd 49 df af 3e 69 8c a8 ba 33 56 1a bb
       -0.09123946 0.3435004 -0.0012859228 -0.0023549914
0000e0 92 a8 8c 3b 5b 3a 53 be 38 7a 38 bd 48 f9 96 3d
       0.004292556 -0.2062773 -0.045038432 0.073717654
0000f0 49 75 6a be 85 e7 b6 3d d6 f7 9a bd cb c6 a0 3c
       -0.22896303 0.089308776 -0.07566802 0.019626042
000100 84 2c b3 3e da ac 41 3d 11 f7 3a 3d c7 97 95 3d
       0.349949 0.047283985 0.045645777 0.0730434
000110 17 b7 17 be db 93 0b 3c a6 76 c9 bd 04 7a 7d be
       -0.14815937 0.008519138 -0.098370835 -0.24753577
000120 c5 dc a3 bb 83 c8 01 be 6d 47 86 3e cb 4d 11 bd
       -0.005000683 -0.12674145 0.2622637 -0.03547458
000130 e6 8a 49 3c c7 01 63 bc df 01 2b bc b5 1e 81 3d
       0.012301182 -0.013855404 -0.010437458 0.06304685
000140 19 60 c0 3e 28 78 81 3e e1 84 7f be 41 54 0a 3c
       0.37573317 0.25286984 -0.24953033 0.008442939
000150 7f 5b 88 be ed 38 3c bd 72 dc 9c be 03 c5 e5 3d
       -0.26632306 -0.045952726 -0.30636936 0.11219218
000160 38 1d 1f 3e 10 85 32 be bc f1 d7 be 04 8e 1d bd
       0.1553849 -0.17433572 -0.42176616 -0.038465515
000170 8a aa cc 3e d4 f2 69 bb 70 64 a3 3d 05 8e c6 bd
       0.3997386 -0.0035697715 0.07978141 -0.09695057
000180 8f f8 83 3c 08 2c e6 3e f4 e5 61 3d 4b 07 0e be
       0.016109733 0.44955468 0.05515094 -0.1386997
000190 53 06 b8 bd 9a 86 3b be 69 a4 73 3d 2b 23 41 3e
       -0.08985581 -0.18313065 0.059482966 0.18861072
0001a0 d4 d0 8c be 0f f6 bc be b4 b2 d9 be a7 86 ce 3d
       -0.27503073 -0.36906478 -0.42519152 0.10084277
0001b0 1f 79 00 3d d7 12 3c bc 1d c4 6c bc 9e 06 c1 be
       0.03136551 -0.011479101 -0.014451054 -0.3770036
0001c0 ba be d2 3e 31 51 ca be c6 10 80 3e dd cd b8 bc
       0.41161138 -0.3951507 0.25012797 -0.0225591
0001d0 80 bf 20 bd 8c 35 d4 3d 44 94 2e 3e 56 96 d9 bc
       -0.03924513 0.10361776 0.17048746 -0.026560944
0001e0 1d 83 9b bd db 50 64 3c f4 b7 38 3d 4b 9b 2d 3d
       -0.07593367 0.013935293 0.045097306 0.042384427
0001f0 21 cb bc 3d f5 0f f6 3c f6 39 f7 bc 43 7d 65 3d
       0.09218431 0.030036906 -0.030179005 0.056027662
000200 4e 9b ff 3f a2 03 1e bb eb 08 98 bc ee f5 13 3c
       1.996927 -0.0024111052 -0.01855894 0.009030802
000210 8c 09 25 3e b2 08 11 bd 61 81 38 be d8 07 a4 3d
       0.16116923 -0.035408683 -0.18018104 0.080093086
000220 14 34 7b bd e9 95 bd 3e 1e cc 2f bd a9 ae 85 3a
       -0.061328962 0.37028435 -0.04291927 0.0010199148
000230 cd 53 33 bf d7 dc d7 3c b9 5a a3 3c eb 7e 86 3c
       -0.70049745 0.026350422 0.01994072 0.016417941
000240 0b f9 13 3e e3 ea 05 3d 03 db 38 3e 80 1b b4 3c
       0.14450471 0.03269471 0.18052296 0.02198577
000250 10 86 8d bd 53 4b 1e bd df e0 97 3e 82 85 87 bd
       -0.06910336 -0.038646054 0.2966375 -0.066172615
000260 f2 b6 9b bc c6 79 6e be fe c1 61 bd 29 12 51 bd
       -0.019008134 -0.2328864 -0.055116646 -0.05104271
000270 62 77 77 bc 17 3a d6 3d 89 fd a4 be de ab d2 3d
       -0.015104147 0.104602985 -0.32224682 0.10286687
000280 8a 09 ee 3c bb b5 85 3d 15 0a 8c be 37 72 d5 3d
       0.029057283 0.06528803 -0.27351442 0.104221754
000290 c9 95 b7 bc 03 d5 87 bc 8d 8c 04 3d bf a3 fa bd
       -0.02241029 -0.016581064 0.032360602 -0.12238263
0002a0 b2 9d e3 3e f0 8c 15 3f d2 c1 2c bf 4d b2 2b bf
       0.4445625 0.5841818 -0.67483246 -0.6706894
0002b0 08 d4 de 3d c6 3c de be 83 9d 9a 3d 5e b1 8b 3c
       0.108802855 -0.4340574 0.07549574 0.017052349
0002c0 20 3f 58 be 11 3c 7b bc 08 ae 79 3c ca 74 17 3d
       -0.2111783 -0.015334145 0.015239246 0.036976613
0002d0 08 da a4 3c 9b ce 97 bc bb 60 d2 3d 3a 54 64 be
       0.020123497 -0.018531134 0.10272356 -0.22297755
0002e0 12 9e d1 3d 0f 3f 9d 3e e1 37 63 3e 82 64 03 3c
       0.10235228 0.30712172 0.22189285 0.008019568
0002f0 ad c9 b4 bc 1c ed b0 bc fb 89 b8 3c b1 6a a6 be
       -0.022068823 -0.021597438 0.022526732 -0.32503274
000300 fd e7 76 3d 1c 0c 9f bc b1 76 25 3e 23 7e 11 3e
       0.060279835 -0.019414954 0.16158558 0.14208274
000310 2f 05 2f 3e af 16 6c 3c 65 e2 bd bd 94 20 8d 3e
       0.17091821 0.014409705 -0.09271697 0.27563918
000320 3a 9d 99 3e 94 55 aa 3e 2c 3a f4 3c 64 54 9b bd
       0.30002767 0.33268416 0.029812895 -0.075844556
000330 1c 24 67 3d c7 1f 06 bd 2e a9 5e 3b 59 55 39 bd
       0.05643092 -0.03274515 0.003397535 -0.04524741
000340 a3 b1 18 3d 90 ef 51 3d da e6 1f 3b 75 3c 2b bd
       0.037278783 0.051253855 0.0024399073 -0.041805703
000350 83 34 25 3e 4b d1 51 3d 74 09 0e bd 7e ed be be
       0.16133313 0.051224988 -0.034676984 -0.37290567
000360 69 38 02 3e 67 a4 ef 3c 8c ed 82 3c 6a b3 f9 be
       0.12716831 0.029253198 0.015982412 -0.48769695
000370 51 ba 91 3e 60 c5 29 3b 89 00 33 3f 28 99 65 bd
       0.2846246 0.0025904998 0.6992269 -0.056054264
000380 4c b9 1b bd eb 9f 5c 3e 4a e1 85 bd d6 c3 de 3e
       -0.03801851 0.21545379 -0.06537111 0.43508786
000390 ca a9 f1 3e d1 b0 ec 3d 55 89 af be e5 a2 d7 bd
       0.4719985 0.115571626 -0.34284464 -0.105291165
0003a0 68 a4 86 3b 8c c1 2e 3d c3 e3 f8 bb b0 1e 06 3d
       0.004108954 0.04266505 -0.0075955107 0.03274411
0003b0 bd cf 96 3e 78 b9 1f 3f d0 59 0d 3d 47 fc 38 3e
       0.29455367 0.6239238 0.03450948 0.18064986
0003c0 35 58 4c bd b9 86 ea 3d ee cc 37 3e 03 fa 06 bd
       -0.04988881 0.114514776 0.17949268 -0.032953274
0003d0 b8 1c 7b be c5 22 0e bd e5 d8 aa bd 72 8a d4 3c
       -0.24522674 -0.034701128 -0.083421506 0.025944922
0003e0 b6 94 e3 bc 25 eb 70 3e 72 34 1b bf c2 a4 e2 3c
       -0.027780872 0.235272 -0.606269 0.027666453
0003f0 78 3c 10 bc ff 44 a9 3d af de 76 bf 42 79 8a 3d
       -0.008803479 0.08265113 -0.9643354 0.06761409

l3.bias f4 [6]
000000 ed b5 a6 3d d0 c9 fc 3d 1b 6a 0c 3e 1e e5 c2 3d
       0.08140168 0.1234318 0.13712351 0.09516357
000010 55 3f dd bc ed 93 da 3d
       -0.027007738 0.10672746
