results/runs/single_assembly_rerun/Average_TD3_5_Peg-in-hole-single_assembly_seed_2/11000_actor.pth (torch_old, 510312 bytes, 6 tensors)

l1.weight f4 [400, 12]
0	0x3d4aad3b	0.04948161
1	0xbdc96ca8	-0.09835178
2	0x3d670df8	0.056409806
3	0xbc5db486	-0.01353181
4	0x3df79b18	0.12090129
5	0x3d8cc00c	0.068725675
6	0xbd4f1475	-0.05055662
7	0xbe850766	-0.25982207
8	0x3db2d41d	0.08731864
9	0xbe8d40e7	-0.2758858
10	0x3d67687e	0.056496136
11	0x3ce9f412	0.028558765
12	0xbd820160	-0.063479185
13	0x3e71b6c4	0.23604876
14	0x3c9dd230	0.019265264
15	0x3df52920	0.119707346
16	0x3dfa3210	0.1221658
17	0xbe2e62c0	-0.17029858
18	0xbde347bc	-0.110976666
19	0x3e8e24be	0.27762407
20	0xbe90c4b5	-0.28275076
21	0xbca09d70	-0.019606322
22	0xbcbb6970	-0.022877425
23	0x3e51ac9a	0.20475999
24	0xbde993cc	-0.11405143
25	0x3e142862	0.1446853
26	0xbd0270a2	-0.031845696
27	0xbe32292b	-0.17398517
28	0xbe3c2897	-0.18374859
29	0xbe0f9d34	-0.14024812
30	0xbe5916ba	-0.21200076
31	0xbe0ea321	-0.13929416
32	0x3d34c209	0.04413036
33	0x3e594aa3	0.21219878
34	0xbc597b3d	-0.013274011
35	0xbdc45a9b	-0.09587594
36	0x3e7710a4	0.24127442
37	0xbe308a8d	-0.17240353
38	0xbd3cfd76	-0.046140157
39	0xbe13bbbe	-0.14427087
40	0xbd8f81a5	-0.070071496
41	0xbe88f3f7	-0.2674863
42	0x3d6913bf	0.056903597
43	0x3d37697f	0.044778343
44	0x3c23df7e	0.010002015
45	0x3de97553	0.11399331
46	0x3e3d328f	0.18476318
47	0x3b92ea30	0.0044834837
48	0x3cfa72c0	0.030572295
49	0x3cb494c0	0.022043586
50	0x3e1dbbb6	0.15403637
51	0x3e469212	0.19391659
52	0x3e544946	0.20731077
53	0x3e2b5556	0.16731772
54	0xbd90244c	-0.07038173
55	0xbc528da0	-0.012851149
56	0xbd704af8	-0.058665246
57	0x3e2bf63e	0.16793153
58	0x3d035110	0.03205973
59	0x3e88cbc0	0.2671795
60	0x3e11d86e	0.14242718
61	0xbe67fdb3	-0.22655372
62	0x3d9a71e3	0.075412534
63	0x3e8c691b	0.2742394
64	0x3e8203ff	0.25393674
65	0xbb94a680	-0.00453645
66	0x3e28e7b7	0.16494642
67	0xbea329e3	-0.31867895
68	0xbcb11b9c	-0.02161961
69	0x3ddb1a47	0.106983714
70	0xbe9bf0e2	-0.30457217
71	0x3e78cb76	0.24296364
72	0xbe67b2be	-0.22626778
73	0x3dc23ec5	0.094846286
74	0xbd56b596	-0.052419268
75	0x3d251406	0.0403023
76	0x3c054fc9	0.008136698
77	0xbe8a2b78	-0.2698629
78	0x3c66591a	0.014059329
79	0xbe17ac36	-0.14811787
80	0x3e7bf3b8	0.2460469
81	0x3c896c86	0.01677538
82	0xbebd3981	-0.36957934
83	0x3e04f9c8	0.12985909
84	0x3e787d72	0.24266604
85	0xbe4eb1f2	-0.20185068
86	0x3b97b267	0.0046294215
87	0x3e1e1d4e	0.15440866
88	0xbe1629c0	-0.14664364
89	0xbe1c42c2	-0.15259841
90	0xbd696413	-0.056980204
91	0xbe6d3dc5	-0.23168094
92	0x3e2c77c6	0.16842565
93	0x3cb6e08f	0.022323875
94	0x3e37c2fa	0.17945471
95	0x3de1e631	0.11030234
96	0xbe2ba16e	-0.167608
97	0xbe7ccc8b	-0.24687402
98	0xbe4bc6c1	-0.19900037
99	0xbd9e0f2f	-0.0771774
100	0xbdbf851c	-0.093515605
101	0xbd3e85dc	-0.046514377
102	0xbe863a36	-0.26216286
103	0x3e066f19	0.13128318
104	0x3e36517d	0.17804523
105	0x3d95c2b0	0.07312524
106	0x3e3cd697	0.18441235
107	0x3e40f397	0.18842922
108	0xbe91e7fa	-0.28497297
109	0x3d329c10	0.043605864
110	0x3e891a3e	0.26777834
111	0xbe563a87	-0.20920764
112	0xbe039e68	-0.12853396
113	0xbc791260	-0.015202135
114	0xbe37e3d2	-0.17958
115	0xbd5edd08	-0.05441001
116	0xbd2eb9d8	-0.042657703
117	0x3e83afe0	0.2572012
118	0xbc94b290	-0.018151551
119	0x3e204c22	0.15654042
120	0x3dc20aa4	0.09474686
121	0x3e5fb4f0	0.21846366
122	0xbe886929	-0.2664273
123	0x3e46f924	0.19430977
124	0x3e2bc751	0.16775252
125	0xbe53e818	-0.20694005
126	0xbdd244ac	-0.10267004
127	0x3e6328ae	0.22183487
128	0xbea1bcb6	-0.31589288
129	0xbe770c85	-0.2412587
130	0xbe40031e	-0.18751189
131	0x3e096c8c	0.13420314
132	0xbdf16e1e	-0.11788581
133	0xbe83d0c6	-0.2574522
134	0x3de52b64	0.11189917
135	0x3e1585e4	0.14601856
136	0x3ddd7198	0.10812682
137	0xbe7d43ce	-0.24732897
138	0x3e8feaca	0.28108817
139	0xbcb26d50	-0.02178064
140	0xbe8cac89	-0.27475384
141	0xbd32007c	-0.043457493
142	0x3e411318	0.1885494
143	0x3e08224a	0.1329433
144	0xbd7325f9	-0.059362385
145	0x3e82aba0	0.25521564
146	0xbe80b208	-0.25135827
147	0x3e46666d	0.1937501
148	0x3e8afac1	0.27144435
149	0xbe33bef8	-0.17553318
150	0x3db4e622	0.08832957
151	0xbc8384f7	-0.016054614
152	0xbe5e06a0	-0.21682215
153	0x3cc421e7	0.023941947
154	0xbdffc945	-0.12489561
155	0xbe6f7376	-0.23383889
156	0xbe5765a0	-0.2103486
157	0x3bce66c0	0.00629887
158	0x3e89059e	0.26762098
159	0x3dd3abc8	0.10335499
160	0xbe44ad00	-0.1920662
161	0x3e4be44a	0.19911304
162	0x3cc21d40	0.023695588
163	0xbe906c68	-0.28207707
164	0x3c605a40	0.013693392
165	0x3e3dc294	0.18531257
166	0xbe2dd0f8	-0.16974247
167	0xbc599e60	-0.013282388
168	0xbe82f372	-0.2557636
169	0xbe0e08a7	-0.13870488
170	0xbe0e440b	-0.13893144
171	0x3cb8316f	0.02248451
172	0x3e3b21d8	0.18274629
173	0xbd5bb808	-0.053642303
174	0xbe9c28fa	-0.30500013
175	0x3d0878b4	0.033318236
176	0xbe9763e0	-0.29568386
177	0x3c570ce3	0.013125631
178	0x3e826922	0.25470835
179	0x3dd967e4	0.10615519
180	0xbe24d30f	-0.16096137
181	0xbd5e26b2	-0.05423612
182	0x3e09761b	0.1342396
183	0x3d9f70ed	0.07785211
184	0xbe8a8489	-0.2705424
185	0xbe2c576c	-0.16830224
186	0xbde4c10f	-0.111696355
187	0x3dc4db58	0.09612149
188	0x3e75116d	0.23932429
189	0x3e167e4d	0.14696617
190	0x3dc333c2	0.095313564
191	0xbe6f81b3	-0.2338932
192	0x3e7ae5c9	0.24501719
193	0x3d8a6f81	0.06759549
194	0xbd9b0705	-0.07569698
195	0xbdf73ede	-0.12072538
196	0x3de19c77	0.110161714
197	0xbe203b0f	-0.15647529
198	0x3cc120c0	0.023575187
199	0x3e1c721d	0.15277906
200	0xbe87590f	-0.26435134
201	0xbe83a773	-0.2571369
202	0xbd148024	-0.036255017
203	0xbe8aea6a	-0.2713197
204	0x3b13db3e	0.0022561098
205	0x3dd43262	0.10361172
206	0x3d43afa0	0.04777491
207	0xbdc2ad30	-0.09505689
208	0xbcf1409d	-0.029449755
209	0xbe008c00	-0.12553406
210	0xbe967ebc	-0.29393566
211	0xbde943e3	-0.113899015
212	0x3d48c181	0.049012665
213	0xbe29c930	-0.16580653
214	0xbe359812	-0.17733791
215	0x3d9f28a5	0.07771424
216	0x3d8645f0	0.06556308
217	0xbde4d123	-0.11172702
218	0x3cf47ab6	0.02984367
219	0x3e885afd	0.2663192
220	0x3c62992a	0.0138304625
221	0xbe4a99e4	-0.19785267
222	0x3e9c14c9	0.30484608
223	0x3e799a5b	0.24375288
224	0x3bba206c	0.0056801345
225	0xbdccbc55	-0.09996859
226	0xbe1e9c15	-0.15489228
227	0x3e7ada56	0.24497351
228	0x3e61dd0d	0.2205698
229	0xbe557191	-0.20844103
230	0xbad12814	-0.0015957379
231	0x3dc8f9d3	0.09813275
232	0x3e04ba7c	0.12961763
233	0xbc85ca70	-0.016331881
234	0xbe6c0ac9	-0.23050989
235	0xbdc5c9d3	-0.096576355
236	0xbdb161f8	-0.08661264
237	0xbe2af050	-0.16693234
238	0xbd9adb1c	-0.07561323
239	0xbe55e0a3	-0.20886473
240	0xbe2c3007	-0.16815196
241	0x3e341929	0.17587723
242	0xbe738ae2	-0.23783448
243	0xbe8e9fae	-0.278562
244	0x3e7873de	0.2426295
245	0x3dd43dfc	0.10363385
246	0x3dd99846	0.10624747
247	0x3dd40f48	0.10354477
248	0xbe134231	-0.14380719
249	0xbe4a9132	-0.1978195
250	0xbe1e6bdd	-0.15470834
251	0x3c122c87	0.008921749
252	0x3d6199e0	0.055078387
253	0xbe7f6a8f	-0.24942993
254	0xbe59b78d	-0.21261425
255	0x3e214ad0	0.15751195

l1.bias f4 [400]
0	0x3deefa55	0.11668841
1	0xbe3cdc93	-0.18443517
2	0xbdd3fb0e	-0.10350619
3	0xbd82b527	-0.06382208
4	0xbc4d08c0	-0.012514293
5	0xbd2e9196	-0.04261931
6	0xba259219	-0.0006316021
7	0x3e89850c	0.2685932
8	0xbe21e4ea	-0.1580998
9	0x3e212fcc	0.1574089
10	0xbcf4a21d	-0.029862458
11	0x3e435e5e	0.19078967
12	0xbe36b801	-0.1784363
13	0x3d3c5cf8	0.0459871
14	0xbe79ce04	-0.24394995
15	0x3d22ef07	0.039778735
16	0x3e8d118d	0.27552453
17	0x3e11ba10	0.14231133
18	0x3df32876	0.11872952
19	0x3deca8dd	0.115556456
20	0x3df4275c	0.1192157
21	0x3e6491e1	0.22321273
22	0xbbd6ddc5	-0.0065571987
23	0xbd9eb1b8	-0.07748741
24	0x3dc39fc5	0.09551958
25	0xbd90e5d6	-0.07075088
26	0xbd2af884	-0.04174091
27	0x3d5b75b3	0.053579044
28	0xbe028854	-0.12747318
29	0xbe70f370	-0.23530364
30	0xbe205821	-0.15658619
31	0x3da1f6b5	0.07908384
32	0xbe3c9d0e	-0.18419287
33	0x3e63a894	0.22232276
34	0xbe7a3530	-0.24434352
35	0x3de4d54c	0.11173496
36	0xbe9e09a4	-0.3086673
37	0xbdaff994	-0.08592525
38	0xbda81fe9	-0.082092114
39	0x3db2180a	0.08695991
40	0xbe705d18	-0.23473012
41	0xbe49eae0	-0.19718504
42	0x3d129461	0.035786036
43	0x3d321658	0.04347834
44	0xbe823ec1	-0.25438502
45	0x3dc77bc1	0.09740401
46	0xbdb2c36a	-0.087286785
47	0x3d8fd6a7	0.070233636
48	0x3e4a6925	0.19766672
49	0xbd36e1c2	-0.044648893
50	0x3ce13c03	0.027494436
51	0x3e7b9c2b	0.24571292
52	0xbd9f159d	-0.07767794
53	0x3da15b58	0.078787506
54	0x3dee3564	0.11631277
55	0xbe32e1d5	-0.1746896
56	0xbe89253e	-0.26786226
57	0xbda1926c	-0.07889256
58	0x3e5264ac	0.20546216
59	0x3e46b7e6	0.19406089
60	0xbe68267c	-0.2267093
61	0x3be496de	0.0069759926
62	0x3e63e940	0.22256947
63	0x3e5ce334	0.21571046
64	0x3dfd0ed5	0.123563446
65	0xbe2a16fd	-0.16610332
66	0xbe02d5c7	-0.12776862
67	0x3d07a6b8	0.03311798
68	0x3e397309	0.18110289
69	0x3e8496dd	0.2589635
70	0xbdc0ac55	-0.0940787
71	0x3e24a1a6	0.16077289
72	0xbe7f1b03	-0.24912648
73	0x3e025603	0.12728123
74	0x3de6e2e5	0.112737454
75	0xbd9c1016	-0.07620256
76	0xbe3b75a5	-0.18306597
77	0xbd5d99d1	-0.05410177
78	0x3e298bdd	0.1655726
79	0x3d9c16bd	0.076215245
80	0xbe188ce1	-0.14897491
81	0xbe72b957	-0.23703514
82	0xbea1a1a6	-0.3156864
83	0x3c5ae6ca	0.013360688
84	0xbd9c7ebe	-0.07641362
85	0x3e1f6ab8	0.15568054
86	0x3bc1aa2e	0.0059101796
87	0x3d38652c	0.04501836
88	0x3f077511	0.52913004
89	0xbe9c2031	-0.3049331
90	0x3e698939	0.22806253
91	0x3dd10aac	0.102071136
92	0xbddcb8ff	-0.10777473
93	0xbe583567	-0.21114121
94	0xbe232935	-0.15933688
95	0x3e949a14	0.29023802
96	0xbe4d8487	-0.20070086
97	0xbdd489c0	-0.10377836
98	0x3c6466a4	0.013940487
99	0xbc291449	-0.010319778
100	0x3dd04134	0.101686865
101	0xbe077639	-0.13228692
102	0x3ebda74e	0.37041706
103	0x3e398885	0.18118484
104	0xbe1791ee	-0.14801762
105	0xbe755905	-0.2395974
106	0xbe7d30b0	-0.24725604
107	0x3d6be7d3	0.05759413
108	0xbe896c3f	-0.26840398
109	0x3eae56f3	0.34050712
110	0x3d5cb7f1	0.053886358
111	0x3d80f49e	0.06296657
112	0x3d6c74f8	0.057728738
113	0xbb7f14b4	-0.0038922252
114	0xbe67b23c	-0.22626585
115	0xbe8a5497	-0.27017662
116	0x3e5d592c	0.21616048
117	0x3e3f0882	0.18655589
118	0x3e2dac12	0.16960171
119	0x3e8346f6	0.25640076
120	0xbe9d3114	-0.30701506
121	0xbe794854	-0.24343997
122	0x3e08e3c3	0.13368134
123	0x3e8f444d	0.27981797
124	0x3db2cd3c	0.087305516
125	0x3e09669c	0.13418049
126	0x3dd26e26	0.102749154
127	0x3da2942b	0.07938417
128	0xbdb0bc55	-0.086296715
129	0xbe34992e	-0.17636558
130	0xbda477da	-0.08030672
131	0x3e5e1ed4	0.21691447
132	0xbcca5911	-0.024700673
133	0xbe7c6f5d	-0.24651857
134	0x3da7ad64	0.081873685
135	0x3e258be6	0.16166648
136	0x3db31234	0.08743706
137	0xbe991976	-0.29902238
138	0xbe0c32e0	-0.13691282
139	0x3e01d789	0.12679876
140	0x3e0f522a	0.13996187
141	0xbddf852c	-0.109140724
142	0xbe44e390	-0.19227433
143	0xbc20c6f9	-0.009813064
144	0xbe84bf3d	-0.25927153
145	0x3e27187a	0.16317931
146	0x3d38dea7	0.045134213
147	0x3e13d2c5	0.14435871
148	0xbc78a280	-0.015175462
149	0x3e53ccac	0.20683545
150	0x3da1268d	0.07868681
151	0xbe224a6c	-0.15848702
152	0x3e6efa61	0.233377
153	0xbe3a6265	-0.18201597
154	0xbd8a5e48	-0.06756264
155	0x3e88fdd3	0.26756153
156	0x3dfe2520	0.12409425
157	0xbe338bf9	-0.17533864
158	0x3cabb4af	0.02096018
159	0x3e4aefec	0.19818085
160	0x3e33d75c	0.17562622
161	0x3daadabe	0.08342503
162	0x3ea6644a	0.3249839
163	0x3e2aeac4	0.16691118
164	0xbc227d73	-0.009917605
165	0xbe70bfd1	-0.23510672
166	0xbdfb7288	-0.122777045
167	0x3d205bb8	0.03914997
168	0xbe9131de	-0.28358358
169	0x3e27a8db	0.16373007
170	0xbe71cec3	-0.2361403
171	0x3e7eb9e5	0.248756
172	0xbe070551	-0.13185622
173	0x3d6a64ca	0.057225026
174	0xbe988a64	-0.29793084
175	0x3e0a19af	0.1348636
176	0x3d9c6a13	0.076374196
177	0x3db8380c	0.08995065
178	0x3e028a20	0.12748003
179	0x3d5e76e8	0.054312617
180	0x3e432eb4	0.19060785
181	0x3dd23fe4	0.102660924
182	0x3de6f449	0.112770624
183	0xbe107264	-0.14106137
184	0xbe227fb5	-0.15869029
185	0xbe3d53f7	-0.18489061
186	0x3cef52da	0.029214311
187	0x3e47ceb9	0.19512452
188	0x3e50e2b6	0.20398983
189	0x3e7efcd2	0.24901131
190	0x3e32e61f	0.17470597
191	0xbe5cda42	-0.21567634
192	0xbe2c592e	-0.16830894
193	0x3e615f51	0.22009017
194	0xbcb5a4c0	-0.022173285
195	0xbe4a4cf7	-0.19755922
196	0x3ce950d8	0.028480932
197	0xbe540d34	-0.20708162
198	0x3e20468c	0.15651911
199	0xbd1e2af7	-0.038615193
200	0xbe95f075	-0.29285017
201	0x3df8ef97	0.12155073
202	0x3dd098a8	0.10185367
203	0x3e448594	0.19191581
204	0xbe57be13	-0.21068601
205	0x3e28673b	0.1644563
206	0xbe494138	-0.19653785
207	0x3d75f275	0.06004568
208	0x3e6121ef	0.21985601
209	0x3d555ce4	0.05209054
210	0xbe79ed83	-0.2440701
211	0xbe9bc539	-0.30423906
212	0x3e6a4113	0.22876386
213	0x3e85c428	0.26126218
214	0xbdf16774	-0.1178731
215	0x3d2e0f71	0.042495195
216	0x3e20d9dd	0.15708108
217	0xbe7b2f09	-0.24529661
218	0x3daa6caa	0.08321507
219	0xbe62565c	-0.22103256
220	0xbe7c400f	-0.24633811
221	0x3de4ae2d	0.11166034
222	0x3eaf5c0e	0.3424992
223	0x3e15474b	0.14577977
224	0xbd9338a9	-0.071885414
225	0x3e7593bb	0.23982136
226	0xbc017366	-0.007901048
227	0x3dff89e4	0.124774724
228	0xbd0e0338	-0.03467104
229	0xbe03dc07	-0.12876903
230	0xbeb1080f	-0.3457646
231	0x3e7da3d0	0.24769521
232	0xbd5acd6f	-0.053418573
233	0xbe1ce0f3	-0.15320186
234	0x3d69a967	0.05704632
235	0xbbf22040	-0.0073890984
236	0xbdbcd016	-0.09219377
237	0x3e102d2c	0.14079732
238	0x3e6b8bc7	0.2300254
239	0xbe9ea695	-0.30986467
240	0x3dab3c2f	0.083610885
241	0xbe0fab6f	-0.1403024
242	0xbd8be6ea	-0.06831153
243	0x3e242bac	0.16032284
244	0xbe463ede	-0.1935992
245	0xbe88213e	-0.26587862
246	0xbd962fd8	-0.07333344
247	0x3e0a066e	0.13479015
248	0xbe94943f	-0.29019353
249	0x3cdab393	0.026696956
250	0xbe0f0074	-0.13965017
251	0xbdfed3ba	-0.124427274
252	0x3e21c464	0.15797573
253	0x3e91afc9	0.28454426
254	0xbe80b3a2	-0.2513705
255	0xbdbeec2a	-0.093223885

l2.weight f4 [300, 400]
0	0x3d17b849	0.037040982
1	0xbc82ab86	-0.01595093
2	0x3d415b7f	0.047206398
3	0xb9a65900	-0.00031728297
4	0xbcad68d0	-0.021168143
5	0xbd3cd662	-0.04610289
6	0xbcdb708a	-0.026787061
7	0xbd450d75	-0.048108537
8	0xbd127df8	-0.035764664
9	0xbd17b338	-0.03703615
10	0x3c10e294	0.008843083
11	0x3a1d9600	0.00060114264
12	0x39b04e80	0.00033627823
13	0x3ba5d640	0.005060941
14	0x3cd57a22	0.026059214
15	0x3c977d46	0.018492352
16	0x3d252b33	0.0403244
17	0xbc8507fa	-0.016239155
18	0x3d4329f7	0.047647443
19	0x3c776b14	0.015101213
20	0xbc4eab48	-0.012614079
21	0xbd447b42	-0.04796911
22	0xbc5d8f94	-0.013523001
23	0xbbae75e8	-0.005324114
24	0x3cd25946	0.025677335
25	0xbc0eba94	-0.008711476
26	0xbd494ac5	-0.04914357
27	0x3c920cae	0.017828312
28	0xbd15f982	-0.036614902
29	0xbd3b2c1a	-0.045696355
30	0x3cd6d302	0.026223663
31	0x3c7f96e4	0.01559994
32	0x3ce3ee1e	0.027823504
33	0x3d2c310d	0.042038966
34	0xbd42a257	-0.0475181
35	0xbbf805b0	-0.0075690374
36	0x3ce66c36	0.02812777
37	0x3c26d354	0.0101822205
38	0xbd4afa20	-0.049554944
39	0x3d288241	0.041139845
40	0x3c1194c0	0.008885562
41	0x3c045768	0.00807748
42	0xbc8d0ac4	-0.017217048
43	0xbcb84a97	-0.022496505
44	0x3bd5cda8	0.0065247603
45	0xbd30ec05	-0.043193836
46	0xbcb07807	-0.021541608
47	0xbc2c0938	-0.010500245
48	0xbc01d480	-0.007924199
49	0xbd3e6deb	-0.046491545
50	0x3cd6aa86	0.026204359
51	0xbc656f74	-0.014003623
52	0xbceff3e3	-0.029291099
53	0x3cf64032	0.030059908
54	0x3d0ae83b	0.03391288
55	0xbcaad93d	-0.02085554
56	0xbd40e203	-0.04709054
57	0xbd057dd8	-0.032590717
58	0x3d1828ef	0.037148412
59	0xbbbf1a28	-0.0058319755
60	0x3d275141	0.040848974
61	0xbd04b6dd	-0.032400955
62	0xbd27d326	-0.04097285
63	0xbada1060	-0.001663696
64	0xbd158b7e	-0.036509983
65	0xbd17c9a6	-0.03705754
66	0xbbc5f1d0	-0.006040789
67	0xbc2d1a20	-0.010565311
68	0xbcb97f17	-0.022643609
69	0x3d42ab47	0.047526624
70	0x3cd4443a	0.02591144
71	0x3c3ea94c	0.011637043
72	0xbc4b33b8	-0.012402467
73	0xbca88060	-0.020569026
74	0x3d1f4741	0.038886312
75	0x3c5116cc	0.012761783
76	0xbcd42a37	-0.025899036
77	0x3cc4e262	0.024033729
78	0x3d049eeb	0.03237812
79	0x3d00c5f5	0.031438787
80	0xb97f5a00	-0.00024352223
81	0xbd1654c2	-0.036701925
82	0x3d447239	0.047960494
83	0x3d4352e9	0.04768649
84	0xbc974454	-0.018465199
85	0xbd2063b8	-0.0391576
86	0xbcb9fbaa	-0.02270301
87	0x3d365919	0.044518564
88	0x3bd34358	0.006447237
89	0x3ca7b9be	0.020474311
90	0xbb084820	-0.0020794943
91	0x3c9e1ea2	0.019301716
92	0xbd429e7f	-0.047514435
93	0xbcf06cb0	-0.029348701
94	0xbcc4414d	-0.02395692
95	0x3c0b9dcc	0.008521508
96	0xbd41e19d	-0.047334302
97	0x3d094a85	0.033518333
98	0xbcc2de4d	-0.023787642
99	0xbcadbc40	-0.021207929
100	0xbcf6b0c7	-0.03011359
101	0xbcdb4e87	-0.026770843
102	0xbc481640	-0.012212336
103	0x3d11dd05	0.03561117
104	0x3c9cacba	0.019125331
105	0x3cde4c12	0.027135883
106	0xbc8e628a	-0.017380971
107	0xbc4b7898	-0.0124188885
108	0xbcd79d8a	-0.026320238
109	0xbc939074	-0.018013217
110	0xbd2b26a3	-0.041784894
111	0xbd1edfe3	-0.038787734
112	0x3d02638f	0.031833228
113	0xbcdeb8c3	-0.02718771
114	0xbd4c5b88	-0.04989198
115	0xbcad127a	-0.021126974
116	0x3cd34246	0.025788438
117	0xbc78abb4	-0.015177656
118	0xbcf00f6d	-0.02930423
119	0xbbd4a9b0	-0.006489955
120	0x3c6d7c64	0.014494989
121	0x3cb1b622	0.021693293
122	0x3d329e35	0.04360791
123	0xbb049050	-0.0020227619
124	0x3d15c795	0.03656729
125	0x3cd5fe3e	0.026122209
126	0xbd17d7a6	-0.037070893
127	0x3c206ab8	0.009791069
128	0xbd380d38	-0.04493448
129	0xbc9649c6	-0.018345725
130	0x3b8d5640	0.0043132603
131	0x3cf21d82	0.029555086
132	0xbd449ff5	-0.04800411
133	0x3d2d68e3	0.042336356
134	0xbb99f018	-0.004697811
135	0xbc5b040c	-0.013367664
136	0x3a70e980	0.00091900676
137	0x3d00e4a5	0.031468052
138	0xbc829bda	-0.015943456
139	0x3cb6d9de	0.022320684
140	0xbc6d1578	-0.014470451
141	0xbd3a8dcb	-0.04554538
142	0x3be5c9f0	0.007012598
143	0xbd0c0b06	-0.0341902
144	0xbd0ef783	-0.034904014
145	0xbc2b5af4	-0.010458697
146	0x3d41e8a5	0.047341008
147	0xbd358c1a	-0.044323064
148	0xbcf22bca	-0.029561896
149	0x3c797674	0.015225995
150	0x3d3090a7	0.0431067
151	0xbcc0f90d	-0.023556257
152	0x3cba6bf2	0.02275655
153	0xbd42e108	-0.047577888
154	0xba966300	-0.0011473596
155	0xbcab04cd	-0.020876313
156	0xbc1112c8	-0.008854575
157	0x3c834632	0.016024683
158	0x3bf8ca30	0.007592462
159	0x3d3e4c01	0.0464592
160	0x3d4ab091	0.049484793
161	0x3d4433c3	0.047900926
162	0xbd479a4a	-0.048731126
163	0x3ce6ec26	0.028188776
164	0x3d09fbab	0.033687275
165	0x3bb37650	0.0054767504
166	0x3c9b16da	0.018931795
167	0xbd44bf5f	-0.04803407
168	0x3c1acf58	0.009448849
169	0x3c4dee7c	0.012569066
170	0xbd2c9953	-0.04213841
171	0xbd0f76a3	-0.03502525
172	0x3d0a12a1	0.033709172
173	0x3d04c58d	0.03241496
174	0xbc7f95e0	-0.015599698
175	0xbcb47b3d	-0.02203142
176	0xbbdbfc70	-0.0067134425
177	0xbb900030	-0.0043945536
178	0xbcc89480	-0.024484873
179	0xbcfb374d	-0.030666018
180	0x3c44ab00	0.01200366
181	0x3bb839c0	0.0056221187
182	0x3c905b3a	0.017621625
183	0x3c260c54	0.010134775
184	0xbd38b52f	-0.045094665
185	0x3cb269ce	0.021778967
186	0xbb9cbe28	-0.0047834106
187	0xbc4c8120	-0.012481958
188	0x3c8fac96	0.01753835
189	0x3d06a2df	0.03287017
190	0xbc80441c	-0.015657477
191	0xbd0c897d	-0.034310807
192	0xbce5f35a	-0.02807014
193	0x3c9edf16	0.019393485
194	0xbd2813d5	-0.04103454
195	0x3b97cef0	0.004632823
196	0xbcb6d670	-0.022319049
197	0xbcb4367d	-0.021998638
198	0x3d10af71	0.035323564
199	0x3aaad9c0	0.0013034865
200	0x3891b600	6.948039e-05
201	0x3c98657e	0.018603083
202	0x3ccf1692	0.025279317
203	0x3cb0a102	0.02156115
204	0x3cf97356	0.030450504
205	0x3c90abee	0.017660107
206	0x3d06c879	0.03290603
207	0x3d2ed391	0.042682234
208	0x3d19d31b	0.03755484
209	0x3c8a6352	0.016893063
210	0xbd38c22b	-0.045107048
211	0x3d0051ed	0.03132813
212	0x3b9a7230	0.0047133192
213	0x3d2b336d	0.04179709
214	0xbba60fc0	-0.0050677955
215	0xbc272f34	-0.010204125
216	0x3d0a693f	0.033791777
217	0x3c95ce32	0.018286798
218	0xbc8441cc	-0.016144656
219	0x3bab9f40	0.00523749
220	0x3cb81efe	0.022475716
221	0xbd391977	-0.0451903
222	0xbd32c99a	-0.043649293
223	0xbcfdabe3	-0.030965751
224	0xbbbafa90	-0.005706139
225	0x3d140da1	0.03614581
226	0xbc417fe8	-0.01181028
227	0xbb5b1d30	-0.0033434145
228	0xbc3f6158	-0.011680923
229	0xbc5c0388	-0.013428576
230	0xbd343c38	-0.04400274
231	0xbd09f5c8	-0.03368166
232	0xbcb5451a	-0.022127677
233	0xbd14dab8	-0.0363414
234	0x3cb28626	0.021792483
235	0x3d272999	0.040811155
236	0xbcd23aca	-0.025662798
237	0xbd3fa44b	-0.04678754
238	0xbba81718	-0.005129706
239	0x3c9afc42	0.018919114
240	0x3c0bfc60	0.008544058
241	0x3d0f8e39	0.035047743
242	0xbbbdb790	-0.0057897046
243	0xbc6a5f58	-0.014304958
244	0x3d0d8231	0.03454799
245	0x3d0e3227	0.034715798
246	0xbd1e128e	-0.038591914
247	0x3d08d6c9	0.03340796
248	0xbc3a29f4	-0.0113625415
249	0x3aa3e7c0	0.001250498
250	0x3cdb63ee	0.026781049
251	0x3b7d0980	0.0038610399
252	0xbd385692	-0.045004435
253	0xbce69dbd	-0.028151387
254	0x3c542064	0.012947176
255	0x3d3c8713	0.046027254

l2.bias f4 [300]
0	0xbd108bc6	-0.03528955
1	0xbc049b3e	-0.008093653
2	0x3c81bc8c	0.015836976
3	0x3cbaaa55	0.022786299
4	0xbcb6c637	-0.022311313
5	0x3d171e0e	0.036893897
6	0xbd05ff7c	-0.032714352
7	0xbd1e8bd2	-0.03870756
8	0xbc087ad3	-0.008330065
9	0xbcd988cd	-0.02655449
10	0xbd62ff25	-0.055419106
11	0x3c9d0323	0.019166535
12	0x3d1f9e00	0.03896904
13	0x3cd40104	0.02587939
14	0xbd464718	-0.048407644
15	0xbd092cf2	-0.03349013
16	0x3d45b013	0.04826362
17	0x3d01bcce	0.0316742
18	0xbcca2b53	-0.024678862
19	0xbc9ac4d4	-0.018892683
20	0x3d1bf195	0.038072187
21	0x3cb3f650	0.021968037
22	0x3ca82228	0.0205241
23	0xbd69d767	-0.05709019
24	0x3b2268d2	0.0024781716
25	0xbbd1dfe0	-0.006404862
26	0xbcd17a7a	-0.025571097
27	0x3c366b36	0.0111339595
28	0x3c5f3203	0.013622764
29	0xba81d9d1	-0.0009906833
30	0xbd1af942	-0.037835367
31	0x3b44dc0f	0.0030038392
32	0x3bcc4661	0.0062339758
33	0xbc28484e	-0.010271145
34	0x3cece9c2	0.028920058
35	0x3cdc8cc2	0.026922587
36	0xbd2b9558	-0.041890472
37	0xbc8f2d46	-0.017477643
38	0x3d9e8b20	0.0774138
39	0x3d9f9323	0.07791736
40	0x3c14ae9a	0.009074831
41	0xbd1cd873	-0.03829236
42	0xbcb34493	-0.021883285
43	0x3c18f9b4	0.009336878
44	0xbd4a1405	-0.0493355
45	0xbd899704	-0.06718257
46	0xbc8715b5	-0.016489843
47	0x3dbb906f	0.09158408
48	0x3cde9dd1	0.027174862
49	0xbc086a7c	-0.008326169
50	0x3cbc5096	0.022987645
51	0x3b0a41a6	0.0021096258
52	0x3c1f8c83	0.00973809
53	0x3cf2c3c3	0.029634362
54	0xbd55701e	-0.052108876
55	0x3c134618	0.00898888
56	0xbd08ff73	-0.03344674
57	0xbc84bc38	-0.016203031
58	0xbd385d35	-0.045010764
59	0xbccc2010	-0.024917632
60	0xbd32a6b6	-0.04361602
61	0xbcdfd43a	-0.027322877
62	0xbcbfb982	-0.023403887
63	0xbcd07820	-0.025447905
64	0xbc7aef1c	-0.015315797
65	0x3ce719e3	0.028210586
66	0xbd21d1b6	-0.039506637
67	0xbccf101c	-0.025276236
68	0xbcf678ff	-0.030086992
69	0x3d09954f	0.033589657
70	0xbd0b33b4	-0.033984855
71	0xbd16bb85	-0.036799926
72	0x3c8457f9	0.01615523
73	0xbc2d0fd4	-0.010562856
74	0x3d38fe95	0.045164663
75	0x3d0dc426	0.03461089
76	0xbcc474ca	-0.02398147
77	0x3c30cf2f	0.010791584
78	0x3cee4cbf	0.02908933
79	0xbd4e81d8	-0.050416797
80	0x3c96b581	0.018397095
81	0xbcaadb1d	-0.020856434
82	0xbd2e650a	-0.042576827
83	0xbd76b7ef	-0.060234006
84	0xbd59d866	-0.05318489
85	0xbcee5df0	-0.029097527
86	0x3d2c7ead	0.042112995
87	0xbccc4d0b	-0.02493908
88	0xbaf4b427	-0.0018669412
89	0xbc9948e0	-0.018711507
90	0xbc506d8c	-0.0127214305
91	0x3c6be77b	0.014398451
92	0x3d6fb591	0.058522765
93	0xb979fcc8	-0.00023840659
94	0xbd408ea4	-0.047011033
95	0xbd757845	-0.05992915
96	0xbcb4eb91	-0.022084983
97	0x3d03e041	0.032196287
98	0x3a8ede63	0.0010900017
99	0xbd39e1f6	-0.04538151
100	0xbc3e73cc	-0.011624288
101	0x3d8cc24d	0.068729974
102	0x3cc4a966	0.024006557
103	0xbcf05fc2	-0.029342536
104	0x3d1d07af	0.038337406
105	0x3caf1202	0.021370891
106	0xbba35e21	-0.0049855863
107	0xbcd5bbe3	-0.026090568
108	0xbd67a94a	-0.05655793
109	0xbd5a2dcd	-0.053266335
110	0x3b9a2cd8	0.004705053
111	0xbd1535a4	-0.03642811
112	0xbd2d1775	-0.0422587
113	0x3cd333f2	0.025781605
114	0x3c9fcd76	0.019507151
115	0xbcf96edc	-0.03044837
116	0x3d4a73c5	0.049426813
117	0x3ced537f	0.028970478
118	0xbcf16a55	-0.029469648
119	0x3dac5a7d	0.08415697
120	0x3ceae632	0.028674219
121	0xb8f51503	-0.00011686424
122	0x3cd04440	0.02542317
123	0xbd3a50b1	-0.04548711
124	0xbd311831	-0.04323596
125	0xbbc4de30	-0.006007932
126	0xbdb23701	-0.087018974
127	0xbc1c31ce	-0.009533359
128	0x3c5eb18d	0.013592136
129	0x3b296936	0.0025850064
130	0xbd588eaa	-0.05287043
131	0x3c9055fd	0.017619127
132	0xbd732995	-0.059365828
133	0x3ca793b3	0.02045617
134	0xbc0d6687	-0.008630401
135	0x3dc38a68	0.09547883
136	0xbd05bf43	-0.032653105
137	0xbd2f38ec	-0.042778894
138	0x3c9a57cf	0.018840699
139	0xbc83b2e2	-0.016076509
140	0xbcc29629	-0.023753243
141	0x3cecf197	0.028923793
142	0xbc70628b	-0.014671932
143	0xbd84b5ee	-0.06480013
144	0xbc0460a4	-0.008079682
145	0x3d022e45	0.031782407
146	0xbd581f44	-0.052764192
147	0x3cd24aa6	0.02567036
148	0x3c63fc03	0.013915065
149	0xbd0d49b1	-0.034494106
150	0xbc625e0a	-0.013816366
151	0x3d33a5a2	0.04385913
152	0x3d969c45	0.07354025
153	0xbd4e05b3	-0.050298404
154	0x3c416a08	0.011805065
155	0x3d3a1a57	0.045435276
156	0xbd02ada8	-0.031903893
157	0xbcc41934	-0.023937799
158	0x3cb6027b	0.02221798
159	0x3ac7dfde	0.0015249213
160	0x3d189cbe	0.037258856
161	0x3de9da5f	0.11418604
162	0xbcf43295	-0.029809276
163	0xbcd19d52	-0.025587711
164	0x3dda7980	0.106677055
165	0x3ba3ae8f	0.0049951742
166	0x3d3b7083	0.045761596
167	0x3cfdac3b	0.030965915
168	0xbb6c89d0	-0.0036092885
169	0x3c9ff7a6	0.019527268
170	0x3d348a96	0.04407748
171	0xbd1c2caf	-0.03812855
172	0xbc59b467	-0.01328764
173	0xbc1283a2	-0.0089425165
174	0xbd1347f6	-0.0359573
175	0xbcc6dd41	-0.024275424
176	0xbbce20c7	-0.0062905285
177	0xbd1d6274	-0.03842397
178	0x3d48cd9c	0.04902421
179	0x3d3bdf77	0.04586741
180	0xbd85bb0c	-0.06529817
181	0x3cc9b94c	0.02462449
182	0xbc81a2f6	-0.015824776
183	0xbd3e682e	-0.046486072
184	0xbd387c5b	-0.04504047
185	0x3ccb8ca6	0.02484734
186	0x3d16df6e	0.036834173
187	0xbd5a8c85	-0.053356666
188	0x3bd92f99	0.0066279885
189	0x3c6ce5d7	0.014459095
190	0x3d3132b6	0.043261252
191	0x3c9dab34	0.019246675
192	0x3b671000	0.003525734
193	0xbc6d58b8	-0.014486484
194	0x3cdd23ba	0.026994575
195	0xb9910bd0	-0.00027665356
196	0x3d7b12e6	0.06129732
197	0x3a377185	0.0006997812
198	0xbbc47099	-0.005994868
199	0xbc9ed4bb	-0.019388547
200	0xbd3b435c	-0.045718536
201	0xbc9ceffe	-0.019157406
202	0x3d914dea	0.07094939
203	0x3c6616c4	0.014043514
204	0x3b094052	0.002094288
205	0xbd3216d3	-0.043478798
206	0xbd5c46ae	-0.053778343
207	0xbd2cf2a2	-0.04222358
208	0xbd160421	-0.03662503
209	0x3d2ca70d	0.0421515
210	0x3d161ee7	0.036650565
211	0x3ce4dc38	0.02793704
212	0x3d0cec22	0.03440488
213	0xbb32be04	-0.0027273903
214	0x3d7c93e1	0.061664466
215	0x3bc1314a	0.0058957683
216	0xbd0b3ada	-0.033991672
217	0xbd04a922	-0.03238786
218	0xbd7523fc	-0.05984877
219	0x3c0126af	0.007882758
220	0xbd651f50	-0.055938065
221	0xbbee3576	-0.0072695566
222	0xbc40dc4b	-0.011771272
223	0x3d043025	0.032272477
224	0xbd43c9db	-0.047799926
225	0x3ca18f4a	0.019721646
226	0xbd462ad5	-0.04838069
227	0x3cfa9652	0.030589256
228	0xbd6b5222	-0.057451375
229	0x3a542c7a	0.0008093786
230	0xbd228fc2	-0.03968788
231	0x3b2f0fea	0.0026712366
232	0xbd6bf39a	-0.057605363
233	0x3c0ffc09	0.008788117
234	0x3c78870c	0.015168916
235	0x3871c000	5.763769e-05
236	0x3986a000	0.0002567768
237	0xbc268973	-0.010164606
238	0x3d165515	0.036702234
239	0x3d38abf3	0.04508586
240	0xbd2adb4e	-0.04171305
241	0x3d543066	0.05180397
242	0xbd0c1065	-0.034195323
243	0x3ce549e7	0.027989341
244	0xbd20d752	-0.039267845
245	0x3d6fdc52	0.058559723
246	0x3dd213d0	0.10257685
247	0x3cb66e14	0.022269286
248	0xbd90605b	-0.07049628
249	0x3d10b0cd	0.03532486
250	0xbd2fd9a9	-0.042932186
251	0xbd299823	-0.041404855
252	0xbd311b64	-0.043239012
253	0x3d4574de	0.048207156
254	0x3d07e4ab	0.03317706
255	0x3cfd9879	0.030956494

l3.weight f4 [6, 300]
0	0xbb8be738	-0.004269507
1	0xbd017e0c	-0.03161435
2	0xbcabc511	-0.020967992
3	0xbd36fc1d	-0.044674028
4	0xbd0ab206	-0.033861183
5	0xbbf72eaa	-0.0075434046
6	0xbd5d2c3a	-0.053997256
7	0xbcf6bcdc	-0.030119352
8	0x3d6f7695	0.058462698
9	0x3d8ba342	0.06818248
10	0x3d8d5866	0.06901626
11	0x3d0189d8	0.0316256
12	0x3d81b043	0.063324474
13	0xbd508387	-0.050906684
14	0x3d693802	0.05693818
15	0x3cab3770	0.020900458
16	0xbd47bf84	-0.048766628
17	0xbb66c68a	-0.0035213553
18	0x3ca688e8	0.020328954
19	0xbaa5fddb	-0.0012664156
20	0xbd22abf6	-0.039714776
21	0x3d12f98c	0.035882518
22	0x3cbcd8b0	0.023052543
23	0x3d108a33	0.035288047
24	0xbd095126	-0.033524655
25	0xbd105c6a	-0.035244383
26	0x3cbad19f	0.022805033
27	0x3c83318e	0.01601484
28	0xbc0b383e	-0.008497296
29	0xbd259c44	-0.04043223
30	0xbc17a0ab	-0.009254615
31	0x3d226a83	0.03965236
32	0xbc0070e8	-0.007839419
33	0x3d4a1ac6	0.04934194
34	0x3caf1c18	0.0213757
35	0x3d569690	0.05238968
36	0x3d2d4c22	0.042308934
37	0xbb7749b1	-0.0037733132
38	0xbccbf388	-0.024896398
39	0x3cc88a51	0.024480017
40	0xbb0c8e95	-0.002144729
41	0xbca195fa	-0.019724835
42	0x3cb15fbb	0.021652093
43	0xbd556e5f	-0.05210721
44	0xbd46670e	-0.048438124
45	0x3d03ee4e	0.032209687
46	0xbc188ec0	-0.009311378
47	0xbcbbd654	-0.022929348
48	0xbd061d04	-0.032742515
49	0x3da2381a	0.07920857
50	0x3d0e338e	0.034717135
51	0xbd091a2c	-0.033472225
52	0xbc9f6d65	-0.019461343
53	0x3d0d34a6	0.034474038
54	0x3c95da44	0.018292554
55	0xbc797d7c	-0.015227672
56	0xbc0a240c	-0.008431446
57	0x3c86f49e	0.016474064
58	0xbbc12e28	-0.005895395
59	0xbc87f233	-0.016594982
60	0xbcaec3da	-0.021333624
61	0x3b722990	0.0036951043
62	0x3c4cad6f	0.012492522
63	0xbce854a5	-0.028360674
64	0xbd256d36	-0.040387355
65	0x3cf5687a	0.029957045
66	0x3d505f14	0.050871924
67	0x3c3496a8	0.011022247
68	0xbd27ec73	-0.04099698
69	0x3cbb46b0	0.022860855
70	0x3cfe65c9	0.031054394
71	0x3cf97c84	0.030454881
72	0x3d0166b4	0.031592086
73	0xbd2d8f09	-0.042372737
74	0x3d41fca8	0.047360092
75	0xbd358aa3	-0.044321667
76	0xbcff983d	-0.031200523
77	0x3baa97df	0.0052060927
78	0x3bbff990	0.0058586076
79	0x3cd61850	0.02613464
80	0xbb1d81a7	-0.0024033578
81	0x3bdda090	0.0067635253
82	0x3d134fc2	0.035964735
83	0x3d60600c	0.054779097
84	0xbc72703c	-0.014797267
85	0xbd088142	-0.033326395
86	0xbd07671d	-0.03305732
87	0x3c815797	0.015788836
88	0x3c9b80f7	0.018982394
89	0x3c8c813b	0.017151466
90	0xbcf6de5d	-0.030135328
91	0x3d6f7a4c	0.05846624
92	0x3c4d1a5a	0.01251849
93	0xbc17ec32	-0.009272622
94	0xbbc39b40	-0.005969435
95	0xbd11dce8	-0.035611063
96	0xbcc503b8	-0.024049625
97	0x3d8e0bdc	0.06935856
98	0x3d61272f	0.05496901
99	0x3d4565e2	0.048192866
100	0x3cc68ba0	0.0242365
101	0xbc86d57b	-0.016459217
102	0x3c9d6500	0.0192132
103	0x3d1b4daf	0.03791588
104	0x3cfd50a4	0.030922242
105	0xbd392113	-0.045197558
106	0xbbe8c204	-0.0071032066
107	0x3cd3126a	0.025765616
108	0xbc3b9533	-0.011449146
109	0xbc1ec6eb	-0.00969098
110	0xbce4f7a5	-0.027950117
111	0x3d1bc3a4	0.038028374
112	0x3d3c6bea	0.046001352
113	0x3b9ca435	0.004780317
114	0xbcf700cd	-0.030151749
115	0x3d32f718	0.04369268
116	0x3d117376	0.035510503
117	0x3bdbeff7	0.0067119556
118	0xbd35e736	-0.044409953
119	0xbd16f268	-0.03685227
120	0x3a29f000	0.0006482601
121	0x3b165bde	0.002294294
122	0xbd2521d2	-0.040315457
123	0x3ce03b45	0.027372012
124	0xbd0ffd10	-0.03515345
125	0xbb52a3f0	-0.0032141171
126	0x3aecddf1	0.0018071515
127	0xbd4020d7	-0.04690632
128	0x3d32c414	0.043644026
129	0xbd489532	-0.04897041
130	0x3cd689f0	0.02618882
131	0x3b652020	0.0034961775
132	0x3d028f26	0.0318748
133	0x3c124960	0.008928627
134	0x3cceb114	0.025230922
135	0xbc0d2d17	-0.008616707
136	0x3d15b31b	0.03654776
137	0x3cc95a8d	0.02457931
138	0x3d679859	0.056541774
139	0xbcb2a5f2	-0.021807645
140	0xbd528282	-0.051393993
141	0xbcd16e81	-0.025565388
142	0x3bbf6af6	0.005841608
143	0x3d31d72e	0.043418102
144	0x3d3a353a	0.045460917
145	0xba196701	-0.00058518356
146	0xbcd9560d	-0.02653029
147	0xbd45f5cc	-0.048330113
148	0x3d5ad927	0.05342975
149	0xba483755	-0.00076376396
150	0xbd357be0	-0.04430759
151	0x3d603400	0.05473709
152	0x3d88c0a6	0.0667737
153	0x3c095172	0.0083812345
154	0x3c888390	0.016664296
155	0x3cdec84c	0.027195118
156	0x3d2ac7d0	0.041694462
157	0xbd23a04e	-0.0399478
158	0xbd4a5113	-0.049393725
159	0x3d6dcd52	0.058057137
160	0xbc46cf9c	-0.012134459
161	0xbd3a8fff	-0.04554748
162	0x3bd2b367	0.006430078
163	0x3cb33460	0.02187556
164	0xbc9b4bb6	-0.018957
165	0xbd233687	-0.039846923
166	0xbcbae924	-0.022816248
167	0xbd0a5fea	-0.033782877
168	0xbd11e6e9	-0.035620604
169	0xbc62cc2e	-0.013842626
170	0x3ca80f59	0.02051513
171	0xbd04f799	-0.03246269
172	0xbac10657	-0.0014726621
173	0x3d50c3f1	0.050968114
174	0xbd28e663	-0.04123534
175	0xbd518e64	-0.051161185
176	0x3d82bffc	0.06384274
177	0x3cd6faf3	0.026242709
178	0x3c8536b6	0.01626144
179	0xbd1f01ea	-0.038820185
180	0x3d0a9e92	0.03384263
181	0x3cc48e6c	0.023993693
182	0x3cc6b874	0.024257876
183	0x3cf00183	0.029297596
184	0x3b44d6b0	0.003003519
185	0xbc694374	-0.0142372735
186	0x3cfff03e	0.031242486
187	0xbccaea03	-0.024769789
188	0xbd186617	-0.037206735
189	0xbb77e74f	-0.003782708
190	0xbc88ca0e	-0.01669791
191	0xbd2c6ec7	-0.042097833
192	0x3d56e94a	0.052468576
193	0x3d6a1210	0.057146132
194	0xbc6fb43f	-0.014630376
195	0x3d6eb9a3	0.058282506
196	0x3d7cdbae	0.06173294
197	0x3d6327ca	0.055457868
198	0xbd573ac2	-0.05254627
199	0x3c97e674	0.018542506
200	0xbcb5ccec	-0.02219244
201	0x3ccb4350	0.02481237
202	0xbb1e8dc8	-0.0024193395
203	0x3c697de0	0.014251202
204	0xbd3de227	-0.046358254
205	0xbd52df47	-0.051482465
206	0xbcabf4fb	-0.02099084
207	0xbc844318	-0.016145274
208	0xbb6f0c66	-0.0036475896
209	0x3cfbdfca	0.03074636
210	0x3bf17174	0.007368261
211	0x3affe278	0.0019522449
212	0xbd3f16cf	-0.04665261
213	0xbcb52983	-0.02211452
214	0x3c9953e7	0.018716766
215	0xbca1dd7f	-0.019758938
216	0xbc3546e7	-0.011064268
217	0xbca1f820	-0.019771636
218	0x3ca51afc	0.020154469
219	0x3d2607d2	0.0405348
220	0x3bb10f10	0.005403407
221	0xbd426cd6	-0.047467075
222	0xbcc10f64	-0.02356691
223	0x3bb3ce60	0.0054872483
224	0xbc04ac28	-0.008097686
225	0xbc83ba22	-0.016079966
226	0x3b903c15	0.0044016936
227	0xbced18b8	-0.02894245
228	0xbd46368e	-0.04839187
229	0x3b8d10e5	0.0043049925
230	0x3b25f220	0.002532132
231	0xbd58ece0	-0.052960277
232	0xbcb106ce	-0.02160969
233	0xbd532863	-0.051552188
234	0xbc34b1f8	-0.011028759
235	0x3c30a568	0.010781623
236	0xbc7bc1d8	-0.01536604
237	0x3c39301f	0.011302977
238	0xbcb3fbac	-0.021970592
239	0x3ac745c9	0.0015203293
240	0xbcb85187	-0.022499813
241	0x3d51f721	0.05126107
242	0x3c92d88f	0.017925529
243	0xbd447d0c	-0.047970816
244	0xbd2fddb4	-0.042936042
245	0x3bb6712c	0.0055676904
246	0x3da87bc1	0.08226729
247	0xbd455ac8	-0.04818228
248	0xbcd143a0	-0.025544941
249	0xbd31263e	-0.04324936
250	0x3d686661	0.05673826
251	0x3ce880c8	0.02838172
252	0xbbc51270	-0.006014161
253	0xbce5963a	-0.028025735
254	0x3cf0f4cc	0.029413603
255	0xbd16c2d5	-0.0368069

l3.bias f4 [6]
0	0xbd0fe49f	-0.03513014
1	0xbbfb39fb	-0.007666824
2	0xbcaec83a	-0.02133571
3	0x3c196565	0.009362553
4	0x3d536d5f	0.051617976
5	0xbccd4dc2	-0.025061492
