results/runs/single_assembly_smallaction/Average_TD3_5_Peg-in-hole-single_assembly_seed_4/6000_actor.pth (torch_old, 510312 bytes, 6 tensors)

l1.weight f4 [400, 12]
0	0xbe64e3d0	-0.22352529
1	0x3de0e8c9	0.109819
2	0xbdb184c3	-0.086679004
3	0x3e1d215c	0.15344757
4	0xbef10e91	-0.47081426
5	0x3dfd0001	0.12353516
6	0x3ee6f33c	0.45107448
7	0x3eaeeb2b	0.34163794
8	0x3d4ff8b8	0.050774306
9	0x3e1a3c19	0.15061988
10	0xbece5bd9	-0.4030445
11	0xbea3c1e4	-0.31983864
12	0x3ecb5af9	0.39717844
13	0x3ed8bd49	0.42331913
14	0x3d8c0090	0.06836045
15	0xbe1de161	-0.15418006
16	0x3eb2ff47	0.34960386
17	0xbf009291	-0.5022364
18	0xbe97859f	-0.29594132
19	0xbeb4cb6c	-0.3531145
20	0x3d6af489	0.057362113
21	0xbcdd9b13	-0.027051484
22	0x3e86c94c	0.26325452
23	0xbc3f2ebc	-0.011668857
24	0x3ead4212	0.3383947
25	0xbc40b66a	-0.011762241
26	0x3e0b91d9	0.13629855
27	0x3dad8624	0.08472851
28	0x3e931ed7	0.28734466
29	0xbcd0e0a4	-0.025497742
30	0x3ebde75f	0.37090585
31	0x3e8d54d8	0.27603793
32	0xbcc3c50f	-0.023897676
33	0x3e4b77f8	0.19869983
34	0xbc8d938f	-0.017282275
35	0xbedcca38	-0.4312303
36	0xbde69a08	-0.11259848
37	0x3e4a391a	0.19748345
38	0x3e6e59bc	0.23276418
39	0x3d9bf578	0.07615179
40	0x3db58cd8	0.088647544
41	0x3e5af19c	0.21381229
42	0x3e8187d6	0.25298947
43	0xbe3af4a8	-0.18257391
44	0xbdf32f44	-0.118742496
45	0x3e78e384	0.2430554
46	0x3e1fa94c	0.15591925
47	0xbe0ab328	-0.13544905
48	0xbeb3e151	-0.3513284
49	0x3f05d068	0.5227113
50	0xbd94d8bc	-0.07267901
51	0x3ea3df84	0.32006466
52	0x3df697f2	0.120407
53	0xbc9d85f8	-0.01922892
54	0xbe8aebba	-0.2713297
55	0x3d1e4e34	0.0386488
56	0x3d7c7563	0.061635386
57	0x3e870e1c	0.26377952
58	0xbe4f6ec9	-0.20257105
59	0x3e099283	0.13434796
60	0xbedbd335	-0.42934576
61	0x3ebe7315	0.37197176
62	0xbe2c7513	-0.16841535
63	0x3ebaaa6c	0.36458147
64	0xbd124e13	-0.03571899
65	0x3eeb24c2	0.4592648
66	0x3eac8d3c	0.33701503
67	0xbe5ee981	-0.21768762
68	0xbd266b1b	-0.040629487
69	0xbdf73b8c	-0.120719045
70	0xbeb161fa	-0.34645063
71	0xbef8d4f1	-0.4859996
72	0xbe8eb4c9	-0.27872303
73	0x3ddad5c5	0.106853046
74	0xbc55f2f6	-0.013058415
75	0x3e6fead2	0.2342942
76	0x3e818c52	0.25302368
77	0x3eb50030	0.35351706
78	0xbda57f59	-0.0808093
79	0xbec63a79	-0.38716486
80	0xbc36a175	-0.011146893
81	0x3de0f2e0	0.10983825
82	0xbd4a2d8c	-0.049359843
83	0xbef2eceb	-0.4744638
84	0x3d4eb13b	0.05046199
85	0x3e0cee56	0.13762793
86	0x3e6a8ab5	0.22904475
87	0xbd505e09	-0.05087093
88	0xbe666d03	-0.22502522
89	0xbf034c49	-0.51288277
90	0xbe2ea630	-0.17055583
91	0x3dc51abe	0.09624241
92	0x3e421f32	0.18957213
93	0x3ed06c9a	0.40707856
94	0x3f3d58be	0.73963535
95	0x3e409611	0.18807246
96	0xbe8fc36a	-0.28078777
97	0x3e10c348	0.14136994
98	0x3e8e919c	0.27845466
99	0xbe575040	-0.21026707
100	0xbe14ceea	-0.14532056
101	0x3e7d1904	0.24716574
102	0x3e66e094	0.22546607
103	0xbce22dd0	-0.027609736
104	0xbe28b98c	-0.1647703
105	0x3d58c4e0	0.05292213
106	0xbe90c345	-0.2827398
107	0xbde98544	-0.114023715
108	0xbcd0c77d	-0.025485748
109	0xbdf7ae33	-0.12093773
110	0x3d7bc5f4	0.06146808
111	0x3c10753c	0.008817013
112	0xbe67cd9b	-0.22637026
113	0xbccef4f5	-0.025263289
114	0x3d942d12	0.07235159
115	0x3e6db0cc	0.23211974
116	0x3da54a8e	0.08070861
117	0xbd9d355d	-0.07676194
118	0x3da00b38	0.0781464
119	0x3de75465	0.11295394
120	0x3ea0199d	0.3126954
121	0xbec57f73	-0.385738
122	0xbc8c2123	-0.017105645
123	0x3d844201	0.06457902
124	0x3b8c75ee	0.0042865193
125	0xbee441c3	-0.44581422
126	0x3d76745c	0.060169563
127	0x3ed29dc1	0.41135982
128	0x3dd6c34b	0.10486468
129	0x3f22f29c	0.6365144
130	0xbd9da97b	-0.076983415
131	0x3f3bad56	0.73311365
132	0xbd341856	-0.04396852
133	0xbc3f1909	-0.011663684
134	0x3e0e02e9	0.13868298
135	0xbc70ba2c	-0.014692824
136	0x3e6edbff	0.2332611
137	0xbcd0ce59	-0.02548902
138	0x3e151b68	0.14561236
139	0xbdc0df15	-0.094175495
140	0x3b179b48	0.0023133326
141	0x3de104b7	0.109872274
142	0xbe60fee0	-0.21972227
143	0x3da891a1	0.082309015
144	0x3eab9af6	0.33516663
145	0xbd948aa6	-0.072530076
146	0xbd70ceda	-0.05879102
147	0xbe126153	-0.14294939
148	0x3dc25906	0.09489636
149	0xbd03852e	-0.032109432
150	0xbe6a46e6	-0.22878608
151	0x3e6426e3	0.22280459
152	0xbf3d7e4b	-0.7402083
153	0x3df594a8	0.119912446
154	0xbd180637	-0.037115302
155	0xbd07b1af	-0.033128437
156	0xbe6fbd92	-0.23412159
157	0x3e685d74	0.226919
158	0x3cd9d740	0.026591897
159	0x3ca2a260	0.019852817
160	0xbd31fa34	-0.043451503
161	0xbdf52d5e	-0.11971544
162	0xbe6489a7	-0.22318135
163	0x3d613c40	0.0549891
164	0xbe669ab0	-0.22519946
165	0xbdfd0086	-0.123536155
166	0x3e1498ec	0.1451146
167	0x3e775694	0.2415412
168	0xbdbcf574	-0.09226504
169	0xbe9199cc	-0.2843765
170	0x3e908bf8	0.28231788
171	0x3e2005ba	0.15627185
172	0x3e5553f0	0.20832801
173	0xbd57a8d4	-0.05265124
174	0xbd73a498	-0.05948314
175	0x3ce73e20	0.028227866
176	0x3d90b10c	0.07065019
177	0x3bf480c0	0.0074616373
178	0xbe196bab	-0.14982478
179	0x3e8405a4	0.25785553
180	0xbda3d2a7	-0.07999163
181	0x3d566142	0.052338846
182	0xbe06105e	-0.13092181
183	0x3e149a86	0.14512071
184	0xbe87e468	-0.26541448
185	0x3e6337f9	0.2218932
186	0x3eab60a4	0.33472168
187	0x3df989e3	0.12184503
188	0x3d8c0d2d	0.068384506
189	0xbe743692	-0.23848942
190	0xbee761d5	-0.45191827
191	0x3cbf87e6	0.023380231
192	0x3ed2f5e7	0.41203234
193	0xbeaa639a	-0.33279115
194	0xbd0b52c4	-0.03401448
195	0x3d33c026	0.04388442
196	0x3d22f49b	0.039784055
197	0xbe1c417f	-0.1525936
198	0x3d00ed01	0.031476025
199	0xbf0741b5	-0.52834636
200	0x3e18ede5	0.149345
201	0xbec443d9	-0.38333014
202	0x3e00fe8b	0.125971
203	0x3dc894ec	0.097940296
204	0xbf0c6db0	-0.5485487
205	0x3ea2433f	0.3169193
206	0xbe19b4b1	-0.15010335
207	0x3e640f39	0.22271432
208	0x3d8be2f5	0.06830398
209	0x3f154743	0.5831186
210	0x3e85c68d	0.26128045
211	0x3b71d94b	0.0036903198
212	0xbda0b1ca	-0.078464106
213	0x3d70f0e6	0.05882349
214	0xbe46d694	-0.19417793
215	0xbde4d35c	-0.11173126
216	0xbdac6666	-0.084179685
217	0x3c5d5e9a	0.013511324
218	0x3b1cf890	0.0023951866
219	0x3e2e64d1	0.17030646
220	0x3ed18f91	0.40929845
221	0xbe216b03	-0.15763478
222	0xbef1de47	-0.47239897
223	0xbe6f49cb	-0.23367994
224	0x39c2383b	0.00037044458
225	0xbca4fe2a	-0.020140726
226	0x3e9f5ebc	0.31126964
227	0xbe0aa4c3	-0.13539414
228	0xbcbc890a	-0.023014564
229	0x3e980e1c	0.29698265
230	0xbd8e5992	-0.06950678
231	0xbde561b2	-0.112002745
232	0x3da52cd9	0.08065195
233	0x3e892caf	0.26791903
234	0xbe0c3639	-0.1369256
235	0xbebf1acc	-0.37325132
236	0xbc56a131	-0.013099954
237	0xbef81cd0	-0.48459482
238	0x3b624999	0.003452873
239	0x3debd163	0.11514547
240	0xbe9aa7a4	-0.30206025
241	0x3ed34f7e	0.41271585
242	0x3c5f2e5b	0.013621892
243	0x3ddcfbf6	0.10790245
244	0x3e23a140	0.1597948
245	0x3eac5bd5	0.33663812
246	0xbe6cd743	-0.23128991
247	0x3cf3fdc2	0.029784087
248	0xbe5813b0	-0.2110126
249	0x3e71fefd	0.23632427
250	0xbe6099cb	-0.21933667
251	0x3ce813b5	0.02832971
252	0xbedfe2fc	-0.43727863
253	0x3e046ffd	0.12933345
254	0xbe33f7ba	-0.17574969
255	0xbdc62781	-0.096755035

l1.bias f4 [400]
0	0xbe0359db	-0.12827246
1	0x3e74c094	0.23901588
2	0x3e51206a	0.20422521
3	0xbe701ea0	-0.23449183
4	0xbdcde690	-0.10053742
5	0xbf21c581	-0.6319199
6	0x3da37bae	0.079825744
7	0x3dfc59cf	0.12321817
8	0x3d2e4f20	0.04255593
9	0x3e0af4e9	0.13569988
10	0xbee1b814	-0.44085753
11	0x3e3e5967	0.18588792
12	0x3f18ff8b	0.5976493
13	0xbd3f0e54	-0.046644524
14	0x3e869900	0.26288605
15	0xbed671cf	-0.41883704
16	0xbeb2f27f	-0.34950635
17	0xbea0c5a5	-0.3140079
18	0x3ec6c76d	0.38824025
19	0xbf27ea91	-0.65592295
20	0xbe86330d	-0.26210824
21	0xbed6e6f0	-0.41973066
22	0xbd60ea6e	-0.05491107
23	0xbdf8a60c	-0.12141046
24	0xbe2d637f	-0.16932486
25	0xba90cbc6	-0.0011047057
26	0xbe9fc202	-0.31202704
27	0xbea70ce1	-0.32627013
28	0xbe9443f3	-0.2895809
29	0x3e8f97dd	0.2804555
30	0xbef26d58	-0.47349048
31	0x3d27d208	0.040971786
32	0x3ec884c7	0.391638
33	0xbe9efe67	-0.3105347
34	0xbeedbede	-0.46434683
35	0xbd51a61e	-0.051183812
36	0x3e4d8739	0.20071115
37	0x3e6c3d43	0.23070244
38	0xbd6e0393	-0.058108877
39	0xbe8aed18	-0.27134013
40	0x3eded89d	0.43524638
41	0xbddc6098	-0.10760611
42	0xbe4df352	-0.2011235
43	0xbf195d4c	-0.59907985
44	0xbe8625ec	-0.26200807
45	0xbe005ce4	-0.12535435
46	0x3ef7227d	0.482685
47	0x3d709747	0.05873802
48	0x3d88677e	0.066603646
49	0xbf04d55d	-0.51888067
50	0xbe931a63	-0.2873107
51	0xbe4d984a	-0.20077625
52	0x3e804e50	0.25059748
53	0xbe7dfd8c	-0.24803752
54	0xbf06688e	-0.5250329
55	0xbec7a7be	-0.38995165
56	0xbe163f98	-0.14672697
57	0xbee74602	-0.451706
58	0x3eed8d32	0.46396786
59	0xbc9ef1c5	-0.019402394
60	0xbed8cf7b	-0.42345795
61	0x3eddeacb	0.43343195
62	0x3e349184	0.17633635
63	0xbe996699	-0.29961088
64	0xbd7cf73e	-0.061759226
65	0x3e93b3c9	0.28848103
66	0x3e3e3d8a	0.18578163
67	0xbe64c1e2	-0.22339585
68	0xbd5ec102	-0.054383285
69	0x3e61861b	0.22023813
70	0x3f2fdae5	0.6869338
71	0xbd0aa9a4	-0.03385319
72	0x3dff21a0	0.12457585
73	0x3e9f32f7	0.3109357
74	0xbed1606a	-0.4089387
75	0x3e107660	0.14107656
76	0x3e308dce	0.17241594
77	0xbe9ca5b3	-0.30595168
78	0xbe828df7	-0.25498936
79	0x3dbb3726	0.09141378
80	0xbe0340a9	-0.12817635
81	0x3e3331a4	0.17499405
82	0xbed727d3	-0.4202257
83	0x3d60c538	0.054875582
84	0xbe201337	-0.1563233
85	0x3e6b71af	0.22992586
86	0x3d0f09a5	0.034921307
87	0xbeab1ba8	-0.33419538
88	0xbdfc0c5f	-0.12307047
89	0xbd7c2007	-0.06155398
90	0xbe408676	-0.18801293
91	0xbe3d5689	-0.18490042
92	0xbed04061	-0.40674117
93	0x3ec8b629	0.39201477
94	0xbef19a61	-0.47188094
95	0xbbd83080	-0.0065975785
96	0xbe71e26d	-0.23621531
97	0x3d1aef99	0.037826154
98	0x3e2153fc	0.15754694
99	0xbe597467	-0.2123581
100	0x3e3d1f42	0.18468955
101	0x3f369af4	0.7133019
102	0xbde12a86	-0.10994439
103	0xbea227a6	-0.31670874
104	0xbf1b8884	-0.6075518
105	0xbf0cbea5	-0.549784
106	0xbe9bc352	-0.30422455
107	0xbefc7ebc	-0.4931544
108	0x3dfdb1e3	0.12387445
109	0xbe4a0c29	-0.19731201
110	0xbe5c842b	-0.21534793
111	0x3e651155	0.22369893
112	0x3e92f589	0.28702953
113	0x3f264d43	0.6496164
114	0xbe503daf	-0.2033603
115	0xbd42b1e1	-0.04753292
116	0x3e742416	0.2384189
117	0x3ea3e436	0.3201005
118	0xbe102c0a	-0.140793
119	0x3eb9150a	0.36148864
120	0xbe3520d9	-0.17688312
121	0xbd562035	-0.05227681
122	0xbe6aac4c	-0.22917289
123	0xbe266be7	-0.16252099
124	0x3e30a261	0.17249443
125	0xbee96cde	-0.45590872
126	0xbee53118	-0.44764018
127	0xbedb13cc	-0.4278854
128	0xbeb40965	-0.35163417
129	0xbe7ba0ac	-0.2457301
130	0xbe72802d	-0.23681708
131	0x3ecebf92	0.40380532
132	0xbf3469e6	-0.7047409
133	0xbbb2873f	-0.0054482515
134	0x3dd9e70b	0.10639771
135	0x3d527d0b	0.05138878
136	0x3dcffdde	0.10155843
137	0xbe35a0e0	-0.1773715
138	0x3edc84b8	0.43070006
139	0xbf129529	-0.5725885
140	0xbf0871c5	-0.532986
141	0x3e2386da	0.1596941
142	0xbe9c7e4d	-0.3056511
143	0xbdbeea95	-0.09322087
144	0xbe89f87b	-0.26947388
145	0xbe91310f	-0.2835774
146	0x3d2408f8	0.040047616
147	0xbe78dbd5	-0.2430261
148	0x3e637126	0.22211131
149	0xbe24018d	-0.16016217
150	0xbf01babc	-0.5067556
151	0xbdbb4945	-0.091448344
152	0xbea02c94	-0.3128401
153	0xbf18e2bd	-0.59720975
154	0xbeaacc4f	-0.33359
155	0xbe1f164d	-0.15535851
156	0xbef20459	-0.47268942
157	0xbee65c59	-0.4499233
158	0xbe9b71ed	-0.30360356
159	0x3d2cdb0e	0.042201094
160	0x3e88c996	0.26716298
161	0xbf11348c	-0.56720805
162	0x3eb333aa	0.35000354
163	0xbea69901	-0.32538608
164	0xbf132951	-0.5748492
165	0xbf17d2b9	-0.5930591
166	0xbe8e3200	-0.27772522
167	0xbdc8e7c0	-0.09809828
168	0x3f17d0e6	0.5930313
169	0x3d852204	0.065006286
170	0xbe3c47e1	-0.18386795
171	0x3de46665	0.11152343
172	0x3df48fbc	0.11941478
173	0x3e25d95a	0.16196194
174	0xbf259206	-0.6467594
175	0xbe67bced	-0.22630663
176	0x3f231615	0.6370557
177	0xbd956610	-0.072948575
178	0xbeda8754	-0.42681372
179	0x3d30ea26	0.04319205
180	0x3e1d355b	0.15352385
181	0xbdfac734	-0.12245026
182	0xbf246303	-0.6421358
183	0xbf360c52	-0.7111255
184	0xbe9483ef	-0.29006907
185	0xbe9d0e1e	-0.30674833
186	0x3e83c1b8	0.25733733
187	0x3e0538e2	0.1300998
188	0xbf1519ae	-0.5824231
189	0xbe627c89	-0.22117819
190	0xbe78f8bc	-0.24313635
191	0x3ec2214e	0.37916034
192	0xbf23fda8	-0.64058924
193	0x3ef26792	0.47344643
194	0xbef4099a	-0.47663575
195	0x3eb7d0b3	0.35901412
196	0xbe013d08	-0.12620938
197	0xbf0d5192	-0.5520259
198	0xbd270542	-0.0407765
199	0xbee6b6ec	-0.45061433
200	0x3dec95dc	0.11552021
201	0x3e8259f9	0.2545927
202	0x3d28c70f	0.041205462
203	0xbe7ad0fb	-0.24493782
204	0xbe39373c	-0.18087476
205	0xbe503590	-0.20332932
206	0xbccc2df6	-0.02492426
207	0xbe1848ae	-0.14871475
208	0x3e7a6be4	0.2445522
209	0xbe734d40	-0.23759937
210	0xbe8203ea	-0.2539361
211	0x3cba62dd	0.02275222
212	0xbf0a9dfc	-0.54147315
213	0x3e405c9c	0.18785328
214	0xbf06e996	-0.52700174
215	0xbf1d86b3	-0.6153366
216	0x3dbb9bc4	0.09160569
217	0xbe3ef847	-0.18649398
218	0xbdb0dccc	-0.08635864
219	0xbd4b599c	-0.049646005
220	0xbdc8e04d	-0.09808407
221	0xbe922c14	-0.28549254
222	0xbe81a7a8	-0.25323224
223	0x3e2ae016	0.16687045
224	0x3daa6bef	0.08321368
225	0xbe99122b	-0.29896674
226	0x3d182fe1	0.037155036
227	0xbf229326	-0.6350578
228	0xbf0da866	-0.5533508
229	0x3f027064	0.50952744
230	0xbd9caebe	-0.07650517
231	0x3dc4fd71	0.096186526
232	0xbd49f3f4	-0.049304917
233	0x3ce7c5b0	0.028292507
234	0xbea57ef2	-0.32323414
235	0x3e88b2b7	0.2669885
236	0x3e702a90	0.23453736
237	0x3e89911e	0.26868528
238	0x3efc7bbe	0.49313158
239	0xbed3dc64	-0.41379082
240	0xbdb1fcc0	-0.08690786
241	0x3f11dd98	0.5697875
242	0x3e2f00f3	0.17090206
243	0xbcaae1e2	-0.020859662
244	0x3ea437f2	0.32073933
245	0xbe640009	-0.22265638
246	0xbf122308	-0.57084703
247	0xbea9b04a	-0.3314231
248	0x3d40c3e8	0.04706183
249	0x3e9019d6	0.2814471
250	0xbe9cdbda	-0.30636483
251	0xbd85020f	-0.06494533
252	0xbe926db3	-0.2859932
253	0x3f2afba5	0.6679023
254	0xbed57946	-0.41694087
255	0x3e650b24	0.22367531

l2.weight f4 [300, 400]
0	0xbb8e8ca8	-0.0043502636
1	0x3ccd357e	0.025049921
2	0x3ca21f6a	0.01979037
3	0xbc5f1354	-0.013615448
4	0x3cc2e142	0.023789052
5	0x3d2bcea1	0.041945104
6	0xbd04c2ad	-0.03241222
7	0xbc975a56	-0.018475693
8	0x3d4118d9	0.047142837
9	0x3d44aca5	0.04801621
10	0xbb796130	-0.0038052313
11	0x3b9a43b0	0.004707776
12	0xbc44fad8	-0.012022696
13	0x3c919b32	0.017774198
14	0x3d104131	0.03521842
15	0xbd3e968a	-0.046530284
16	0xbcb929ed	-0.022603
17	0xbb754c80	-0.003742963
18	0x3bc2fbc0	0.005950421
19	0x3c24a3d8	0.010048829
20	0xbd3bdffd	-0.04586791
21	0xbd4495f3	-0.047994565
22	0x3bf3db68	0.0074419267
23	0x3d4ac409	0.04950336
24	0x3c16aba8	0.0091961995
25	0xbc99dbbd	-0.018781537
26	0xbd222b1d	-0.039591897
27	0xbd2a4bdd	-0.041576255
28	0xbd1cd9e5	-0.038293738
29	0xbcdb2a70	-0.026753634
30	0xbcf8755d	-0.0303294
31	0x3ce60442	0.028078202
32	0x3cf51026	0.029914927
33	0x3901a200	0.00012362748
34	0xbc4bcb78	-0.012438647
35	0xbcfc229a	-0.030778218
36	0x3cf69522	0.030100409
37	0x3c4a7414	0.012356777
38	0x3ca77c02	0.020444874
39	0xbc006cb4	-0.007838417
40	0xbd1a3cfb	-0.03765581
41	0xbc8fd354	-0.017556824
42	0x3c62c314	0.013840456
43	0x3d16aedb	0.03678785
44	0xbcf7210d	-0.030167127
45	0xbcb09500	-0.021555424
46	0xbd3ea09b	-0.046539884
47	0x3d2de581	0.0424552
48	0x3d2ed17f	0.04268026
49	0xbd14bad6	-0.036310993
50	0x3c741864	0.014898393
51	0xbba75658	-0.0051067285
52	0xbc8aa476	-0.016924124
53	0xbd184adb	-0.037180763
54	0x3cc20b32	0.023686979
55	0x3cce6dfe	0.025198933
56	0x3ccf1eea	0.025283296
57	0xbd0b2d18	-0.03397855
58	0xbc887884	-0.016659029
59	0xbcbebae7	-0.023282481
60	0x3cbf31de	0.023339208
61	0x3cb22546	0.021746289
62	0x3c01018c	0.007873904
63	0xbaac6b00	-0.0013154447
64	0x3cff0182	0.031128649
65	0xbcec84fa	-0.028872002
66	0xbcdf658a	-0.027270097
67	0xbd4a880f	-0.04944616
68	0x3c9366a2	0.017993275
69	0xbd45ba07	-0.048273113
70	0x3d2607f9	0.040534947
71	0x3be48d90	0.0069748834
72	0xbcf60fcd	-0.030036831
73	0x3cb4f1be	0.022087928
74	0xbd06430d	-0.03277879
75	0x3c0c7518	0.008572839
76	0xbd4c0cfd	-0.049817074
77	0xbca927ca	-0.020648856
78	0xbc814f26	-0.015784811
79	0x3c18e768	0.009332515
80	0x3d0b151b	0.033955675
81	0x3d3a660b	0.045507472
82	0x3bbcdb40	0.0057634413
83	0xbd1e0cb3	-0.03858633
84	0xbc75fa08	-0.015013225
85	0x3d4bacc9	0.049725328
86	0x3bbc84d0	0.005753137
87	0x3c28ae98	0.010295533
88	0xbc98dad0	-0.018659025
89	0x3ca3cc2a	0.019994814
90	0x3d10f2df	0.03538787
91	0x3d0e3985	0.034722824
92	0x3d2c48af	0.042061504
93	0xbcb1b83a	-0.021694291
94	0x3b0fa8b0	0.0021920614
95	0xbc39ac58	-0.011332594
96	0x3bec5180	0.007211864
97	0xbcc7c140	-0.024384141
98	0x3cdfd272	0.027322028
99	0x3b04fd00	0.0020292401
100	0xbd1f48ce	-0.03888779
101	0xbc271a78	-0.010199182
102	0x3d360881	0.044441704
103	0xbc97621c	-0.0184794
104	0x3c06c488	0.008225568
105	0xbcff5c9d	-0.031172091
106	0xbcd4c6fa	-0.025973786
107	0xbd14a04a	-0.036285676
108	0xbcb7dd10	-0.022444278
109	0x3a197400	0.0005853772
110	0x3d34925f	0.044084903
111	0x3c39f4d8	0.011349879
112	0xbcf6c43d	-0.03012287
113	0xbcfaa2cd	-0.030595208
114	0xbd0ee548	-0.03488663
115	0x3c17e34c	0.0092705
116	0x3d30da4f	0.043176945
117	0xbd00c4be	-0.031437628
118	0xba84c340	-0.001012899
119	0x3cc696d2	0.024241839
120	0x3cffecf2	0.031240914
121	0x3c5c0624	0.013429198
122	0x3ba95c58	0.005168479
123	0xbd1cf306	-0.038317703
124	0x3c3f392c	0.011671346
125	0xbbb95fa8	-0.005657155
126	0xbceb8090	-0.028747827
127	0x3d1f9167	0.038957026
128	0xbc4cce28	-0.012500323
129	0xbd0f1062	-0.034927733
130	0x3d307061	0.043075923
131	0xbd16855d	-0.03674828
132	0x3bc89498	0.0061212294
133	0x3d29a847	0.041420247
134	0x3bdb8cd8	0.0067001395
135	0xbcd9e197	-0.026596827
136	0xbbd96f58	-0.0066355877
137	0x3c883a96	0.016629498
138	0x3c8fc7fa	0.017551411
139	0xbc755078	-0.0149727985
140	0xbc85b6a0	-0.016322434
141	0x3d133305	0.035937328
142	0xbc8cf1e6	-0.01720519
143	0x3c4c5860	0.012472242
144	0x3c99e0a6	0.018783879
145	0x3ca29c82	0.01985002
146	0x3d22e357	0.03976759
147	0x3ca44c7a	0.020055998
148	0x3c372894	0.011179108
149	0xbaa64fa0	-0.0012688525
150	0xbbc93c00	-0.0061411858
151	0x3cca6f5e	0.024711307
152	0xbc78e32c	-0.015190881
153	0xbcd77003	-0.026298529
154	0xbc4ceaac	-0.012507122
155	0x3d30d49d	0.043171514
156	0xbc9faea3	-0.019492453
157	0x3cc676f2	0.02422664
158	0xbc8402a6	-0.016114544
159	0x3c875bfa	0.01652335
160	0xbd22a026	-0.03970351
161	0xbcd4ecad	-0.025991762
162	0xbd179ae3	-0.037012946
163	0x3c6a5404	0.014302257
164	0x3c24fd38	0.010070138
165	0x3d029c09	0.031887088
166	0x3ce285ba	0.027651656
167	0x3d11d489	0.03560308
168	0xbd277110	-0.04087931
169	0xbd15b568	-0.036549956
170	0xbb6ddfe0	-0.003629677
171	0x3c0999c0	0.008398473
172	0x3beeb770	0.007285051
173	0xbd0c401c	-0.034240827
174	0x3b1aa3d0	0.0023596175
175	0xbd41ff47	-0.047362592
176	0x3ca89e42	0.020583276
177	0x3c2557ec	0.010091763
178	0xbd08aa25	-0.033365387
179	0x3c1332c8	0.008984275
180	0xbcf60cc3	-0.030035382
181	0xbd0c45ae	-0.03424614
182	0x3c266dc0	0.010158002
183	0x3b888158	0.0041658096
184	0xbcdffa6a	-0.027341086
185	0xbd0d2bb2	-0.0344655
186	0x3bd780d8	0.0065766387
187	0x3d0c7ec5	0.034300584
188	0xbd0ca36a	-0.03433553
189	0x3cacb532	0.021082494
190	0xbbea3228	-0.0071470924
191	0xbca2e90a	-0.019886512
192	0xbc37bf38	-0.011215024
193	0x3d4440bb	0.047913294
194	0x3cd0e426	0.025499415
195	0xbc97d706	-0.018535148
196	0xbb4843b0	-0.0030557923
197	0x3cb8d59a	0.02256279
198	0xbccc26c7	-0.024920834
199	0xbd48e1d5	-0.049043495
200	0xbd37ad10	-0.04484278
201	0xbcacb75d	-0.021083528
202	0x3d4434fd	0.047902096
203	0x3ca49b5e	0.020093616
204	0x3cbe5f12	0.023238692
205	0x3b247e60	0.002509974
206	0x3cff1272	0.031136725
207	0xbbe1b110	-0.0068875626
208	0xbca02a73	-0.019551491
209	0xbcbf6277	-0.023362381
210	0xbd32f6e0	-0.04369247
211	0x3d24b849	0.04021481
212	0xb8f64000	-0.00011742115
213	0xbd3b8402	-0.04578019
214	0xbd063ade	-0.032770984
215	0x3cbac492	0.02279881
216	0x3c8fc8ba	0.017551769
217	0xbc89378a	-0.016750116
218	0xbc956f06	-0.018241417
219	0xbd26cb75	-0.040721375
220	0x3c0cb034	0.008586932
221	0x3b30ccb0	0.0026977472
222	0xbce40a8a	-0.027837057
223	0xbca26167	-0.019821836
224	0x3ce14d16	0.027502578
225	0x3d27ed51	0.040997807
226	0x3bbaeb80	0.0057043433
227	0x3d432bd3	0.047649216
228	0xbd1b8bab	-0.037974995
229	0xbc83ffc6	-0.016113173
230	0x3d3fe911	0.04685313
231	0xbb0c58a0	-0.002141513
232	0x3b03a3d0	0.0020086654
233	0xbd079b95	-0.03310736
234	0xbd1b9b53	-0.037989926
235	0xbc9610b4	-0.018318512
236	0xbd49694a	-0.049172677
237	0xbd1a1d22	-0.03762544
238	0x3d41eec5	0.04734685
239	0xbbbf17e8	-0.0058317073
240	0xbc9bdf7a	-0.01902746
241	0x3c736734	0.0148561485
242	0xbc695f78	-0.014243953
243	0xbcba99b3	-0.022778368
244	0xbd3c7978	-0.04601428
245	0xbc099c88	-0.008399136
246	0x3cd601ea	0.02612396
247	0xbc05aaac	-0.008158367
248	0xbd47cc7f	-0.048779007
249	0x3b3783d0	0.002800215
250	0x3ab39bc0	0.0013703033
251	0xbcc2c35a	-0.023774792
252	0xbd0a3a04	-0.033746734
253	0x3cc7ffd6	0.024413984
254	0xbd2e0282	-0.04248286
255	0xbd3c5d93	-0.045987677

l2.bias f4 [300]
0	0x3d0ed809	0.034873996
1	0x3c3f4dbe	0.01167625
2	0xbe56ff59	-0.20995845
3	0x3d41981e	0.04726421
4	0xbc9bdb3f	-0.019025443
5	0x3e89c744	0.2690984
6	0x3ce35b70	0.027753562
7	0xbd0f8b73	-0.0350451
8	0x3e8011f9	0.25013712
9	0xbca45831	-0.020061584
10	0x3d0ae763	0.033912074
11	0x3c868826	0.016422343
12	0xbd41f72e	-0.04735487
13	0xbd071d16	-0.032986723
14	0xbc419e6c	-0.011817556
15	0x3c9fe89a	0.019520093
16	0x3c3f5c60	0.011679739
17	0xbd06f445	-0.032947797
18	0x3c3f36ad	0.011670751
19	0x3d7a3ab2	0.061091132
20	0xbc5592f7	-0.013035527
21	0x3e139ac1	0.14414503
22	0xbd4f3d75	-0.05059572
23	0x3dbb70e5	0.09152392
24	0xbd2a4c84	-0.041576877
25	0x3e350fcf	0.17681812
26	0xbd2d0f76	-0.042251073
27	0x3cbbe732	0.022937391
28	0x3d8389b9	0.06422753
29	0x389cdbcf	7.479602e-05
30	0x3c3f9e9f	0.011695533
31	0xbe8da8a9	-0.2766774
32	0xbcec8bda	-0.02887528
33	0xbd08ad60	-0.03336847
34	0xbce51a7b	-0.027966728
35	0x3c1e8f5f	0.009677737
36	0xbd16892d	-0.036751915
37	0xbd2a947f	-0.041645523
38	0x3ca65d9b	0.020308306
39	0xbd8016e5	-0.06254367
40	0x3b42909a	0.002968824
41	0xbc8943b3	-0.016755914
42	0x3d2cb51b	0.042164903
43	0xbd418535	-0.047246177
44	0x3d08ff0e	0.033446364
45	0xbb0ad31c	-0.002118296
46	0xbdea1352	-0.11429466
47	0x3ce6d6f7	0.028178675
48	0x3d15965e	0.036520354
49	0xbe0fc497	-0.14039837
50	0xbe0e98c9	-0.1392547
51	0xbd16eaa1	-0.036844853
52	0xbd46ed0f	-0.04856592
53	0xbe007b3e	-0.12547013
54	0x3e348142	0.17627433
55	0xbdcdb055	-0.10043398
56	0xbce6a795	-0.028156081
57	0xbdb391c9	-0.08768041
58	0xbcdf70b9	-0.02727543
59	0xbce7764e	-0.028254654
60	0xbe71e089	-0.2362081
61	0x3a828134	0.0009956718
62	0xbb163916	-0.002292221
63	0xbbd36e57	-0.0064523625
64	0x3bb0fcdc	0.005401237
65	0xbd37f775	-0.044913728
66	0xbd8570b2	-0.065156356
67	0xbb9b52b6	-0.0047400845
68	0x3c394aa0	0.011309296
69	0xbe47be47	-0.19506179
70	0xbd5215e4	-0.051290408
71	0xbde34b27	-0.110983185
72	0xbdd2bdf8	-0.1029014
73	0xbd542ab7	-0.05179855
74	0x3d3e3c81	0.04644442
75	0x3cc68c4e	0.024236824
76	0xbd32f1cf	-0.043687638
77	0xbc70a650	-0.0146880895
78	0xbe351244	-0.17682749
79	0x3cced8e3	0.025249904
80	0xbe34cd5f	-0.17656468
81	0xbe64cac6	-0.22342977
82	0x3d1c6278	0.038179845
83	0xbe74f9cd	-0.23923416
84	0x3a4e9374	0.00078802486
85	0xbcf645bf	-0.030062554
86	0xbdcbdcbf	-0.09954213
87	0xbbac6272	-0.005260759
88	0x3c725cce	0.014792634
89	0x3cb35d8a	0.021895189
90	0x3c5354fb	0.012898679
91	0x3bf19930	0.0073729977
92	0xbcb5e07f	-0.022201775
93	0xbd505731	-0.050864402
94	0xbd1c2e03	-0.038129818
95	0xbd1db589	-0.038503204
96	0x3d338301	0.043826107
97	0xbc512f2d	-0.012767595
98	0xbe5ab90f	-0.21359657
99	0xbe0c1a18	-0.13681829
100	0xbd3bed08	-0.045880347
101	0x3dd45a54	0.10368791
102	0x3d05ec6b	0.03269617
103	0x3e484ac5	0.19559772
104	0xbde05cfc	-0.10955235
105	0x3e2fa0f1	0.17151238
106	0xbd5d698d	-0.05405574
107	0x3e90d01e	0.2828378
108	0x3dfa74cb	0.12229308
109	0x3c4d8931	0.012544916
110	0x3d1103ac	0.035403892
111	0xbd2e4fef	-0.0425567
112	0xbd012208	-0.031526595
113	0xbd637e13	-0.055540156
114	0xbe06d5e8	-0.13167536
115	0xbdcd11f9	-0.10013194
116	0x3e122f14	0.14275771
117	0xbd0aac15	-0.033855516
118	0xbd1418ae	-0.03615635
119	0xbe8e16b5	-0.277517
120	0x3d5e932c	0.054339573
121	0xbe10af45	-0.1412936
122	0xbd8a931e	-0.067663416
123	0xbe2355fb	-0.15950768
124	0xbc227232	-0.009914922
125	0x3bbec28c	0.0058215316
126	0x3e5312df	0.20612668
127	0xbe86510f	-0.26233718
128	0xbcc090cd	-0.023506546
129	0x3ccfb402	0.02535439
130	0xbe258577	-0.16164194
131	0xbc98f4c0	-0.018671393
132	0x3de4c1f7	0.11169808
133	0xbd383972	-0.04497666
134	0xbc4c2f57	-0.012462459
135	0x3ca0d177	0.01963113
136	0x3cd80742	0.026370648
137	0x3d257dd6	0.04040321
138	0x3e1cb88b	0.15304773
139	0xbd27f8e2	-0.041008838
140	0xbd1c5899	-0.03817043
141	0x3cb29050	0.02179733
142	0xbd3137a9	-0.043265972
143	0xbe00ba7a	-0.12571135
144	0xbd1e07dc	-0.038581714
145	0xbd524b1f	-0.051341172
146	0xbe2fd1fc	-0.17169946
147	0x3cfc364c	0.03078761
148	0x3e1ac997	0.15115963
149	0xbcb319fb	-0.021862974
150	0x3c00eb73	0.0078686355
151	0x3d5331ff	0.051561352
152	0x3c941eb6	0.01808105
153	0xbe29fa0e	-0.16599295
154	0xbd3fba8f	-0.046808776
155	0x3c6d0c04	0.014468197
156	0xbe3ee87e	-0.18643376
157	0xbe8e84bb	-0.2783564
158	0xbcf21436	-0.029550653
159	0x3d154e38	0.03645155
160	0x3bcbe068	0.0062218197
161	0xbe2ba6a4	-0.16762787
162	0x3e9ddeee	0.30834144
163	0xbeaf9aa4	-0.3429767
164	0xbd50e53c	-0.050999865
165	0xbd8bad39	-0.06820149
166	0xbb2abee4	-0.002605372
167	0x3e4c8fbd	0.19976707
168	0xbd4105d7	-0.04712471
169	0x3debd48f	0.11515152
170	0x3d04dea9	0.032438908
171	0x3cd04c91	0.025427135
172	0x3e9ae228	0.3025067
173	0x3cc24405	0.023714075
174	0xbbb1fc9e	-0.0054317256
175	0xbe09dc5b	-0.13462965
176	0x3d1b72bc	0.037951216
177	0xbe0c57ac	-0.13705319
178	0x3e95ec5b	0.29281887
179	0x3c93fce9	0.018064933
180	0xbe215ffd	-0.15759273
181	0x3e30f070	0.1727922
182	0x3cc5d1ef	0.024147956
183	0xbd3483f6	-0.04407116
184	0xbd71a7e4	-0.058998004
185	0xbd39e3eb	-0.045383375
186	0xbd511f4f	-0.05105525
187	0xbde38e0c	-0.11111078
188	0xbcfcf93e	-0.030880567
189	0xbd53e3ce	-0.051730923
190	0xbcd7e8a8	-0.026356056
191	0x3b339bba	0.0027406053
192	0x3cebb164	0.02877111
193	0x3c1334e2	0.008984776
194	0x3cb05856	0.021526497
195	0xbd169a35	-0.036768157
196	0xbe0c01ce	-0.13672563
197	0x3c064765	0.008195733
198	0x3c776420	0.015099555
199	0x3e1cd093	0.1531394
200	0xbd3c23fd	-0.04593276
201	0x3dc2959c	0.09501192
202	0xbce415ca	-0.027842421
203	0xbcebf0f5	-0.02880142
204	0xbd65a8e9	-0.05606929
205	0xbc630fa8	-0.013858713
206	0xbdea3cb5	-0.1143736
207	0xbb279206	-0.0025569214
208	0xbc3c42ae	-0.011490507
209	0xbd062493	-0.032749724
210	0xbd60cf80	-0.054885387
211	0x3c0f1332	0.008732604
212	0xbd2b6295	-0.041842062
213	0xbcc4f5f6	-0.024043065
214	0xbca12800	-0.019672394
215	0x3cece95f	0.028919874
216	0xbdcf6914	-0.10127464
217	0xbd20ff0a	-0.039305724
218	0xbe5e356e	-0.2170007
219	0xbd64fa55	-0.055902798
220	0xbd6f3ca5	-0.058407445
221	0xbd1586dd	-0.03650557
222	0x3c96e074	0.018417574
223	0xbd5b061e	-0.05347263
224	0xbd7a8e36	-0.06117078
225	0x3c00b107	0.007854707
226	0xbe83486f	-0.256412
227	0xba5b6349	-0.00083689817
228	0xbd6ecdae	-0.05830162
229	0xbcefd376	-0.029275637
230	0x3c3be705	0.011468654
231	0x3c3ea8cc	0.011636924
232	0xbd0b57a9	-0.034019146
233	0xbd380e49	-0.0449355
234	0x3dc2ade3	0.095058225
235	0xbd5f2878	-0.054481953
236	0xbd090b31	-0.03345794
237	0x3c138562	0.009003969
238	0xbd22955e	-0.03969323
239	0xbd6f6ad9	-0.058451507
240	0x3cd4b210	0.025963813
241	0x3e3b81eb	0.18311279
242	0xbcd21917	-0.02564673
243	0x3c836556	0.016039532
244	0xbb0da7ad	-0.0021614835
245	0x3cff273b	0.031146636
246	0xbe42cbdf	-0.19023083
247	0x3d973214	0.073825985
248	0xbc59cb0f	-0.013293042
249	0xbc31a84c	-0.010843348
250	0xbe844cbb	-0.2583979
251	0xbd45631f	-0.048190232
252	0xbd03b5b4	-0.032155707
253	0x3cecb1e6	0.028893422
254	0xbdbaaeaa	-0.09115346
255	0xbce01314	-0.027352847

l3.weight f4 [6, 300]
0	0xbbe2e830	-0.0069246516
1	0xbc36f454	-0.011166651
2	0x3e0153df	0.1262965
3	0xbd580eae	-0.052748375
4	0xbd53a315	-0.0516692
5	0xbe144741	-0.14480306
6	0xbc038847	-0.0080280965
7	0x3cf2db1e	0.029645499
8	0xbd7199ee	-0.05898469
9	0x3d49e0e9	0.049286757
10	0x3cf9bcd1	0.030485542
11	0xbc4c0484	-0.0124522485
12	0xbc9d91a4	-0.019234486
13	0x3c1ccc78	0.0095702335
14	0xbd3569c0	-0.044290304
15	0xbc814de2	-0.015784208
16	0xbca0dc5c	-0.019636326
17	0x3d14a218	0.036287397
18	0x3d506e85	0.05088665
19	0xbc84251b	-0.016130975
20	0xbd694240	-0.056947947
21	0xbddb7b1e	-0.10716842
22	0xbc8d0ddc	-0.017218523
23	0x3def7e32	0.11693992
24	0xbc2f5010	-0.010700241
25	0xbda74fbf	-0.08169507
26	0xbd769e75	-0.06020971
27	0x3c519aa0	0.012793213
28	0xbd92ee22	-0.071743265
29	0xbd99ce2c	-0.07510027
30	0x3c9f0f64	0.019416519
31	0x3da08c80	0.07839298
32	0xbc8c3a02	-0.017117504
33	0x3b91d0a8	0.0044499226
34	0xbbc7e228	-0.006099958
35	0x3d2e92c9	0.042620454
36	0xbd5e5474	-0.05427976
37	0xbd1db985	-0.038507003
38	0xbbf70475	-0.007538373
39	0x3d51afec	0.051193163
40	0x3d43afc2	0.047775038
41	0x3cc7da29	0.024396019
42	0xbc34393a	-0.010999972
43	0x3c22c614	0.009934921
44	0x3d171311	0.036883418
45	0x3b351309	0.0027629754
46	0xbcfc2775	-0.030780533
47	0xbd1a9c42	-0.037746675
48	0xbd3e845e	-0.046512954
49	0x3c60dc4a	0.013724396
50	0x3adfb5c7	0.0017067724
51	0xbd61f382	-0.055163868
52	0x3d12a801	0.035804752
53	0xbc8ac807	-0.016941084
54	0xbd85355d	-0.06504319
55	0xbd97727c	-0.07394883
56	0xbca9df86	-0.020736467
57	0xb985ed7d	-0.0002554468
58	0x3d80d46e	0.06290518
59	0x3d475184	0.048661724
60	0x3c7eac26	0.015543973
61	0xbd3adf86	-0.045623325
62	0x3c023b9c	0.007948782
63	0xbc171884	-0.009222154
64	0x3ce84bb8	0.028356418
65	0xbd35aa93	-0.044352125
66	0x3cd0c909	0.025486486
67	0x3d88ec64	0.06685713
68	0xbd0ba9c4	-0.034097448
69	0x3d942d56	0.0723521
70	0xbcd95764	-0.026530929
71	0x3ce2262b	0.02760609
72	0xbcd598c6	-0.026073825
73	0x3c03f9b8	0.008055143
74	0xbd3a5220	-0.045488477
75	0xbc010e62	-0.007876964
76	0xbd30c0d5	-0.04315265
77	0xbc543219	-0.012951397
78	0x3b78a57a	0.0037940429
79	0xbd95b853	-0.07310548
80	0x3da1b29e	0.07895397
81	0x3d9bbc01	0.07604218
82	0x3d37c66e	0.04486697
83	0xbc4da526	-0.0125515815
84	0x3d2bd012	0.04194648
85	0x3d43119a	0.047624208
86	0x3c6b2664	0.014352415
87	0xbd29b26e	-0.04142993
88	0x3c574d6c	0.013141017
89	0x3c83afac	0.016074978
90	0xbd3819e9	-0.044946585
91	0xbdac529f	-0.08414196
92	0x3cdd2cb7	0.02699886
93	0x3c472a68	0.0121561065
94	0x3d335752	0.043784447
95	0x3d2742e1	0.040835265
96	0x3d4dbb63	0.050227534
97	0x3d5c7c72	0.053829618
98	0x3d0c24ae	0.034214668
99	0x3d0c54a4	0.034260407
100	0x3d18ab14	0.037272528
101	0xbe0ffdcd	-0.14061661
102	0x3cd9988c	0.026561998
103	0xbd8f8aba	-0.07008882
104	0x3de18665	0.11011962
105	0xbd3df668	-0.04637757
106	0x3c829998	0.01594238
107	0xbccfdb82	-0.025373224
108	0xbdc88fc0	-0.09793043
109	0xbd1bb268	-0.03801194
110	0x3dc04ef6	0.093900606
111	0x3cadb3c8	0.02120389
112	0x3cce87c8	0.02521123
113	0xbc032400	-0.008004189
114	0xba9ffcf5	-0.0012206124
115	0x3c6655b6	0.014058521
116	0xbd87205f	-0.06597971
117	0x3d18f1d0	0.037339985
118	0x3c822624	0.015887327
119	0xbc5d4170	-0.013504371
120	0xbcd4b715	-0.025966207
121	0xbd53c4f0	-0.051701486
122	0x3d8dd6bd	0.06925724
123	0xbc2d38ea	-0.010572651
124	0xbd2995d3	-0.04140265
125	0xbdcc278a	-0.09968479
126	0xbcff1a6c	-0.031140529
127	0xbe2fb1cf	-0.17157672
128	0xbc988d4c	-0.018622063
129	0xbd18d1e4	-0.037309542
130	0x3cfbb5eb	0.030726394
131	0x3cc70450	0.024294049
132	0xbd945220	-0.072422266
133	0x3d1885d0	0.03723699
134	0x3cc8e16c	0.024521552
135	0x3ccebe94	0.02523736
136	0xbb7bb6c0	-0.0038408488
137	0x3cd34128	0.025787905
138	0xbd991542	-0.07474758
139	0x3ca89310	0.020577937
140	0xbc1442a2	-0.00904909
141	0xbcf39120	-0.029732287
142	0xbc948614	-0.01813034
143	0x3d313f47	0.043273237
144	0x3d6aec29	0.057354126
145	0x3a1f6cd0	0.0006081583
146	0x3cbee514	0.023302592
147	0x3c7018d0	0.014654353
148	0xbdd247a3	-0.1026757
149	0x3d4e703e	0.05040001
150	0x3d390efe	0.045180313
151	0x3abfdee5	0.0014638571
152	0x3bcb65e0	0.006207213
153	0x3ccf6dac	0.02532085
154	0x3d2b4504	0.041813865
155	0xbc815aa9	-0.0157903
156	0x3bc4145b	0.005983872
157	0x3d5f979e	0.054587953
158	0x3b5f3a40	0.003406182
159	0x3cd73e8e	0.026274946
160	0xbd5c960f	-0.053854045
161	0xbc945208	-0.018105522
162	0xbe3a5116	-0.18194994
163	0x3d941edd	0.07232449
164	0xbc758eef	-0.014987691
165	0xbd3fc60d	-0.046819735
166	0xbd57c282	-0.05267573
167	0xbd960f87	-0.0732718
168	0x3c11fe65	0.00891075
169	0xbdbc6bb2	-0.09200229
170	0x3ca82935	0.020527462
171	0xbc0c60c5	-0.0085679935
172	0xbd05c909	-0.032662425
173	0xbd74d492	-0.059773035
174	0x3c96d67c	0.018412821
175	0x3c9f1402	0.01941872
176	0xbb7bf640	-0.0038446337
177	0xbc9af5e6	-0.018916082
178	0xbde2e7cc	-0.11079368
179	0x3d3dd94c	0.04634981
180	0xbccd3a56	-0.02505223
181	0xbdcedaa3	-0.101002954
182	0xbccafdcc	-0.024779223
183	0xbbccd2e8	-0.006250728
184	0xbe49f592	-0.19722584
185	0x3d208437	0.03918859
186	0xbc3719c0	-0.011175573
187	0xbd27af97	-0.04093894
188	0x3b3d9a10	0.002893094
189	0xbc9ac681	-0.018893482
190	0x3d431a1e	0.04763233
191	0x3d5f1e3c	0.054472193
192	0x3b161b2f	0.0022904386
193	0xbcb9187e	-0.022594687
194	0x3d5d4c5c	0.0540279
195	0xbda59951	-0.080858834
196	0x3b23f455	0.002501746
197	0x3caaff4a	0.020873684
198	0x3d35c81f	0.044380303
199	0xbdd14497	-0.102181606
200	0xb9c5ddce	-0.00037740025
201	0xbc0fa5c8	-0.008767553
202	0x3c3c9720	0.01151064
203	0x3cc3f3ab	0.0239199
204	0x3cfcc300	0.030854702
205	0xbba10b18	-0.0049146526
206	0xbc9309d9	-0.017949032
207	0xbc86e3d1	-0.016466053
208	0xbcff92e0	-0.031197965
209	0x3c62fa78	0.013853662
210	0x3c0b2f11	0.008495108
211	0xbd6b2fda	-0.05741868
212	0x3d0d9820	0.034568906
213	0x3c28f9c0	0.010313451
214	0xbb6a45c0	-0.003574714
215	0xbd88b102	-0.066743866
216	0xbd005325	-0.031329293
217	0x3d1c0080	0.038086414
218	0xbbc8a85b	-0.006123585
219	0xbd0ac3ee	-0.03387826
220	0x3c040653	0.008058148
221	0x3d6d9cab	0.05801074
222	0xbccad0ca	-0.024757762
223	0x3d39638b	0.045260947
224	0x3c281548	0.01025898
225	0xbbe3ce57	-0.006952088
226	0x3d8baef8	0.06820482
227	0xbdd524d2	-0.104074135
228	0xbda2f139	-0.07956166
229	0x3d0d118c	0.034440562
230	0x3cb5d21c	0.022194915
231	0xbd5be5fd	-0.05368613
232	0xbd6393da	-0.055560924
233	0xbd2e61ef	-0.042573866
234	0x3d8777c0	0.066146374
235	0xbd592966	-0.053017996
236	0xbc89ef56	-0.016837757
237	0x3d2184af	0.039433178
238	0xbc8e3dd6	-0.01736347
239	0xbbeb85eb	-0.007187595
240	0x3b723624	0.003695854
241	0x3d0d15ac	0.034444496
242	0xbd326c37	-0.043560233
243	0x3a5a7303	0.0008333178
244	0x3a89f61c	0.0010525617
245	0x3cf1ba74	0.029507853
246	0x3cb740c3	0.022369748
247	0xbd05a6e2	-0.032629855
248	0xbd52447c	-0.051334843
249	0x3d41706e	0.047226362
250	0x3d2a701c	0.041610822
251	0xbd143817	-0.036186304
252	0x3d5db000	0.054122925
253	0xbca6b654	-0.020350613
254	0x3cc183dc	0.023622446
255	0x3c8ca0a0	0.017166436

l3.bias f4 [6]
0	0x3cf51a51	0.029919775
1	0x3d092267	0.033480074
2	0xbdef9e9c	-0.11700174
3	0x3d596d6a	0.05308286
4	0xbd13f3d6	-0.036121212
5	0x3e1136b2	0.14181021
