results/runs/single_assembly_rerun/Average_TD3_10_Peg-in-hole-single_assembly_seed_5/21000_actor.pth (torch_old, 510312 bytes, 6 tensors)

l1.weight f4 [400, 12]
0.190671 -0.21586496 0.23525274 0.18470997 0.2425468 -0.22132999 -0.19376364 0.13736281
-0.2694698 0.28531766 0.061446548 0.03728023 -0.34445804 0.08201948 0.07073629 0.20150942
0.26796025 0.08669412 0.1279504 0.579963 0.17839041 -0.016184336 -0.51602036 -0.005153896
0.20140478 -0.33550543 -0.004090535 0.20686543 0.015643656 -0.06316428 -0.41339365 0.21159059
-0.45684925 0.35428157 0.430932 0.48711422 -0.029571777 -0.0673121 0.0032834206 0.2733555
0.14648065 -0.081405684 -0.4840285 0.35162473 0.26187727 0.509616 0.47920483 0.38043076
0.1402854 -0.20257868 0.23992376 0.13096526 -0.013908578 -0.14349703 0.44211757 0.339382
0.28095102 -0.09734664 -0.34589636 0.03156119 -0.13520348 -0.34199136 -0.0010228646 0.003617711
-0.3655293 0.2332884 0.32061562 -0.027942829 -0.00431892 -0.35966727 -0.14104041 -0.38700148
-0.04595965 0.2184614 0.26615113 0.25341433 0.1660248 0.26831347 -0.10401122 -0.018373817
-0.09873605 -0.021217138 -0.035101116 0.15423197 0.3286931 -0.103590004 -0.046043154 -0.07356085
-0.06763745 -0.11205846 -0.417218 0.073170416 -0.3289716 0.13576572 0.014861716 0.04345048
-0.13119327 -0.059592996 0.25403652 0.19176814 -0.09427959 -0.26466393 -0.17991276 -0.19420102
-0.054609768 -0.10726021 -0.22037807 0.07413506 -0.11645361 0.0504379 -0.0047112857 0.10647163
-0.2928632 -0.0068775415 -0.034753818 0.6094649 -0.28227067 0.408773 0.45829314 0.48080996
0.08728838 -0.12755488 0.20034811 -0.10825166 -0.15545103 0.26184654 0.07647112 -0.0019928217
-0.20118177 -0.0638973 -0.22176056 -0.19422932 -0.18240634 0.38439804 -0.09716411 0.28065127
-0.02486647 -0.26865214 0.18304822 -0.17144646 -0.65757143 0.20321496 -0.12836681 -0.054531593
0.26934674 0.2088853 -0.12905507 -0.14709553 -0.28329486 -0.149565 0.01167542 -0.16443576
-0.027651241 -0.03177703 -0.33750045 -0.57394433 -0.09677067 -0.44377363 0.04206204 0.3415984
-0.18985584 0.16563451 0.5155811 -0.010710392 0.15526378 -0.10400612 -0.46582463 -0.386104
0.325441 0.42063627 -0.15201548 0.27749044 -0.14646065 -0.040286258 -0.35087204 -0.04297295
-0.4710626 -0.0012653703 -0.10232183 0.016847897 -0.11948626 -0.42446652 0.0013959863 0.017385723
-0.24545617 0.049177527 0.52530795 -0.02646449 0.1478253 -0.39119303 -0.6097498 -0.34698892
0.43800753 0.33730653 -0.14951959 -0.14221884 -0.06581049 0.10026094 -0.29308602 -0.16665766
-0.3482808 0.09403409 -0.016786821 0.14886302 0.18145946 -0.0031526685 0.1514447 0.20221636
0.18430409 -0.2749286 0.26163828 0.07633141 -0.28617752 0.07183349 -0.19878256 0.2672038
-0.19665128 -0.071510494 -0.07070677 0.052924145 -0.31290177 0.12360573 -0.15040061 0.6331948
-0.013736017 0.44378233 -0.22715567 0.33874696 0.19389158 0.42859316 -0.093859345 -0.10721245
0.040342446 0.1623233 -0.4327145 0.15347089 -0.39391738 0.5466321 0.105577335 0.39548433
0.26788276 -0.19413215 0.04808695 0.30215722 -0.13057904 0.15192255 0.31017202 -0.15047565
0.13389412 -0.4695515 -0.54764766 -0.5178781 -0.087784395 -0.018155515 0.115231425 -0.23103344
00000000: 423f 433e b40b 5dbe 18e6 703e 9c24 3d3e
00000010: 305e 783e 54a4 62be fa69 46be d6a8 0c3e
00000020: f2f7 89be 2815 923e 60af 7b3d 28b3 183d
00000030: ce5c b0be d4f9 a73d 30de 903d 7c58 4e3e
00000040: 1632 893e b08c b13d 6e05 033e 7578 143f
00000050: faab 363e 0395 84bc e919 04bf 03e2 a8bb
00000060: 0e3d 4e3e 5ec7 abbe e509 86bb 88d4 533e
00000070: 2027 803c 465c 81bd 55a8 d3be 34ab 583e
00000080: 25e8 e9be 6564 b53e 1ea3 dc3e 0967 f93e
00000090: 8340 f2bc edda 89bd a82e 573b 41f5 8b3e
000000a0: 06ff 153e 06b8 a6bd 95d2 f7be 2808 b43e
000000b0: c714 863e 3276 023f 565a f53e d2c7 c23e
000000c0: faa6 0f3e c970 4fbe 93ae 753e c21b 063e
000000d0: cee0 63bc e3f0 12be 3c5d e23e 7ac3 ad3e
000000e0: d0d8 8f3e ad5d c7bd 5419 b1be 4e46 013d
000000f0: c872 0abe 7e19 afbe a411 86ba 1e17 6d3b
00000100: a826 bbbe 28e3 6e3e bb27 a43e 5ce8 e4bc
00000110: ba85 8dbb 4f26 b8be e66c 10be 0f25 c6be
00000120: 3040 3cbd 58b4 5f3e f644 883e 86bf 813e
00000130: 6802 2a3e 6260 893e d603 d5bd b084 96bc
00000140: 2036 cabd 90cf adbc 30c6 0fbd fcee 1d3e
00000150: 764a a83e ff26 d4bd bf97 3cbd 12a7 96bd
00000160: 8185 8abd e87e e5bd 999d d5be 5fda 953d
00000170: f76e a8be 2b06 0b3e 8e7e 733c 21f9 313d
00000180: 8757 06be c917 74bd 1311 823e de5e 443e
00000190: a815 c1bd 0882 87be 0d3b 38be a2dc 46be
000001a0: 7eae 5fbd 3eab dbbd caaa 61be 1fd4 973d
000001b0: 3b7f eebd f997 4e3d 2161 9abb cc0d da3d
000001c0: 2af2 95be 005d e1bb 055a 0ebd e405 1c3f
000001d0: c885 90be b24a d13e 66a5 ea3e b92c f63e
000001e0: 40c4 b23d bf9d 02be 0e28 4d3e 0cb3 ddbd
000001f0: 8e2e 1fbe c010 863e e49c 9c3d 009a 02bb
00000200: 9802 4ebe 96dc 82bd 3315 63be 0de4 46be
00000210: bac8 3abe d2cf c43e fafd c6bd 86b1 8f3e
00000220: c4b4 cbbc c68c 89be fe70 3b3e a98f 2fbe
00000230: 9a56 28bf 9517 503e 9772 03be 855c 5fbd
00000240: d1e7 893e 07e6 553e 0327 04be 36a0 16be
00000250: 060c 91be 9127 19be 434a 3f3c d961 28be
00000260: db84 e2bc a228 02bd dccc acbe 04ee 12bf
00000270: b32f c6bd 4c36 e3be 3f49 2c3d fce5 ae3e
00000280: 9269 42be 189c 293e 1ffd 033f a47a 2fbc
00000290: 78fd 1e3e 2901 d5bd 9180 eebe 6caf c5be
000002a0: 34a0 a63e a35d d73e f2a9 1bbe 3a13 8e3e
000002b0: c8f9 15be 3403 25bd 80a5 b3be 6704 30bd
000002c0: 1e2f f1be c8da a5ba 1c8e d1bd 9a04 8a3c
000002d0: 36b5 f4bd ad53 d9be 87f9 b63a 816c 8e3c
000002e0: dd58 7bbe 606e 493d 957a 063f 0fcc d8bc
000002f0: 845f 173e 744a c8be 9018 1cbf 88a8 b1be
00000300: 8642 e03e 71b3 ac3e aa1b 19be d1a1 11be
00000310: a6c7 86bd 9c55 cd3d 5f0f 96be 4ea8 2abe
00000320: dc51 b2be f294 c03d 8484 89bc 8c6f 183e
00000330: 82d0 393e 009d 4ebb 5214 1b3e ce11 4f3e
00000340: 36ba 3c3e 71c3 8cbe 74f5 853e a453 9c3d
00000350: dc85 92be 701d 933d a88d 4bbe f0ce 883e
00000360: f45e 49be 1874 92bd b6ce 90bd fdc6 583d
00000370: a934 a0be 0025 fd3d 9e02 1abe 0e19 223f
00000380: 080d 61bc 7037 e33e 7f9b 68be 3e70 ad3e
00000390: 848b 463e 9070 db3e 5439 c0bd 3392 dbbd
000003a0: 1f3e 253d 1438 263e c18c ddbe 7927 1d3e
000003b0: 8aaf c9be 15f0 0b3f ee38 d83d ec7c ca3e
000003c0: ee27 893e 94ca 46be d2f6 443d 5ab4 9a3e
000003d0: 83b6 05be 9691 1b3e dece 9e3e 4a16 1abe
000003e0: 8a1b 093e 0e69 f0be a332 0cbf a993 04bf
000003f0: 4ec8 b3bd e0ba 94bc 74fe eb3d 0894 6cbe

l1.bias f4 [400]
0.023947 0.20346539 0.62161183 0.33086956 0.0034424884 -0.24104208 0.105590016 0.2010835
-0.18605171 0.24439041 -0.16277187 -0.1364419 -0.32988495 -0.19794537 -0.22166121 -0.5255224
0.2702446 -0.26838145 -0.25204396 0.3856611 0.14960633 -0.1153539 0.060064524 -0.34890306
0.021158317 -0.49397552 0.23583233 0.017937243 -0.30859813 -0.18979658 -0.083047226 0.18716125
-0.21009144 -0.40691763 -0.39837325 -0.49998122 0.28752267 -0.017225582 0.19343336 -0.31052026
0.2445361 -0.085504845 -0.052413743 -0.08516342 -0.29988867 0.06841101 0.5259648 0.14555773
-0.02864953 0.027339937 0.04900469 -0.37778714 0.31406313 0.12450969 -0.097401775 -0.23398334
-0.04963073 -0.26267648 -0.07361271 -0.109475 -0.28960142 0.27469748 -0.42149392 -0.18465774
0.37169468 0.104897454 -0.16271436 0.07353726 0.009628482 -0.24659255 -0.07682197 0.2684688
0.14995289 0.05514899 -0.10220857 -0.2695706 -0.15065773 0.03215522 -0.06191178 -0.48874527
0.098023966 0.5329021 0.039230276 0.40563977 0.1670872 -0.27778015 0.28321743 -0.45343366
-0.033486307 -0.21173339 0.026622472 -0.13393545 -0.19714166 0.0294289 -0.13630745 -0.09079987
-0.14774583 0.40861702 -0.18365617 -0.55273515 -0.07725114 0.20117497 0.22303283 -0.09347424
0.043082856 0.14253592 0.24762881 -0.15101333 0.12169938 -0.052370988 -0.5130279 0.1997797
-0.3397822 0.046366967 -0.055912405 0.52326256 -0.27959 0.11724226 -0.08836442 0.63584805
-0.12130829 0.66886395 -0.3102044 0.2202096 -0.044451274 0.14780572 0.22937393 0.03388768
0.27728295 -0.2455078 -0.4246341 -0.38630354 -0.02455107 0.31414098 0.059195846 -0.06459747
-0.043366037 -0.1996906 -0.3285076 0.33156624 -0.1729561 0.23971497 -0.12250355 -0.05332181
-0.2604763 0.027744787 -0.15017001 -0.48432475 -0.04142805 0.11068161 -0.042948846 0.36413917
-0.2991023 -0.26633188 -0.26779604 -0.16245691 -0.4277893 -0.41581738 0.23661637 -0.21310219
0.013038069 -0.06490275 -0.13600808 -0.094194114 -0.05320601 -0.48875776 0.11478639 -0.14893563
0.5297069 0.2878589 0.13360229 -0.19865325 -0.17280258 -0.16251695 0.41511405 0.1287499
0.050300725 0.045225907 0.019270549 0.36941147 0.2109076 0.24289846 -0.19078544 0.22875847
-0.3029254 0.49195352 0.06670344 0.2044904 0.17134464 0.2050798 -0.567648 -0.031832363
0.1904331 0.255721 0.17458406 -0.09178962 -0.19188881 -0.10788217 -0.16983117 0.024969384
0.03555859 0.17381567 -0.27686 0.40664166 -0.4687747 -0.23740372 -0.47027442 0.2314024
0.22256829 -0.3585187 0.331855 0.30432528 -0.16374707 0.03690768 0.15325812 -0.13334616
-0.25593203 -0.020376675 -0.1401853 -0.004910028 0.030887872 -0.10533901 0.00026792317 0.12289181
0.13765548 0.093592875 0.19077325 0.2972017 -0.465952 0.050481427 0.010290659 -0.5873962
0.27040875 0.17626908 0.14515276 0.41027662 0.167077 -0.43715316 0.115651995 -0.21670587
-0.49393442 0.25432113 0.22936815 0.02761614 -0.2532556 -0.2262022 0.0031307156 0.2758752
-0.07027089 0.014824301 -0.3365144 0.06225881 -0.26048034 -0.029237453 -0.21347706 -0.261343
00000000: 802c c43c 3b59 503e f421 1f3f bc67 a93e
00000010: 5f9b 613b bcd3 76be 943f d83d d5e8 4d3e
00000020: 5784 3ebe 7b41 7a3e abad 26be 6db7 0bbe
00000030: aee6 a8be 31b2 4abe 28fb 62be a388 06bf
00000040: 805d 8a3e 4b69 89be e80b 81be 5f75 c53e
00000050: 6732 193e aa3e ecbd 3806 763d 6ca3 b2be
00000060: 3554 ad3c 5cea fcbe 087e 713e 20f1 923c
00000070: 9300 9ebe 095a 42be aa14 aabd 33a7 3f3e
00000080: 3622 57be 8257 d0be 94f7 cbbe 8afd ffbe
00000090: 2c36 933e aa1c 8dbc 6513 463e 83fc 9ebe
000000a0: ac67 7a3e 2a1d afbd cbaf 56bd 296a aebd
000000b0: 028b 99be 121b 8c3d a1a5 063f 160d 153e
000000c0: 6bb2 eabc 01f8 df3c 24b9 483d 516d c1be
000000d0: e2cc a03e f0fe fe3d 957a c7bd 5499 6fbe
000000e0: 9849 4bbd 887d 86be 43c2 96bd 6e34 e0bd
000000f0: a346 94be 26a5 8c3e 0dce d7be eb16 3dbe
00000100: c44e be3e 7ad4 d63d 989e 26be b49a 963d
00000110: c8c0 1d3c c282 7cbe d654 9dbd be74 893e
00000120: 408d 193e e8e3 613d ba52 d1bd 2805 8abe
00000130: 0546 1abe 31b5 033d 3597 7dbd d23c fabe
00000140: cac0 c83d 466c 083f edaf 203d 04b0 cf3e
00000150: e818 2b3e 3339 8ebe e001 913e 7528 e8be
00000160: f028 09bd a3d0 58be 5f17 da3c 6026 09be
00000170: 81df 49be e014 f13c 2e94 0bbe 48f5 b9bd
00000180: af4a 17be 4036 d13e 5d10 3cbe 0d80 0dbf
00000190: d835 9ebd d000 4e3e b862 643e 6c6f bfbd
000001a0: a677 303d f0f4 113e 6892 7d3e 3da3 1abe
000001b0: 863d f93d f682 56bd cc55 03bf 0d93 4c3e
000001c0: eff7 adbe 4aeb 3d3d 6804 65bd 89f4 053f
000001d0: 6c26 8fbe b61c f03d 68f8 b4bd f0c6 223f
000001e0: 7b70 f8bd ab3a 2b3f 1cd3 9ebe a07e 613e
000001f0: 8a12 36bd 625a 173e 00e1 6a3e cfcd 0a3d
00000200: 08f8 8d3e 6666 7bbe a469 d9be 94c9 c5be
00000210: 531f c9bc 16d7 a03e 5877 723d ae4b 84bd
00000220: 96a0 31bd b17b 4cbe 2632 a8be 0dc3 a93e
00000230: 671b 31be d777 753e 24e3 fabd f867 5abd
00000240: 265d 85be 0949 e33c 2bc6 19be 6af9 f7be
00000250: 75b0 29bd 0aad e23d 21eb 2fbd 7370 ba3e
00000260: f023 99be a75c 88be 901c 89be 1b5b 26be
00000270: 3307 dbbe 04e6 d4be 904b 723e 7637 5abe
00000280: a09d 553c bceb 84bd b445 0bbe d8e8 c0bd
00000290: 8cee 59bd 753e fabe 2015 eb3d 9582 18be
000002a0: df9a 073f 3e62 933e 0acf 083e c26b 4bbe
000002b0: 29f3 30be d86a 26be d489 d43e 04d7 033e
000002c0: 2208 4e3d cd3e 393d 45dd 9d3c 8023 bd3e
000002d0: 29f8 573e 60ba 783e 425d 43be a93f 6a3e
000002e0: 0a19 9bbe 55e1 fb3e d09b 883d ee65 513e
000002f0: f874 2f3e 7000 523e 6151 11bf a762 02bd
00000300: e500 433e dded 823e 2ac6 323e 32fc bbbd
00000310: 807e 44be 54f1 dcbd 39e8 2dbe 988c cc3c
00000320: e2a5 113d bcfc 313e 98c0 8dbe 5633 d03e
00000330: 3d03 f0be f619 73be cfc7 f0be c0f4 6c3e
00000340: f1e8 633e c38f b7be e6e8 a93e 86d0 9b3e
00000350: 50ad 27be 822c 173d b2ef 1c3e e58b 08be
00000360: 8609 83be fcec a6bc bc8c 0fbe 4de4 a0bb
00000370: 9008 fd3c fbbb d7bd 0a78 8c39 b4ae fb3d
00000380: 8ff5 0c3e 9fad bf3d 105a 433e d22a 983e
00000390: 4391 eebe 9dc5 4e3d 279a 283c 995f 16bf
000003a0: 0473 8a3e e27f 343e eda2 143e c70f d23e
000003b0: 3c16 2b3e 8ad2 dfbe f4da ec3d 25e8 5dbe
000003c0: f9e4 fcbe 6136 823e 7cdf 6a3e 3e3b e23c
000003d0: b8aa 81be 8da1 67be b12c 4d3b 843f 8d3e
000003e0: 2fea 8fbd a0e1 723c 9e4b acbe 1803 7f3d
000003f0: ae5d 85be 6283 efbc bb99 5abe c0ce 85be

l2.weight f4 [300, 400]
-0.03021655 0.24726768 -0.11383608 -0.064731464 0.27414244 0.11119952 -0.0123791285 -0.026253095
0.013983376 0.004079163 -0.0050981715 -0.021439936 -0.27206025 0.01835084 -0.045273762 0.110451
-0.041874126 -0.041460715 -0.034262594 -0.027082836 0.07571692 0.047513936 0.13170812 -0.021113746
-0.038390398 0.02464426 0.053500418 -0.013387948 0.0017780863 0.019897033 -0.026876349 -0.21558723
0.0007250398 0.0034281914 -0.025099028 -0.012359795 -0.07059017 -0.11713375 0.03860696 -0.027261572
-0.022651859 0.06112632 -0.0009079731 0.06092438 0.042524047 -0.056538418 -0.006616589 0.2567316
-0.03456188 0.029245317 -0.033437677 -0.060098186 0.27178696 0.006200582 0.023936482 0.22353315
-0.003439445 -0.13307868 0.007329686 -0.00723527 0.022359852 0.028197285 -0.055327967 -0.12807508
-0.0833901 -0.01706015 0.03266469 0.012187008 0.0063764877 -0.009256858 0.025421027 0.010117494
0.037634302 -0.026497906 -0.010276176 0.039632045 0.007560771 -0.015395794 -0.0023404679 -0.09131062
0.049465723 -0.13594566 0.122565724 -0.3684941 -0.083309375 0.029412756 -0.015348457 -0.11551108
-0.01593893 -0.030899439 0.11148464 -0.017560298 -0.10604382 0.022250012 -0.025100365 -0.013449533
0.07847986 -0.37780535 0.04778122 -0.008023366 0.044104032 -0.14463477 0.007718645 -0.22274983
0.022673918 0.061334707 0.04957583 0.019249994 0.050604567 -0.09336907 0.02812722 0.04170331
0.115411155 0.28063828 -0.059107836 -0.17341842 0.03333469 0.14749554 0.08783026 0.06316824
-0.12625802 -0.014543793 -0.040508743 -0.044981997 -0.007733994 0.03645939 0.05531378 0.024012381
0.008093048 -0.10137811 -0.06602644 -0.07994451 0.009535886 -0.1760944 -0.038920395 0.06419212
0.029380148 0.027362835 0.20979571 -0.01311632 0.09581435 -0.10576942 0.029099349 0.21634659
-0.057062756 0.01600723 -0.02900362 -0.010425321 -0.08691939 -0.00039594597 0.10978303 -0.14399646
-0.06691759 0.13861994 -0.03825493 0.029457096 -0.08680992 0.04977482 0.03650694 -0.022054315
-0.026185364 -0.044435643 -0.014490992 0.049811278 0.017452832 -0.02743672 -0.03246633 0.015382177
-0.020433618 0.02452029 -0.03779909 0.2294645 0.02324158 -0.04935256 -0.013340833 -0.08707493
0.0969303 -0.045929402 -0.13125107 0.005654866 -0.011374127 0.03059442 0.032083634 -0.0685718
-0.009141583 0.0797862 0.039385054 -0.3146989 -0.1154215 -0.0747089 -0.039264835 -0.052181996
-0.10039076 -0.03957781 -0.010444768 0.030771833 0.0015934545 0.039826673 -0.036503363 0.013826225
0.24162431 -0.04992313 -0.043717455 0.012557536 0.058944046 -0.1258118 -0.0814695 0.18408424
0.14320825 -0.072585836 -0.34678143 0.032393895 0.0038667528 0.069368176 -0.025097454 -0.02835663
-0.06318244 0.101863965 -0.17945883 -0.028716674 -0.014788348 0.11072157 -0.028585423 -0.01287847
-0.043931372 -0.2508546 -0.042025942 -0.06467127 0.075263344 -0.049305875 0.0731375 0.000862256
-0.15515068 0.011617951 0.19037025 -0.1531886 0.035926115 0.037591748 0.06199969 -0.040717278
-0.003220296 0.10770676 -0.039814215 0.10136665 -0.009082567 0.045367043 0.021155087 0.16996364
-0.05154845 0.048097912 -0.11695018 0.058070082 0.0394711 0.029280752 0.021658968 -0.087666236
00000000: b388 f7bc bd33 7d3e e422 e9bd ee91 84bd
00000010: 665c 8c3e 93bc e33d d4d1 4abc bb10 d7bc
00000020: 881a 653c 80aa 853b 900e a7bb cea2 afbc
00000030: 7b4b 8bbe 8054 963c fb70 39bd 2234 e23d
00000040: 3484 2bbd b6d2 29bd ef56 0cbd d3dc ddbc
00000050: 7911 9b3d f99d 423d 7ede 063e bcf6 acbc
00000060: 403f 1dbd c2e2 c93c 4123 5b3d 2059 5bbc
00000070: ad0e e93a 1aff a23c ca2b dcbc e6c2 5cbe
00000080: 9910 3e3a 82ab 603b 7a9c cdbc bd80 4abc
00000090: 9491 90bd d2e3 efbd 5522 1e3d a953 dfbc
000000a0: 6490 b9bc 985f 7a3d 0b05 6eba d88b 793d
000000b0: b22d 2e3d d494 67bd f9cf d8bb 5372 833e
000000c0: c290 0dbd e093 ef3c f2f5 08bd 8429 76bd
000000d0: a927 8b3e 402e cb3b 7116 c43c e0e5 643e
000000e0: 5068 61bb c745 08be dd2d f03b d815 edbb
000000f0: 022c b73c fefd e63c 949f 62bd 1d26 03be
00000100: 6ec8 aabd bac1 8bbc 69cb 053d 04ac 473c
00000110: dbf1 d03b 14aa 17bc c23f d03c d8c3 253c
00000120: 6d26 1a3d 2312 d9bc 685d 28bc 3655 223d
00000130: 58c0 f73b a43e 7cbc 8962 19bb 1001 bbbd
00000140: 929c 4a3d 5735 0bbe bd03 fb3d 42ab bcbe
00000150: 1b9e aabd 05f3 f03c 1878 7bbc 1391 ecbd
00000160: 5c92 82bc d220 fdbc 0f52 e43d 9dda 8fbc
00000170: 812d d9bd a845 b63c 489f cdbc 6e5b 5cbc
00000180: 0dba a03d b46f c1be 3eb6 433d 7074 03bc
00000190: 6ea6 343d 231b 14be b0ec fc3b 8818 64be
000001a0: a7be b93c 1a3a 7b3d 0710 4b3d 2ab2 9d3c
000001b0: bc46 4f3d 4838 bfbd 0e6b e63c 17d1 2a3d
000001c0: af5c ec3d d2af 8f3e 0f1b 72bd 9994 31be
000001d0: f589 083d 1209 173e 5ae0 b33d 5a5e 813d
000001e0: c849 01be 1749 6ebc 7fec 25bd 0b3f 38bd
000001f0: 726d fdbb 7156 153d b490 623d 9db5 c43c
00000200: b498 043c 549f cfbd df38 87bd f2b9 a3bd
00000210: 683c 1c3c 1752 34be fe6a 1fbd 2977 833d
00000220: a3ae f03c 0628 e03c b0d4 563e d5e5 56bc
00000230: 503a c43d a39d d8bd c261 ee3c f689 5d3e
00000240: a3ba 69bd 9821 833c 0099 edbc f7ce 2abc
00000250: cb02 b2bd f896 cfb9 edd5 e03d cf73 13be
00000260: 170c 89bd 63f2 0d3e 34b1 1cbd 0250 f13c
00000270: 66c9 b1bd afe0 4b3d 4d88 153d 40ab b4bc
00000280: b082 d6bc 2602 36bd a06b 6dbc e906 4c3d
00000290: 3ef9 8e3c f9c2 e0bc 6afb 04bd 8705 7c3c
000002a0: 6764 a7bc c6de c83c 38d3 1abd bef8 6a3e
000002b0: 2065 be3c e925 4abd 8293 5abc 5754 b2bd
000002c0: 6583 c63d 7820 3cbd ae66 06be 744c b93b
000002d0: 8c5a 3abc 26a1 fa3c 216a 033d 5f6f 8cbd
000002e0: 94c6 15bc f266 a33d 3952 213d 3720 a1be
000002f0: 1b62 ecbd fb00 99bd 2ad4 20bd cabc 55bd
00000300: ac99 cdbd 571c 22bd 8820 2bbc 3615 fc3c
00000310: 76db d03a 4b21 233d 8d84 15bd 6487 623c
00000320: 5d6c 773e 327c 4cbd 1311 33bd 20be 4d3c
00000330: 506f 713d cfd4 00be 7bd9 a6bd 9480 3c3e
00000340: 2fa5 123e e2a7 94bd 568d b1be 76af 043d
00000350: 5969 7d3b e710 8e3d 2d99 cdbc 2a4c e8bc
00000360: cc65 81bd 0e9e d03d 0ec4 37be 3b3f ebbc
00000370: d44a 72bc fec1 e23d fa2b eabc 3800 53bc
00000380: 62f1 33bd 0470 80be 6523 2cbd 5f72 84bd
00000390: ab23 9a3d f5f4 49bd 1dc9 953d 0509 623a
000003a0: d2df 1ebe 3859 3e3c 6bf0 423e 79dd 1cbe
000003b0: 4327 133d cef9 193d 63f3 7d3d 29c7 26bd
000003c0: 9a0b 53bb 5d95 dc3d 3b14 23bd 5199 cf3d
000003d0: 0ccf 14bc cbd2 393d 6f4d ad3c f30a 2e3e
000003e0: 7824 53bd 5102 453d 9383 efbd e5da 6d3d
000003f0: 73ac 213d 30de ef3c 266e b13c 5b8a b3bd

l2.bias f4 [300]
-0.092255525 0.03859789 -0.10265897 -0.02531605 0.032849696 -0.18654114 -0.11083167 -0.0076180412
-0.09878561 0.02640009 0.023103757 0.041188005 -0.027068153 0.03953777 0.020423507 -0.006215273
0.09061273 0.019605882 0.03431164 -0.016689604 -0.06958468 -0.12181124 -0.031759918 -0.1454917
-0.25403753 0.08972706 0.15409195 -0.051151786 -0.06385181 -0.20998241 -0.033979747 -0.100495465
0.008064975 -0.062054377 0.033208545 0.03998408 -0.009237106 -0.19973996 -0.06153981 0.03305169
-0.06969031 -0.0456999 -0.09709196 0.011530407 -0.019761562 -0.006141535 0.04481731 -0.050126158
0.3246868 0.008601271 -0.04087186 0.15331851 -0.052580196 0.025395637 0.0019474238 -0.0810042
-0.17846662 -0.07319313 0.038161565 0.03616218 0.114061005 0.043225445 0.04261245 -0.013236986
-0.014971378 -0.12278278 -0.09910324 -0.026119733 0.012453484 -0.20574988 -0.03871953 -0.19453472
-0.08793327 -0.052910265 -0.21810557 0.00081104715 0.30362284 0.024829842 -0.032815292 0.010523924
-0.14471446 -0.1853334 -0.09667006 -0.04137669 -0.035561845 -0.021247229 0.17081296 0.033196583
-0.022541188 -0.029530741 -0.13357794 -0.08696033 -0.0035079343 -0.20401892 -0.09841824 -0.01387235
0.01091067 0.013672141 -0.062416103 -0.039340448 0.0322734 -0.16290379 -0.055236593 0.013979656
-0.042645898 -0.007625748 0.015458396 0.04243508 0.004461158 -0.017917024 -0.09968202 0.16680756
-0.036462832 -0.12683977 0.028686477 -0.009094659 -0.036774267 0.08560519 0.07964525 0.020943716
-0.039141253 -0.026881155 0.023238117 0.008121982 0.33814785 -0.030625327 0.040742047 0.010462492
0.0044393283 -0.049422905 0.038292468 -0.045515597 -0.103670835 0.0061529237 0.030692905 -0.09031882
-0.07867925 -0.021638699 0.044599634 -0.1792253 0.042379968 -0.02339226 0.014416234 0.14345443
-0.13072918 0.03639006 -0.060889985 0.14761887 0.12932305 -0.055710077 -0.13724706 -0.08134607
-0.034027766 0.011084996 0.06363412 0.09675547 0.03343177 -0.02049843 -0.026305666 -0.110321626
0.025953664 -0.07740252 -0.029262196 -0.054055247 -0.040217962 0.0015656318 -0.16684246 0.029468656
-0.020990446 -0.05383496 -0.07638962 0.0016810305 -0.007621991 0.005039497 -0.042188693 0.015359892
-0.063467145 0.03544864 -0.072695985 0.04392261 -0.18913832 0.021297658 -0.06844736 -0.068063155
-0.15756987 0.0025642724 -0.10524121 0.02633385 -0.0025456888 0.029678691 0.0350935 -0.001983733
-0.012378251 -0.01980266 -0.01248201 -0.08612616 0.12902857 0.039447866 -0.08663229 -0.13264652
-0.03346022 0.08665685 -0.009932714 -0.10177143 -0.14503583 -0.013323534 0.034462728 0.04923416
0.014554444 -0.043881744 -0.09193234 -0.055052 0.18537624 -0.055479888 0.00079440454 -0.01090426
0.0523137 -0.21738888 0.017881814 0.016978538 0.006077405 -0.1969111 -0.012938441 0.0008089449
-0.008587952 0.011586995 -0.011987632 -0.04023327 0.024348913 -0.06932138 -0.023539456 -0.020049231
0.016617704 0.010227657 0.014778307 -0.057959657 -0.04823964 -0.22729085 0.006065513 0.031270508
0.09255621 -0.05030962 -0.034759287 0.24091397 -0.056330744 0.10017423 0.04233214 -0.029382002
0.036315836 0.0013746921 0.042233218 -0.20824474 0.24741134 0.10189853 -0.26404926 -0.018857934
00000000: 77f0 bcbd d218 1e3d de3e d2bd 9b63 cfbc
00000010: 678d 063d a404 3fbe b7fb e2bd c3a0 f9bb
00000020: 1c50 cabd 0045 d83c 1744 bd3c c1b4 283d
00000030: 08be ddbc 5bf2 213d 334f a73c 7da9 cbbb
00000040: 2b93 b93d 849c a03c 5d8a 0c3d a3b8 88bc
00000050: 6a82 8ebd 2c78 f9bd b016 02bd c7fb 14be
00000060: 3511 82be d2c2 b73d 48ca 1d3e 8984 51bd
00000070: bdc4 82bd a105 57be 592e 0bbd 91d0 cdbd
00000080: f522 043c bb2c 7ebd af05 083d 59c6 233d
00000090: 3b57 17bc a288 4cbe 2b11 7cbd 3561 073d
000000a0: cbb9 8ebd d12f 3bbd 26d8 c6bd 08ea 3c3c
000000b0: 00e3 a1bc ee3e c9bb 5b92 373d 1651 4dbd
000000c0: 593d a63e 58ec 0c3c 4069 27bd 87ff 1c3e
000000d0: 555e 57bd 830a d03c b340 ff3a 88e5 a5bd
000000e0: f4bf 36be 48e6 95bd 4d4f 1c3d cb1e 143d
000000f0: d198 e93d 2a0d 313d 648a 2e3d f1df 58bc
00000100: 834a 75bc 8a75 fbbd a4f6 cabd 0df9 d5bc
00000110: b309 4c3c 19b0 52be 5f98 1ebd 1c34 47be
00000120: 5c16 b4bd 6fb8 58bd 1157 5fbe 749c 543a
00000130: 7474 9b3e f467 cb3c 5469 06bd 896c 2c3c
00000140: 0730 14be 0ac8 3dbe f4fa c5bd 9b7a 29bd
00000150: 4ca9 11bd ab0e aebc 98e9 2e3e 24f9 073d
00000160: 4ca8 b8bc 74ea f1bc a8c8 08be 4218 b2bd
00000170: 5fe5 65bb 56ea 50be 818f c9bd da48 63bc
00000180: abc2 323c 1e01 603c 07a8 7fbd 7323 21bd
00000190: 1d31 043d 40d0 26be c43f 62bd ed0a 653c
000001a0: 77ad 2ebd 69e1 f9bb 3645 7d3c 68d0 2d3d
000001b0: e82e 923b b9c6 92bc 1626 ccbd 9acf 2a3e
000001c0: 0d5a 15bd 49e2 01be e7ff ea3c c401 15bc
000001d0: 9da0 16bd c651 af3d 0d1d a33d 2892 ab3c
000001e0: 9452 20bd de35 dcbc dd5d be3c 1012 053c
000001f0: b721 ad3e f7e1 fabc 22e1 263d df6a 2b3c
00000200: c977 913b ac6f 4abd 90d8 1c3d 906e 3abd
00000210: 6051 d4bd 779e c93b b06f fb3c 13f9 b8bd
00000220: 9622 a1bd a443 b1bc 1bae 363d d686 37be
00000230: 9e96 2d3d 20a1 bfbc 1132 6c3c b8e5 123e
00000240: dfdd 05be be0d 153d c767 79bd 6729 173e
00000250: 436d 043e 4030 64bd 7e8a 0cbe c598 a6bd
00000260: b360 0bbd d89d 353c 9b52 823d bb27 c63d
00000270: c0ef 083d 53ec a7bc fb7e d7bc 4ef0 e1bd
00000280: c79c d43c 3685 9ebd 46b7 efbc 0969 5dbd
00000290: 97bb 24bd e335 cd3a c0d8 2abe 4068 f13c
000002a0: 28f4 abbc 0c82 5cbd 2972 9cbd 0656 dc3a
000002b0: e5c1 f9bb 5d22 a53b 0dce 2cbd 0ea8 7b3c
000002c0: 10fb 81bd 9832 113d a2e1 94bd 32e8 333d
000002d0: 7aad 41be 6d78 ae3c 212e 8cbd b264 8bbd
000002e0: ff59 21be 5a0d 283b b488 d7bd 16ba d73c
000002f0: 92d5 26bb ba20 f33c 34be 0f3d 8401 02bb
00000300: 26ce 4abc 3039 a2bc 5881 4cbc ea62 b0bd
00000310: 1120 043e 1694 213d 456c b1bd 7dd4 07be
00000320: 950d 09bd 2679 b13d d2bc 22bc 8a6d d0bd
00000330: 4684 14be f44a 5abc ca28 0d3d c2a9 493d
00000340: c375 6e3c 58bd 33bd 0647 bcbd 357e 61bd
00000350: 45d3 3d3e e13e 63bd 963f 503a c8a7 32bc
00000360: e446 563d 319b 5ebe e27c 923c 9316 8b3c
00000370: f824 c73b 10a3 49be c1fb 53bc 600f 543a
00000380: 7bb4 0cbc 61d7 3d3c c667 44bc a4cb 24bd
00000390: 5f77 c73c 5ef8 8dbd d1d5 c0bc 493e a4bc
000003a0: da21 883c e791 273c b620 723c 1b67 6dbd
000003b0: ee96 45bd efbe 68be 36c1 c63b 8115 003d
000003c0: 1c8e bd3d 7611 4ebd c15f 0ebd 27b2 763e
000003d0: 11bb 66bd 2628 cd3d 7764 2d3d 86b2 f0bc
000003e0: eabf 143d 032f b43a bdfc 2c3d 1c3e 55be
000003f0: 6659 7d3e 2db0 d03d 7731 87be f47b 9abc

l3.weight f4 [6, 300]
0.012223827 0.046495773 -0.058811065 -0.023685608 0.016062237 0.007420386 0.059060954 0.0005973354
-0.006289385 -0.025501393 0.078477785 -0.01914786 -0.025565617 -0.03703817 -0.0544188 0.010413609
0.020913268 -0.0036114035 0.007948341 0.041344833 -0.006352936 0.030688612 -0.04540539 -0.027265394
-0.01886729 -0.030361613 0.052931 -0.00674349 -0.042906396 0.030000838 -0.043223258 -0.0055437014
0.06188102 0.08120974 -0.014240349 -0.022508642 0.049809583 0.009984949 -0.030318087 0.011549566
0.056875862 -0.03401768 0.033125266 -0.01750667 0.0085164225 -0.007786153 -0.057017952 -0.043899834
0.08312888 -0.031069329 -0.03080992 0.028182654 -0.008400768 0.03426005 0.006728835 0.02490229
0.014425817 0.048900805 -0.0020237 -0.034780517 -0.0010591345 -0.054188594 -0.056840364 0.028413672
0.049171455 -0.0374861 0.05261242 0.044782005 -0.03807875 -0.029580018 -0.061693415 0.003747892
0.038184304 -0.024700431 -0.057426147 -0.056948833 0.039592337 -0.020936944 0.015814349 0.031229917
0.050859015 -0.046078064 -0.013526806 -0.0033194534 0.046970285 -0.0312969 0.040647812 0.003993349
0.03964652 0.05553625 -0.00013174606 -0.020131223 0.038526777 -0.0115706315 -0.03808795 0.046757367
-0.04997307 -0.04527882 -0.027397228 -0.017833758 0.016870862 0.029376527 0.0026800185 0.05611166
-0.053602114 0.027061876 -0.042891543 0.025423273 0.0329772 -0.058821093 -0.049300976 0.013612148
0.019991904 -0.0026725612 -0.03377637 -0.00030937564 0.034674633 0.038587514 -0.034858063 0.0067893416
-0.05907503 -0.02800551 0.039899286 0.039912537 0.059660073 -0.0645563 0.04955969 0.03601411
0.00075113977 0.010969063 0.021104598 -0.021846205 -0.04174027 0.031044759 -0.0096956575 0.04904231
0.016472027 -0.017905684 0.011403416 0.016143266 0.036496412 -0.012995346 0.05725059 0.07269415
0.10688867 -0.05447202 -0.03892457 0.11848067 0.11582244 0.00058700604 0.0057870126 0.05885495
-0.023733819 -0.037330188 0.056292176 0.16287616 0.026644139 -0.01025807 0.13320921 -0.046787985
0.038313128 0.020750377 0.015357754 -0.017532 0.020997271 -0.04820399 -0.013816726 -0.021077275
-0.011687849 0.012619594 -0.037723843 -0.04357375 0.022179341 0.048359495 0.020311324 0.046776693
0.028360426 -0.026593683 -0.0050748927 -0.04099469 0.022594512 0.031720527 0.021127842 -0.011723562
0.04358323 -0.017753031 0.0072104707 -0.0044034612 -0.0063072797 -0.04481883 -0.015841968 -0.03971771
-0.010287384 -0.03044472 0.030946843 0.016991047 0.07751899 -0.017632755 -0.025009573 -0.052913494
-0.014447156 0.062559195 0.051051244 0.030557182 -0.025258865 0.029942652 0.018071348 0.028724605
0.07721796 0.00022682949 0.025329053 0.027744966 -0.00039935173 0.023240052 -0.043080676 0.008803815
-0.015247185 0.05807677 0.031954106 -0.054500595 -0.028970366 0.052629504 0.01627928 0.024533821
-0.046657056 -0.01764817 -0.045866124 -0.0408566 -0.042923383 0.032861408 -0.030201357 0.030021079
-0.0452966 -0.0104233725 -7.824012e-05 0.035488352 -0.020140894 0.033449713 -0.0053887083 -0.008352824
0.051821604 0.04253074 0.017835151 0.011309771 0.0046641044 0.07143166 0.038143348 -0.022073487
-0.015007741 -0.010105852 0.045116693 0.02761108 0.040738195 0.10961334 0.07113927 0.04715546
00000000: 7246 483c 5a72 3e3d dfe3 70bd 5208 c2bc
00000010: f494 833c b626 f33b e6e9 713d 8096 1c3a
00000020: 2f17 cebb 4ce8 d0bc f6b8 a03d f9db 9cbc
00000030: fc6e d1bc 56b5 17bd 3fe6 5ebd d89d 2a3c
00000040: 4d52 ab3c 4cad 6cbb c239 023c 3359 293d
00000050: 4a2c d0bb af66 fb3c 01fb 39bd ad5b dfbc
00000060: 938f 9abc ebb8 f8bc 2dce 583d 7ff8 dcbb
00000070: 9ebe 2fbd 51c4 f53c df0a 31bd f0a7 b5bb
00000080: f476 7d3d 4b51 a63d 5a50 69bc 0b64 b8bc
00000090: 2205 4c3d e997 233c a35d f8bc 643a 3d3c
000000a0: aaf6 683d 1f56 0bbd 5cae 073d 266a 8fbc
000000b0: 7788 0b3c fc22 ffbb a88b 69bd 50d0 33bd
000000c0: 793f aa3d 1b85 febc 1665 fcbc 4fdf e63c
000000d0: 60a3 09bc 4454 0c3d 8f7d dc3b e3ff cb3c
000000e0: 435a 6c3c 364c 483d 0da0 04bb 0476 0ebd
000000f0: a8d2 8aba dcf4 5dbd 71d1 68bd cac3 e83c
00000100: 0268 493d 068b 19bd 1f80 573d 566d 373d
00000110: 77f8 1bbd cb51 f2bc 3cb2 7cbd 329f 753b
00000120: 2567 1c3d 8f58 cabc ae37 6bbd 2e43 69bd
00000130: 932b 223d f483 abbc 188d 813c e2d5 ff3c
00000140: 8b51 503d 5abc 3cbd 899f 5dbc 308b 59bb
00000150: ea63 403d 2e31 00bd 527e 263d a4da 823b
00000160: 6464 223d fb79 633d 5025 0ab9 3cea a4bc
00000170: 41ce 1d3d bf92 3dbc 1c02 1cbd a784 3f3d
00000180: 90b0 4cbd 4976 39bd 2770 e0bc 1a18 92bc
00000190: c334 8a3c 0ba7 f03c 40a3 2f3b 57d5 653d
000001a0: e48d 5bbd deb0 dd3c 0baf 2fbd 7844 d03c
000001b0: 1a13 073d 63ee 70bd d2ef 49bd 7d05 5f3c
000001c0: 10c6 a33c 2326 2fbb 1759 0abd b233 a2b9
000001d0: fd06 0e3d f10d 1e3d 54c7 0ebd 2079 de3b
000001e0: a9f8 71bd d06b e5bc 6f6d 233d 547b 233d
000001f0: 1f5e 743d 1836 84bd 1aff 4a3d 8883 133d
00000200: 23e8 443a 96b7 333c 8de3 ac3c d0f6 b2bc
00000210: d8f7 2abd 9451 fe3c 89da 1ebc 97e0 483d
00000220: 58f0 863c f1ae 92bc 65d5 3a3c e23e 843c
00000230: 437d 153d 6fea 54bc 987f 6a3d ace0 943d
00000240: 72e8 da3d 0e1e 5fbd 5f6f 1fbd fea5 f23d
00000250: 5134 ed3d 4fe1 193a fba0 bd3b e311 713d
00000260: 6d6d c2bc 8ae7 18bd a092 663d 02c9 263e
00000270: cf44 da3c 7711 28bc ff67 083e c2a4 3fbd
00000280: 3aee 1c3d b2fc a93c 179f 7b3c 459f 8fbc
00000290: 7802 ac3c 8c71 45bd 8d5f 62bc 40aa acbc
000002a0: 647e 3fbc 6ac2 4e3c 5184 1abd 637a 32bd
000002b0: 73b1 b53c 9b14 463d ef63 a63c eb98 3f3d
000002c0: 2054 e83c ffda d9bc 494b a6bb 0cea 27bd
000002d0: 2018 b93c 62ed 013d 4c14 ad3c 2f14 40bc
000002e0: 5484 323d ce6e 91bc d045 ec3b e94a 90bb
000002f0: 4cad cebb f393 37bd 04c7 81bc 0aaf 22bd
00000300: 6a8c 28bc 3567 f9bc 3c84 fd3c cf30 8b3c
00000310: 47c2 9e3d 9172 90bc e0e0 ccbc d2bb 58bd
00000320: c4b3 6cbc 091f 803d 1c1b 513d 0e53 fa3c
00000330: aeeb cebc 4b4a f53c 5d0a 943c dd4f eb3c
00000340: 7324 9e3d 14d9 6d39 e07e cf3c 6949 e33c
00000350: 1560 d1b9 ec61 be3c 5d75 30bd e03d 103c
00000360: 54cf 79bc e8e1 6d3d 4fe2 023d 043c 5fbd
00000370: 4353 edbc 0992 573d 205c 853c 27fb c83c
00000380: 781b 3fbd e592 90bc 1ede 3bbd 4059 27bd
00000390: 6ed0 2fbd af99 063d d668 f7bc c4ee f53c
000003a0: ed88 39bd cbc6 2abc d814 a4b8 3c5c 113d
000003b0: 84fe a4bc 9102 093d c393 b0bb 48da 08bc
000003c0: e442 543d b734 2e3d 061b 923c 9e4c 393c
000003d0: 58d5 983b c34a 923d 333c 1c3d 75d3 b4bc
000003e0: 07e3 75bc 0493 25bc 48cc 383d a230 e23c
000003f0: 18dd 263d f57c e03d 77b1 913d 1526 413d

l3.bias f4 [6]
-0.042160805 0.18232061 0.034239113 -0.023753893 0.098751776 0.031196436
00000000: cfb0 2cbd 41b2 3a3e 503e 0c3d 8697 c2bc
00000010: 5f3e ca3d ab8f ff3c
