results/runs/single_assembly_rerun/Average_TD3_10_Peg-in-hole-single_assembly_seed_5/80000_actor.pth (torch_old, 510312 bytes, 6 tensors)

l1.weight f4 [400, 12]
00000000: 423f 433e b40b 5dbe 18e6 703e 9c24 3d3e
00000010: 305e 783e 54a4 62be fa69 46be d6a8 0c3e
00000020: f2f7 89be 2815 923e 60af 7b3d 28b3 183d
00000030: 0ac1 d8be 2242 a93e cb04 dd3b d5aa dabc
00000040: da23 ba3d b08c b13d 7c8e 983e 30d7 0a3f
00000050: 6f58 0b3e 41ab 043b 3fbe 54bf bd44 3fbd
00000060: 46c9 f33e c6dc d7be 9ae2 903c be43 0f3f
00000070: 6de8 823e 465c 81bd 6425 fcbe f299 1d3f
00000080: a442 cbbe 7845 533f d6fc 023f abbc 293e
00000090: 2f44 a63e 875d 24bd e78e 1f3e 7cc0 063f
000000a0: 1f35 b93d 06b8 a6bd 908c e4be c2f5 233f
000000b0: 5701 5f3e f916 283f 42ee e13e 4ee0 0a3f
000000c0: a877 abbd ac02 a13e 5107 b73e 959b 35bd
000000d0: c18f b5bc e3f0 12be a325 cc3e 4722 153e
000000e0: a80b 833e 1fdd 3cbe 9656 eabe bd65 f1bd
000000f0: 699a b5be 8ab3 c6be 7937 81be e7b4 91bd
00000100: b6bb ebbe 28e3 6e3e 02ae b73e af12 75be
00000110: b901 263d d3f0 01bf 2e31 3bbe 5ae1 703d
00000120: 3040 3cbd 58b4 5f3e f644 883e 86bf 813e
00000130: 6802 2a3e 6260 893e d603 d5bd b084 96bc
00000140: 2036 cabd 90cf adbc 30c6 0fbd fcee 1d3e
00000150: 0ead 053f a85b 85be 432f c33c d659 81bd
00000160: ff62 d0be e87e e5bd e758 0bbf 04e5 8ebe
00000170: 2e4a 80be 01b1 80be ebe5 2c3e 3608 0abe
00000180: acb1 e7bd 3168 9ebd 99b5 913e a53d 453e
00000190: 3b17 c3bd 0882 87be 46d2 19be 976f 27be
000001a0: 667b aebd 3e14 b7bd c526 6bbe 4073 8a3d
000001b0: 6c4c 693e e947 50be 46c4 583d 6d32 ca3e
000001c0: c576 ebbc 005d e1bb 1a7c bcbe d783 333f
000001d0: 7934 60be 3561 0a3f 457f 453f 378e 1f3d
000001e0: 40c4 b23d bf9d 02be 0e28 4d3e 0cb3 ddbd
000001f0: 8e2e 1fbe c010 863e e49c 9c3d 009a 02bb
00000200: 9802 4ebe 96dc 82bd 3315 63be 0de4 46be
00000210: 58d7 09bf a4dd b93d c53a d4be 5304 d23e
00000220: 949d 8dbd c68c 89be 4ace 8f3e 9435 07be
00000230: a412 ebbe 18fd 3c3e e264 63be 443f e93e
00000240: e61b 003f 3a0e 653e 468e 0fbd 6667 9e3d
00000250: f40d 8abf 9127 19be 2168 a23e bec0 5dbd
00000260: d914 10bd d7af 72bd cbc6 0fbf ab18 79be
00000270: e19d 8ebe cc1a 39be 2bda 2f3e b188 8c3e
00000280: bbf4 59be 189c 293e a874 fe3e 3789 55be
00000290: d88c 063c 81a6 bdbd 4090 22bf fd82 bfbe
000002a0: ed5b 183f c41c 3e3f ae9c 32bc 60cb 723e
000002b0: 3baa 16bf 3403 25bd 973d 91be b9c1 a03d
000002c0: 9d1f 24bf 0935 983d b3fe 1fbe e5fa 363e
000002d0: 9e11 f7bd c811 a7be 3217 173d d1bb e6bd
000002e0: faa4 c0be 606e 493d fc6b 373f 0282 bbbd
000002f0: e9a0 1abd 0117 88be 793b 79bf 3475 8cbe
00000300: df3e 3e3f 5a42 253f 31bf 9d3d 2628 06be
00000310: 462c 1bbf 9c55 cd3d c9e1 54be 35f3 34be
00000320: a9f5 f5be e8f4 873d f1ca b3bd ee4e 363e
00000330: 82d0 393e 009d 4ebb 5214 1b3e ce11 4f3e
00000340: 36ba 3c3e 71c3 8cbe 74f5 853e a453 9c3d
00000350: dc85 92be 701d 933d a88d 4bbe f0ce 883e
00000360: ea8c b33e da88 8ebd 03ce 0d3d 00da 743e
00000370: 153b a0be 0025 fd3d b7ad 44be dd51 683f
00000380: d634 a1bd b4ed 483f 6ad0 24be 428f d63e
00000390: d51f c73e d0f4 523f 6a5e 3f3c 4508 43be
000003a0: 137c 1cbe 1438 263e 2d56 e1be 4de3 353e
000003b0: b3a9 fabe 272d 073f 2fed 023e 1263 f53e
000003c0: 5ef1 243d eed7 2a3e cd62 6a3e c41d a23e
000003d0: 5d74 a0be 9691 1b3e 5285 b83e 0100 8fbe
000003e0: 83a8 0a3e 3b3e 15bf a6d5 2abf fef2 31bf
000003f0: 4ec8 b3bd e0ba 94bc 74fe eb3d 0894 6cbe
0.190671 -0.21586496 0.23525274 0.18470997 0.2425468 -0.22132999 -0.19376364 0.13736281
-0.2694698 0.28531766 0.061446548 0.03728023 -0.42334777 0.33058268 0.006744956 -0.026692787
0.090888694 0.08669412 0.29796207 0.542346 0.13607953 0.0020243677 -0.8310279 -0.046696413
0.47614497 -0.42160624 0.017686177 0.5596274 0.25567952 -0.06316428 -0.49247277 0.61563027
-0.3969928 0.82527876 0.5116705 0.16575877 0.32473895 -0.040128257 0.15581857 0.5263746
0.09043335 -0.081405684 -0.4463849 0.6404687 0.21777855 0.65660053 0.4412709 0.5424851
-0.08372432 0.3144735 0.3574777 -0.044337828 -0.022163274 -0.14349703 0.39872465 0.14563857
0.2559483 -0.18443726 -0.45769185 -0.11786983 -0.35469368 -0.38808852 -0.25237635 -0.071145825
-0.4604165 0.2332884 0.35874945 -0.23932908 0.040528987 -0.50758094 -0.1828048 0.058808662
-0.04595965 0.2184614 0.26615113 0.25341433 0.1660248 0.26831347 -0.10401122 -0.018373817
-0.09873605 -0.021217138 -0.035101116 0.15423197 0.52217185 -0.2604649 0.023826247 -0.06315963
-0.40700528 -0.11205846 -0.5443253 -0.279091 -0.25056595 -0.25135043 0.16884582 -0.13479695
-0.11313185 -0.07734717 0.2845886 0.19261797 -0.09525915 -0.26466393 -0.15021619 -0.16351162
-0.0851963 -0.08939408 -0.22964008 0.067602634 0.22783059 -0.20339932 0.052921556 0.39491597
-0.028743157 -0.0068775415 -0.36813432 0.70123047 -0.21895017 0.54054576 0.7714732 0.038953986
0.08728838 -0.12755488 0.20034811 -0.10825166 -0.15545103 0.26184654 0.07647112 -0.0019928217
-0.20118177 -0.0638973 -0.22176056 -0.19422932 -0.53844213 0.09075478 -0.41451088 0.41018924
-0.06914821 -0.26865214 0.28087074 -0.13204032 -0.4591266 0.18455923 -0.22206452 0.4555608
0.5004257 0.22368708 -0.035047792 0.077345654 -1.0785508 -0.149565 0.3172007 -0.05413889
-0.035176132 -0.059249725 -0.5616271 -0.24325816 -0.27854827 -0.18076628 0.17173068 0.27448037
-0.21284764 0.16563451 0.49698377 -0.20853125 0.008212291 -0.09260274 -0.6350136 -0.37404624
0.5951527 0.7426264 -0.010901613 0.23710394 -0.588535 -0.040286258 -0.28367302 0.0784945
-0.6411074 0.07431991 -0.15624504 0.17869146 -0.12063907 -0.32630754 0.036887355 -0.11266292
-0.37625867 0.049177527 0.71649146 -0.091556564 -0.037751112 -0.2658005 -0.97356373 -0.2743317
0.74314684 0.6455437 0.077024825 -0.13101253 -0.6061443 0.10026094 -0.20789255 -0.17670901
-0.48038986 0.06638509 -0.087789424 0.17803547 0.18145946 -0.0031526685 0.1514447 0.20221636
0.18430409 -0.2749286 0.26163828 0.07633141 -0.28617752 0.07183349 -0.19878256 0.2672038
0.35068446 -0.06959696 0.034620296 0.23911285 -0.31295076 0.12360573 -0.19206892 0.90749913
-0.07871406 0.78487706 -0.16095129 0.41906172 0.38891473 0.82404804 0.011680225 -0.19046123
-0.15281706 0.1623233 -0.4401106 0.1776249 -0.48957595 0.5280327 0.12785791 0.47927147
0.04026925 0.16683933 0.22889252 0.31663334 -0.31338778 0.15192255 0.36039215 -0.2792969
0.13540845 -0.5829808 -0.6673225 -0.695114 -0.087784395 -0.018155515 0.115231425 -0.23103344

l1.bias f4 [400]
00000000: 802c c43c 5bbd 933e ce70 3c3f 53be 303e
00000010: c21b d1bd 549f b3bd 943f d83d a55f f53c
00000020: f1c2 53be 666c 973e abad 26be 1bfd 183e
00000030: 6cd1 39bf eca6 a0be 9817 f4be 3381 14bf
00000040: f887 63ba 4b69 89be 7cf6 afbe 2a12 3b3e
00000050: 207c b3bc aa3e ecbd eac0 193c 01df 1ebf
00000060: ff7e 27be b660 0ebf 391b a83d 20f1 923c
00000070: 9696 18bf 9746 6dbd 621c 8d3e 5841 863e
00000080: 02f5 78be 0cf1 b7be 523d 2ebf 355c e1be
00000090: 6a08 b93e d6ef c2be 2c52 903e 4416 7dbe
000000a0: c876 b13d f127 62be 2f64 b2bd 65c1 e4bd
000000b0: 488e 043d a5d2 6b3e e95b 113f 48c7 813d
000000c0: 7e2c 10bf 2b64 66be f495 1fbe 3aa6 67be
000000d0: f9cc 8a3e f0fe fe3d a003 cdbe 0adf 7bbe
000000e0: 9849 4bbd ebea 56be 0f37 09be 6e34 e0bd
000000f0: 7a54 a0be 26a5 8c3e 2c1e 5ebf b5da 15be
00000100: cb30 ce3d 7ad4 d63d 989e 26be 3995 eabd
00000110: 774b 3fbe c282 7cbe d654 9dbd 79cf 7e3e
00000120: 6950 c5bd e8e3 613d ba52 d1bd 8005 99be
00000130: 3892 31bd f6c4 e03a 57b9 e23c a9cd dabe
00000140: aa6c 723d 9523 e73e 72f3 ecbd 890c 8f3e
00000150: 1785 423e 3339 8ebe e174 5b3d 51e8 71be
00000160: f028 09bd fb12 ecbe f8e1 483e bef6 23be
00000170: 6ba9 d8be 4e1a 0c3e d8fe eabe 7325 6dbe
00000180: 688e 95be 074e e9bd b602 ddbe 4b51 01bf
00000190: d835 9ebd b090 d73c b862 643e 24bd 81bd
000001a0: d467 a33e 945c 133c 6892 7d3e 3da3 1abe
000001b0: 544f 5f3e e072 e2be ebd1 97be 489a af3e
000001c0: bcae d5be 74fc 343d f36b a8be 24e7 1b3f
000001d0: 28f2 06bf e21e 78ba d52c 633e beb2 113f
000001e0: a0c6 39be a141 1a3f 6701 89be 49b3 593e
000001f0: e4f3 09bd 625a 173e f2bd eb3d 9e8b aa3d
00000200: 08f8 8d3e d40c a2be 6863 acbe 39b8 9fbe
00000210: a2eb d0bc c368 c4bc 63f8 143d 619f 2abe
00000220: 9dd8 8f3e e8d3 d1be 97aa f1bd ce59 433b
00000230: 2aeb c1be 4359 43bd c8f7 83bb 1e8f 7dbe
00000240: e906 77be 6a58 0fbe 2bc6 19be cef4 32bf
00000250: a539 bcbe 79ef 113e 6f99 b9bd a66b a13e
00000260: 371d 83be d047 6dbe 9b87 c5be 1b5b 26be
00000270: 19d6 dcbe 0801 21bf 8745 273c 5d32 76be
00000280: a09d 553c c777 11be e730 dfbd d8e8 c0bd
00000290: 31d1 c1bd d5bc 26bf 2015 eb3d 9582 18be
000002a0: 5f24 8b3e 3e62 933e 0acf 083e cb31 d9be
000002b0: 29f3 30be d86a 26be c716 f73e c975 ddbd
000002c0: dd66 aa3e b701 c5bd e7de 8fbe ca73 853e
000002d0: ae90 a03e 60ba 783e 1973 87be f19c 8abe
000002e0: 13f4 b6bd 8819 223f d09b 883d 9566 b1bd
000002f0: 013a 22bd 2868 9abc d5e2 1cbf 0605 a4be
00000300: e4d2 fdbd ae1b 363e 2458 133e 86fc bbbd
00000310: d917 24bd 54f1 dcbd b071 0fbf 988c cc3c
00000320: da5e c93c bcfc 313e 7d93 05bf 160e ba3e
00000330: fadf 0ebf 8ed3 6fbe 1028 fdbe f1f5 c83d
00000340: ea2c b03c 364b e1be 7f11 97bc 6ee1 f23d
00000350: af7c 56be b466 663d b2ef 1c3e 2da4 98be
00000360: 2cf6 8bbe 443b 16be 683e bbbc 6928 343c
00000370: 9008 fd3c ccd1 babe 2c44 f63d 9a3b 7ebd
00000380: 8ff5 0c3e 99ab dd3d 9664 22bd ccf5 1d3e
00000390: dc46 14bf ce8e bbbe ab9a 47be caf0 4abf
000003a0: ba30 613e e27f 343e af54 183e 4200 1a3e
000003b0: 3c16 2b3e e691 e3be 13b1 9d3a e533 abbe
000003c0: 8776 08bf 3970 093f 7cdf 6a3e a677 debd
000003d0: b8aa 81be 7b32 f8be cbf2 813e 4ab2 a93d
000003e0: 274c 0b3e a0e1 723c 31b2 a1be a6a4 38be
000003f0: ae5d 85be e08a 4bbe bb99 5abe d6fd 11bc
0.023947 0.28855404 0.73609626 0.17260103 -0.102103725 -0.08770624 0.105590016 0.029952833
-0.20679833 0.2957489 -0.16277187 0.14940302 -0.7258518 -0.3137735 -0.4767425 -0.5800964
-0.0008679624 -0.26838145 -0.3436774 0.18268648 -0.021909773 -0.1153539 0.009384373 -0.62059027
-0.16357039 -0.5561632 0.08208317 0.017937243 -0.59604776 -0.057928648 0.27560717 0.26221728
-0.24312213 -0.35926092 -0.6806232 -0.4401566 0.36139232 -0.38073605 0.28187692 -0.24715525
0.08665234 -0.22085549 -0.08710515 -0.111696996 0.032362252 0.23029573 0.5678087 0.06336838
-0.5631789 -0.22499149 -0.15584546 -0.22622004 0.27109507 0.12450969 -0.40041828 -0.24596801
-0.04963073 -0.20988052 -0.1339991 -0.109475 -0.3131445 0.27469748 -0.8676479 -0.14634211
0.100679 0.104897454 -0.16271436 -0.11454243 -0.18681131 -0.24659255 -0.07682197 0.24883832
-0.09634478 0.05514899 -0.10220857 -0.2988701 -0.043352336 0.0017148543 0.027676268 -0.4273503
0.05918566 0.45144334 -0.11569871 0.2793925 0.18996082 -0.27778015 0.05357826 -0.23623778
-0.033486307 -0.4610823 0.1961745 -0.16012093 -0.42316756 0.1368191 -0.45897555 -0.23158817
-0.2921021 -0.11391836 -0.4316613 -0.5051467 -0.07725114 0.02631411 0.22303283 -0.06334904
0.31915152 0.00899424 0.24762881 -0.15101333 0.21807605 -0.44228268 -0.29652342 0.34297395
-0.41734874 0.04418607 -0.3289486 0.6089957 -0.5271325 -0.0009465051 0.22185071 0.56913364
-0.18142176 0.6025639 -0.26758882 0.21259798 -0.033679858 0.14780572 0.115108386 0.08327411
0.27728295 -0.31650412 -0.3366959 -0.31195238 -0.025502983 -0.023975736 0.036369693 -0.1666236
0.2809495 -0.40981984 -0.118001156 0.0029808166 -0.37874728 -0.04769255 -0.0040273406 -0.24761626
-0.2412373 -0.13998571 -0.15017001 -0.6990479 -0.3676273 0.14251508 -0.09062468 0.31527442
-0.25608227 -0.23171926 -0.3858002 -0.16245691 -0.43132094 -0.628922 0.010209448 -0.2404265
0.013038069 -0.14205848 -0.10897999 -0.094194114 -0.09463728 -0.65131885 0.11478639 -0.14893563
0.27176186 0.2878589 0.13360229 -0.42420802 -0.17280258 -0.16251695 0.48259565 -0.10813481
0.33281603 -0.09619468 -0.28099748 0.26064903 0.31360382 0.24289846 -0.26455 -0.27072862
-0.08933272 0.6332021 0.06670344 -0.08662144 -0.039606098 -0.018848494 -0.6128362 -0.32035083
-0.1239374 0.17783996 0.14389092 -0.091790244 -0.040061805 -0.10788217 -0.5603285 0.024969384
0.024581362 0.17381567 -0.52178174 0.36338872 -0.5581051 -0.23420545 -0.49444628 0.098125346
0.021505792 -0.44002694 -0.01844096 0.118594036 -0.20946 0.05625029 0.15325812 -0.29812756
-0.27336252 -0.14671046 -0.022856906 0.010995963 0.030887872 -0.36488187 0.120247215 -0.06206856
0.13765548 0.10823745 -0.039646707 0.15425795 -0.5792062 -0.3663239 -0.19492595 -0.79273665
0.21991244 0.17626908 0.14876054 0.15039161 0.167077 -0.4444725 0.0012030922 -0.3343803
-0.5330586 0.53686863 0.22936815 -0.10862665 -0.2532556 -0.48476014 0.2538055 0.08285959
0.13603269 0.014824301 -0.31581262 -0.18031558 -0.26048034 -0.19877195 -0.21347706 -0.008910617

l2.weight f4 [300, 400]
00000000: b388 f7bc 29af 1a3e ea39 e7bd 3d4f 08be
00000010: 3f67 573e 3513 573d d4d1 4abc 6de8 d6bc
00000020: 881a 653c 334e b5bd 900e a7bb 819d afbc
00000030: 7bc0 abbe 6a55 37bd 303f 3abd 3666 263d
00000040: 566c 22bd b6d2 29bd bfca ddbd a664 dabc
00000050: f0c5 2e3d f99d 423d f27d 8e3d 12fe 9bbd
00000060: 62d6 d8bd 0f0f fe3c 1a9a 0cbd 2059 5bbc
00000070: 5c61 f1bc 0858 1dbd 9428 8ebd 90ad 5cbe
00000080: 3aa9 09bd 5e71 9ebd 781e 0abe ab99 93bd
00000090: c71b aebd d476 33be fe8c 7bbd f74f dfbc
000000a0: 8c5d b9bc c960 2fbd b245 3bbd fb2b e23c
000000b0: b22d 2e3d 96b9 67bd 3784 c1bd f704 253e
000000c0: 6119 b6bd d843 f4bc 95a7 09be 8429 76bd
000000d0: 9ed6 4d3e 402e cb3b 4d74 febc a39b 143e
000000e0: 5068 61bb 20e7 33be 1e0a 92bd d815 edbb
000000f0: 1a9d a8bc fefd e63c 990e 09be 0ae9 f9bd
00000100: 443a 2cbe bac1 8bbc 69cb 053d 5ca3 acbd
00000110: ef01 35bd 14aa 17bc c23f d03c d8c3 253c
00000120: fb61 75bd 2312 d9bc 685d 28bc 622f 71bd
00000130: cbab 0a3c e766 afbd b73b 0cbd 6617 ddbd
00000140: 3bd7 59bd fbf7 0abe a22d fd3c 993f ebbe
00000150: cb19 aabd 05f3 f03c 1a07 9abd 2edd 1dbe
00000160: 5c92 82bc b3cf e9bc fa0d 633d de57 8ebd
00000170: 812d d9bd 82c5 51bd f6c0 d8bd 57fd a7bc
00000180: 8a8d 9dbc a670 e5be 4829 85bd 91ea 69bd
00000190: 6ea6 343d 6cd2 29be b0ec fc3b bcde 7fbe
000001a0: 8b0b ba3c 220e 31bd 0710 4b3d 2ab2 9d3c
000001b0: 1157 35bd 3de3 30be 7715 e2bc 17d1 2a3d
000001c0: 9088 783d e28a 463e 8325 9cbd 928c 2ebe
000001d0: 20c1 b33b 46f0 ad3d ab56 ad3d 5a5e 813d
000001e0: 3012 01be 1749 6ebc cf30 dbbd 0b3f 38bd
000001f0: ae3f f0bd 7156 153d 4b63 f2bc 9db5 c43c
00000200: b498 043c 47f4 1bbe 7964 8dbd 39ff f5bd
00000210: db85 1fbd 1d7d 25be fe6a 1fbd 1fb5 0f3e
00000220: 47d9 f03c 33eb 9dbd 293c 163e da90 90bd
00000230: a874 473d bf0d 26be 3a75 4bbd 9fbd 113e
00000240: 209b ccbd 3b55 13bd 0099 edbc aa12 61bd
00000250: 8dd5 16be 9485 9dbd c7b3 3c3d bd03 29be
00000260: eab5 c8bd f121 2d3d ecd9 14be 0250 f13c
00000270: 94b4 08be eb38 66bc fa87 2fbd d237 45bd
00000280: b082 d6bc 00d6 35bd 814a 6fbc e906 4c3d
00000290: 5ba0 40bc 8b56 7dbd 6afb 04bd 8705 7c3c
000002a0: ab53 49bd c6de c83c 38d3 1abd f06b 383e
000002b0: 2065 be3c e925 4abd a048 9abd 1d50 18be
000002c0: 6fc7 f13d 9ff0 f8bd 54ab 37be 4c6e b0bd
000002d0: 7ea1 c5bd 26a1 fa3c 69d5 31bd 1b55 f3bd
000002e0: dce6 77bd 4c45 3dbc 3952 213d d2d3 d0be
000002f0: 60aa 20be fb00 99bd c18e c5bd 912d ccbd
00000300: bc1c 34be 7e24 5bbd 8820 2bbc 3615 fc3c
00000310: e8da 19bd 4b21 233d f5d2 b7bd 6487 623c
00000320: 23b1 2b3e 327c 4cbd 529c a7bd 20be 4d3c
00000330: b444 4bbc 8f53 2dbe 4590 a1bd 4303 f33d
00000340: f966 c73d 311d 19be 646e dbbe b2b3 0ebd
00000350: 5969 7d3b eed4 983c 2d99 cdbc 2064 0fbe
00000360: b623 e0bd 363e af3d 929b 37be 5745 63bd
00000370: d44a 72bc 5229 663d c395 94bd 797e f8bd
00000380: 62f1 33bd 0470 80be fbf0 00be 5f72 84bd
00000390: 6e69 a13c 5eb7 d8bd ed0f 213d 0db5 f0bd
000003a0: d2df 1ebe 3859 3e3c 9769 b83d 4474 76be
000003b0: 4327 133d 0cf2 403d fee8 623d 0d9d c7bd
000003c0: 7bf1 89bd 6a9d 943d 3b14 23bd a24f a53c
000003d0: 0ccf 14bc 87b9 1cbd 17aa 8ebd b56c f23d
000003e0: 8952 5cbd 5102 453d 3fe5 e2bd 5c59 163d
000003f0: 73ac 213d f22c 11bd 266e b13c 0e0d d0bd
-0.03021655 0.15105881 -0.11290343 -0.13311477 0.21035479 0.05250855 -0.0123791285 -0.026233876
0.013983376 -0.08852806 -0.0050981715 -0.021437408 -0.33545288 -0.04475919 -0.045470417 0.04062482
-0.0396541 -0.041460715 -0.108296864 -0.026659321 0.042669237 0.047513936 0.06957616 -0.076168194
-0.10587765 0.03101304 -0.03432665 -0.013387948 -0.02946537 -0.03841403 -0.069413334 -0.21550584
-0.033608653 -0.07736467 -0.13488185 -0.07207044 -0.08501392 -0.17525798 -0.061413758 -0.02725981
-0.022627614 -0.04281691 -0.045720764 0.027608862 0.042524047 -0.056573473 -0.09449046 0.16115175
-0.088915594 -0.029817507 -0.13442834 -0.060098186 0.20101401 0.006200582 -0.031061316 0.14512496
-0.003439445 -0.17568636 -0.07130836 -0.00723527 -0.020582724 0.028197285 -0.13384475 -0.12202652
-0.16819102 -0.01706015 0.03266469 -0.08429596 -0.044191297 -0.009256858 0.025421027 0.010117494
-0.059907895 -0.026497906 -0.010276176 -0.05888308 0.00846381 -0.08564549 -0.034236636 -0.107954785
-0.053183775 -0.1357116 0.030905548 -0.4594696 -0.08305701 0.029412756 -0.07520886 -0.15416405
-0.01593893 -0.028541422 0.05543325 -0.06950353 -0.10604382 -0.05121375 -0.105836794 -0.020506544
-0.01923253 -0.44812506 -0.065020144 -0.057108466 0.044104032 -0.16584176 0.007718645 -0.2498731
0.022710582 -0.04322637 0.04957583 0.019249994 -0.044272486 -0.17274185 -0.027598126 0.04170331
0.06067711 0.19388917 -0.07624342 -0.17045811 0.005485669 0.08493094 0.08463796 0.06316824
-0.12604594 -0.014543793 -0.10702669 -0.044981997 -0.11730896 0.03645939 -0.029588362 0.024012381
0.008093048 -0.15229903 -0.06903929 -0.120115705 -0.038946014 -0.16161008 -0.038920395 0.14033936
0.02940048 -0.07710876 0.14671387 -0.07058878 0.048695236 -0.16216181 -0.049672343 0.14232491
-0.09990525 -0.035969954 -0.02900362 -0.05494944 -0.147299 -0.07691494 0.046069887 -0.16505332
-0.09800322 0.042268697 -0.14536256 0.029457096 -0.13350135 -0.014051656 -0.042854287 -0.048148938
-0.026185364 -0.04439354 -0.014605165 0.049811278 -0.011756982 -0.061850112 -0.03246633 0.015382177
-0.049152058 0.02452029 -0.03779909 0.18009925 0.02324158 -0.04935256 -0.07533383 -0.14874311
0.11805617 -0.1215527 -0.1793645 -0.086147875 -0.09649943 0.03059442 -0.043416414 -0.11881467
-0.0605229 -0.011552166 0.039385054 -0.40786606 -0.15689993 -0.0747089 -0.09646369 -0.099696286
-0.17589086 -0.0535016 -0.010444768 0.030771833 -0.03756228 0.039826673 -0.08975784 0.013826225
0.16766791 -0.04992313 -0.081841126 0.012557536 -0.012406517 -0.16926406 -0.07888845 0.118658565
0.09736437 -0.14952542 -0.4285766 -0.03483934 0.0038667528 0.01865622 -0.025097454 -0.14003038
-0.10944311 0.08556788 -0.17930439 -0.05548605 -0.014788348 0.05619175 -0.07255127 -0.12133498
-0.043931372 -0.2508546 -0.12591927 -0.06467127 0.019703593 -0.105818495 0.03932183 -0.11753283
-0.15515068 0.011617951 0.09004515 -0.2406779 0.035926115 0.047105834 0.05539798 -0.09746752
-0.06735512 0.07256587 -0.039814215 0.020179573 -0.009082567 -0.03826287 -0.06966036 0.118371405
-0.05378965 0.048097912 -0.110788815 0.036706313 0.0394711 -0.035443254 0.021658968 -0.1015874

l2.bias f4 [300]
00000000: 3d67 fabd 3d28 fd3c 3eaf f2bc 449b 67bd
00000010: 6ad2 aa3c 28e2 91be b52c fdbd b456 60bc
00000020: b5a7 c8bd 8245 383c ea4e e1bd edb5 283d
00000030: 08be ddbc 5bf2 213d 334f a73c 7da9 cbbb
00000040: bff5 843d 849c a03c da70 423e a3b8 88bc
00000050: 6a82 8ebd f72a f6bd 312f 79bd 5831 57be
00000060: 8389 1bbe cbdc b93e 9062 903c 8984 51bd
00000070: bdc4 82bd 431d a4bc 8c91 a8be 91d0 cdbd
00000080: 1c81 963e c3d0 833e af05 083d 59c6 233d
00000090: 1cc0 63bc ee1f d2be d8a1 babd c35e fd3b
000000a0: 2035 84bd 65a3 5d3e 13a2 11be 1a60 00bb
000000b0: 41f0 a2bc ee3e c9bb 9315 2b3d 1651 4dbd
000000c0: 5bff 993e 1610 423e 9f61 27bd c79c 443e
000000d0: 28c8 98bd e26e 763e b340 ff3a befe 04be
000000e0: 70b0 81be 124a 2cbe 517d 1b3d b749 823c
000000f0: 749f 753e 2a0d 313d 648a 2e3d 5ca1 853e
00000100: 31c0 af3e ae07 04be 60f7 523d 1df4 923e
00000110: ea5a 3d3c 81db 71be 13cc 363e 0c38 e3bd
00000120: fbfa 6a3d 6fb8 58bd f312 25be 749c 543a
00000130: d7a1 dd3e f467 cb3c f333 17bd a84e 0bbd
00000140: 765b 0ebe 7842 71bb c4d0 1fbe 9b7a 29bd
00000150: 4ca9 11bd e959 e3be b88e 323e 24f9 073d
00000160: 4ca8 b8bc 557f 5fbd 99b9 d5bc 7af1 793c
00000170: 0dcb 303e 6b14 f1bd 818f c9bd bee9 1fbe
00000180: abc2 323c 1e01 603c 0622 14be f639 6f3d
00000190: 1d31 043d 7258 293d c43f 62bd 018a 8a3e
000001a0: 77ad 2ebd 69e1 f9bb 3645 7d3c 1b1e 213d
000001b0: 499c b1be edc4 93be ffed f7bd c29c cd3e
000001c0: 0d5a 15bd 1b8d d63d 3858 e03c 7328 00bd
000001d0: e9a6 9cbd 2e30 a0be 41fb 2f3e 2892 ab3c
000001e0: 17f8 a6bd de35 dcbc dd5d be3c 1012 053c
000001f0: 42e4 e93e 539e 08bd e88a 0f3e df6a 2b3c
00000200: c977 913b ac6f 4abd 90d8 1c3d 4ba5 4dbd
00000210: a98b c4bd 0bb1 c33d 52b5 943c 823d bdbd
00000220: 2868 f5bd a443 b1bc 2f78 aa3c 6294 65be
00000230: 601f 783c 9cbf 553e 0cbb 2c3c d1be 20be
00000240: bbd1 d7bd edd4 043d ead8 56be b2ae abbd
00000250: 2cb3 91be 4030 64bd ac30 85bd 5164 81be
00000260: b360 0bbd d89d 353c 3c8c b63e 6f5f 563e
00000270: 6f42 6c3c 53ec a7bc fd65 b7be 650b e93c
00000280: a90c d23c 3685 9ebd 2849 85be 9c9e 15be
00000290: 97bb 24bd 00cd 7cbb 561f 3abe 5fa4 083c
000002a0: 28f4 abbc fea3 1fbe 2972 9cbd a0e4 89bd
000002b0: c80b 14bd 5d22 a53b 0dce 2cbd 2bb0 59bd
000002c0: 10fb 81bd e55a 403d a2e1 94bd d46d 063e
000002d0: fe82 cfbd 6d78 ae3c a1fd fcbd b264 8bbd
000002e0: 6ab1 32be 5a0d 283b ac82 12be 3544 eebc
000002f0: 92d5 26bb ba20 f33c 9977 5a3c 8401 02bb
00000300: 26ce 4abc 3039 a2bc 5881 4cbc 97de 05be
00000310: 5988 fcba 9936 d13c 19a5 b5bd a119 37be
00000320: 772e 0abd cee2 47be d2bc 22bc 14c5 24bd
00000330: 4684 14be 6c7d 95bd 8268 b33c ed21 af3e
00000340: c375 6e3c bafd 64bd 0647 bcbd 357e 61bd
00000350: ba2a 2a3e e13e 63bd 963f 503a c8a7 32bc
00000360: b977 863c f8e1 b9be e27c 923c 9316 8b3c
00000370: f824 c73b 938a 9cbe c1fb 53bc 600f 543a
00000380: 7bb4 0cbc 61d7 3d3c a239 bebc a4cb 24bd
00000390: b1a4 873b 5ef8 8dbd d1d5 c0bc 0352 323e
000003a0: da21 883c 4bc0 df3d b620 723c 6557 6c3e
000003b0: ee96 45bd 55d2 ccbd 36c1 c63b 8115 003d
000003c0: e7de 9fbe d9d4 6dbd bb5f 0ebd 59bd c13e
000003d0: 11bb 66bd 0cad 9dbe 1604 163d 86b2 f0bc
000003e0: 2be6 423c adc8 3fbc f293 493c 6dd6 9ebe
000003f0: e19c c23e 9e82 8abe 5f91 d9bd f47b 9abc
-0.122267224 0.030902976 -0.029624578 -0.056544557 0.020852286 -0.28492856 -0.12362043 -0.013692547
-0.097976126 0.011247041 -0.1100138 0.041189123 -0.027068153 0.03953777 0.020423507 -0.006215273
0.06492185 0.019605882 0.18988362 -0.016689604 -0.06958468 -0.12019914 -0.06083602 -0.21014917
-0.15189175 0.36301264 0.017625123 -0.051151786 -0.06385181 -0.020033484 -0.32923543 -0.100495465
0.29395378 0.2574521 0.033208545 0.03998408 -0.013900783 -0.41039985 -0.091129005 0.0077322437
-0.06455445 0.21644361 -0.14221983 -0.001958853 -0.019889953 -0.006141535 0.04176862 -0.050126158
0.30077633 0.18951449 -0.040864583 0.19200431 -0.07460052 0.24065736 0.0019474238 -0.12987801
-0.25329924 -0.1682513 0.037961308 0.01590429 0.23986608 0.043225445 0.04261245 0.2609967
0.34326318 -0.12893555 0.051505446 0.2870187 0.01155732 -0.2361889 0.17851286 -0.110946745
0.05736826 -0.052910265 -0.1612051 0.00081104715 0.43287537 0.024829842 -0.036914777 -0.03401056
-0.13902077 -0.00368133 -0.15606982 -0.04137669 -0.035561845 -0.44404534 0.17437255 0.033196583
-0.022541188 -0.054564793 -0.026089476 0.015255326 0.17264958 -0.117714725 -0.09841824 -0.1561651
0.01091067 0.013672141 -0.14466104 0.058404885 0.0322734 0.041344114 -0.055236593 0.27058414
-0.042645898 -0.007625748 0.015458396 0.03933535 -0.3468955 -0.2886118 -0.12105941 0.4015866
-0.036462832 0.104761325 0.027385816 -0.031288575 -0.07649023 -0.31286758 0.1718569 0.020943716
-0.08152788 -0.026881155 0.023238117 0.008121982 0.4568196 -0.033354115 0.14017832 0.010462492
0.0044393283 -0.049422905 0.038292468 -0.050206464 -0.095969506 0.09555253 0.018152867 -0.09240247
-0.11982757 -0.021638699 0.020809261 -0.22419885 0.015144199 0.20873874 0.010542642 -0.1569779
-0.1053805 0.032429624 -0.20981184 -0.0838293 -0.2845701 -0.055710077 -0.06503424 -0.25271848
-0.034027766 0.011084996 0.35653865 0.20934843 0.014420136 -0.02049843 -0.35819998 0.028447816
0.025640802 -0.07740252 -0.26032376 -0.14611286 -0.040217962 -0.0038574338 -0.18176016 0.00833997
-0.020990446 -0.15589902 -0.07638962 -0.0673306 -0.036144048 0.005039497 -0.042188693 -0.053146522
-0.063467145 0.046961684 -0.072695985 0.13127834 -0.10132407 0.021297658 -0.123530634 -0.068063155
-0.1745049 0.0025642724 -0.1430766 -0.029085258 -0.0025456888 0.029678691 0.013334178 -0.001983733
-0.012378251 -0.01980266 -0.01248201 -0.13073193 -0.0019266709 0.02553873 -0.088693805 -0.1788087
-0.03373572 -0.19520113 -0.009932714 -0.04022701 -0.14503583 -0.07299313 0.02190042 0.3420557
0.014554444 -0.055906035 -0.09193234 -0.055052 0.16617861 -0.055479888 0.00079440454 -0.01090426
0.01641451 -0.36305213 0.017881814 0.016978538 0.006077405 -0.30574474 -0.012938441 0.0008089449
-0.008587952 0.011586995 -0.02322084 -0.04023327 0.004139506 -0.06932138 -0.023539456 0.17414097
0.016617704 0.10925349 0.014778307 0.23080213 -0.04823964 -0.10001055 0.006065513 0.031270508
-0.31224748 -0.058064315 -0.034759264 0.37839773 -0.056330744 -0.30796087 0.03662499 -0.029382002
0.011895697 -0.01170556 0.012303339 -0.3102297 0.38010314 -0.27052778 -0.106234305 -0.018857934

l3.weight f4 [6, 300]
00000000: 7246 483c ce72 3e3d 53d9 70bd 3bdc c3bc
00000010: f494 833c 3db8 543c e6e9 713d 8096 1c3a
00000020: aa69 9dba 4ce8 d0bc 3b14 d23d f9db 9cbc
00000030: fc6e d1bc 56b5 17bd 3fe6 5ebd d89d 2a3c
00000040: 7b7a c03c 4cad 6cbb 0276 173c 3359 293d
00000050: 4a2c d0bb af66 fb3c 01fb 39bd ad5b dfbc
00000060: 2134 34bc f798 e9bc b5f9 583d 7ff8 dcbb
00000070: 9ebe 2fbd 4779 1e3d 48cf 2ebd f0a7 b5bb
00000080: a35e 9a3d 3640 ca3d 5a50 69bc 0b64 b8bc
00000090: cc6c 493d e997 233c a35d f8bc 643a 3d3c
000000a0: d093 6e3d b3c7 73bc 5cae 073d 266a 8fbc
000000b0: 7788 0b3c fc22 ffbb a88b 69bd 50d0 33bd
000000c0: b2a4 b03d 2bec c4bc 1665 fcbc 8d29 eb3c
000000d0: 60a3 09bc db3b 233d 8f7d dc3b 1793 e53c
000000e0: 435a 6c3c 364c 483d 0da0 04bb 0476 0ebd
000000f0: 1edb ef38 dcf4 5dbd 71d1 68bd 7125 233d
00000100: db79 8f3d 068b 19bd 1f80 573d 3831 433d
00000110: 44f8 1bbd cb51 f2bc 0fe3 6bbd 0412 393c
00000120: ba6e 493d 8f58 cabc 3803 56bd 2e43 69bd
00000130: e137 2d3d f483 abbc 228d 813c eeda ff3c
00000140: 8b51 503d e1aa 01bd 899f 5dbc 308b 59bb
00000150: ea63 403d da56 ebbc 8990 373d a4da 823b
00000160: 6464 223d fb79 633d 4aa8 0f3c 0ff9 81bc
00000170: cff8 1f3d 45ef 8738 1c02 1cbd f47f 3f3d
00000180: 90b0 4cbd 4976 39bd 2770 e0bc da2e 85bc
00000190: c334 8a3c 68d6 253d 40a3 2f3b 594f 8d3d
000001a0: e48d 5bbd deb0 dd3c 0baf 2fbd 7844 d03c
000001b0: 2c3d 083d a899 70bd 3ee4 49bd 9f99 6b3c
000001c0: 10c6 a33c 8566 093c 1759 0abd b233 a2b9
000001d0: c93e 0c3d 4179 263d a3db f0bc 2079 de3b
000001e0: a9f8 71bd d06b e5bc 6f6d 233d 547b 233d
000001f0: f3a9 813d 1836 84bd 1aff 4a3d 8883 133d
00000200: 23e8 443a 96b7 333c 8de3 ac3c d0f6 b2bc
00000210: 7c1e 27bd 0a61 fe3c 89da 1ebc 97e0 483d
00000220: b02f bf3c f1ae 92bc 65d5 3a3c e23e 843c
00000230: 437d 153d 8cce a53b 987f 6a3d 3268 933d
00000240: 169b e03d 0e1e 5fbd 5f6f 1fbd fea5 f23d
00000250: 24c1 ef3d 4fe1 193a f8b0 bf3b e311 713d
00000260: 6d6d c2bc 8ae7 18bd 46a5 6c3d 6cae 2b3e
00000270: cf44 da3c 7711 28bc 6b7d 223e ddcb 30bd
00000280: 3aee 1c3d b2fc a93c 22a0 7b3c 459f 8fbc
00000290: 7802 ac3c 2280 45bd 0dd4 5fbc 40aa acbc
000002a0: 647e 3fbc 6ac2 4e3c 5184 1abd e4f9 0cbd
000002b0: 73b1 b53c 9b14 463d ef63 a63c 48f7 633d
000002c0: 2054 e83c ffda d9bc 494b a6bb 7dcf 09bd
000002d0: 86d2 eb3c 62ed 013d 4c14 ad3c 2f14 40bc
000002e0: bf6b 3d3d ce6e 91bc d045 ec3b 1ae5 f53a
000002f0: 4cad cebb f393 37bd 04c7 81bc 0aaf 22bd
00000300: 6a8c 28bc 3567 f9bc 3c84 fd3c cf30 8b3c
00000310: bc44 a63d 9172 90bc e0e0 ccbc d2bb 58bd
00000320: c4b3 6cbc 490b 803d 1c1b 513d f168 113d
00000330: aeeb cebc 5e66 103d dc2e 943c 1510 3a3d
00000340: 7324 9e3d 14d9 6d39 e07e cf3c 6949 e33c
00000350: 1560 d1b9 ec61 be3c 5d75 30bd e03d 103c
00000360: 14b3 78bc e8e1 6d3d 4fe2 023d 043c 5fbd
00000370: 4353 edbc 0992 573d 205c 853c 27fb c83c
00000380: 781b 3fbd e592 90bc 1ede 3bbd 4059 27bd
00000390: 6ed0 2fbd af99 063d d668 f7bc a4f9 173d
000003a0: ed88 39bd 3e53 4cbb d814 a4b8 4e7e 403d
000003b0: 84fe a4bc e12f 2a3d c393 b0bb 48da 08bc
000003c0: 6798 5c3d b734 2e3d 061b 923c 32e0 9a3c
000003d0: 58d5 983b 0ddc 973d c34e 283d 75d3 b4bc
000003e0: 07e3 75bc 0493 25bc 18b0 383d a230 e23c
000003f0: be31 363d 3da7 e53d c798 aa3d 1526 413d
0.012223827 0.046496205 -0.058801007 -0.023908725 0.016062237 0.012983379 0.059060954 0.0005973354
-0.001200964 -0.025501393 0.10257765 -0.01914786 -0.025565617 -0.03703817 -0.0544188 0.010413609
0.023495903 -0.0036114035 0.009244444 0.041344833 -0.006352936 0.030688612 -0.04540539 -0.027265394
-0.010998757 -0.028515322 0.052972514 -0.00674349 -0.042906396 0.038689878 -0.042678148 -0.0055437014
0.07537582 0.098755285 -0.014240349 -0.022508642 0.049176022 0.009984949 -0.030318087 0.011549566
0.058246434 -0.014879155 0.033125266 -0.01750667 0.0085164225 -0.007786153 -0.057017952 -0.043899834
0.08625163 -0.024038395 -0.03080992 0.028706336 -0.008400768 0.039852004 0.006728835 0.02802424
0.014425817 0.048900805 -0.0020237 -0.034780517 0.00011437222 -0.054188594 -0.056840364 0.03983063
0.07005664 -0.0374861 0.05261242 0.04765436 -0.03807856 -0.029580018 -0.057589587 0.011295799
0.049177863 -0.024700431 -0.052249163 -0.056948833 0.04228962 -0.020936944 0.015814368 0.031232323
0.050859015 -0.031657103 -0.013526806 -0.0033194534 0.046970285 -0.028727937 0.044815574 0.003993349
0.03964652 0.05553625 0.008768151 -0.01586583 0.03905564 6.481869e-05 -0.03808795 0.046752885
-0.04997307 -0.04527882 -0.027397228 -0.016257692 0.016870862 0.040487677 0.0026800185 0.068999
-0.053602114 0.027061876 -0.042891543 0.025423273 0.033261463 -0.058740288 -0.049289934 0.014379888
0.019991904 0.008386259 -0.03377637 -0.00030937564 0.034239564 0.04064298 -0.029401606 0.0067893416
-0.05907503 -0.02800551 0.039899286 0.039912537 0.06331243 -0.0645563 0.04955969 0.03601411
0.00075113977 0.010969063 0.021104598 -0.021846205 -0.040800557 0.031052131 -0.0096956575 0.04904231
0.023338169 -0.017905684 0.011403416 0.016143266 0.036496412 0.0050600227 0.05725059 0.07197608
0.1096708 -0.05447202 -0.03892457 0.11848067 0.117067605 0.00058700604 0.0058499537 0.05885495
-0.023733819 -0.037330188 0.057774805 0.16765755 0.026644139 -0.01025807 0.15868156 -0.04316317
0.038313128 0.020750377 0.015358003 -0.017532 0.020997271 -0.0482179 -0.013661397 -0.021077275
-0.011687849 0.012619594 -0.037723843 -0.034418 0.022179341 0.048359495 0.020311324 0.055655748
0.028360426 -0.026593683 -0.0050748927 -0.033645142 0.028786909 0.031720527 0.021127842 -0.011723562
0.046245333 -0.017753031 0.0072104707 0.0018760294 -0.0063072797 -0.04481883 -0.015841968 -0.03971771
-0.010287384 -0.03044472 0.030946843 0.016991047 0.08118579 -0.017632755 -0.025009573 -0.052913494
-0.014447156 0.062521525 0.051051244 0.03550047 -0.025258865 0.035253875 0.01808875 0.045425493
0.07721796 0.00022682949 0.025329053 0.027744966 -0.00039935173 0.023240052 -0.043080676 0.008803815
-0.015179414 0.05807677 0.031954106 -0.054500595 -0.028970366 0.052629504 0.01627928 0.024533821
-0.046657056 -0.01764817 -0.045866124 -0.0408566 -0.042923383 0.032861408 -0.030201357 0.03710331
-0.0452966 -0.0031177546 -7.824012e-05 0.046995454 -0.020140894 0.041549567 -0.0053887083 -0.008352824
0.05385628 0.04253074 0.017835151 0.018905733 0.0046641044 0.07415018 0.041090738 -0.022073487
-0.015007741 -0.010105852 0.04508981 0.02761108 0.04448103 0.11213539 0.08329921 0.04715546

l3.bias f4 [6]
00000000: beeb 26bd ca6d 543e 4aed 203d 0197 dcbc
00000010: 4440 2fbe 620a f3bd
-0.040752165 0.20745006 0.039288796 -0.026927473 -0.17114359 -0.11867215
