results/runs/single_assembly_rerun_nochange/Average_TD3_5_Peg-in-hole-single_assembly_seed_4/25000_actor.pth (torch_old, 510312 bytes, 6 tensors)

l1.weight f4 [400, 12]
00000000: cdae 6bbe c97c 6a3e 0f22 f3bd 34e3 8dbe
00000010: e316 2abf 9b06 e6be 4424 233f dbac cd3e
00000020: a514 d4bd 3ddf 043f 5d03 1dbf f5f3 94be
00000030: 4085 a7be 8df6 f03e faab 15bd 0200 ff3d
00000040: af0a d7be decf bfbd cb66 593e 3b20 16bf
00000050: 08bb 033e ac98 67be b013 6b3c 5313 9dbe
00000060: 91d8 683e aec5 373d 223e 3f3e 496f ba3d
00000070: 191e 833e 93a9 f4bd 1f7c 4c3e ee3f 2a3e
00000080: 5e78 20be 7c26 1d3e 524e 963e b51f 1cbe
00000090: 089a e6bd 1a39 4a3e bc59 6e3e 78f5 9b3d
000000a0: d88c b53d 9cf1 5a3e d687 813e a8f4 3abe
000000b0: 442f f3bd 84e3 783e 4ca9 1f3e 28b3 0abe
000000c0: fa93 9b3e 0ae4 663e 301b 99bd 3875 723e
000000d0: a5ef 3f3e 6f98 99be 573b e1be c578 803e
000000e0: 21df 12bd 08ce e03e 0176 a03d 8eed ce3e
000000f0: 7ac9 08bf b3fa f83e 8945 85be 1c6e 31bd
00000100: 45f1 9fbe 9ac3 8d3d b51c c83e 5561 a7be
00000110: 316f e5bd 57a5 d53d 79a1 78be 7cd9 dbbe
00000120: c35a 173e 4474 61bc 845a bdbd 586b de3c
00000130: 7782 1c3f b451 dbbe 7ef0 dabe e76f ccbe
00000140: 353f 05be 0df2 813e 95de 853e 0e6a df3d
00000150: 207d 4bbe 5a7a cabe 90c9 9f3e 3c1f 2c3f
00000160: 324b 08bb 8e59 8a3e 15e6 983c c847 5d3e
00000170: d2c8 783e 4231 f43d 72c6 893e cb6e 0dbe
00000180: 6ac3 8fbe 48c3 103e 9c91 8e3e 4050 57be
00000190: eace 14be 0419 7d3e 94e0 663e d02d e2bc
000001a0: 8cb9 28be e0c4 583d 45c3 90be 4485 e9bd
000001b0: 1131 1ebe 49ac e3be 0be1 093e baeb fa3e
000001c0: 7d67 00be 272a 0a3f 7f2b aa3d cac7 ef3e
000001d0: 299e 293e c79b adbc f533 893d e542 4a3e
000001e0: 6312 5d3d 6d13 01bf 01d4 8cbc 4348 f03e
000001f0: bd7c 163e 37af 1c3f 5968 2f3c c957 e13e
00000200: d620 fc3d 95a8 813e a4ef ffbc cd67 ec3e
00000210: 2e72 0fbf 8878 f0bc 0ed1 6dbd 5ec7 023e
00000220: 507a 6d3d 0c8c 9f3e 8eef dd3e 6523 35be
00000230: d665 163e b1f9 863d 9a38 aabe 4486 97be
00000240: dc83 b93e ea96 c0bd d84f 503d ed98 423e
00000250: d742 313e 3e0a cd3e 7e84 dabe 0dbe 053f
00000260: 1767 8cbe b7fe aa3e 8fb7 3e3e 8107 bb3e
00000270: 95e9 5ebe f7b7 8f3e b62a 4cbd acf4 0cbe
00000280: 354b a33e 65e9 b5be 3482 15bf 675a c13d
00000290: be79 a0bd 5a08 e2bd ee93 c13e 4495 063f
000002a0: 261f b1be 2c56 49bf 1093 213e 2ccf 123f
000002b0: 3045 f03e 742b ce3e 92b1 96be 1340 d63e
000002c0: 24e7 8b3e 41d9 dcbd e029 063d 46c2 f93e
000002d0: bc39 113d 4f97 743e 073a d1bc 2bb7 5fbe
000002e0: e1da dcbe ec4a 85be 2cd8 a23e e1e6 a23d
000002f0: f5e7 b9bd 14b7 a93c 5c8e e6be f245 a03d
00000300: 4846 643e bc9d b4be fe7b 0b3e 503d f93e
00000310: 0fd8 12bd 047a 703d e063 de3d 75a7 afbe
00000320: 0a95 d93d bc8a 8fbe 4915 e63d 7813 2f3e
00000330: d3e5 a2be 1e25 593e 3856 9dbe a12a 63be
00000340: 61d9 d53d 4404 8fbe d815 073e 41f5 3abe
00000350: acdb f4bd e22f 553e 49bc 9a3d 95f3 213d
00000360: 8b1a ec3e 184b 5cbe 66e8 02bc c014 ed3e
00000370: 95e0 e63e 5131 5abe a20f c6be 00fd 97b9
00000380: a23c c33d 0990 37be 6600 893e 23fe 3cbe
00000390: 4c57 e7be 2848 e23e edfb 95bd 34a4 97be
000003a0: 28d8 7ebe 7753 9a3e fd00 c93e d091 973a
000003b0: 0abf c0bd 9c72 26be bbd8 08bf 9c3c 2b3d
000003c0: 752f cabe 23cf d73e ebdc 0abe fa19 e6be
000003d0: 8e10 8a3e 027d 19be 1d69 86be 8401 14bf
000003e0: 6a2d f8bd 1a61 45be bc4e 6bbd 6aed 273d
000003f0: 19cc b8be ac02 d0bd d0e6 503c e9a1 91bd
-0.230159 0.22899164 -0.118717305 -0.27712405 -0.6644117 -0.44926915 0.6372721 0.4017094
-0.103555 0.51903135 -0.61333257 -0.29092374 -0.3271885 0.47063103 -0.036540963 0.12451173
-0.42000338 -0.093658194 0.21230619 -0.5864293 0.12864316 -0.22616833 0.014347956 -0.30678806
0.22738864 0.044866256 0.18676046 0.09103257 0.256089 -0.11946406 0.19969223 0.1662595
-0.15670916 0.15346712 0.2935663 -0.1524647 -0.11259848 0.19748345 0.23276418 0.07615179
0.088647544 0.21381229 0.25298947 -0.18257391 -0.118742496 0.2430554 0.15591925 -0.13544905
0.30386335 0.22547927 -0.07475889 0.23677528 0.18743761 -0.2999911 -0.43990585 0.2509214
-0.035857324 0.4390719 0.078350075 0.40415615 -0.5343243 0.48628768 -0.26029614 -0.0433179
-0.31238762 0.06922074 0.39084402 -0.32691446 -0.11202849 0.10431927 -0.24280347 -0.42939365
0.14780717 -0.01376063 -0.0924578 0.027150795 0.61136574 -0.42835772 -0.42761606 -0.39929125
-0.13012393 0.25379983 0.2614638 0.109089 -0.1987195 -0.39546472 0.31208467 0.6723516
-0.0020796773 0.2702145 0.0186644 0.21609414 0.24295357 0.11923458 0.26909214 -0.13811795
-0.28078777 0.14136994 0.27845466 -0.21026707 -0.14532056 0.24716574 0.22546607 -0.027609736
-0.1647703 0.05292213 -0.2827398 -0.114023715 -0.15448405 -0.4446738 0.13464753 0.4900797
-0.12539478 0.5397057 0.083090775 0.46832114 0.1656424 -0.021192444 0.06699363 0.1975208
0.053972613 -0.50420266 -0.017190935 0.4693013 0.14696021 0.61204857 0.010706031 0.44012287
0.123109505 0.2532393 -0.0312422 0.46172944 -0.560336 -0.029354349 -0.0580607 0.12771365
0.057977974 0.31161535 0.43346828 -0.17689283 0.14687285 0.065905936 -0.3324631 -0.29594624
0.36233413 -0.094037846 0.050857395 0.19003649 0.17310654 0.40046877 -0.4267921 0.5224312
-0.274224 0.33397457 0.1862471 0.36529163 -0.21768792 0.28070042 -0.04984542 -0.1376521
0.31893316 -0.35529628 -0.584018 0.09441071 -0.078357205 -0.11036749 0.37808174 0.5257151
-0.34594077 -0.7864711 0.15778756 0.5734737 0.46927786 0.40267527 -0.2943235 0.4184576
0.27324784 -0.107836254 0.03275478 0.4878103 0.03545545 0.23885845 -0.025540365 -0.21847217
-0.4313574 -0.26033723 0.3180555 0.07954193 -0.090774454 0.020717181 -0.45030487 0.07825841
0.22292435 -0.35276592 0.13621518 0.4867959 -0.03585058 0.058710113 0.108588934 -0.34307447
0.1062413 -0.28035533 0.112345286 0.1709727 -0.31815967 0.21205565 -0.30729842 -0.2218423
0.10441852 -0.27932942 0.13191926 -0.1825762 -0.119559616 0.20819047 0.07555444 0.03953894
0.46114 -0.21513021 -0.007989978 0.46304893 0.45093217 -0.21307875 -0.38683802 -0.00028989464
0.09533049 -0.17926039 0.26758116 -0.1845632 -0.4518379 0.44195676 -0.07323442 -0.29617465
-0.24887145 0.30141804 0.39258566 0.0011563841 -0.09411438 -0.16254658 -0.53455704 0.04180585
-0.39489332 0.4215022 -0.13560836 -0.44941694 0.26965755 -0.14989093 -0.2625207 -0.5781481
-0.12118037 -0.19275323 -0.057448134 0.0409979 -0.36093214 -0.101567596 0.0127503425 -0.0711096

l1.bias f4 [400]
00000000: 803c 38bd 7fb6 9b3d 653a e63d a01e 70be
00000010: 21f0 493e 9312 a8be e8e4 df3e 14bd 2c3d
00000020: 204f 2e3d 5393 023c 427f b9be ec4b b43e
00000030: 194e 423e 980e df3d 0cb6 bb3e c235 b5be
00000040: b41e 5ebe ebc6 da3d 7c03 2f3e 810f c7be
00000050: 8c23 5c3e 397f 76be 5b2b 3fbe 6820 90bd
00000060: e046 56be 702d a7bd b83a 8fbd 7f09 42be
00000070: 3fec 093e e1d9 dd3d 03b6 b8be 127e 153d
00000080: 870d d73e 485a 18be 3f09 92bd 6f07 f8bd
00000090: 2ca5 8c3d 6b3c 073f d9e4 92bd 3058 dbbe
000000a0: 87b3 713e dabb 04be 6ef1 f6bd 11be 60be
000000b0: 45c0 17be e45c 00be c37c 9dbb d05b bbbd
000000c0: 1648 0bbe c6a2 89be 631a 93be 2fe7 5dbc
000000d0: eba6 ca3e 0108 a7bc 6824 b2be cc1d 2f3d
000000e0: b221 9fbe b9b0 a8be 5c0d f03e 8f48 0ebd
000000f0: 4018 3bbd ece9 ac3d 4cbf 913d 4b9e f33d
00000100: a2a8 7fbd f4b6 c23e d310 233e 8f9e b83e
00000110: fca3 2abe 5356 813e 967e fa3d aa64 e0bd
00000120: f310 f63d 79fc 4b3e e4c0 99be 660a 2c3e
00000130: ce8d 303e 6ae4 cdbe 9420 b2be 310f cbbe
00000140: 1397 4c3e a431 333e 8744 e8be 6a63 a4bc
00000150: 875c 36be 45a9 813d e5d5 553e fcf7 d3be
00000160: d56e 9f3c 4ca9 46be d930 d4bd 0979 5cbe
00000170: 99a7 c9be ca8f 2d3b 23cf 96be 18c5 47bd
00000180: c4a6 cabe f73f b83d b618 7fbb ee16 9f3d
00000190: e79c 003f 7051 513e c6f6 f83e 7931 ff3c
000001a0: 2f8a 03be 2107 9dbe e598 32bd d72c eabe
000001b0: 5c90 c83d 290c 4abe 7b78 3ebe e257 d13d
000001c0: 073a 453e 7685 653e f7bd 76be 107b e1bd
000001d0: 02d2 e53d a506 843e 7a3c b33e 5499 35bd
000001e0: 771f 24be b5fa 97bb 9051 34be 5090 4abd
000001f0: a4a6 cc3c 1cdf 16be 9f00 babe c03c c9bd
00000200: 5f01 6fbe 4671 9cbe f2fd 0fbe 2181 983d
00000210: e403 adbe 96e1 a2be 83ee a23d bfac 6f3e
00000220: 55c7 d43e e0a0 35be 714e a83e b5da d0be
00000230: 3566 73be da86 233e 7a74 93bd a948 ad3d
00000240: b436 8cbd c841 aebe f808 243d d5db 78be
00000250: 12c5 db3e 2148 fabd e7e9 93be 7a78 20be
00000260: 04f7 83bd 26c2 cabe a214 e2be 61c3 3fbe
00000270: 9ea5 03bf 079d aebe a885 febd a6bc 763d
00000280: 96c9 883e 6593 b3be d896 893e 8960 14be
00000290: 8264 5c3c c73d f2be 980f 293d c0e7 c8bd
000002a0: 989c fa3e 2c21 1fbc e147 3cbe 8578 dc3e
000002b0: bc8f f43d 85dd 1f3f 79b5 9fbe 0087 b5be
000002c0: 7437 173f aa05 7fbe fdd4 90be 6dad ae3c
000002d0: 2b83 e13e 8f9d 373d 942f 02bf 4db9 eebe
000002e0: 24d3 a3be 4bd9 cfbe b8c1 833e 6c7b 24be
000002f0: bb3f bdbe 406b 5fbe bcf8 78be 72d7 b9bd
00000300: 179b dbbe 6327 14be 5421 53be 82aa 5c3e
00000310: 083d 01be 8dcb f9be 2dec 25be 684e 96be
00000320: dc95 ec3d f11f 07be 3323 aabd fbd0 7abe
00000330: 29a9 d3bd 9b10 a0be c8aa 87bd 0b16 013e
00000340: 82c4 393e dd6b adbe ea03 82be e1d3 0a3d
00000350: 5f8f 94be 22b6 1d3e cead 9abe 453b 1dbd
00000360: 1b87 853d 6fe7 90be 4313 4a3e a339 35be
00000370: 0f17 cdbd 1338 9cbe 78ac 82be 1a58 893d
00000380: d7f6 35bd 4138 2d3d 67fa ecbd e8cd 22bf
00000390: e6b2 5dbe a8f9 d83e 97d8 b3be e815 c3bd
000003a0: f4f3 49bd b0c5 e73c cd52 53be ee39 503e
000003b0: 084b 3f3e 1e91 893e a22b 8d3e 645f 46be
000003c0: 0b0b 4c3e 601b e0ba 1587 d63c fc3c f0bd
000003d0: c76a 363e ffb3 cebe 5362 91be 3522 b1bd
000003e0: ba42 b53c d619 903e 8d4b d1be 96f5 1fbe
000003f0: 3aa9 a7bd 5045 ef3e 0e02 093e df7e 0d3f
-0.044979572 0.07603168 0.112416066 -0.23449183 0.19720508 -0.3282667 0.4372933 0.042172506
0.04255593 0.007969695 -0.36229903 0.35214174 0.18975104 0.108914554 0.36662328 -0.35392576
-0.216914 0.10682472 0.17091173 -0.38879016 0.21497935 -0.24071969 -0.18668883 -0.07037431
-0.20925474 -0.081629634 -0.069936216 -0.18948935 0.13469027 0.10832573 -0.36076364 0.036497183
0.42002508 -0.1487819 -0.0713067 -0.12110793 0.068674415 0.52826566 -0.071725555 -0.4284072
0.2360364 -0.12962285 -0.12057768 -0.21947505 -0.14819439 -0.12535435 -0.0048061325 -0.09148371
-0.13601717 -0.26882 -0.2873107 -0.013543888 0.39580473 -0.020389559 -0.347934 0.042753026
-0.31080395 -0.3294733 0.46885192 -0.034737166 -0.045677423 0.084430546 0.07116565 0.11895426
-0.06241668 0.38030207 0.15924387 0.3605847 -0.16664118 0.25261173 0.122311756 -0.109567
0.120149516 0.1992053 -0.30029976 0.16800842 0.17241594 -0.4021333 -0.3479048 -0.39660028
0.19979505 0.17499405 -0.45364782 -0.020066936 -0.17808734 0.06331114 0.20882376 -0.41400135
0.019462029 -0.19400519 -0.103608795 -0.21530546 -0.3938568 0.002648341 -0.29454908 -0.048771948
-0.39580357 0.08996575 -0.003892464 0.07768045 0.50239414 0.20441222 0.48625773 0.03115152
-0.12845682 -0.306695 -0.043602843 -0.45737335 0.09793159 -0.19731201 -0.18600647 0.102218404
0.19260417 0.22414193 -0.24095903 -0.110098004 0.112216964 0.2578632 0.35007077 -0.04433568
-0.16027628 -0.004638041 -0.17609239 -0.049454033 0.024981804 -0.14733547 -0.363286 -0.0982604
-0.23340367 -0.3055517 -0.14061716 0.074465044 -0.3379203 -0.31812733 0.07955649 0.23405741
0.41558328 -0.1773715 0.32872346 -0.4079186 -0.23769458 0.1596941 -0.071999505 0.084611244
-0.06846371 -0.34034562 0.040047616 -0.2430261 0.4292379 -0.12220789 -0.2888939 -0.15670958
-0.06443599 -0.39601249 -0.44156367 -0.18726875 -0.51424587 -0.34104177 -0.12427837 0.060238503
0.26716298 -0.3507339 0.26872897 -0.1448995 0.013451697 -0.47312757 0.041274637 -0.09809828
0.48947597 -0.009712499 -0.18386795 0.430607 0.11941478 0.62447387 -0.3119314 -0.3545456
0.5906899 -0.24904504 -0.28287497 0.02132293 0.44045386 0.044827994 -0.5085385 -0.46625748
-0.31997025 -0.4059547 0.25733733 -0.16062707 -0.36962685 -0.21818256 -0.24313635 -0.09074296
-0.42891762 -0.1446815 -0.20618182 0.21549419 -0.12620938 -0.4878811 -0.16203375 -0.29356694
0.11552021 -0.13195778 -0.08307495 -0.24493782 -0.10334999 -0.3126267 -0.06624371 0.12606065
0.18141368 -0.33871356 -0.2539361 0.03389347 -0.29015633 0.1540151 -0.30210727 -0.038386602
0.0651991 -0.2830157 0.1973391 -0.17697768 -0.10014164 -0.3051153 -0.25522208 0.06706257
-0.044424858 0.042289976 -0.11571198 -0.6359544 -0.21650276 0.42377973 -0.35126182 -0.09525663
-0.049304917 0.028292507 -0.20637055 0.20334598 0.18680966 0.26868528 0.27572352 -0.19372326
0.19926088 -0.0017098002 0.026187459 -0.11730382 0.1781417 -0.403717 -0.28395328 -0.086491026
0.022126544 0.2814471 -0.40877953 -0.15621027 -0.08186574 0.4673257 0.1337969 0.55271715

l2.weight f4 [300, 400]
00000000: 1aed 06bd 7e35 cd3c 6a1f a23c 5413 5fbc
00000010: 4922 cdbb a1ce 2b3d adc2 04bd 565a 97bc
00000020: d918 413d 42c0 bb3c bddb 0cbd b043 9a3b
00000030: 3cc8 26bd 7af8 05bc 972d d33b f235 7dbd
00000040: ed29 b9bc 7118 fdbc 0a72 a9bc a559 243c
00000050: fddf 3bbd f8db 82bd 68db f33b 09c4 4a3d
00000060: a8ab 163c bddb 99bc cd18 37bd dd4b 2abd
00000070: e5d9 1cbd 702a dbbc b96b 7bbd 4204 e63c
00000080: 2610 f53c 00a2 0139 78cb 4bbc 9a22 fcbc
00000090: 8156 beb9 1474 4a3c 027c a73c b46c 00bc
000000a0: fb3c 1abd 54d3 8fbc 14c3 623c 46d3 103c
000000b0: 1b23 76bd 0095 b0bc c9a5 9cbd 81e5 2d3d
000000c0: 0357 863c d6ba 14bd 6418 743c 565a febc
000000d0: 76a4 8abc 41bd 51bd c0d7 43bb 5ca4 7cba
000000e0: ea1e cf3c 2ebc 47bd 8478 88bc b779 5abd
000000f0: de31 bf3c 4625 b23c 8c01 013c 2d9f f7bc
00000100: 8201 ff3c 2014 6abd 8a65 dfbc 0f88 4abd
00000110: eb6c 493c 07ba 45bd c3d0 583c 908d e43b
00000120: cd0f f6bc bef1 b43c 03f7 81bd c670 a4bc
00000130: fd0c 4cbd ca27 a9bc 26e7 81bc df1b b1bc
00000140: 8590 7b3b 0b66 3a3d a204 cebc b30c 1ebd
00000150: af40 22bd c9ac 4b3d fd63 c8bc 98ae 283c
00000160: d0da 98bc 28a5 a5bb dff2 103d b20d 9e3b
00000170: e4e1 053d 3ab8 b1bc a634 e6bc 58ac 39bc
00000180: 8051 ec3b 40c1 c7bc 72d2 df3c 00fd 043b
00000190: ce48 1fbd 11aa 24bd 8108 363d 7a4d 11bd
000001a0: 88c4 063c 807d ffbc a328 35bd 01a4 14bd
000001b0: b3c4 40bd 0074 193a 1b70 613c d8f4 393c
000001c0: 3dc4 f6bc 9ed4 62bd 48e5 0ebd 69a2 0ebc
000001d0: 263f 8b3c 3286 74bd 40c3 84ba d296 c63c
000001e0: 393f e33b 98b3 8bbc 585c a93b 06f3 1cbd
000001f0: 2c39 3f3c a85f b9bb 0dd8 75bd 1eb6 1e3c
00000200: b3cf 2bbd 111f 85bd 6170 303d d803 2dbd
00000210: c55d bdbc 7d8b 523c d88c db3b 2b20 6abd
00000220: 586f d9bb 963a 883c fac7 8f3c 2fc8 75bc
00000230: 9938 86bc 0533 133d cb9c 3cbd e815 86bc
00000240: a6e0 993c 829c a23c 57e3 223d 7a4c a43c
00000250: 9428 373c 7eb4 01bd d57b a1bc dbc0 27bb
00000260: db43 2bbd 975c 3abd ce5c 2bbd 9dd4 303d
00000270: 1ab7 4cbd 2de8 153c a602 84bc 2da3 5fbc
00000280: 26a0 22bd fd17 41bd 298c 86bd f48c 63bc
00000290: 38fd 243c 7f95 ee3a b15c 1dbb 89d4 113d
000002a0: 1071 27bd 68b5 15bd e0df 6dbb c099 093c
000002b0: 70b7 ee3b e3d7 45bd d0a3 1a3b 47ff 41bd
000002c0: 429e a83c ec57 253c 25aa 08bd c832 133c
000002d0: c30c f6bc 11e5 84bd 21d1 ad3b 5cb2 cdbc
000002e0: 997e 35bd b22b 0dbd d880 d73b 6deb ab3b
000002f0: 6aa3 0cbd 32b5 ac3c 2832 eabb f5df 37bd
00000300: e953 22bd 8b19 8e3c 4eee 76bb 06d7 97bc
00000310: b043 48bb 9ad5 b83c c726 ccbc 7a55 94bd
00000320: 10ad 37bd 5db7 acbc fd34 443d 5e9b a43c
00000330: a1ae 9cbb 607e 243b df64 c13c 10b1 e1bb
00000340: 0088 4fbd 7762 bfbc e0f6 32bd 2074 283c
00000350: 0040 f6b8 0284 3bbd de3a 06bd 92c4 ba3c
00000360: 31ad 51bc d9c0 3cbd 066f 95bc 75cb 26bd
00000370: 8d27 91bc b0cc 303b 8a0a e4bc 6761 a2bc
00000380: 164d e13c 73de 473c 80eb ba3b 0b31 893c
00000390: ab8b 1bbd c6ff 83bc 11e9 3f3d a058 0cbb
000003a0: d0a3 033b 959b 07bd 8a40 73bd b410 96bc
000003b0: 4a69 49bd 221d 1abd 816a ee3c 6458 bfbb
000003c0: 8852 a5bc 27ca 7abc 785f 69bc 12f9 49bd
000003d0: 16df 9abd 889c 09bc cc0e 7abb acaa 05bc
000003e0: 7fcc 47bd d083 373b efb7 af3a ffcf 39bd
000003f0: 1328 73bd ea75 be3b 8202 2ebd 935d 3cbd
-0.03294096 0.025049921 0.01979037 -0.013615448 -0.0062601906 0.041945104 -0.03241222 -0.018475693
0.047142837 0.022918824 -0.034389246 0.004707776 -0.040718302 -0.008176917 0.0064446437 -0.061819024
-0.022603 -0.030895444 -0.02068426 0.010031139 -0.04586791 -0.06389612 0.0074419267 0.04950336
0.0091961995 -0.018781537 -0.044701386 -0.041576255 -0.038293738 -0.026753634 -0.06138203 0.028078202
0.029914927 0.00012362748 -0.012438647 -0.030778218 -0.00036304074 0.012356777 0.020444874 -0.007838417
-0.03765581 -0.017556824 0.013840456 0.008839434 -0.060092073 -0.021555424 -0.076488085 0.0424552
0.016398912 -0.036310993 0.014898393 -0.031048935 -0.016924124 -0.051205877 -0.0029883236 -0.00096375286
0.025283296 -0.048763447 -0.016659029 -0.053338733 0.023339208 0.021746289 0.007873904 -0.030227268
0.031128649 -0.0571481 -0.027270097 -0.04944616 0.0122940345 -0.048273113 0.013233366 0.0069748834
-0.030036831 0.022087928 -0.06345942 -0.020073306 -0.049817074 -0.020648856 -0.01585729 -0.021619735
0.00383857 0.045507472 -0.025148693 -0.03858633 -0.03961247 0.049725328 -0.02446174 0.010295533
-0.018659025 -0.0050550885 0.03538787 0.00482341 0.03268613 -0.021694291 -0.028101277 -0.011332594
0.007211864 -0.024384141 0.027322028 0.0020292401 -0.03888779 -0.04020125 0.044441704 -0.035474278
0.008225568 -0.031187773 -0.044228207 -0.03628922 -0.047062587 0.0005853772 0.013759638 0.011349879
-0.03012287 -0.05537855 -0.03488663 -0.008705714 0.016997885 -0.05969829 -0.001012899 0.024241839
0.006935027 -0.01705341 0.005168479 -0.038317703 0.011671346 -0.005657155 -0.060020495 0.009686975
-0.041946124 -0.06500066 0.043075923 -0.042239994 -0.023116002 0.012850639 0.0067001395 -0.057159584
-0.0066355877 0.016629498 0.017551411 -0.015001341 -0.01638441 0.035937328 -0.046047967 -0.016367868
0.018783879 0.01985002 0.03976759 0.020055998 0.011179108 -0.03166627 -0.019712368 -0.0025597129
-0.04181276 -0.045498457 -0.041836552 0.043171514 -0.049979307 0.009149593 -0.016114544 -0.013649744
-0.03970351 -0.047142018 -0.06569702 -0.013888586 0.010070138 0.0018202512 -0.0024011547 0.03560308
-0.04087931 -0.036549956 -0.003629677 0.008398473 0.007285051 -0.04830159 0.0023596175 -0.047362592
0.020583276 0.010091763 -0.033365387 0.008984275 -0.030035382 -0.064890034 0.005304471 -0.025109462
-0.044310186 -0.0344655 0.0065766387 0.005246571 -0.03433553 0.021082494 -0.0071470924 -0.044891316
-0.039630804 0.017346164 -0.0037678662 -0.018535148 -0.0030557923 0.02256279 -0.024920834 -0.07242866
-0.04484278 -0.021083528 0.047902096 0.020093616 -0.0047815596 0.002509974 0.02360767 -0.0068875626
-0.05066681 -0.023362381 -0.04369247 0.010281593 -0.00011742115 -0.04578019 -0.032770984 0.02279881
-0.01279764 -0.04608235 -0.018241417 -0.040721375 -0.017719055 0.0026977472 -0.027837057 -0.019821836
0.027502578 0.012199032 0.0057043433 0.016747018 -0.037974995 -0.016113173 0.04685313 -0.002141513
0.0020086654 -0.03310736 -0.05938772 -0.018318512 -0.049172677 -0.03762544 0.02910352 -0.0058393944
-0.020180956 -0.015306986 -0.014243953 -0.049309798 -0.075620815 -0.008399136 -0.0038155792 -0.008158367
-0.048779007 0.002800215 0.0013406257 -0.045364376 -0.05936439 0.0058123963 -0.04248286 -0.045987677

l2.bias f4 [300]
00000000: 6e69 903c 202f 8c3c 99de dcbd 5982 babd
00000010: 0f72 853b 2360 ef3d b9c6 fb3c b0f4 0abd
00000020: 29a8 cabc 06ed bbbc 70d4 0a3d 130b c43a
00000030: 053a f63d 15be 36bd e41d 17bd 88ab 6c3c
00000040: 2c15 f23d ced0 0d3e c03c 5b3d 83a2 2abe
00000050: 4f4a 2abd c321 babd c068 50bd a01c 80ba
00000060: f519 d7bd 57cc 79bc 0194 31bd bb32 a7bc
00000070: d560 1bbd 3508 393d 620c adbd a85f 22bd
00000080: 6e21 0fbd 82ac 08bd e813 16bd b78f 1e3c
00000090: d17b 37bd e003 0dbe 7bba 13bd 25fa 62bd
000000a0: 65a5 293b 9847 89bc 6839 353d e59e b13c
000000b0: 6a73 733c 0c4a f3bc cd98 69bd ebce cfbd
000000c0: 48ae d5bd 5273 1dbd f800 983c f663 d6bc
000000d0: 08ed 46bd 274b 7cbd 4ea5 9fbd 8314 14bd
000000e0: b04d 03bd 7da7 163e c514 4b3e ceaa 01be
000000f0: d59a 4abd 58d7 80bc e4f6 52bc 17ec 8e3d
00000100: 0650 b03d 3e69 33bd 52d0 4bbd 05b5 4b3d
00000110: a04a 393c 7992 d03c c989 6ebd 957d b1bc
00000120: 4fed 85bd 1586 07bd ef63 2c3d 8470 d7bd
00000130: 69ba 39bd a679 43bd 0fdc 4f3e 95e9 263d
00000140: d0c8 bc3c bb04 733c 5a63 233e cc0d 2bbe
00000150: 3839 923b a1ac 48be 9247 933e 0de5 12bd
00000160: 71b1 633d bcc5 cb3d 1956 b73c 1143 033c
00000170: 271f 81bc 7148 ecbd 0100 11bd 078b 35bd
00000180: 0db7 2e3d e38d 65bc 1542 053e f28d 30bd
00000190: 32ee 3bbd a8b4 253d 9f69 043d 246d 58bd
000001a0: 1d81 85bd 862f 353b 8c5b 70bd d4b2 443d
000001b0: 00c8 46be 5125 5fbc 769f 54bd 0c74 97bd
000001c0: b51e 00bd 7e9a c1bd d251 183e b8a7 8dbd
000001d0: 8b38 cd3d a486 02bd 2b8d 32bd beef ddbd
000001e0: a07f db3b 3ac8 7abd d9ae 37bd 27e6 5bbc
000001f0: 9982 3dbc 26fe dabc e8c4 a7bd e614 e3bc
00000200: ba74 ea3d 07d1 a23c eeff 853e 90f4 9abc
00000210: 86cf fabd 98b5 063d 19c2 9f3c b0e3 283d
00000220: 4207 d83c dd10 533e fbe6 a53c 57cf 5abd
00000230: 8b7d febc 86ab 7bbb 1f67 3fbd 0dd6 86bb
00000240: 687b 2d3e c1dd ec3d 5e1d 4bbc 61a9 fa3c
00000250: 4fbb 91bc 1eb4 87bd 72fb 243c 6cb6 263d
00000260: c12d 2a3c 92e3 01bd b887 4ebd e4f9 6c3c
00000270: fe48 75bd acff bd3c 879b eabc 7530 133d
00000280: 7b3a 683b 041f 19bd 2950 7dbc 4ab3 36bd
00000290: 8bb5 49bd f976 06bd 61ef 0bbd cbd8 4fbd
000002a0: 34d8 50bd efd7 47bd 8eb0 693b f026 fb3c
000002b0: c9cf 503e df26 dfbd 7616 913a 9fd7 aa3d
000002c0: 42f4 f6bd 955b a0bd 4854 6e3c 4e0d 0c3d
000002d0: 003a d83d 19d5 113e 46b5 673c 923d 39bd
000002e0: 6806 d93c 5a0d e23d 33fc 27be d56d aebe
000002f0: 06ec 01bd 230a c8bd dbb1 06bd c7e5 943c
00000300: a17e ea3c 3aed d03c b21d 9d3b 5604 a43d
00000310: 6da8 4d3c ff12 473c 7062 773c 8987 923e
00000320: 92d6 51bd 92fa ec3d 9cf9 5ebd 82e7 efbc
00000330: 145e 93bd d9e4 28bd f293 4a3e b918 e7bb
00000340: d36b 42be adfe e8bc 8de7 4ebd 4e9b 5fbc
00000350: 68b3 34bd 12c0 f4bc 494a cebc 05fd 0f3c
00000360: 31c5 aabd 5e3d acbc 52d8 9f3c 1121 06bd
00000370: b6d0 8b3d 296a 7abd f177 a03c c7f1 59bd
00000380: 8e1a 5d3c 78c5 8f3c ca82 1c3e a494 193b
00000390: 19bb 4cbd bc01 c03d 7daf 213c 124f 8dbc
000003a0: 9478 573d c97e 6ebd 4a65 15bd 61c6 97bd
000003b0: 0474 2cbe cdc5 ec3b 8f84 203d 8547 243d
000003c0: 6697 ce3c f279 8a3c 0cf1 d3bc 8510 8d3c
000003d0: 8361 5f3e be05 ee3d 465b 263e 47fb 3cbd
000003e0: 4f90 083e ebef d6bb 7d19 393e a071 48bd
000003f0: e74b 00bd e8c9 f73c 6a9e 493e 7423 aabd
0.017628398 0.017112315 -0.10784645 -0.09106893 0.0040724347 0.116882585 0.030734407 -0.03392476
-0.024738388 -0.02294017 0.033894002 0.0014956914 0.12022785 -0.04461487 -0.03689374 0.014445193
0.118204445 0.13849184 0.053524733 -0.16663556 -0.041574772 -0.09088471 -0.050881147 -0.0009774156
-0.10502998 -0.015246472 -0.04335404 -0.020409932 -0.037934143 0.045173842 -0.084496275 -0.039642006
-0.03494399 -0.03336764 -0.036640078 0.009677819 -0.044795815 -0.1377101 -0.036066514 -0.055414338
0.0025885936 -0.016757771 0.0442442 0.021682212 0.01485906 -0.029698394 -0.057030488 -0.10146888
-0.10433632 -0.038440056 0.01855515 -0.026170712 -0.048565894 -0.06159511 -0.07795201 -0.036152374
-0.03205651 0.14712329 0.19832142 -0.12662813 -0.049464066 -0.015727684 -0.012876246 0.06978624
0.08609013 -0.04380154 -0.049759217 0.04973318 0.011309296 0.025460469 -0.05823687 -0.021666327
-0.06539404 -0.033086855 0.04208749 -0.105195075 -0.04534379 -0.047723435 0.2029879 0.040750105
0.023044974 0.014832671 0.15955868 -0.16704482 0.0044623874 -0.19597103 0.2876554 -0.03586297
0.055589143 0.09949824 0.022379922 0.008011595 -0.015761925 -0.115372546 -0.035400394 -0.04432204
0.04265504 -0.014010879 0.1301349 -0.04310412 -0.045881458 0.04045549 0.03232729 -0.05283846
-0.06518767 0.0027646734 -0.058681056 0.048022106 -0.19412231 -0.013619737 -0.051909886 -0.07395181
-0.031279285 -0.09453295 0.14874962 -0.069167554 0.1002055 -0.031866685 -0.04359166 -0.10836743
0.0066985637 -0.061226107 -0.044844482 -0.013421572 -0.011566781 -0.026732516 -0.08191854 -0.027719926
0.11448045 0.019875063 0.2617182 -0.018915445 -0.12246613 0.032888025 0.019501733 0.041232765
0.026370648 0.20611902 0.020251742 -0.05342039 -0.031065723 -0.0038401796 -0.046729203 -0.0041148723
0.16941607 0.11565734 -0.012397138 0.030598344 -0.017789511 -0.066261515 0.010069715 0.040701315
0.010386885 -0.03171117 -0.0504224 0.014463875 -0.059884064 0.023193203 -0.028638614 0.035934884
0.0035435248 -0.037383094 -0.015461006 -0.044604577 -0.0492454 -0.032828305 -0.034163836 -0.05074386
-0.050987437 -0.048789915 0.0035658213 0.030658215 0.20391764 -0.10896086 0.0011069316 0.08341908
-0.12058307 -0.07829968 0.014546461 0.034192376 0.105579376 0.14241447 0.01414234 -0.045224734
0.026492313 0.11037703 -0.164048 -0.3406817 -0.03171923 -0.097675584 -0.03288446 0.018175973
0.028624834 0.025503743 0.0047947997 0.080086395 0.012552363 0.012150525 0.015099153 0.2861903
-0.05123002 0.1157123 -0.054437265 -0.029285196 -0.07195678 -0.04123387 0.19782999 -0.0070525077
-0.18986444 -0.028441751 -0.050513793 -0.013647867 -0.044116408 -0.029876743 -0.025181906 0.008788352
-0.083383925 -0.021025356 0.01951233 -0.03274638 0.06826918 -0.0611364 0.019588443 -0.053209092
0.013495101 0.017550215 0.15284267 0.0023434544 -0.049983118 0.09375331 0.0098685 -0.017249618
0.052605227 -0.05822638 -0.03647355 -0.07410885 -0.16841131 0.007225728 0.039188918 0.04010727
0.025218677 0.016903851 -0.025871776 0.017219791 0.21814542 0.11622189 0.16245756 -0.046138074
0.133363 -0.006559362 0.1807613 -0.048936486 -0.031322386 0.030247644 0.19689336 -0.083075434

l3.weight f4 [6, 300]
00000000: 30e8 e2bb 6286 37bc 2315 2a3e 49ec 7ebd
00000010: eebf e0bb 9f3d cdbc 4186 03bc 0be0 f23c
00000020: 1035 b2bc e9e0 493d 24c3 f93c 7a04 4cbc
00000030: f800 f5bb 202a 94bc 864e 12bd 394a 08bd
00000040: 5cdc a0bc e125 743c be01 913d 0bc1 1ebd
00000050: 2aef c0bc 1597 913d c2ff 8cbc 5eed 243d
00000060: b76c 6b3d ab65 23bd a091 76bd a09a 513c
00000070: 7c54 17bd f185 3f3d 640f 9f3c e53e 593d
00000080: 5537 8cbc a8d0 913b 2da6 4ebd c992 2e3d
00000090: 199b 5ebd 08ae 2abc a9af 9e3d bfcd 513d
000000a0: c2af 433d 29da c73c be33 34bc e070 c53c
000000b0: c442 d93c 7031 353b e8a7 19bd 6e29 14bd
000000c0: c0b9 a13d 8623 0abd 1faf f93b 17f8 13bd
000000d0: 01a8 123d ad86 4fbd 1f49 f4bc 9619 6abd
000000e0: 86df a9bc d880 063c 574a ac3c 2ef3 ab3d
000000f0: e75c b737 1bdb 3abd ecaa d1bb 17c1 4bbd
00000100: d042 c63b 93aa 35bd 2e04 8e3d de1d 943d
00000110: c4a9 0bbd 7408 ab3c 6457 d9bc 0344 ae3c
00000120: 535b 29bd b8f9 033c 74a3 3abd 7ff5 19ba
00000130: d5c0 30bd 80ba 95bd 768a 67bc 8486 273d
00000140: 508a d13c a271 093d 77eb 373d 9bc6 ddbc
00000150: 12d0 2b3d ad6b b63d ecaf 603c d381 f1bc
00000160: 4647 ed3c 9ff5 913c 926e c1bc c7f8 103c
00000170: b82c dd3c 48c7 2d3e 2e55 333d e142 273d
00000180: 63bb 4d3d 727c 5c3d 302c 253d ab59 123d
00000190: 14ab 183d b962 2fbd 8c98 d93c 6e08 60bd
000001a0: 08a3 6b3d ff5d a5bb 2f3b f5bb 895d 6bbb
000001b0: d3be 33bd 68b2 1bbd 10a6 7c3c 2a34 4d3d
000001c0: 508c ce3c feb8 953d 6961 39bd bea7 253d
000001d0: 716e 4f3c 19e5 183d 2426 823c 9b59 6ebc
000001e0: 8724 aebb 311a cebc a9f6 453c d0fe d7bb
000001f0: d395 29bd 2cc9 b2bc 85a4 2c3d 164d 29bd
00000200: 96a7 463d 0905 54bc 64a3 b63c 5004 c73c
00000210: 3a86 23bc e0a2 703c a9fb 443d 7691 413d
00000220: c0b6 7bbb c76b 4e3d 6596 c7bc 1093 a83c
00000230: b60f 14bc cf90 f3bc 1486 94bc de76 463d
00000240: 6e4a 503d 7e6e dc3c b744 faba d018 703c
00000250: cd15 45bc f698 e03d 1a10 393d 72ec e7ba
00000260: 3834 ca3b 3f24 b03c 0445 2b3d a85a 81bc
00000270: dca1 dcbc f07e f43b 403a 5f3b 8e3e d73c
00000280: 0f96 5cbd f9ea c63d 798c 3abd 0cd6 ea3c
00000290: d38e 75bc 2c68 d6bc 85a7 c93c eeb7 c43b
000002a0: 9f06 123c 76a2 e0ba 3829 a83c 5c02 06bc
000002b0: 3959 c73c 669b 41bd 7cd6 963c 015f ae3b
000002c0: 5d39 683d 26d8 4fbd 8d85 823c 48ac 373d
000002d0: e625 4abd 2440 9fbc be4d bdbc e8d2 ccbb
000002e0: da15 89bc c297 943d 1f3c f73c e465 dfbc
000002f0: 109a 3d3b b447 a53c 838d 423d 6723 5f3d
00000300: 1206 153b 1f9e eabc 5c4c 5d3d 5127 74bd
00000310: 01b5 22bd b604 ab3c 1fc8 353d c1c8 bfbc
00000320: dd63 36bb 2963 0b3e 4678 083c 20f7 c33c
00000330: 00c3 fc3c 180b a1bb 457d 23bd d1e3 86bc
00000340: 32ce 2ebd 78fa 623c 95a4 0c3c 2023 14bd
00000350: 2098 0d3d c0f9 283c c045 6abb fd04 423c
00000360: 861b 1cbd 8000 1c3d 8080 afbc 122f a0bb
00000370: 014c c53b 4571 f43c cad0 cabc 8b63 393d
00000380: 5c7e 2c3d 76a4 58bd 1278 923d 9824 7bbc
00000390: e6ff 37bd 9072 a03d f9d7 b53c 45db 5bbd
000003a0: 6fcf 55bd 24b0 2dbd a85e 973b 7753 50bd
000003b0: c7d0 2ebd af84 213d e39f cfbc 619c 0bbd
000003c0: 64d8 713b 0d2d eabb 7969 32bd 45ef 5a3a
000003d0: affc 3a3d cac7 f13c ed57 bc3b feff 3fbd
000003e0: 7c44 52bd 7bbe 313d 250d ea3c ffaa 34bc
000003f0: ff4d 4c3d 54b6 a6bc 697e 243d a1eb dd3d
-0.0069246516 -0.011201473 0.16609626 -0.062237058 -0.0068588173 -0.025053797 -0.008027614 0.029647848
-0.021753818 0.049286757 0.030488558 -0.012452239 -0.007476922 -0.018086493 -0.035719417 -0.03327391
-0.019636326 0.014901609 0.070804104 -0.03875832 -0.023551542 0.07108895 -0.017211799 0.040265433
0.057476725 -0.03989188 -0.060197473 0.012793213 -0.036945805 0.046758596 0.019416519 0.053038497
-0.017116228 0.0044499226 -0.050451446 0.042620454 -0.05434713 -0.010417469 0.07748348 0.051221605
0.047775038 0.024396019 -0.010998664 0.024101675 0.026521094 0.0027647875 -0.037513644 -0.036172323
0.07896757 -0.033725284 0.007619753 -0.03612527 0.035804752 -0.050665546 -0.029820023 -0.057153307
-0.020736467 0.00820943 0.021031542 0.08395992 2.1858561e-05 -0.04561911 -0.0063985493 -0.04974469
0.006050445 -0.044352125 0.06934391 0.07232259 -0.034097448 0.020878054 -0.026530929 0.021272665
-0.04134686 0.008055143 -0.045566037 -0.00058730686 -0.04315265 -0.07310963 -0.014132133 0.04089977
0.025578648 0.033555634 0.04490229 -0.027072242 0.04194648 0.08907256 0.013713818 -0.02948085
0.02896465 0.017817317 -0.023612294 0.008848376 0.026998863 0.16970551 0.043782406 0.040835265
0.050227534 0.053829618 0.040325344 0.035730045 0.037272528 -0.04281876 0.026561998 -0.05469554
0.057528526 -0.0050466056 -0.007483862 -0.0035913906 -0.043883156 -0.03801194 0.015420452 0.050098576
0.02521339 0.07310675 -0.045258913 0.040443175 0.012660609 0.03732786 0.015887327 -0.014547731
-0.005314413 -0.025158973 0.012082734 -0.0065916553 -0.04140265 -0.021824442 0.042149086 -0.04133328
0.048499666 -0.012940654 0.022294708 0.024294049 -0.009980733 0.01468727 0.048091564 0.047257863
-0.0038408488 0.050395753 -0.024363706 0.020577937 -0.009036949 -0.029732136 -0.01813034 0.048453204
0.05085223 0.026908156 -0.0019093965 0.014654353 -0.0120291235 0.10966675 0.04518137 -0.0017694368
0.0061707757 0.021501658 0.041813865 -0.015790299 -0.02693265 0.007461421 0.003406182 0.026274946
-0.053854045 0.09712786 -0.04554412 0.028666519 -0.014987665 -0.02617272 0.024616012 0.0060033714
0.008912711 -0.0017138261 0.020527467 -0.008179273 0.024334537 -0.04726734 0.018412821 0.005321384
0.05669533 -0.050743245 0.015932823 0.044842035 -0.04935255 -0.019439764 -0.02310836 -0.006250728
-0.016734052 0.07255508 0.030180035 -0.027270265 0.002893094 0.020175792 0.047498237 0.05447712
0.0022739214 -0.028639851 0.0540279 -0.059607808 -0.0397234 0.02087627 0.044380303 -0.023411157
-0.002783052 0.13612045 0.008329457 0.02392155 0.030854702 -0.0049146526 -0.03991439 -0.016466053
-0.042677112 0.013853662 0.008584161 -0.03616631 0.034568906 0.010313451 -0.003574714 0.01184201
-0.038112186 0.038086414 -0.021423578 -0.0048884237 0.0060210233 0.029839167 -0.024757762 0.045260947
0.042112693 -0.052891217 0.07151808 -0.015328549 -0.04492178 0.07834351 0.02219771 -0.05367591
-0.052199777 -0.04240431 0.004619438 -0.05086085 -0.042679574 0.039433178 -0.025344795 -0.03408468
0.003690266 -0.0071464838 -0.043557618 0.0008351694 0.045651134 0.029514212 0.0057477863 -0.046874993
-0.051334843 0.043394547 0.02857072 -0.011027097 0.04987907 -0.020350613 0.040159617 0.10835958

l3.bias f4 [6]
00000000: 7eda 863d d49a 1f3e 20a3 babc 1dfb 37bc
00000010: 5b29 913d df1b 02bd
0.06584643 0.15586406 -0.022782862 -0.011229304 0.07087966 -0.03176486
