results/runs/double_assembly_step/Average_TD3_20_Peg-in-hole-double_assembly_seed_3/94000_actor.pth (torch_old, 510312 bytes, 6 tensors)

l1.weight f4 [400, 12]
000000 08 cd 8b be 4d 55 64 be 1f 77 f6 bd d3 42 8d be
       -0.27304864 -0.22298165 -0.12034439 -0.27590045
000010 55 d9 87 bc 2f c6 82 be 89 c2 2f 3e b9 c0 f7 3d
       -0.016583124 -0.25541827 0.17164053 0.12097306
000020 88 48 7a 3d 2c 20 67 3e 1d 0b 0c bd d0 5d 3b 3e
       0.061104327 0.22570866 -0.034190286 0.18297505
000030 b3 01 3f be 37 5b 57 bd 99 e7 81 be 70 de cb bc
       -0.18652992 -0.052577224 -0.25372007 -0.02488634
000040 40 eb 3f be 2e c4 83 3e a4 11 64 3e 55 35 47 3e
       -0.18742085 0.2573561 0.22272354 0.19453938
000050 2f 8a bd 3d e9 e5 2c be f0 c4 81 3e 10 f8 91 be
       0.09254872 -0.16884579 0.25345564 -0.2850957
000060 fc fd 42 be 32 dc 2f be 07 92 e3 bd 50 cc 6b 3d
       -0.190422 -0.17173842 -0.11111837 0.057567894
000070 cd eb 5f be 8d e0 63 be bc 41 13 be 5e 86 39 3e
       -0.21867295 -0.22253628 -0.14380544 0.18117663
000080 1c 87 4c be 9e c9 83 be 26 6b 83 be ee 24 0e be
       -0.19973415 -0.2573976 -0.25667685 -0.13881275
000090 c8 20 3c bd 43 d3 8e be f3 a5 15 be e2 fc 69 bb
       -0.0459297 -0.27895555 -0.14614086 -0.0035703708
0000a0 79 3a 3d 3d 1d 22 38 bd ab d2 04 bc b5 d7 5a be
       0.046198342 -0.044954408 -0.008106868 -0.21371348
0000b0 b5 a5 22 3e 9a 64 7b bd 13 e2 3b be 3c 12 ac bd
       0.15883525 -0.061375238 -0.18347959 -0.084019154
0000c0 90 30 25 bd 84 a8 88 3e 5a 0e 1a 3e d0 b8 ee bd
       -0.040329516 0.26691067 0.15044537 -0.11656344
0000d0 48 c0 27 bd 9a 9b 82 3e 0c e8 3d 3e 80 68 93 3d
       -0.040954858 0.2550934 0.1854555 0.07197666
0000e0 54 13 d4 bd f8 f6 75 3e 74 4a fd 3d 82 a7 03 be
       -0.10355249 0.24019992 0.123677164 -0.12856868
0000f0 c6 ea 6c 3e 21 3f 28 3d 23 87 54 be 8a ad 0d be
       0.23136434 0.04107583 -0.20754676 -0.13835731
000100 70 30 5f be 07 61 78 be c7 f2 1e 3d f7 d2 6b be
       -0.21795821 -0.24255763 0.03880575 -0.23029695
000110 2a 95 38 3e 41 a0 0c 3e 87 8c 80 3d b3 f4 64 3e
       0.18025652 0.13733007 0.062768035 0.2235897
000120 74 17 06 be 40 0f 8d 3b c4 a3 35 3e b0 5b cc 3d
       -0.13094884 0.0043047965 0.17738253 0.099784255
000130 78 42 0f 3d 9c 2e 77 3e 3c bd 86 3d 22 e4 46 3e
       0.0349755 0.24138874 0.06579062 0.19422963
000140 6e c0 7e be 7c b9 7e be aa 67 85 be 00 de 85 3c
       -0.24878094 -0.24875444 -0.26055652 0.01634121
000150 a4 da 7a 3e f1 fb 80 be bc 3d eb 3d a4 6e 82 be
       0.24497467 -0.25192216 0.11486384 -0.25475037
000160 87 72 44 be 84 9a c9 bd 18 68 f0 bd a8 9f ae 3d
       -0.19184314 -0.09843925 -0.11738604 0.08526546
000170 1d de 77 be da 28 92 3e b0 60 2c 3d ec 19 ce 3d
       -0.24205823 0.28546792 0.042084396 0.10063538
000180 9a 17 67 be b8 d0 19 3e a5 90 76 bd 9d 64 07 be
       -0.22567597 0.15021026 -0.060196538 -0.13221975
000190 4a 99 51 3d 02 5b 00 3e 4b 1c c8 3b a4 3b ac bd
       0.05117158 0.12534717 0.0061068884 -0.08409813
0001a0 1d be 22 3d 1b 23 f7 bd 65 45 dd bd a2 41 d2 bd
       0.039732087 -0.12067243 -0.108042516 -0.10266425
0001b0 7e e6 3b 3e dc 18 40 be d6 32 e6 3d cb e7 16 3e
       0.18349645 -0.18759483 0.11240165 0.1473686
0001c0 1f 79 44 be ae 0e 62 be 32 ec 55 be a3 7f 82 be
       -0.19186829 -0.22075912 -0.20890883 -0.25488004
0001d0 ae 6d 7e 3e df c3 89 3e 79 9c dc bc 9f 53 8b 3e
       0.24846527 0.2690725 -0.02693008 0.27212235
0001e0 db 32 4d 3d 31 1f 96 be 38 60 8b be 84 5a 0d be
       0.050097328 -0.29320672 -0.27221847 -0.1380406
0001f0 ac 3e 93 be ef c8 09 be 3a 80 30 3d 39 b8 b1 3c
       -0.28758752 -0.13455556 0.043091036 0.02169429
000200 07 12 92 bd 7d 2b e0 3c a2 dd 90 3e b6 91 66 3c
       -0.07132345 0.027364487 0.28294092 0.014072826
000210 87 b9 e3 3d 22 fb a5 bd 8a 1d 66 be 8f 18 78 3d
       0.11119371 -0.081045404 -0.22472206 0.060570296
000220 c3 f4 08 3e d4 dd 26 3e 25 0e 9d be 96 b9 f7 bb
       0.13374619 0.16295558 -0.30674854 -0.0075599654
000230 7d d4 95 be eb c3 a5 3c dd 96 e3 3c 29 4e e2 3d
       -0.29263678 0.020235023 0.027781898 0.11050064
000240 56 76 c8 bd 0d c8 25 bd e8 8e 99 3d 50 29 8f be
       -0.09788196 -0.040473986 0.0749796 -0.27961206
000250 54 63 11 3e b7 e4 8e 3e a0 96 3f be 56 25 8d 3e
       0.14198047 0.2790887 -0.18709803 0.27567548
000260 04 45 44 3d 35 76 8d 3e 62 dd 7d 3e be be 79 be
       0.04791738 0.27629247 0.24791482 -0.24389169
000270 dc 89 5e 3e 60 cb 21 3c 78 d3 95 3d 28 8a d6 bd
       0.21732277 0.009875149 0.07315725 -0.1047557
000280 42 f0 6c be 90 4d e2 3c 08 79 a4 3d 40 a8 14 3e
       -0.23138526 0.027624875 0.080308974 0.14517307
000290 75 f4 77 be 94 04 8f be be a8 0c 3e 60 b8 6c bd
       -0.24214347 -0.2793318 0.13736245 -0.05779302
0002a0 f7 93 72 3c 97 28 8d bd a9 d3 d9 3b d8 a9 43 3d
       0.014805785 -0.068925075 0.0066475463 0.047769397
0002b0 01 89 88 be 59 a9 db 3d 9a f5 41 3d c1 77 01 3e
       -0.26667026 0.1072566 0.047353365 0.12643339
0002c0 88 77 12 be 9e 8f 51 3e 11 06 3f 3e 2b f3 15 be
       -0.1430341 0.20464942 0.18654658 -0.14643542
0002d0 a2 69 81 3e e0 2c 18 3d d0 7c 82 3e f2 59 86 3e
       0.25275904 0.03715217 0.2548585 0.26240498
0002e0 c8 70 39 3d 58 36 3f 3d e4 28 b9 3d 96 d6 3d 3e
       0.045273572 0.046682686 0.090410024 0.1853889
0002f0 9b f6 86 be 00 f4 ed 3a 32 33 8d 3e 60 b7 50 be
       -0.2636002 0.0018154383 0.2757812 -0.20382452
000300 12 7e 26 be f0 4c f7 3c a8 c4 d5 3d a8 c6 1e 3e
       -0.1625903 0.030188054 0.104379 0.15505469
000310 80 6d 85 3c 2c 77 8b 3d 70 f3 05 be 1c 04 8c 3e
       0.016287565 0.068098396 -0.13081145 0.27346885
000320 40 cc 42 be c2 3b 40 3e b4 77 20 3e 5e 15 81 3e
       -0.19023228 0.18772796 0.15670663 0.25211614
000330 0a bb 8b 3e 6c 89 a1 bd 81 c9 40 3e 06 9b 60 be
       0.27291137 -0.07887539 0.18826868 -0.21934137
000340 89 65 4d 3e 44 d9 3e be e1 0f 37 be 7a 5d 59 be
       0.20058264 -0.18637568 -0.17877151 -0.21227065
000350 6a 05 99 3e 18 32 c7 3d 54 28 40 be 4c 37 50 be
       0.29886943 0.097263515 -0.18765384 -0.20333594
000360 25 69 40 3c ce 7d a4 bd c2 41 c0 3d 07 14 3c 3e
       0.011743818 -0.08031808 0.09387542 0.18367015
000370 ab 98 3a be f6 bf 84 be bd 14 2d 3c 72 4a 59 3e
       -0.182223 -0.25927705 0.010564026 0.21219805
000380 87 2c 21 3e 27 96 5c 3b 1b 44 a9 bd ed 99 bf 3d
       0.15739642 0.0033658834 -0.08264943 0.09355531
000390 f2 7d 2d 3e 32 cf 83 be 32 a9 16 bd fb fe 5e 3e
       0.16942576 -0.25744015 -0.03678245 0.21776955
0003a0 12 15 64 3e 9e e2 86 3e 74 72 9e 3d a2 f0 9f 3e
       0.22273663 0.2634477 0.07736674 0.31238276
0003b0 15 fd 93 be 2d 34 95 3d f1 af 75 3d c7 65 5a 3e
       -0.28904024 0.07285342 0.059982244 0.21327887
0003c0 4b 9d c1 3c 23 3e 41 3e 8b c6 77 be f1 bc c4 bc
       0.023634573 0.1887136 -0.24196832 -0.024015876
0003d0 12 93 df 3d 97 a3 3f 3e ae 6e 43 3d 2b 96 53 3e
       0.10916723 0.18714748 0.047712974 0.20662753
0003e0 ac 9b be bd 3a 51 1e bd 64 37 86 3e e8 8e 40 3e
       -0.09307036 -0.038651682 0.26214135 0.18804514
0003f0 31 8d 6e 3e 3f 2f 83 be c8 e3 1f bc dd 49 80 be
       0.23296048 -0.25621983 -0.009758897 -0.25056353

l1.bias f4 [400]
000000 fb 34 15 be 64 f7 91 3d 39 3d 69 be dd b8 87 bd
       -0.14570992 0.07127264 -0.22777261 -0.06627057
000010 10 55 eb bc 5b 0e 6f 3e 90 58 ca bc 63 10 03 be
       -0.028727084 0.2334532 -0.024700433 -0.1279922
000020 c8 d9 df bd 57 d9 4e 3e bd 33 76 be d6 2d 28 3e
       -0.1093021 0.20200096 -0.24043174 0.16423735
000030 9a 58 b4 3d 10 7a b8 bd 9c 9c 8f 3e 4e 59 1d 3e
       0.08805962 -0.090076566 0.2804917 0.15366098
000040 34 77 1a 3e 07 9b 0b be 24 86 14 3e d4 a7 fc 3d
       0.15084535 -0.13633357 0.14504296 0.12336698
000050 da 78 2f be 04 3e fb 3d 1d 1c c8 bd b5 c8 8b 3e
       -0.17135945 0.12267688 -0.09770987 0.27301565
000060 e1 d2 8c 3e e0 32 10 be 41 47 81 be 8e a0 7f 3e
       0.27504638 -0.14081907 -0.25249675 0.2496359
000070 9d e5 0b be c4 98 e3 bd 95 44 09 be ad fb 64 3d
       -0.1366181 -0.11113122 -0.13405068 0.05590408
000080 6c 8f 62 bd b9 f2 92 3e c3 37 93 3e 38 72 34 3e
       -0.05531256 0.28700808 0.2875348 0.17621696
000090 66 1d d8 bd 3c 06 83 be dc 6e 2c be 40 46 33 3e
       -0.10552482 -0.25590694 -0.16839164 0.17507267
0000a0 2e 06 6f 3e 7b c0 31 bd b4 b3 60 3e bf a8 79 be
       0.23342201 -0.043396454 0.21943551 -0.24380778
0000b0 ae d0 0b 3d d5 be 0f be a7 80 8e 3d de 6f d1 bd
       0.03413456 -0.1403764 0.06958132 -0.10226415
0000c0 0f ae f0 bd 19 7a 3e 3e e9 3d 45 be 69 0c 8e 3d
       -0.11751949 0.18601264 -0.19261898 0.06935961
0000d0 fa 3f 81 be d8 88 41 3d 2a 10 23 be 4b fa 0d 3e
       -0.25244123 0.047249645 -0.15924135 0.1386501
0000e0 8a 08 97 be 74 cb c9 3c cc fd 63 be cc 29 6b 3e
       -0.29498702 0.024633147 -0.22264785 0.22965163
0000f0 d7 d2 a4 bd 3d 8f 23 3e 7b 16 60 3e 61 56 e2 bd
       -0.08048027 0.1597261 0.21883576 -0.11051632
000100 48 8b b1 3d 1f 3b 50 be 74 28 87 3e 5d d1 c1 bd
       0.08669144 -0.20335053 0.2639805 -0.09463761
000110 d4 45 b3 bd f4 1a 44 3e 2c 85 7c 3e 11 82 5a be
       -0.08753553 0.19150907 0.24660176 -0.21338679
000120 15 89 bd bc dd 93 e2 bd 08 b0 64 3e f6 0a 8e 3e
       -0.023136655 -0.11063359 0.22332776 0.27742738
000130 50 8d 86 3e a4 90 46 3e ba ce 42 be f4 89 a2 3d
       0.26279688 0.19391114 -0.19024172 0.07936469
000140 ca 76 73 bd 34 b2 25 3d 97 0a 4a be 80 51 cd bb
       -0.059439458 0.04045315 -0.19730602 -0.006265819
000150 0a f8 7f 3e b4 9c e6 3d 1a ff 12 be 08 f7 73 3d
       0.24996963 0.112603575 -0.14355126 0.05956176
000160 26 0d b8 3c b9 30 6f be 3e 52 21 be 6b f0 43 be
       0.022467207 -0.2335843 -0.15754029 -0.19134681
000170 b2 f3 f7 3d 1c 02 fb bd 87 70 c2 3d 1a 0e 90 3e
       0.12107028 -0.12256262 0.09494119 0.2813576
000180 1f dc 80 3e 12 67 73 bd 64 18 8d 3e da 11 e1 bd
       0.2516794 -0.059424467 0.2755767 -0.10989733
000190 80 bd ad 3d d2 f0 11 3e 26 b6 05 be 3f e3 8a be
       0.0848341 0.14252022 -0.13057765 -0.271265
0001a0 80 98 ee bc 2e c3 48 3e b2 e9 95 be 5a f6 c5 bc
       -0.029125452 0.19605705 -0.29279858 -0.024165321
0001b0 b0 07 0f bd d4 a3 ef bd e5 7a 2d bc db ff 38 be
       -0.03491944 -0.117011696 -0.010588382 -0.18066351
0001c0 00 66 36 3e 17 c5 93 3e 7d c8 6b 3e 07 99 f0 3d
       0.17812347 0.28861305 0.23025699 0.11747938
0001d0 cb bb 40 bd 4d 8e 40 be f1 20 39 be 6d ed 44 3d
       -0.047054093 -0.18804283 -0.18078972 0.04807799
0001e0 a3 fe 1b 3e 7e 93 1f be 78 c4 33 3d 34 93 46 be
       0.15233855 -0.15583608 0.04388854 -0.19392091
0001f0 8e 08 fc bd 30 bf 09 be 4f 42 73 be 81 a6 17 3e
       -0.12306319 -0.13451838 -0.23755763 0.1480961
000200 83 db fc bd e4 91 81 3e e0 54 5a bc 9f 68 42 3d
       -0.12346556 0.25306618 -0.0133259 0.047463056
000210 a4 7d f5 bd f6 1c 8d be 66 f5 77 3e 98 93 aa 3d
       -0.11986855 -0.27561158 0.24214706 0.083289325
000220 d4 95 31 3e 9a ca 7a bd 85 87 a6 bb bf b9 44 3c
       0.17342311 -0.061228372 -0.005082073 0.012007176
000230 ac eb d4 3c c0 a5 56 3c 5c 10 96 3e 7c eb 88 3c
       0.025991283 0.013101041 0.29309356 0.01671385
000240 12 4d fa 3d 00 76 88 be 96 ca 7e be 60 26 5c 3d
       0.12221731 -0.26652527 -0.24881968 0.053747535
000250 c2 da 5c 3e d2 d4 4d be 3a 1e cc 3c 16 a7 5c 3e
       0.21567824 -0.20100716 0.024916757 0.21548113
000260 2e 71 86 be cd 89 34 3e 98 9f 11 3d ea 6b c6 bd
       -0.26258224 0.17630692 0.03555259 -0.09688552
000270 27 94 02 be d6 49 4c 3e b5 14 36 be 46 5a 7f be
       -0.12751828 0.19950041 -0.17781337 -0.2493678
000280 21 8b 07 3e e5 af 73 3e 25 c3 9f 3e 5d be 29 be
       0.13236667 0.23797567 0.3120357 -0.16576524
000290 90 a7 47 bc 1a e8 28 3e e9 63 14 3d 10 ba 42 be
       -0.012185946 0.1649479 0.036228094 -0.1901629
0002a0 39 76 6c 3e 6f 46 24 3e ae 6d fd bd 05 67 19 3e
       0.23091973 0.16042493 -0.12374435 0.14980705
0002b0 fb 43 94 3d f2 d7 b5 3a 18 3a ac 3d 2d 91 8a be
       0.07239529 0.0013873561 0.08409518 -0.27063885
0002c0 8f f1 74 bd 49 22 08 be de b4 06 3e 64 55 4e 3e
       -0.05980068 -0.13294329 0.13154933 0.20149761
0002d0 9f f8 7f b9 5d 06 d3 3c dc 91 24 3d 10 8c 93 3e
       -0.00024411314 0.02575987 0.040178165 0.28817797
0002e0 ba 45 1d bd f0 49 7b be 5c 53 36 3e 52 ba 8c 3e
       -0.038396575 -0.24539924 0.17805237 0.274859
0002f0 28 96 38 3e 75 ff 8c be d9 e9 58 3d 7b bf 2d 3e
       0.1802603 -0.27538648 0.05295739 0.16967575
000300 44 d9 d9 3b 00 98 0d 3b 5f 4c 40 bd 07 82 8b 3c
       0.0066482145 0.0021605492 -0.046947833 0.017029775
000310 1c 83 5e bd 10 ca 9e 3c 43 14 8b 3d e0 bc 9b bd
       -0.054324254 0.01938346 0.06790974 -0.076043844
000320 a0 9f b5 bc 57 b4 7a be c9 f4 1c be ac 1a 7d 3e
       -0.022170842 -0.24482857 -0.15327753 0.24717206
000330 12 05 3d 3d 70 86 e2 bc 9b c3 8c be c2 12 e0 bd
       0.046147414 -0.027651995 -0.27492985 -0.10941078
000340 c7 4f d4 3d 5a 1a a7 3d f0 22 ab 3d 08 b3 69 3e
       0.10366779 0.08159323 0.08356273 0.22822201
000350 c9 8f d2 3d 44 fd b7 bd 20 47 3c be ec bc 2c bd
       0.10281331 -0.089838535 -0.18386507 -0.042172357
000360 3c cb 15 bc 7a 35 29 3e 48 8f 08 be a4 0d e5 bd
       -0.009142693 0.16524306 -0.13335907 -0.11184242
000370 c9 be 59 3e 9d 78 67 3d a7 91 b8 bc e4 65 92 bd
       0.21264185 0.05651151 -0.02253039 -0.0714834
000380 8f c1 92 be 64 e0 ee bd 98 ed 79 3e 46 2b 78 3e
       -0.28663298 -0.11663893 0.24407041 0.24235258
000390 35 45 be 3b e5 b2 c4 bc e4 72 c3 3d f8 f3 e6 3c
       0.00580659 -0.024011085 0.09543398 0.028192505
0003a0 bd 3a 02 be 1e 93 1f be 89 f9 7c be 46 89 a5 bd
       -0.1271772 -0.15583465 -0.24704565 -0.080828235
0003b0 e3 73 1c 3e 50 a8 6d 3e ce 35 2a 3e 17 e9 88 be
       0.15278582 0.23208737 0.16622087 -0.26740333
0003c0 e6 ee 94 3e fd 9e 8a be 03 11 8f 3d 11 3c 70 3e
       0.29088515 -0.27074423 0.069856666 0.23460414
0003d0 30 16 6d 3d 05 67 50 be 14 77 31 3e 1b f8 e4 bd
       0.057882488 -0.20351799 0.17330581 -0.11180135
0003e0 83 02 b6 bd 82 c0 6c be ba ec 9c 3d 64 c2 3a 3e
       -0.08887198 -0.23120311 0.076623395 0.18238217
0003f0 95 9a c2 3d ed b8 37 3d 41 6f 92 be a2 a8 80 3e
       0.095021404 0.044854093 -0.28600505 0.25128657

l2.weight f4 [300, 400]
000000 2f ee 31 bd 84 a6 75 bc eb d8 42 bd 73 6a 3d bd
       -0.04344004 -0.014993314 -0.04757015 -0.046244096
000010 c6 93 8a 3c 1f 72 c8 bb 33 f1 49 bd eb e8 0d 3d
       0.016916167 -0.00611712 -0.04930229 0.034645956
000020 e4 1d 34 3d 32 1f a9 3c ef 3f ea 3c 02 9d 43 bd
       0.04397382 0.020644758 0.028594939 -0.047757156
000030 49 2e 38 3d c7 45 ec bc c1 8b 03 3d b3 b9 d6 bc
       0.044966016 -0.028841866 0.0321157 -0.026211595
000040 b0 0b a1 bc e7 40 1c 3d 99 9c 0a 3d 50 d5 10 3d
       -0.019658893 0.038147833 0.03384075 0.03535968
000050 81 7d 38 39 35 3e 3a bd 9e 6a d8 bc 3d 58 b4 3b
       0.00017594361 -0.04546948 -0.026418027 0.005503683
000060 7e ca a3 b9 84 e3 40 3d 7e f5 3c 3d d3 30 28 3d
       -0.0003124065 0.047091976 0.046132557 0.041062187
000070 23 96 df bc 68 dd bc bb 2d 1c 7c 3c 52 b5 32 3d
       -0.02729327 -0.0057636984 0.015387577 0.04362995
000080 63 fa e0 bc 43 e1 cb bc 62 82 32 bd 24 e6 b7 bc
       -0.027463144 -0.024887687 -0.043581374 -0.022448607
000090 6c 13 42 bc ce a0 0c bd 76 0a a5 bb d1 44 48 3c
       -0.011845451 -0.034333043 -0.0050366474 0.012223438
0000a0 43 96 92 3c 23 80 13 bd c9 ca 14 3d e2 c3 04 bd
       0.017893916 -0.036010873 0.036326203 -0.03241337
0000b0 c1 22 31 3d 32 cd 73 bc 16 5b 48 bd 40 d7 e7 bb
       0.043246035 -0.014880465 -0.04891499 -0.0070752203
0000c0 5e c4 d2 3c 03 f0 32 bd 53 47 da bc 57 c8 18 bc
       0.0257284 -0.043685924 -0.026645338 -0.0093251085
0000d0 3e 2d a0 bc 65 1f 1b 3d 9f 27 e1 3c 09 bd 35 3d
       -0.019552823 0.037871737 0.027484713 0.04436973
0000e0 8e 7c 87 3b 7d 8d 36 bd 8f c3 1b bd f0 9d d4 bb
       0.004134721 -0.044568527 -0.038028296 -0.006488554
0000f0 a0 03 c1 ba 51 17 2d 3d 42 1c 13 3d 35 72 86 bc
       -0.0014725812 0.042258564 0.03591562 -0.01641188
000100 ec a9 29 bc dc 81 22 bc be 43 95 3c c0 ae 54 bc
       -0.010355454 -0.009918656 0.018220779 -0.012981117
000110 86 f1 6c 3b 92 61 ca 3c 9b 13 1a 3d 70 28 c1 bb
       0.0036154701 0.024704728 0.037616353 -0.005894713
000120 a0 79 0d bd fb 06 36 bd 8e 5e cd 3c c0 d7 90 bc
       -0.03453982 -0.04444025 0.025069501 -0.017681003
000130 cb 01 3a 3d 80 db 0c bb 42 b4 fb 3c 50 30 46 bd
       0.045411866 -0.0021493137 0.030725602 -0.04838592
000140 2b d9 25 bd 11 82 bd 3c d0 9b bb bb 06 a6 22 bd
       -0.04049031 0.02313331 -0.0057253614 -0.039709114
000150 5b 7b 8f bb 50 2f 87 bc 9b 26 2f bd 80 1a 0a 3b
       -0.004378719 -0.016502053 -0.042761426 0.0021072924
000160 19 c6 0a bc 9e d9 f0 3c 30 76 21 3b 6c ce 74 3c
       -0.008470082 0.029400643 0.0024637096 0.014941793
000170 d3 90 2c bd 0b 7e 44 bd dd ee 19 3d b1 1c b8 3c
       -0.042130303 -0.047971766 0.037581313 0.022474619
000180 15 62 4b bd 6b 71 41 3d 32 96 fc 3c 84 0b eb bc
       -0.049654085 0.047227304 0.030833337 -0.028692015
000190 b8 b0 14 3c 77 58 cf bc 46 81 3a 3d f2 f5 de 3b
       0.009075336 -0.025310738 0.04553344 0.0068042213
0001a0 7b 6a 00 3d 8b 03 3a bd bf cd d9 3c e5 c2 55 bc
       0.031351548 -0.045413535 0.026587365 -0.013046955
0001b0 a1 28 3b 3d 59 9f 38 3d 00 0e dd ba 94 28 21 3d
       0.045693044 0.04507384 -0.0016865134 0.03934534
0001c0 76 e7 fb 3c 77 ed b2 bc e8 3c b7 bb d4 93 42 3c
       0.030750018 -0.021841748 -0.0055919774 0.011876065
0001d0 8a ef d4 bc 5a 44 38 3d 50 74 82 bb be cd e3 3c
       -0.025993127 0.04498706 -0.0039811507 0.027808066
0001e0 2d fe f5 bc d7 c4 ca 3b a0 cb 01 3c 7b be 04 3c
       -0.030028427 0.006188016 0.007922083 0.008102055
0001f0 f0 f9 43 bd 6d ae 0d bd f2 47 dc 3c 29 22 6f bc
       -0.04784578 -0.034590174 0.026889775 -0.014595547
000200 aa 66 07 bd bd 2e 43 bc a6 c3 5d 3c 6b 26 38 bd
       -0.033056892 -0.011912999 0.013535416 -0.044958513
000210 d0 38 f5 bb 63 13 f8 bc 56 cb a8 bc f2 eb d1 3c
       -0.007483579 -0.030282682 -0.02060477 0.025625203
000220 d1 e4 46 3d 16 ce 2c 3d 50 53 6d bb aa bd de bc
       0.04855806 0.042188726 -0.0036212988 -0.027190048
000230 03 2b 5e 3c 30 25 ac bc a6 31 8d 3c 2a b3 bf 3c
       0.0135600595 -0.021013826 0.017235588 0.023400862
000240 53 38 4c 3d 83 21 31 bd c2 a9 d1 3c 5f 98 42 3d
       0.049858402 -0.04324485 0.025593642 0.047508594
000250 d5 21 e9 bc 1e ed 0a bd 2f b6 f9 bc d0 12 8b bc
       -0.028458515 -0.03391754 -0.03048238 -0.016976744
000260 15 27 20 bd 9b 5b 39 bd 4a 77 9f 3c d6 d7 af 3c
       -0.03909977 -0.045253377 0.019466061 0.021465223
000270 e7 fa 06 3d a8 77 f8 3b b4 2f d8 bc be ac c8 3c
       0.032954123 0.0075826235 -0.026389934 0.024496432
000280 1a 0e a9 bc df 5c 9e 3b c0 16 6d ba 21 7a 2c bd
       -0.020636607 0.0048328484 -0.00090442225 -0.04210866
000290 0f e3 2a 3d b2 35 13 3b 42 5a 93 3c 80 7e 83 bc
       0.041720446 0.0022462425 0.017987374 -0.01605153
0002a0 9e e1 12 bb 9a 62 2a bd c9 8f 14 3d 8c 34 96 bc
       -0.002241231 -0.04159794 0.036269937 -0.018335603
0002b0 aa d5 92 bc bd 4d b9 3a 4a f8 8c 3c 3d 50 95 bc
       -0.017924149 0.0014137548 0.017208237 -0.018226737
0002c0 ae 41 25 bd be 14 aa bc eb db 0b 3d 6e ab 14 bd
       -0.04034584 -0.020761844 0.034145277 -0.0362963
0002d0 98 8e fc bb ce aa af bc 61 3f af bc 05 c2 42 bd
       -0.007707428 -0.02144375 -0.021392526 -0.047548313
0002e0 e0 eb 2d 3c a0 07 e6 bc 68 2c b8 3b 9b f3 06 3d
       0.010615319 -0.028079808 0.005620528 0.032947164
0002f0 70 e3 e6 bb a5 40 35 bd 7b 3b 07 3d fe 1e f8 3c
       -0.0070461556 -0.044251103 0.03301571 0.030288216
000300 f3 dc be 3c 60 5b 2b 3b 74 b3 42 bc 69 c4 10 bc
       0.023298716 0.0026146993 -0.011883605 -0.00883589
000310 a0 de 12 bb bb 25 36 bd ad fa 34 3c c9 ee 08 3d
       -0.0022410527 -0.044469576 0.011046094 0.03343085
000320 f2 c5 9a 3c ae 1b 24 3d 48 ed ef 3b e5 f0 15 bd
       0.018893216 0.04006546 0.0073219873 -0.036606688
000330 a0 03 b4 3a 26 24 71 3b 41 64 89 bb 34 78 7b bc
       0.001373399 0.0036795228 -0.0041928594 -0.015348483
000340 b9 7e 40 bd 08 7a 0c 3c 70 f6 80 bc 0a 88 42 bd
       -0.046995852 0.008574016 -0.01574251 -0.04749302
000350 c3 b8 1a 3d c1 ed 0b 3d 17 1c 1e 3d f3 24 e0 bc
       0.03777386 0.034162287 0.038601007 -0.027361369
000360 85 cb 90 bc 6a b2 45 bd 69 ba 37 3d 4a 6e 9c 3c
       -0.01767517 -0.048265852 0.04485551 0.019095559
000370 bc 3f 92 3c 14 1e 2f 3d 55 f6 35 bd d3 a1 22 bd
       0.017852657 0.042753294 -0.044424374 -0.03970511
000380 03 4a 10 bd 01 12 16 bd 34 33 5a 3c d8 37 15 bd
       -0.035226833 -0.036638264 0.013317872 -0.03643021
000390 0c 98 1b bb d4 c1 27 bb 5f 1b 89 3c 9f 70 1e bd
       -0.002374175 -0.0025597708 0.016736684 -0.038681623
0003a0 4c 8a 39 bc 62 df 3a bd 9e 38 17 bd d9 6d 2f 3d
       -0.011324476 -0.04562319 -0.03691923 0.04282937
0003b0 a2 43 49 bd d2 74 02 3d d8 92 e6 bb 24 db 8e bc
       -0.049136765 0.03184969 -0.007036548 -0.017438479
0003c0 7e 81 2b 3d 15 b9 33 bd 1a 2a ac bc e5 b6 28 3d
       0.04187154 -0.04387768 -0.02101617 0.041190047
0003d0 2a aa 90 3c 80 ee a3 39 c5 bd 83 bc 7a 38 18 bd
       0.017659266 0.0003126748 -0.0160817 -0.037163235
0003e0 8e d3 15 3d 01 6d 60 3c c5 d0 40 bc 55 9d 37 3d
       0.036578707 0.013697864 -0.011768525 0.044827778
0003f0 97 13 3f bd 71 dc 3e 3d 00 bd 02 bc fe 4e 2a 3d
       -0.04664954 0.046596948 -0.007979631 0.04157924

l2.bias f4 [300]
000000 a0 48 6b bc b1 df 1f 3d d3 65 b8 bc 06 4e bc bc
       -0.014360577 0.039031688 -0.022509491 -0.022986423
000010 9a 23 05 3d 08 5b 2e 3c c2 21 48 bd df 5c 93 3c
       0.032504655 0.010641821 -0.04886032 0.01798862
000020 b2 67 7a bb 03 4e 75 bc 19 69 d0 bc 82 ba 35 3b
       -0.003820878 -0.014972213 -0.02544074 0.0027729576
000030 09 9e 99 bc a8 c3 96 bb 5e 2d 6b 3c 52 df 41 3d
       -0.018752115 -0.0046009608 0.014354078 0.047332115
000040 bc a0 1f bd 2d d1 41 bd 77 80 3a bd 26 29 13 3d
       -0.038971648 -0.047318626 -0.04553267 0.035927914
000050 08 2a df bc e7 23 88 3d b0 29 47 3d 37 23 1c bd
       -0.027241722 0.06647473 0.04862374 -0.03811952
000060 47 dc 26 bd 9b 36 e8 3c 70 f0 72 bd 18 b6 ce bc
       -0.040737417 0.02834635 -0.05931133 -0.025233313
000070 9e 30 11 bd be 34 15 3d 82 50 84 bc 06 18 04 bd
       -0.035446756 0.036427252 -0.01615167 -0.032249473
000080 0c 8a 5d bc 7e 61 08 3b d8 78 c8 bb 76 a2 80 3c
       -0.0135216825 0.0020810063 -0.0061179213 0.015702467
000090 d8 7a 4d bc 76 d3 2c 3d f5 21 5d bd 09 ce d8 3b
       -0.012541495 0.042193852 -0.053987462 0.006616358
0000a0 d8 12 92 3a 78 8c a9 bb 97 67 3f bb 29 eb d5 3c
       0.0011144532 -0.005174216 -0.0029206031 0.02611311
0000b0 6c da f0 3c 92 ce 21 bb 44 9d 2f bd 98 26 fc bc
       0.029401027 -0.0024689776 -0.04287459 -0.030780122
0000c0 a1 e4 f8 3c e0 2c ff bc e3 6e 62 3d b4 4b 1a 3d
       0.030382456 -0.031149328 0.05528153 0.037669852
0000d0 22 93 6e 3c 08 f3 27 3c a2 90 8e bc ec ac 50 3c
       0.014561446 0.010250814 -0.01740295 0.01273654
0000e0 5d dc 0a 3d 24 3c e1 bc 00 9e b4 3a 24 fa 3d 3d
       0.03390156 -0.027494498 0.0013779998 0.04638113
0000f0 5b 5c 01 bc c9 30 a3 bc 01 20 01 3d 84 d2 8e 39
       -0.007895554 -0.019920724 0.031524662 0.00027241197
000100 b0 69 89 bc 64 88 25 3d 05 55 9a 3c c4 2d 49 bd
       -0.016774029 0.040413275 0.018839369 -0.04911591
000110 00 ba 35 3c 6f f3 3a bd 3a bd e6 3c 48 39 53 bc
       0.011091709 -0.045642313 0.028166402 -0.012892075
000120 cf 74 3b 3d d1 4a c3 3c 9e ac 02 bd a7 36 95 bc
       0.045765694 0.023839386 -0.0319029 -0.018214537
000130 ea 86 46 bd 1c 8b 14 3c 46 15 ec 3c 88 61 2c bc
       -0.048468508 0.009066369 0.028818738 -0.0105213
000140 7a a0 b6 3c 6c 32 80 3b b9 4e ea 3c 17 f0 1c bd
       0.022293318 0.0039122608 0.028601991 -0.038314905
000150 43 2c de bc a2 8a 36 bd 00 c2 88 bc 5a 96 28 bd
       -0.027120715 -0.044565804 -0.016694069 -0.04115901
000160 81 9c 06 bd be 57 42 3c a2 55 cf 3c ed bc d1 3c
       -0.032864098 0.01186174 0.025309388 0.025602782
000170 9b 51 9d ba ee f0 3f 3d 0c 7e 2b 3d 3d 5a 39 bd
       -0.001200247 0.046860628 0.041868255 -0.045252074
000180 8c 3c ac ba 99 e6 b6 3c ec 1e cf 3c 83 a6 3b 3c
       -0.0013140603 0.022326754 0.0252833 0.011453274
000190 13 68 dd bc 81 54 cc 3c 87 00 b2 3c ff 32 42 3d
       -0.027027166 0.024942638 0.021728767 0.047411915
0001a0 9b c9 c4 3c 44 b1 08 3d 6a 28 8c 3c 9c 73 b2 bc
       0.024021914 0.03337218 0.017109115 -0.021783642
0001b0 28 e8 cb 3b e9 1e eb bc b1 2f 14 3d 81 8d 2c 3d
       0.0062227435 -0.028701263 0.036178295 0.042127136
0001c0 67 03 d2 3b 0d 34 37 bd 0c 9a 4d bc 16 a6 ba 3c
       0.006409097 -0.044727374 -0.012548935 0.022784274
0001d0 05 fb 34 bd 5c 55 70 bc 86 19 1f bd 06 53 ec bc
       -0.044184703 -0.014668789 -0.0388427 -0.028848182
0001e0 9c f1 20 bd bb 0e 40 3d 78 40 66 bc b6 61 a9 ba
       -0.039292917 0.046889048 -0.0140534565 -0.0012922797
0001f0 c4 de c3 3c f2 87 1b ba a9 bf 65 3b 7a cc b6 bc
       0.023909934 -0.0005933038 0.0035056865 -0.022314299
000200 2a 76 bf bc 04 b2 9b bb 39 a4 41 bd fd d9 a5 3c
       -0.023371775 -0.0047514457 -0.047275756 0.020245546
000210 c2 a4 4b bd da e1 91 3c 1c 10 69 3c 17 9f 0e 3d
       -0.049717672 0.01780789 0.014225032 0.03481969
000220 eb 8b 1f bc 9c 3e f1 bc b3 bc f5 3c e1 59 de 3c
       -0.009737949 -0.0294488 0.029997205 0.027142467
000230 80 1e 96 bc b7 11 13 3d 33 7e b0 bc f7 7a d4 39
       -0.01832509 0.035905566 -0.021544551 0.00040527407
000240 7a 46 36 ba 9f 14 3c 3d 21 55 60 bc 48 a9 16 3d
       -0.0006953251 0.045918103 -0.013692171 0.036782533
000250 cc f0 65 3c be b4 de bc 5d 40 aa 3b c3 2a 3d 3c
       0.014034461 -0.027185794 0.005195661 0.01154584
000260 b0 5a 8b bc ca df a3 3b 75 2e 68 bc 0b b9 74 3c
       -0.017011017 0.005001043 -0.0141712325 0.014936696
000270 4d f3 13 bd 00 59 2a 3d 32 a4 f3 3c ac 16 c9 3b
       -0.0361207 0.041588783 0.02974138 0.006136736
000280 ae 15 87 3d b3 66 c7 bc 83 6e 90 bb c7 5b 5f bc
       0.06595932 -0.024340963 -0.0044077053 -0.013632721
000290 ee 5a 67 bd 6b 99 b5 3c 2e b8 6d bd 15 1e f9 bc
       -0.0564832 0.022167882 -0.058036976 -0.030409852
0002a0 55 0e 17 bd 00 ec 11 b8 46 93 4c 3d d6 d0 f5 bb
       -0.036878902 -3.4790486e-05 0.04994514 -0.007501702
0002b0 43 dd f2 3b ec 3d cc 3c e4 87 6b 3c 95 0c 39 bd
       0.0074116304 0.02493187 0.014375661 -0.045178015
0002c0 87 c0 c5 bc 7d cd e6 bc 3b dd d9 bc 95 d4 1d bd
       -0.024139656 -0.028174156 -0.026594749 -0.038532812
0002d0 fe 95 ff 3c 87 f4 e4 bc 31 4b a9 3c 4e 6e c2 3c
       0.031199452 -0.027948631 0.020665737 0.023734238
0002e0 d8 f2 d3 bc 0c 88 5a bd ea d7 17 3d e5 43 8f 3c
       -0.025872633 -0.0533524 0.037071146 0.01748843
0002f0 5a d8 fe 3c cf 68 5f 3b d3 55 c0 bb b7 92 e0 bc
       0.031109024 0.003408957 -0.005869606 -0.02741371
000300 0e 7c 26 3c 23 ec 1a bd 78 d5 19 bc 08 ed 29 bc
       0.010161413 -0.037822854 -0.009389274 -0.010371454
000310 73 cd e8 bc 5e b2 26 3d 64 1f de 3c d1 19 56 3d
       -0.028418278 0.040697448 0.027114578 0.052270714
000320 1e 84 15 3d f4 92 be 3c 88 db ad 3c e8 51 0c 3c
       0.03650295 0.023263432 0.021222845 0.00856445
000330 1d 0c 89 bb 1d 08 88 bb f0 15 8b 3c 18 2d 4c bc
       -0.004182352 -0.004151358 0.016978234 -0.012461923
000340 08 05 37 3d 4c 0e 2c bd c2 93 4b bd ee cd d3 3c
       0.044682533 -0.042005822 -0.04970146 0.02585503
000350 42 0a 44 bc f5 33 4e bc da 69 36 3d fd df 8b bc
       -0.011965336 -0.01258563 0.04453454 -0.01707458
000360 b0 c2 88 bb b9 f5 00 3d 53 fe 01 3d 0f e2 1c bd
       -0.004173599 0.03148434 0.031736683 -0.038301524
000370 14 aa 8a bc 90 7e b1 3d fa cc 11 bd f8 66 e1 3b
       -0.016926803 0.08666718 -0.03559587 0.00687873
000380 20 3e 7d bb 30 be c3 3c e4 bc ca 3c 35 a9 85 bb
       -0.0038641766 0.0238944 0.024748273 -0.004079009
000390 27 4d 48 bd 7b c7 31 bd f8 f8 73 bc b1 63 d4 3c
       -0.048901703 -0.04340313 -0.014890902 0.025926443
0003a0 91 89 d0 3a 8c 23 1e bc f3 06 01 bd 90 15 7b bc
       0.0015910139 -0.00965203 -0.031500768 -0.015324965
0003b0 82 4e 0b bc e1 c6 bf bc 3b 1e db bc 26 0d 38 bd
       -0.008502604 -0.023410263 -0.026747813 -0.044934414
0003c0 b2 09 5a 3d 88 11 08 3c f7 c4 81 bc 2d f7 3c bc
       0.053231902 0.008304961 -0.01584099 -0.011533541
0003d0 e7 64 0c bd 05 98 46 bd f8 05 1a 3d fa d2 9a bc
       -0.034275915 -0.04848482 0.03760335 -0.01889943
0003e0 de ac fd 3c 3a 43 bb 3c 7c 1b 06 bd 97 e6 a3 3c
       0.030966219 0.022859205 -0.032741055 0.020007415
0003f0 fc 86 40 3c 6f 26 07 bd d2 ab 85 3c d8 a4 3c bd
       0.011750933 -0.032995638 0.016317282 -0.046055645

l3.weight f4 [6, 300]
000000 c0 c7 47 3d fc 66 8d bc 6d 7c 50 bd da 42 28 3d
       0.04877448 -0.01726102 -0.05089991 0.04107938
000010 3b ed d0 bb 54 2c 08 bc 6e 2f ae 3c 05 07 8c 3c
       -0.0063759363 -0.00831135 0.02126285 0.01709319
000020 29 93 7e bc ac aa 3d 3d e1 20 99 3c f5 c4 09 bd
       -0.015538015 0.046305344 0.018692436 -0.0336351
000030 71 b5 df bc 60 99 59 3d 99 8c 01 bc f9 8a 2f bd
       -0.027308198 0.053124785 -0.007907056 -0.042857144
000040 c4 b0 01 bd 78 98 cd 3c 6a 0c 08 3d af 83 44 3c
       -0.031662717 0.025097117 0.033214964 0.011994286
000050 d0 02 80 3c 09 81 06 3d e0 11 06 bd 79 83 03 3d
       0.015626341 0.0328379 -0.03273189 0.032107804
000060 f8 ce 63 bd 83 d4 35 bd f0 9a 0e bc ec 36 29 bc
       -0.055617303 -0.04439212 -0.008703932 -0.010328036
000070 c8 61 22 3d 35 c0 b6 bc c6 aa 5a bd 19 0e 3c bd
       0.039644033 -0.022308448 -0.05338552 -0.045911882
000080 48 ca 9c 3c e9 3b 08 3c f0 eb 0d bc 3e 3f b9 3c
       0.019139424 0.008315065 -0.008662209 0.022613164
000090 47 56 02 bd de ca 8e bc 62 70 2d 3c 16 3e 12 bd
       -0.03182056 -0.017430719 0.010585876 -0.03570374
0000a0 79 10 5e bc 86 cb 51 bc c1 a8 11 3d b9 48 59 bd
       -0.013553732 -0.012804871 0.035561327 -0.05304787
0000b0 0f 39 3a 3d bc 61 3b bb 58 0d 27 bc d0 7b 63 bb
       0.04546457 -0.002859219 -0.0101960525 -0.003471125
0000c0 9c b9 a2 bc ab 4a 2d 3d 93 e6 61 bd 7d 2f f9 3a
       -0.019863896 0.042307537 -0.055151533 0.0019011345
0000d0 09 4c e3 3b d4 c1 0f bd 6c 44 f3 b8 63 91 b0 bd
       0.0069365543 -0.03509696 -0.000115998875 -0.0862148
0000e0 c0 02 34 3d 30 93 4c bd 93 68 3f bd 64 d5 54 3b
       0.043947935 -0.049945056 -0.04673059 0.0032475824
0000f0 f8 c1 5a bc ae 7e 4d bd bd 0e 37 bb 98 e3 14 bd
       -0.01335191 -0.05016964 -0.0027932369 -0.036349863
000100 18 08 f9 3c bb 7d 32 3d bf 3f b9 bc 79 b3 1d bc
       0.030399367 0.043576937 -0.022613404 -0.009625309
000110 ef b0 5f bd a6 9d 8c 3c aa a8 d5 bc b7 05 e6 bc
       -0.054612096 0.017165016 -0.026081402 -0.028078897
000120 ba 16 7e bd 49 38 08 bd 33 28 04 3c cc 09 79 bd
       -0.062033392 -0.033256803 0.008066225 -0.06080036
000130 cc ae 2f 3d be 25 44 bd c0 56 fc 3b 4c 88 1e bd
       0.04289131 -0.047887556 0.007700771 -0.0387042
000140 66 98 ef 3c 4f ac 99 3c 00 c1 0e 3d d3 c4 12 3d
       0.029247474 0.018758921 0.034852028 0.035832237
000150 88 42 e4 bb 38 8b 63 bd e2 c4 1f bd e3 ea 7c bd
       -0.006965939 -0.05555269 -0.03900612 -0.061747443
000160 1e 56 68 bd ed 45 1a 3d 00 26 c1 39 51 8a 70 bd
       -0.056722753 0.037664343 0.0003684014 -0.05872566
000170 a7 78 49 3c 9a 7f db 3c 0c 57 8b 3c fd dd cd ba
       0.012296832 0.026794244 0.01700928 -0.0015706416
000180 4c fe eb bc 33 76 a9 bc 4a f5 77 bd e8 d9 22 bd
       -0.028807782 -0.020686245 -0.06053666 -0.039758593
000190 16 93 c6 bc a8 79 57 bd a9 ca a0 3c d0 ea 30 3c
       -0.024240058 -0.052606255 0.019627886 0.010798171
0001a0 6e 45 e4 bc 90 07 04 3c 90 6f 3f bc 35 ce c8 bb
       -0.027865138 0.008058444 -0.011684313 -0.0061280974
0001b0 59 96 50 bd 58 f0 51 3c f0 95 f7 3b f6 b2 36 3d
       -0.050924633 0.01281365 0.0075557157 0.044604264
0001c0 90 7b 9c 3c 00 be 06 3d d4 83 9a 3c 51 a0 6b bc
       0.019101888 0.032896042 0.018861689 -0.014381484
0001d0 4d 07 32 bd f0 62 07 3b 52 6d f4 bc 41 73 d8 bc
       -0.043463994 0.0020658337 -0.029837284 -0.026422145
0001e0 bc 12 33 bd ef 2f 89 3c 36 8b 5b 3d 45 b2 8e 3c
       -0.04371904 0.01674649 0.05359956 0.01741899
0001f0 f9 2c 39 bc ac 57 8a bd 35 f1 33 3d ee 48 89 bc
       -0.011302226 -0.06755003 0.043931205 -0.016758408
000200 ec 84 24 bd 60 01 c2 3c 66 5b 44 bd 2b 6d 82 bd
       -0.040165827 0.023682296 -0.047938727 -0.063684784
000210 70 70 94 3c e1 e9 35 bd 60 a3 e5 3a 97 39 f6 bc
       0.01812002 -0.044412497 0.0017520003 -0.030056758
000220 9f 5d 55 bd 18 f2 b1 3b f4 7d ae bc ae 58 70 bd
       -0.052091237 0.005430471 -0.021300294 -0.05867832
000230 97 1f 49 3d 33 5b 36 3c e0 b1 8a bb c1 1a 4e bd
       0.049102392 0.011130142 -0.00423263 -0.050318483
000240 ae 07 5f 3d f8 1d 25 3c 7e eb 08 3c 1f a1 75 bc
       0.054450683 0.010077946 0.008356927 -0.014992028
000250 3c da 2a 3d 88 b8 6f bc 81 e6 03 3d ed 31 11 3d
       0.04171203 -0.014631398 0.032202248 0.035448004
000260 14 03 27 3d ec f9 a5 3c ad 81 98 bc d0 87 36 bb
       0.04077442 0.020260774 -0.018616522 -0.0027851947
000270 38 13 19 bc 8e 60 8a bb 3a ba 33 bd 75 6f 28 3d
       -0.009342961 -0.004222936 -0.04387877 0.04112192
000280 0f 2f 09 3d 99 ef eb bc 00 5b a1 39 66 96 4c 3d
       0.033492144 -0.028800773 0.00030776113 0.04994812
000290 9f f2 ba bb d6 00 dc bc c1 e0 0f 3d be fe 4a 3d
       -0.005705192 -0.026855867 0.03512645 0.049559347
0002a0 83 41 44 bd 38 fc 68 3d 67 32 7f bd 60 45 cf bc
       -0.04791404 0.05688116 -0.062303927 -0.025301635
0002b0 25 cb 6d bd 10 3a b3 3b d7 bc 69 bd 4a 6c 40 3d
       -0.05805506 0.005469568 -0.057064857 0.046978272
0002c0 64 fa 27 3d 26 8e c7 3c 6e bb 51 3c 68 bd e4 bb
       0.041010275 0.024359774 0.012801034 -0.006980587
0002d0 00 98 e8 bb 88 af a4 bc 27 2e ec bc 2e 6c 7e bc
       -0.007098198 -0.020103231 -0.0288306 -0.015528722
0002e0 89 3e 81 bd 71 75 c2 bc 58 0d e6 bc c3 fb 55 bc
       -0.06310756 -0.023737641 -0.028082535 -0.013060513
0002f0 92 b3 ea bc 0f f0 6a bd 6f df 61 bd 48 2f aa 3c
       -0.028650079 -0.057357844 -0.055144724 0.020774499
000300 78 77 19 3c 85 09 c9 3b e0 ad bc bc 4a 15 6b 3b
       0.0093668625 0.006135168 -0.023032129 0.0035870844
000310 2e 7a c3 bc 47 85 25 3d 4e f5 a1 bc 7e f8 6f bd
       -0.02386197 0.040410306 -0.01977029 -0.05858659
000320 52 0f 5a bd 84 8e 69 3d 7b cb 7d bc 24 ab a3 3c
       -0.053237267 0.05702068 -0.015490408 0.019979067
000330 ea f2 97 bc e2 9f 39 3d fa a9 13 3d 45 c8 aa bb
       -0.018548448 0.04531849 0.036050774 -0.0052118623
000340 ef 1a 13 3b 4d 23 31 bd 55 99 ef bc ed d7 28 3c
       0.0022446474 -0.043246556 -0.02924792 0.010305387
000350 bb 80 67 bd dc dc 35 bd 97 9f 58 bd d0 36 3c 3d
       -0.05651925 -0.04440008 -0.05288657 0.04595071
000360 e0 08 d6 3a 00 5a 56 3c 16 ec 53 3d 77 80 25 3c
       0.0016329549 0.013082981 0.05173882 0.010101429
000370 54 88 0b 3d ad a9 43 bd 4c f9 20 bc 2a 94 18 3d
       0.03406556 -0.047769237 -0.009825062 0.037250675
000380 aa a7 eb bc 6d 72 f6 bc 76 be a7 bc e3 42 19 3c
       -0.028766472 -0.03008386 -0.020476561 0.009354326
000390 12 f1 2a bd ed ee 45 bd 84 4e 84 bc 46 40 76 bb
       -0.04173381 -0.04832356 -0.01615072 -0.003757493
0003a0 bf ac aa 3c 00 4d 24 bb e9 34 07 3d a5 d6 81 bc
       0.020834325 -0.002507031 0.033009443 -0.01584942
0003b0 10 35 5c 3b 54 63 2f 3d 3f c3 13 bc 4b 86 41 3d
       0.0033600964 0.042819336 -0.009018718 0.047247212
0003c0 bf ee db 3b b3 88 19 3d 2f d4 9c bb 43 6d ca 3c
       0.0067118104 0.037483882 -0.0047860364 0.024710303
0003d0 fc 16 1c bd 98 6c b8 3c 68 a0 c4 bb f0 40 ca 3c
       -0.038107857 0.022512719 -0.006000567 0.024689168
0003e0 30 3d 84 3c 80 43 6c 3c b1 3f c0 bc f9 3d 51 3d
       0.016142458 0.01442039 -0.02346787 0.051084492
0003f0 4f 4d 17 bd 18 e7 3f bd 14 8b 61 3d 70 92 c5 3c
       -0.03693896 -0.046851248 0.055064276 0.024117678

l3.bias f4 [6]
000000 3b 1d 15 3d 0c 5d 59 3c 7e 53 a0 ba f8 a0 37 bc
       0.03640483 0.013266813 -0.0012231914 -0.011207812
000010 2f a5 7d 3c 66 10 aa 3c
       0.015481277 0.020759773
