results/runs/double_assembly_step/Average_TD3_10_Peg-in-hole-double_assembly_seed_3/27000_actor.pth (torch_old, 510312 bytes, 6 tensors)

l1.weight f4 [400, 12]
000000 3a 99 d9 be 5e dc 2e 3e 67 4d 0d ba f4 64 e6 be
       -0.42499715 0.17076251 -0.0005390257 -0.44998896
000010 95 2a 7f be 54 0e ba bd 19 de b8 3e c3 cd b9 3d
       -0.24918588 -0.09084764 0.36106947 0.09072449
000020 05 4a 10 bd cd eb 48 3e e2 d2 80 be ab a1 b8 3c
       -0.03522684 0.19621201 -0.2516089 0.022538027
000030 2a 38 06 bf 46 f3 a4 3e 6d 2c 8a bd 31 bd 22 be
       -0.5242945 0.32216853 -0.06746755 -0.15892483
000040 82 f8 e4 be 39 d7 83 3e ba 55 da 3e db 02 1a 3e
       -0.44720846 0.2575014 0.4264353 0.15040152
000050 eb f7 29 bd c5 56 1b be fa 01 fd bc ab 6e 87 be
       -0.0414962 -0.15169819 -0.030884732 -0.2645162
000060 22 56 9a be ee b4 ca be 49 a6 46 3d 0c 5b 77 3e
       -0.3014384 -0.39591163 0.048498426 0.24155825
000070 7a 4a c7 3c 69 14 d0 bb 1d 16 04 bf 32 8f 61 bb
       0.024327505 -0.0063500893 -0.5159624 -0.0034417626
000080 2c d0 2a bf af 98 08 bf 34 ff a0 3d fb 12 61 3c
       -0.66723895 -0.53357977 0.07861176 0.013737435
000090 b6 fe 05 be 93 c8 81 3d 82 e0 41 bc 30 73 54 be
       -0.13085446 0.063370846 -0.011833312 -0.20747066
0000a0 44 b8 8c be 50 b2 3c 3b ca 42 b5 3e 06 83 7f be
       -0.27484334 0.0028792806 0.3540252 -0.24952325
0000b0 80 59 04 3e b4 ad 42 be b4 8d cf be 75 78 69 3d
       0.12924767 -0.19011575 -0.40537798 0.056999642
0000c0 90 30 25 bd 84 a8 88 3e 5a 0e 1a 3e d0 b8 ee bd
       -0.040329516 0.26691067 0.15044537 -0.11656344
0000d0 48 c0 27 bd 9a 9b 82 3e 0c e8 3d 3e 80 68 93 3d
       -0.040954858 0.2550934 0.1854555 0.07197666
0000e0 54 13 d4 bd f8 f6 75 3e 74 4a fd 3d 82 a7 03 be
       -0.10355249 0.24019992 0.123677164 -0.12856868
0000f0 17 3f 95 3e 52 35 e6 3e a9 a0 03 be f0 36 9d be
       0.29149696 0.44962555 -0.12854256 -0.30705976
000100 75 26 58 bf b8 09 ca be f1 e9 c7 3e fa 85 00 be
       -0.8443368 -0.3946054 0.3904567 -0.12551108
000110 d9 50 30 3e 8f ce ed 3d 30 25 85 be c4 c8 dd 3d
       0.17218341 0.116116636 -0.26004934 0.10829309
000120 74 17 06 be 40 0f 8d 3b c4 a3 35 3e b0 5b cc 3d
       -0.13094884 0.0043047965 0.17738253 0.099784255
000130 78 42 0f 3d 9c 2e 77 3e 3c bd 86 3d 22 e4 46 3e
       0.0349755 0.24138874 0.06579062 0.19422963
000140 6e c0 7e be 7c b9 7e be aa 67 85 be 00 de 85 3c
       -0.24878094 -0.24875444 -0.26055652 0.01634121
000150 25 b9 cf 3e 80 87 31 bf 16 50 46 bd 44 e9 86 3d
       0.40570942 -0.6934738 -0.04841622 0.06587461
000160 80 95 b1 3d f0 4a d5 3a a8 f8 e4 bd 02 e8 5d 3e
       0.08671093 0.0016272943 -0.1118024 0.21670535
000170 d8 af ec 3c 81 a6 8e 3e 5d e3 55 3d 8a 72 82 bc
       0.028892443 0.27861407 0.052218784 -0.015923757
000180 5f 3a 9c be cf 3a 8e 3e 8c 04 09 bd d9 c7 44 bd
       -0.30513284 0.27779242 -0.033451602 -0.048042152
000190 29 19 84 be 1d 18 84 3e ca 84 82 3e 61 ae 69 3d
       -0.25800446 0.25799647 0.25491935 0.057051066
0001a0 53 54 19 be 1d e9 19 be 48 8d c5 be de 21 9b be
       -0.14973573 -0.15030332 -0.38584352 -0.30299276
0001b0 f3 58 12 3e 4f 6c 25 bf df 2c cf bd b3 09 95 3e
       0.14291744 -0.6461839 -0.1011598 0.29108962
0001c0 6c bc 2f 3f 07 ba 18 be 1d 20 1b bf db 8e a0 be
       0.68646884 -0.14914714 -0.60595876 -0.3135899
0001d0 4c b2 c8 3e 5f a7 90 3e c6 a6 9b 3e 90 32 48 3e
       0.3919853 0.28252694 0.30400676 0.19550538
0001e0 e0 cc 65 3d 53 24 db 3d b5 a6 97 bb a7 32 7b be
       0.056103587 0.10700288 -0.0046280273 -0.24531041
0001f0 8b 1c 0d bf d8 43 0d be fb 8e 7b 3e 5d bf c1 bc
       -0.5512168 -0.13795412 0.24566261 -0.02365082
000200 7a cc 73 be c9 ef a7 3d db 6a 93 ba e4 3b 94 bd
       -0.2380847 0.08200032 -0.0011247055 -0.07237986
000210 10 d9 2d be 0f 88 19 bc 7a c3 c8 3a 71 11 c4 3d
       -0.16977334 -0.009370818 0.0015317046 0.09573639
000220 e2 5b 4d 3e 6a 05 f6 3e ed 67 be be 39 c5 3c bd
       0.20054582 0.48051006 -0.37188664 -0.046086524
000230 31 e2 28 bf bb 80 13 be e0 e9 74 3d 20 90 15 3e
       -0.6597014 -0.14404576 0.059793353 0.1460576
000240 34 18 dd bd b1 8f dd be 3a 5d 26 bd cd 74 a4 bd
       -0.10795632 -0.4327369 -0.04061625 -0.080300905
000250 7f e2 3c 3f b2 e6 06 3f 28 71 08 bf 86 fe cc 3e
       0.73783106 0.52695763 -0.5329766 0.40037936
000260 d4 9d 69 3d aa 8f 06 3f 27 1a 0b 3f 2f 2d 35 be
       0.057035282 0.52562964 0.5433678 -0.17693017
000270 d1 15 44 3e 86 d7 09 3d a6 7d d3 3d 29 65 d7 bd
       0.19148947 0.033652805 0.103267 -0.10517342
000280 b7 bb 6c be 62 c5 e4 3c 37 dd a3 3d 6c 14 14 3e
       -0.23118483 0.02792615 0.08001178 0.14460915
000290 94 8b 64 be df 07 8f be a9 9f 0c 3e 71 b7 6c bd
       -0.2231887 -0.27935693 0.1373278 -0.05779213
0002a0 3c 73 33 be 13 9a a4 3d 7c ba fc 3d 3f 85 94 bd
       -0.17524427 0.080372 0.123402566 -0.07251977
0002b0 d8 1d 1d be bf bd 0c 3e 59 1b 59 be 88 24 5d 3e
       -0.15343416 0.13744257 -0.21201839 0.21595967
0002c0 19 df e9 bd a8 bf ed 3e ee 81 0d 3f 55 3c 04 bc
       -0.114195056 0.46435285 0.5527638 -0.008071025
0002d0 a2 69 81 3e e0 2c 18 3d d0 7c 82 3e f2 59 86 3e
       0.25275904 0.03715217 0.2548585 0.26240498
0002e0 c8 70 39 3d 58 36 3f 3d e4 28 b9 3d 96 d6 3d 3e
       0.045273572 0.046682686 0.090410024 0.1853889
0002f0 9b f6 86 be 00 f4 ed 3a 32 33 8d 3e 60 b7 50 be
       -0.2636002 0.0018154383 0.2757812 -0.20382452
000300 12 7e 26 be f0 4c f7 3c a8 c4 d5 3d a8 c6 1e 3e
       -0.1625903 0.030188054 0.104379 0.15505469
000310 80 6d 85 3c 2c 77 8b 3d 70 f3 05 be 1c 04 8c 3e
       0.016287565 0.068098396 -0.13081145 0.27346885
000320 40 cc 42 be c2 3b 40 3e b4 77 20 3e 5e 15 81 3e
       -0.19023228 0.18772796 0.15670663 0.25211614
000330 81 a5 42 3e bd b2 d6 be ea 6f f8 3c 44 ef 34 be
       0.19008447 -0.4193324 0.030326802 -0.17669398
000340 01 0f 61 3f 9f 15 5a bd 49 7b f9 be ca c7 78 be
       0.8791352 -0.053243276 -0.48726872 -0.24294963
000350 74 83 af 3e 60 3e 0f 3e 96 c1 9b 3c 8c ba c7 be
       0.34279978 0.13988638 0.019013207 -0.3900951
000360 ac 78 1a be 39 3e 90 be 44 c9 41 3d 2d 3a 8c 3e
       -0.15085095 -0.28172472 0.047311082 0.27388135
000370 b1 cd fd 3e 66 ad 4e be c5 71 d8 be f0 1e 3b 3e
       0.49570993 -0.20183334 -0.422743 0.1827352
000380 82 a3 10 3e 17 b6 12 3e 20 00 a0 3e 9c 2f 5b 3d
       0.14124873 0.14327274 0.31250095 0.0535122
000390 2a a4 01 3e 99 98 99 be d3 4f d9 3d ac 52 88 3e
       0.1266028 -0.29999235 0.106109284 0.26625574
0003a0 58 1f ef 3e 1b 79 f9 3e 69 9a c3 be 34 18 7d bd
       0.467036 0.4872521 -0.38203743 -0.06179066
0003b0 6e 6c 46 bf 40 85 72 be 5c 7f 00 3f 8e 85 f1 3e
       -0.775092 -0.23683643 0.50194335 0.47172207
0003c0 cb 1a 80 3e fd 45 19 3f 7c 6f 3f be 02 cb 98 bd
       0.2502044 0.5987242 -0.18694872 -0.07460596
0003d0 d0 b5 fa be 70 aa ca 3d dd 39 84 3e f8 7a ba 3e
       -0.48966837 0.098957896 0.25825396 0.36421943
0003e0 0e ac 95 bc bb 98 29 3e 3e 85 d1 3c 4b 29 72 3d
       -0.018270519 0.16562168 0.02557623 0.05912141
0003f0 6e 2e d5 3e 0b 40 2d 3e ae bf 47 bd b9 07 ef be
       0.41636986 0.16918962 -0.048766784 -0.4668558

l1.bias f4 [400]
000000 d5 c8 9d be 0e f4 95 be 46 5a 74 be 82 23 aa be
       -0.30817285 -0.2928776 -0.23862562 -0.33230215
000010 10 55 eb bc f7 61 20 bd 90 58 ca bc 34 18 22 3e
       -0.028727084 -0.039155927 -0.024700433 0.15829545
000020 4c a0 8d be c3 0b e7 3e bb 53 20 bf e7 41 d3 ba
       -0.2766136 0.4512616 -0.6262776 -0.0016117663
000030 0c b6 94 3e 2b 90 dc bd 84 6f 0e 3e 4e 59 1d 3e
       0.2904514 -0.10769685 0.13909727 0.15366098
000040 34 77 1a 3e 8e 7a ab bb d5 40 25 3e 90 1b 1b 3e
       0.15084535 -0.0052331155 0.16138013 0.15147233
000050 3a 6a eb be 57 4d b7 3b 6f 1b 7d be e1 2d b6 3e
       -0.45979482 0.0055939364 -0.24717496 0.35581878
000060 a8 ed 57 3e 48 ee 16 bd a0 18 0b bf 84 96 96 3e
       0.21086752 -0.036848336 -0.5433445 0.2941171
000070 9a 81 21 be 3c c0 52 be 97 80 cf be 00 c6 97 bd
       -0.15772095 -0.20581144 -0.40527794 -0.074108124
000080 82 d0 3b be 63 bd ed 3b eb 64 e5 3e 58 a4 e5 bd
       -0.18341258 0.0072552427 0.44803557 -0.11212987
000090 66 1d d8 bd 53 33 1f be 7f 14 f7 be cc 39 17 be
       -0.10552482 -0.15546922 -0.48257825 -0.14768142
0000a0 b3 13 6e 3e 9e 56 80 bd b4 b3 60 3e 43 ec 98 3d
       0.23249702 -0.06266521 0.21943551 0.07466938
0000b0 da 5b c4 bc 86 f5 4d be 50 f6 9b bd bc 89 07 be
       -0.02396958 -0.20113191 -0.0761534 -0.13236135
0000c0 7a 98 76 bd dc 89 b6 3e 3a d8 e5 bd 9b 03 0b be
       -0.060204007 0.35652053 -0.112228826 -0.13575594
0000d0 95 d3 09 bf d8 88 41 3d 8b 17 07 be ac 8d 26 3e
       -0.53838474 0.047249645 -0.13192575 0.16264981
0000e0 27 f5 0c bf af 10 aa be d0 22 b9 be 14 24 87 3e
       -0.5506157 -0.33215854 -0.36159372 0.26394713
0000f0 a8 d8 81 be 41 74 14 3e 56 c3 38 3e e5 f8 82 be
       -0.25360608 0.14497472 0.18043265 -0.25580516
000100 48 8b b1 3d 2f 6c b1 be 74 28 87 3e 84 ce 26 3e
       0.08669144 -0.3465285 0.2639805 0.16289717
000110 7e c6 c2 bd 5c 4c e9 3e 76 97 cf 3e 89 9e f0 bd
       -0.09510516 0.4556607 0.40545243 -0.11748988
000120 06 ee 31 bc a0 87 a7 be 57 b7 54 3e 12 96 28 3e
       -0.010859972 -0.3272066 0.20773064 0.16463497
000130 68 84 84 3e 41 e4 a7 3e 66 00 a9 be f4 89 a2 3d
       0.25882268 0.3279133 -0.33008116 0.07936469
000140 fd c9 1b 3e 01 f9 52 be cd bf 5d be 80 51 cd bb
       0.15213771 -0.206028 -0.21655197 -0.006265819
000150 64 e9 e9 bc b4 9c e6 3d 62 f5 13 be ac 83 aa 3d
       -0.028553672 0.112603575 -0.14449075 0.08325896
000160 e1 4a 0f be c8 37 87 be 0a d7 60 be cc 5e f3 3b
       -0.13993408 -0.26409745 -0.21957031 0.007427072
000170 61 1a 33 be 6f 5b ee bb 58 55 71 3c 50 da 83 3e
       -0.17490532 -0.0072740833 0.01472982 0.25752497
000180 fe 7a 10 3e 2f d8 b7 be db ec b5 3e bf 26 39 3d
       0.14109418 -0.35907122 0.3553227 0.045202967
000190 80 bd ad 3d c1 5b 00 3e 95 34 67 be 90 b5 0d bf
       0.0848341 0.12535001 -0.22578652 -0.5535517
0001a0 bc 20 73 bd 07 12 2a 3e 35 3b ac be fc 84 82 be
       -0.05935739 0.1660844 -0.3363892 -0.25492084
0001b0 b0 07 0f bd 51 48 07 be dc 3f 62 3d 8f a6 c1 be
       -0.03491944 -0.1321118 0.055236682 -0.37822387
0001c0 9f 42 a1 3d 29 78 c4 3e 3c d8 97 3e 47 24 59 3d
       0.07874035 0.38372925 0.2965716 0.053013112
0001d0 d8 34 f5 3d 6a 00 87 be a4 48 4b be c7 f0 3c be
       0.1197297 -0.26367503 -0.19851929 -0.18451224
0001e0 d9 a7 81 bd d9 35 f9 be 1a a7 9d 3c d0 be a4 be
       -0.063308425 -0.48673895 0.01924472 -0.32176828
0001f0 8e 08 fc bd 3c 44 88 be bd 34 4f be bf 46 dd bd
       -0.12306319 -0.2661456 -0.20234962 -0.10804509
000200 c0 6b e7 be 62 ab db bd a4 5f 28 3e fc c7 ea 3d
       -0.45199394 -0.10726048 0.16442734 0.11463925
000210 a4 7d f5 bd cd b9 9c be b2 8d b0 3e 98 93 aa 3d
       -0.11986855 -0.30610505 0.34483105 0.083289325
000220 7a 14 30 3e 8b 99 d4 3d fc fa 49 3e e8 12 9b bc
       0.17195311 0.103808485 0.19724649 -0.018929914
000230 28 50 ac be 48 f1 7f 3e 1d 32 6f 3e a5 3a 1c be
       -0.33654904 0.24994385 0.2335896 -0.15256746
000240 34 bd 2a be d4 9a ce be 96 ca 7e be 20 8d 26 3c
       -0.16673738 -0.403525 -0.24881968 0.010165483
000250 7d c1 1e 3e d3 46 28 be 5a ca 05 be f0 0d da 3d
       0.15503497 -0.16433267 -0.13065472 0.106471896
000260 2e 71 86 be 6c b5 91 bd 46 07 2a bd 4e 51 58 be
       -0.26258224 -0.071146816 -0.041510843 -0.21124765
000270 ea 12 ca bd 51 3d 5e 3e 97 79 a5 be 46 5a 7f be
       -0.09866889 0.21703078 -0.32319328 -0.2493678
000280 89 88 bc bc 54 1b 3a bc 88 6a ca 3e 70 f0 a3 be
       -0.023014324 -0.011359055 0.39534402 -0.32019377
000290 a0 01 27 be 36 20 89 3d 4d 2a a4 3d 10 ba 42 be
       -0.16309214 0.06695597 0.08015881 -0.1901629
0002a0 f9 cc 97 3d 04 71 b6 bd f6 ee ed be f0 70 14 3e
       0.07412142 -0.08908275 -0.46471375 0.14496207
0002b0 8e 30 87 3e 6a 33 f7 bd 4a e3 54 3d e2 6b 23 bf
       0.26404232 -0.12070353 0.051974572 -0.6383649
0002c0 b0 91 e1 bd 09 75 d2 be 61 59 07 3e c4 52 1a be
       -0.11014116 -0.41104916 0.13217689 -0.15070635
0002d0 88 2e a7 bd 60 f3 5d bd 7f 0f 15 be 10 8c 93 3e
       -0.08163172 -0.05418718 -0.14556693 0.28817797
0002e0 cd 3e 68 be 66 96 d4 be ac 99 17 3e 4d 6b 35 be
       -0.22680207 -0.41520995 0.14804715 -0.17716713
0002f0 e1 39 76 3e 75 ff 8c be bd 7a c3 bc 8a 68 29 bc
       0.24045517 -0.27538648 -0.023862237 -0.010339865
000300 17 d2 9b be 00 98 0d 3b 8f 7d 49 bc 9c b3 23 be
       -0.30433723 0.0021605492 -0.012298002 -0.15986484
000310 1c 83 5e bd 2c ba e0 bd 61 da 1b 3e b2 99 87 be
       -0.054324254 -0.109730095 0.15220024 -0.26484448
000320 a0 9f b5 bc 87 47 ea be b6 92 0c bf c3 5c bc 3e
       -0.022170842 -0.45757696 -0.54911363 0.36789522
000330 2b e6 e0 bd 03 b6 73 be 71 a3 14 bf bf 50 b1 bc
       -0.10981401 -0.237999 -0.5806189 -0.021644948
000340 da b6 c1 3d 9c e1 24 3e f0 22 ab 3d 93 e4 b3 3d
       0.09458704 0.16101688 0.08356273 0.087838314
000350 7a 98 90 3d 07 55 c4 bd e2 c0 9a be e9 ea 54 be
       0.070603326 -0.0958653 -0.30225283 -0.20792736
000360 0b de f1 bc fa e5 e9 3d 48 8f 08 be a4 0d e5 bd
       -0.029524824 0.11420818 -0.13335907 -0.11184242
000370 67 e0 b0 3e db bd d8 bd 7e a7 55 be d7 ef 0b bf
       0.34546205 -0.10583087 -0.20864674 -0.5466284
000380 8f c1 92 be 48 a9 17 be 98 ed 79 3e 4a 9d 62 3e
       -0.28663298 -0.1481067 0.24407041 0.22130314
000390 80 9c fc bd 43 93 17 3e 1d 2d 8c 3e 31 aa 11 be
       -0.123345375 0.1480227 0.2737817 -0.14225079
0003a0 25 0b 84 be f0 08 e4 be fb 1f bf be 46 89 a5 bd
       -0.25789753 -0.4453807 -0.37329087 -0.080828235
0003b0 61 21 0b be 05 a2 4f 3e 34 49 43 3e 17 e9 88 be
       -0.13586952 0.2027665 0.19070894 -0.26740333
0003c0 b9 14 55 3e 78 b4 9b be 61 0b 59 3d 0e 5b af 3e
       0.20808686 -0.30411124 0.052989367 0.34249157
0003d0 cc 60 b3 3e 01 69 28 be 1b 6a 5d be d0 36 53 be
       0.35034788 -0.16446306 -0.21622507 -0.20626378
0003e0 b0 02 22 be 0e 71 14 bf 62 03 11 3e 64 c2 3a 3e
       -0.15821338 -0.5798501 0.14161447 0.18238217
0003f0 bc 12 13 bd ed 5f 0c bd 41 6f 92 be 97 35 82 3e
       -0.03590654 -0.03427117 -0.28600505 0.2543151

l2.weight f4 [300, 400]
000000 a8 49 3e bd bb 3f 53 3c 5a cc 39 3d 32 4c ee bc
       -0.046456963 0.0128936125 0.0453609 -0.029089067
000010 c6 93 8a 3c d4 f7 0a 3c 33 f1 49 bd da 15 1e 3d
       0.016916167 0.008481938 -0.04930229 0.038595058
000020 07 c5 c4 3d 79 24 e1 3c 3a 35 a8 3c 4a 7a 3d 3b
       0.096078925 0.027483212 0.020533193 0.0028912001
000030 e8 dd 43 3d c7 45 ec bc 98 23 82 3d b3 b9 d6 bc
       0.04781905 -0.028841866 0.06354445 -0.026211595
000040 b0 0b a1 bc 51 30 49 3d 7a ba 8b 3c 01 58 8e 3d
       -0.019658893 0.049118344 0.017056692 0.06950379
000050 0b 8f ce 3d d0 1e e3 bb 06 b4 6f bd a4 27 98 bb
       0.10085877 -0.0069311634 -0.058521293 -0.0046433974
000060 e7 89 aa 3d 63 80 0f 3d 3f 7c 01 3e 43 fe 90 3d
       0.08327084 0.03503455 0.12645052 0.070797466
000070 23 96 df bc 96 dc 01 bd 9e 9e 2e 3d 83 0c 38 3e
       -0.02729327 -0.031704508 0.042631738 0.17973523
000080 63 fa e0 bc ef 7b 0c 3e 55 38 37 bd 96 7c dc bc
       -0.027463144 0.13719152 -0.044731457 -0.026914876
000090 6c 13 42 bc 7a 8d 4b bc d0 bb 73 bd 68 de 29 3d
       -0.011845451 -0.012423867 -0.059505284 0.04147187
0000a0 9a 98 92 3c 57 6a 12 be c9 ca 14 3d 7f d4 ba bc
       0.017895032 -0.14298378 0.036326203 -0.022806404
0000b0 69 89 c7 3d 02 b4 73 bc 09 55 e0 3d 4b 62 09 bc
       0.09743006 -0.01487446 0.10953719 -0.008385251
0000c0 e5 72 96 3d 51 61 93 3d 05 8c 13 3e c9 6d 12 bc
       0.07346133 0.07196296 0.14408882 -0.008937308
0000d0 27 b9 83 3d 65 1f 1b 3d f3 df 4e 3d a6 60 79 3d
       0.064317994 0.037871737 0.050506543 0.060883187
0000e0 97 63 b2 3c f9 4e ce 3a 58 44 35 3c 5f a9 ee 3d
       0.021776004 0.0015740088 0.011063658 0.11653399
0000f0 a0 03 c1 ba 9c 76 00 3e 9f 8e 1b 3e c6 e8 9e 3c
       -0.0014725812 0.12545246 0.15191124 0.019398104
000100 ec a9 29 bc ec 03 2e 3b be 43 95 3c 06 1d 77 3c
       -0.010355454 0.002655263 0.018220779 0.015082603
000110 55 dc 10 3c e6 29 a5 3c f1 41 be 3d 84 4c 57 3b
       0.008841594 0.02016158 0.09289921 0.0032852003
000120 19 28 2c bc ca f5 22 bd 8e 5e cd 3c 9c c4 48 3d
       -0.010507607 -0.039785184 0.025069501 0.049015626
000130 8f 41 ff bc 31 88 13 3d 42 b4 fb 3c 50 30 46 bd
       -0.03115919 0.036018554 0.030725602 -0.04838592
000140 87 87 10 bd 59 09 2d 3d d0 9b bb bb 06 a6 22 bd
       -0.0352855 0.042245243 -0.0057253614 -0.039709114
000150 b6 e1 8b 3d 50 2f 87 bc 9b 26 2f bd 3c f9 1a 3e
       0.0683016 -0.016502053 -0.042761426 0.15134138
000160 31 a6 ca bd 9e d9 f0 3c 8a f8 32 ba a2 17 83 3c
       -0.0989498 0.029400643 -0.00068271963 0.01600248
000170 b9 35 5d bd 30 7f 2c 3d 14 97 19 3d ab 31 b8 3c
       -0.054006312 0.042113483 0.037497595 0.022484621
000180 19 30 42 bc d2 8a 34 3b 86 f0 09 3e a9 88 de bb
       -0.011852288 0.0027548564 0.13470659 -0.0067911935
000190 b8 b0 14 3c 18 5a cf bc c5 9a 64 3d a5 6f cd 3d
       0.009075336 -0.025311515 0.055811662 0.1003106
0001a0 f3 ea ea 3c 90 df 11 3d b2 3a cd 3c 67 f0 84 bc
       0.028676486 0.035613596 0.025052402 -0.016227914
0001b0 a1 28 3b 3d 4a d3 32 3d 93 05 24 3d 03 98 e8 3d
       0.045693044 0.043658532 0.04004438 0.11357119
0001c0 60 f6 33 3e a8 a0 17 bc 87 39 ed 3d f5 4f 37 3d
       0.17574453 -0.009254612 0.11583238 0.044753987
0001d0 ee ce b9 bc a5 6a 38 3e 50 74 82 bb d4 8f 43 3e
       -0.02268168 0.18009432 -0.0039811507 0.19097835
0001e0 4e 78 7f bc 68 cc af bc 35 bc 02 3c 77 6b 3d 3e
       -0.015592648 -0.021459773 0.007979442 0.18498026
0001f0 f0 f9 43 bd a4 5b b9 3d 8a 61 87 bc a9 9f 4b 3e
       -0.04784578 0.09050682 -0.016526002 0.19885124
000200 59 6d e4 3d f5 01 95 bc 38 d9 dc 3d b7 7c 6a 3d
       0.11153669 -0.01818941 0.10783619 0.057247844
000210 d0 38 f5 bb 10 7c 42 3d d3 18 fd 3c f2 eb d1 3c
       -0.007483579 0.047481596 0.030895626 0.025625203
000220 d1 e4 46 3d 2e 21 45 3d dd 70 4b bc 78 a5 18 bc
       0.04855806 0.048127346 -0.012417045 -0.009316795
000230 3c 2c dd 3b 61 65 c2 bc f5 ed 81 3c 2a f4 f3 3d
       0.006749658 -0.023729982 0.015860537 0.11911805
000240 5f 64 4c 3d 83 21 31 bd c2 a9 d1 3c 8c 8e 99 3d
       0.04990041 -0.04324485 0.025593642 0.07497892
000250 71 9d 11 bd 27 75 e8 bd 51 af 44 3c 49 72 67 3d
       -0.03555054 -0.1135047 0.012004689 0.056505475
000260 15 27 20 bd cd 25 51 3d 1e a9 9f 3c 2e 20 b0 3c
       -0.03909977 0.05106144 0.019489821 0.02149972
000270 86 59 ab 3d 26 01 05 3e 0d f2 a4 3c be ac c8 3c
       0.083666846 0.1298872 0.02013495 0.024496432
000280 0e a3 f6 bc f8 19 8a bc a1 63 15 3e df 7a b3 bc
       -0.030107047 -0.016858086 0.14588787 -0.021909175
000290 0f e3 2a 3d 97 22 d1 3d f1 e9 ee 3d 80 7e 83 bc
       0.041720446 0.102116756 0.116657145 -0.01605153
0002a0 59 c4 8b 3b 29 a8 bd 3c f0 6c f5 3c 0d 09 0f 3d
       0.00426535 0.023151474 0.029959172 0.03492074
0002b0 47 ea af bb 2e 27 b8 3b 14 3a ff 3d cd f3 de bd
       -0.005368504 0.005619905 0.124622494 -0.10886345
0002c0 14 83 21 3d 0d 1a 49 3c c0 b0 09 3e ba 43 c6 bc
       0.039431646 0.012274277 0.13446331 -0.024202216
0002d0 f8 7d fc bb 6c aa d0 bc 00 e4 dd 3d 05 c2 42 bd
       -0.0077054463 -0.025471888 0.10834503 -0.047548313
0002e0 e7 59 0d 3e 5d 0c 91 3d 68 2c b8 3b 07 73 9a bb
       0.13803826 0.07082436 0.005620528 -0.0047134194
0002f0 49 c0 28 3d a5 40 35 bd af 24 07 3c 84 59 06 3e
       0.041199002 -0.044251103 0.008248492 0.13120085
000300 d4 9c 86 3c 60 5b 2b 3b 79 35 c4 bc e0 f7 44 bb
       0.016432203 0.0026146993 -0.023951279 -0.0030054972
000310 a0 de 12 bb bb 25 36 bd 06 b0 ef 3c c9 ee 08 3d
       -0.0022410527 -0.044469576 0.02925874 0.03343085
000320 f2 c5 9a 3c 97 67 2d 3d 87 ee 6b 3d 52 60 9d 3c
       0.018893216 0.04233512 0.057600524 0.019210968
000330 fb 83 b8 3a 74 e2 be 3d bf e7 62 bc 6d 4b 99 bd
       0.0014077419 0.09320536 -0.013849198 -0.074850895
000340 cc 20 af 3d fa c0 b9 3d 70 f6 80 bc ef 03 5e bd
       0.085511774 0.090700105 -0.01574251 -0.05420297
000350 be 8e d7 3d ca fd 1b 3d 17 1c 1e 3d 32 e3 10 bd
       0.10525273 0.03808383 0.038601007 -0.03537292
000360 c4 f5 fc 3d eb f6 de bd 69 ba 37 3d 4a 6e 9c 3c
       0.123515636 -0.108869396 0.04485551 0.019095559
000370 cd b5 22 3d 2d 22 2f 3d 4c 5c 6c 3d 62 a0 7f bd
       0.03972416 0.042757202 0.05770521 -0.062408812
000380 03 4a 10 bd a2 c3 c9 3c 34 33 5a 3c ac 3d 36 bc
       -0.035226833 0.024629418 0.013317872 -0.011123102
000390 85 a9 a4 3d c9 3e b0 3d 77 1f c6 3c 76 d0 0d 3e
       0.08040146 0.08605725 0.024184925 0.13849053
0003a0 37 d5 dc 3d 91 bd 15 bd 9e 33 17 bd d9 6d 2f 3d
       0.10782855 -0.036557738 -0.03691446 0.04282937
0003b0 af e6 53 bd 44 ff 13 3e b9 4c b5 3c 24 db 8e bc
       -0.05173367 0.14452845 0.02213131 -0.017438479
0003c0 e3 67 ec 3d 30 cb 12 3d 1a 2a ac bc 5c 93 7d 3d
       0.11543252 0.035838306 -0.02101617 0.06190811
0003d0 df 73 9e 3c 83 dd fe 3d 80 6e cb bc 4f 08 36 3d
       0.019342361 0.12444594 -0.024832964 0.044441517
0003e0 28 b9 bb 3d 94 66 ab 3c 6b 50 a2 bb 55 9d 37 3d
       0.09166175 0.020922936 -0.004953434 0.044827778
0003f0 60 d2 7c 3d 6f f3 21 3e 00 bd 02 bc f3 23 1f 3d
       0.061724067 0.15815519 -0.007979631 0.038852643

l2.bias f4 [300]
000000 d3 54 47 bb 93 52 23 3d 2a b0 0a 3e 5e 63 0f bd
       -0.003041555 0.03987367 0.13543764 -0.035006873
000010 cb 1c ff 39 6c 10 64 3b e4 aa 8a bd 4f b0 90 3c
       0.00048658843 0.0034799827 -0.06770876 0.017662195
000020 14 e7 d0 bc 55 d6 58 3d 2b b2 24 bd 6f bb eb 3d
       -0.025500812 0.052938778 -0.040208977 0.115103595
000030 c4 1e 59 bd a8 c3 96 bb 68 da 57 bd 4b 50 1d 3e
       -0.053007856 -0.0046009608 -0.052698523 0.1536266
000040 6e 40 3d bd 7d 65 b4 bd dc 87 4a bd a9 c9 12 3d
       -0.046204023 -0.0880842 -0.04944597 0.03583685
000050 f5 59 f1 3d ca eb 6b 3c 18 91 c7 3c 9b 6c 0d 3e
       0.11784736 0.014399478 0.024361178 0.13810961
000060 38 cf e5 bc b1 81 4a bb 21 0e 75 3d 8e 02 43 bd
       -0.028052911 -0.0030900056 0.059827928 -0.04760986
000070 cf fd 88 bd d5 6e 13 3e d4 0a a7 bd ab a6 d5 bc
       -0.06689035 0.14397748 -0.08156362 -0.02608045
000080 4c 15 d4 bc 04 77 48 3b 56 fd 97 3d 62 6d 0c bc
       -0.025889061 0.0030588517 0.07421367 -0.008571001
000090 63 ed 86 bc e4 f9 1e 3d c0 d2 5d bd ac ab 0f 3e
       -0.016470617 0.038812533 -0.054156065 0.14030331
0000a0 4d 47 eb bc a6 f1 35 bd 78 07 a2 bb 19 4d d7 3c
       -0.028720522 -0.044419907 -0.004944738 0.02628188
0000b0 db f7 f7 3c ae de 21 bd c8 5c 85 bd 3d cd ec bd
       0.030269554 -0.039519005 -0.06511837 -0.115625836
0000c0 f1 96 2a 3d 9a c9 08 bd e1 bf 14 3e 61 3f 00 3e
       0.041647855 -0.033395387 0.14526321 0.12524177
0000d0 0b 2e 3f 3e 08 f3 27 3c 61 31 9a bc 0a 1d d3 bd
       0.18669908 0.010250814 -0.018822374 -0.10308273
0000e0 8d a3 cd 3c 37 08 7a 3d ab 53 57 bc aa 5f 48 3b
       0.025102401 0.06104299 -0.013142507 0.0030574598
0000f0 92 ce f5 bc b0 39 ab bd 29 b6 2c 3b ec b8 a3 bc
       -0.030005727 -0.083606124 0.0026353693 -0.019985639
000100 8c f4 cb bd c8 2c 22 3d f6 bc a9 3c 36 6f 4b bd
       -0.09958753 0.039593488 0.020719986 -0.049666606
000110 29 e8 e9 bb 60 b2 2e bd 08 b8 44 3b 72 0c f9 bc
       -0.0071382714 -0.04265058 0.0030016918 -0.030401442
000120 05 6e c9 3d f3 9f d8 3b 36 09 16 bd 1c e8 a7 bc
       0.09835438 0.0066108643 -0.036629878 -0.02049642
000130 ea 86 46 bd 7f dc 81 3c a0 6d 9e bd 8c d6 7f bc
       -0.048468508 0.015852211 -0.07735753 -0.015615117
000140 99 3f b2 bd 54 d6 17 bd 88 70 c6 bc f0 62 23 bd
       -0.087035365 -0.037069634 -0.024223581 -0.039889276
000150 15 85 75 bd c9 fe 9e bc cb e0 9d bd 1d f8 30 bd
       -0.05994137 -0.0194086 -0.077088915 -0.04320537
000160 6d f6 cb bc 85 57 42 3c a2 55 cf 3c db 93 a5 3c
       -0.024897778 0.011861687 0.025309388 0.020212105
000170 81 c3 d0 ba da 3c 9f bc 5f bf 96 bc 38 a3 39 bd
       -0.0015927405 -0.019438196 -0.0184018 -0.045321673
000180 ac 81 b3 3d 8f 4e 03 bc 4f f0 01 3d f4 e7 d1 bd
       0.08764967 -0.008014335 0.031723317 -0.1024932
000190 29 c1 33 bd 47 36 84 3c 76 ab 9e bc 19 7b 21 3d
       -0.043885384 0.016139163 -0.019368868 0.039424036
0001a0 29 cc 6d ba 33 27 54 bd 5e b2 2f bd 1b ed a6 3d
       -0.0009071255 -0.051795196 -0.042894714 0.08150693
0001b0 e3 c2 c8 bc 63 5c 61 3e 24 99 14 3c 09 ae d6 3b
       -0.024506992 0.22007899 0.009069715 0.0065515083
0001c0 9d 1b 65 bc d3 5d 3e bd 0c 9a 4d bc a7 d3 66 3e
       -0.013983634 -0.046476196 -0.012548935 0.22541676
0001d0 3f 0f 1e bd 73 73 e7 bc 11 6a 82 bd 6e 3c fb bc
       -0.03858876 -0.028253293 -0.06367887 -0.030668464
0001e0 a1 d3 80 bd 69 ea 70 3b 24 30 17 bd 16 fb d0 bb
       -0.06290365 0.0036760813 -0.036911145 -0.006377588
0001f0 5f d1 30 bc e7 df 93 3d 20 a9 d1 ba f2 a4 42 bd
       -0.010792105 0.0722044 -0.0015995838 -0.047520585
000200 d5 e5 53 3d d8 8a 06 3e d7 14 39 bd 87 33 37 bd
       0.051732857 0.13138902 -0.04518589 -0.044726875
000210 af be 5c bd 98 cb 53 bb 4b 33 d1 bc 23 6f 25 3e
       -0.053892788 -0.0032317396 -0.025537154 0.16155677
000220 a7 24 ca bc ab 77 f1 bc ef d1 c5 3b a9 a4 1e 3e
       -0.02467568 -0.029476007 0.006036989 0.154925
000230 fc 99 16 be 06 1b 17 3d 90 5e 15 bd 12 e6 11 3e
       -0.14707178 0.036891006 -0.036467135 0.14247921
000240 a6 0c 9c bc 42 5b 22 3e 5f 01 34 bc a8 fa a7 3c
       -0.019049 0.15855125 -0.010986655 0.020505264
000250 d5 42 61 bc 60 8a a2 3d 74 e4 69 bd 53 e4 61 bc
       -0.013748844 0.07936549 -0.057102636 -0.013787347
000260 d4 4a 47 3e 2d e5 e0 bd 8f 22 83 bd bd fd b7 bd
       0.19462138 -0.10981212 -0.06403076 -0.089839436
000270 f5 d3 ba bd 1d 82 b2 3c 70 bb 65 3c 3e 76 92 3a
       -0.09122459 0.021790558 0.014021739 0.0011174155
000280 37 4c 5c 3e 89 dd d3 3b b4 ff 0a 3e 54 5a 5f bc
       0.21513449 0.006465618 0.13574106 -0.013632376
000290 8c 1e 23 bd f4 ae 80 bd 56 6a 6b bd 86 63 15 bd
       -0.039824054 -0.0628337 -0.057474457 -0.036471866
0002a0 a0 be 2c bd 8b 59 36 3e d4 18 0c 3d 40 7c 84 bc
       -0.04217398 0.17807595 0.034203365 -0.016172528
0002b0 4e 21 2a 3e 61 03 0a 3e 60 f6 cd 3c 76 33 70 bd
       0.16614267 0.13477851 0.025141895 -0.058642827
0002c0 15 6a dc bc ff 5d 49 bd 5a 39 15 bd 4b 69 8f bd
       -0.026906053 -0.049161907 -0.036431648 -0.07002505
0002d0 bd 10 1f bc de c1 29 3e d1 ba f7 bc bd 8d f1 bc
       -0.009708581 0.1657786 -0.030240448 -0.029486531
0002e0 ed 84 01 bd df 3d 76 bd 35 8a 19 3d 5d ae 89 3c
       -0.03162091 -0.0601176 0.03748532 0.016806776
0002f0 61 c5 1b 3d 37 cc 6a bd 4f 9e 09 bd 5a fd 30 bd
       0.038030032 -0.05732366 -0.03359824 -0.043210365
000300 6c 3c b7 bc de cc c5 3d 48 98 07 bd 46 5a 1c bc
       -0.022367679 0.09658216 -0.03310421 -0.009543007
000310 73 cd e8 bc bc e2 15 3e 28 7c b5 3d 5f fc ab 3c
       -0.028418278 0.14637274 0.088615716 0.020994363
000320 4c 52 4d 3a 11 9e 0b 3e 10 c0 c6 bb 0c 56 42 3b
       0.00078323926 0.13634516 -0.006065376 0.0029653339
000330 d9 15 f4 3d 37 e0 56 bd 39 70 f1 bb 0e 53 4d bc
       0.119182296 -0.05245992 -0.0073681143 -0.012532009
000340 03 40 8a 3c 1b 69 11 be 52 e2 82 3e c7 6d b0 3c
       0.016876226 -0.14200251 0.25563294 0.02153672
000350 f0 4b c2 3d 00 5b 9b bd 3c 49 6f bd 64 32 04 3e
       0.0948714 -0.07585716 -0.05841945 0.12909847
000360 86 8d 02 bd 00 6d b8 bc 46 50 6e 3b c5 b0 48 bd
       -0.03187325 -0.022512913 0.0036363765 -0.048996706
000370 29 fa b8 bc 5a 06 74 3c 66 b9 67 bd aa 68 f9 bd
       -0.022580223 0.014894092 -0.056573294 -0.12178166
000380 f3 3d f1 bd eb b0 f5 bc 8b 72 48 bd 97 df 49 bd
       -0.11779394 -0.029991588 -0.04893736 -0.049285498
000390 d9 08 ee 3d 96 25 8b bc d4 73 21 bd 08 65 d4 3c
       0.11622781 -0.016985696 -0.039417103 0.025927082
0003a0 a4 f7 d0 bb 03 7c bf bc 2f f2 ff bd 0f 2d b1 bc
       -0.0063771773 -0.023374563 -0.12497365 -0.02162793
0003b0 d7 19 10 bc 56 b5 c3 bc 56 fe e2 bc 77 fa 65 3d
       -0.008795223 -0.023890179 -0.027709167 0.056147065
0003c0 ae 22 87 bd a6 bb 1f 3c 3d bb 80 bd 4b 25 36 bd
       -0.065984115 0.009749329 -0.06285713 -0.04446916
0003d0 f4 37 2d bd 28 40 62 bd 81 b6 9c 3c fa d2 9a bc
       -0.04228969 -0.055236965 0.019129993 -0.01889943
0003e0 6a d2 7b bd 6b f2 35 bc 17 1f dd bd f9 c3 fc 3d
       -0.061479963 -0.01110516 -0.107969455 0.12342066
0003f0 eb 69 13 bd d0 ae 2e 3e f1 c8 4d 3e 91 ac 3c bd
       -0.035989683 0.17058873 0.20096184 -0.04606301

l3.weight f4 [6, 300]
000000 64 74 87 3d 19 69 8d bc 7f 9a d3 3c da 42 28 3d
       0.066139966 -0.017262029 0.025830505 0.04107938
000010 b5 fc f2 bc 54 2c 08 bc 19 21 ad 3c 3f 07 8c 3c
       -0.029661516 -0.00831135 0.021133946 0.017093299
000020 b7 11 ed bc 8d 6f 62 3d e0 20 99 3c b5 2d 04 3f
       -0.028939111 0.055282164 0.018692434 0.51632243
000030 51 bf 35 bd 60 99 59 3d d5 39 bf bc 28 cd 10 bb
       -0.044371907 0.053124785 -0.023343006 -0.002209494
000040 92 b8 01 bd a2 db 34 3d 6a 0c 08 3d ae 83 44 3c
       -0.03167016 0.04415477 0.033214964 0.0119942855
000050 0a 88 89 3c 5d 2b 35 3d 0f 2b 39 bd 3b f9 03 3d
       0.016788501 0.044230808 -0.04520708 0.032220107
000060 ad eb 8a bd 8c 91 35 bd 83 6a 50 bb 09 07 95 bc
       -0.06783233 -0.044328257 -0.0031801767 -0.018191831
000070 cb 65 22 3d 81 a1 0c 3d 75 98 88 bd a1 85 20 bd
       0.03964786 0.03433371 -0.06669704 -0.03918994
000080 48 ca 9c 3c 7e 3c 08 3c 41 eb a0 bc 1f fd b9 3c
       0.019139424 0.008315204 -0.019643428 0.022703705
000090 47 56 02 bd d9 c9 8e bc 62 70 2d 3c 02 6a 55 3c
       -0.03182056 -0.017430233 0.010585876 0.0130257625
0000a0 49 12 5e bc f4 be 51 bc e7 a8 11 3d 49 2c 59 bd
       -0.013554164 -0.012801874 0.03556147 -0.05302075
0000b0 3e 39 3a 3d 50 41 f8 3b 07 b6 a9 3c fe 8c a6 3d
       0.045464747 0.007576145 0.02071668 0.08132361
0000c0 9c b9 a2 bc cd 4a 2d 3d 36 a3 a2 bd 4a 90 98 3d
       -0.019863896 0.042307664 -0.07941286 0.07449396
0000d0 42 81 e5 3b d4 c1 0f bd cc 38 f3 b8 25 c4 b0 bd
       0.007003934 -0.03509696 -0.00011597722 -0.086311616
0000e0 c0 02 34 3d 55 fb 63 bc d2 d3 59 bc 10 2e 55 3b
       0.043947935 -0.013914903 -0.013295131 0.0032528676
0000f0 f8 c1 5a bc 95 61 50 bd 22 f7 36 bb c2 ef 14 bd
       -0.01335191 -0.05087431 -0.0027918299 -0.036361463
000100 44 bd b0 3d e4 6a 33 3d 1e 41 b9 bc cc b2 1d bc
       0.086298496 0.04380311 -0.022614058 -0.009625148
000110 ef b0 5f bd c5 9d 8c 3c 71 a8 d5 bc b7 05 e6 bc
       -0.054612096 0.017165074 -0.026081296 -0.028078897
000120 b3 1a 4d bd 31 17 39 bd 6a 28 04 3c b3 a4 91 bd
       -0.05007429 -0.045188133 0.008066276 -0.07111492
000130 cc ae 2f 3d e4 38 37 bd 78 b8 88 3d dc 86 1e bd
       0.04289131 -0.04473199 0.066758096 -0.03870283
000140 b7 8e 16 3d 6c 94 49 3d 04 84 4c 3d d3 c4 12 3d
       0.036757197 0.04921381 0.049930587 0.035832237
000150 88 42 e4 bb 29 c9 7f 3c f2 66 ae bc e4 90 92 bd
       -0.006965939 0.015611925 -0.021289323 -0.07156542
000160 d3 7d 84 bd ed 45 1a 3d 00 26 c1 39 87 fc 87 bd
       -0.064693116 0.037664343 0.0003684014 -0.06639963
000170 a6 78 49 3c 75 a7 e4 3c b6 4e 1d bc 48 05 cd ba
       0.012296831 0.027911881 -0.009601286 -0.0015641833
000180 66 e6 da 3c a3 81 54 3c f2 68 84 bd 4f 82 51 3d
       0.02672119 0.012970361 -0.06465329 0.051149663
000190 16 93 c6 bc 37 45 fe bc 11 2e 0b 3d d0 ea 30 3c
       -0.024240058 -0.031038864 0.03397948 0.010798171
0001a0 e2 61 06 bd 68 fa 6b 3d 52 dd 52 3c 24 5a 25 3b
       -0.032808192 0.057611853 0.01287015 0.002523073
0001b0 45 c6 92 bd 59 75 56 3d 9b 09 f2 3b f6 b2 36 3d
       -0.07166723 0.052358005 0.007386399 0.044604264
0001c0 90 7b 9c 3c 30 be 06 3d d4 83 9a 3c 1d 93 6f 3c
       0.019101888 0.03289622 0.018861689 0.014622477
0001d0 4d 07 32 bd f0 62 07 3b 52 6d f4 bc cc 76 d8 bc
       -0.043463994 0.0020658337 -0.029837284 -0.026423834
0001e0 b1 df 6a bd 9d 85 26 3d 36 8b 5b 3d 98 b2 8e 3c
       -0.057342235 0.040654767 0.05359956 0.017419145
0001f0 3c 15 39 bc 88 08 07 3d 35 f1 33 3d ee 48 89 bc
       -0.011296567 0.03296712 0.043931205 -0.016758408
000200 89 f1 6e bd 8f 23 de 3c 66 5b 44 bd a0 60 36 bc
       -0.058335815 0.027116565 -0.047938727 -0.011131436
000210 70 70 94 3c e1 e9 35 bd 9b a5 15 3d a3 63 78 bb
       0.01812002 -0.044412497 0.036534887 -0.0037901185
000220 0c 5c 7d bd 18 f2 b1 3b 99 96 36 bd 5f c3 ca bc
       -0.06185536 0.005430471 -0.044577215 -0.024751363
000230 c8 6f bf 3d 38 86 36 3c 6f ba 8c bb 6b eb 28 3d
       0.093474925 0.011140399 -0.0042946856 0.041240137
000240 ae 07 5f 3d 2a a9 6e 3d 81 eb 08 3c 58 57 b0 bc
       0.054450683 0.058266796 0.00835693 -0.021526024
000250 3c da 2a 3d 32 e1 02 3d ca 08 03 3d d9 96 80 3c
       0.04171203 0.031953044 0.031990804 0.01569693
000260 77 27 a1 3d 6e bb 16 3f f3 5f 98 bc d4 f3 8f 3c
       0.078688554 0.58879745 -0.01860044 0.017572321
000270 ed 99 58 3d c2 78 1b bc 73 2c 33 bd 9d 6f 28 3d
       0.05288117 -0.00948924 -0.043743562 0.041122068
000280 7c cd 96 3d f0 0f d2 3b 8c f6 b7 3d 66 96 4c 3d
       0.07363412 0.0064105913 0.08982572 0.04994812
000290 98 ae a1 bb 6e 3d 4d 38 e4 e0 0f 3d 7b 01 4b 3d
       -0.0049341433 4.893302e-05 0.03512658 0.04956196
0002a0 83 41 44 bd 1b ab 0d 3d d4 99 9c bd 0a 84 ca bc
       -0.04791404 0.034587007 -0.07646528 -0.024721164
0002b0 03 82 1f bd 6c 3e b3 3b 51 fb 8d bd 00 0e b1 3d
       -0.03894235 0.0054700878 -0.069327004 0.086452484
0002c0 f9 fb 27 3d 45 8e c7 3c c7 e9 4a 3c 4d 8d e5 bb
       0.041011784 0.024359832 0.012384838 -0.0070053698
0002d0 64 ae 7d 3c 64 8a 1b 3d c4 cf 2c bd c7 52 08 bd
       0.0154834725 0.037973776 -0.04219033 -0.033282068
0002e0 e6 3b 81 bd 99 a8 a1 bc e1 09 e6 bc 84 fb 55 bc
       -0.06310253 -0.019733714 -0.028080883 -0.013060454
0002f0 d9 0a 40 bd 52 85 db bc 89 f7 2c bd b5 ef a9 3c
       -0.046885345 -0.02679697 -0.042228255 0.020744184
000300 91 c4 17 3c e2 0b 1a 3d 7b 3b 8b 3b 61 15 6b 3b
       0.009263174 0.03760899 0.004249034 0.0035870897
000310 2e 7a c3 bc 6e b4 c2 3d 91 df 3a 3c 82 b9 42 bd
       -0.02386197 0.095070705 0.011405841 -0.047540195
000320 37 76 36 bd 34 b8 ca 3d 28 10 c9 bb 77 a8 a3 3c
       -0.044546332 0.09898415 -0.006135959 0.019977791
000330 64 f3 d5 3c c2 fb 6a 3d 82 a1 13 3d 46 c8 aa bb
       0.026117034 0.057369 0.036042698 -0.0052118627
000340 1d 57 13 3b 7d 10 a3 bc 56 3f a2 3d a4 bc 28 3c
       0.0022482343 -0.019905323 0.079222366 0.010298882
000350 3d 89 b6 bc 13 38 6d bd 34 a0 76 bd 1c 45 95 3d
       -0.022282237 -0.057914805 -0.060211375 0.07288572
000360 e0 08 d6 3a 00 5a 56 3c 16 ec 53 3d b8 2c 26 3c
       0.0016329549 0.013082981 0.05173882 0.010142498
000370 54 88 0b 3d c1 14 84 bc 4c f9 20 bc 69 c8 8c 3d
       0.03406556 -0.016123177 -0.009825062 0.06874163
000380 8b b5 23 3d a5 e2 88 bc c0 e8 be 3c 14 46 19 3c
       0.039968055 -0.016709635 0.023304343 0.009355087
000390 42 22 26 bb 89 52 92 bd 50 d8 6e 3c 47 40 76 bb
       -0.002535001 -0.071446486 0.01457794 -0.0037574933
0003a0 bf ac aa 3c 00 4d 24 bb a4 c8 bb 3d 19 d5 81 bc
       0.020834325 -0.002507031 0.091691285 -0.015848683
0003b0 fe 34 5c 3b 57 5e 2f 3d 16 86 f0 bb 68 fa ac 3d
       0.0033600922 0.04281458 -0.007340203 0.08446199
0003c0 59 11 81 3d d7 88 19 3d 10 bd 42 3c 2e 2d 48 3d
       0.06302137 0.037484016 0.011885896 0.04887121
0003d0 56 2c 1c bd 98 6c b8 3c 68 a0 c4 bb f0 40 ca 3c
       -0.03812822 0.022512719 -0.006000567 0.024689168
0003e0 e5 e8 6f 3d 80 4c 1e 3d ff 73 16 bd 6d 71 d6 3d
       0.058571715 0.038647175 -0.036731716 0.10470853
0003f0 a8 47 17 bd 85 4f 29 bd 42 ef ce 3d 70 92 c5 3c
       -0.03693357 -0.0413356 0.101042286 0.024117678

l3.bias f4 [6]
000000 d5 c9 bd 3c a4 b8 b3 bc 79 d1 b3 3b 0b a7 88 bb
       0.02316753 -0.02193863 0.0054876176 -0.0041703037
000010 4b b1 83 bd 87 9e 33 3c
       -0.064303 0.010963089
