results/runs/double_assembly_step/Average_TD3_10_Peg-in-hole-double_assembly_seed_1/67000_actor.pth (torch_old, 510312 bytes, 6 tensors)

l1.weight f4 [400, 12]
0	0xbef32440	-0.47488594
1	0xbe96a767	-0.29424593
2	0x3e4c5398	0.19953763
3	0x3ef3d164	0.4762069
4	0x3dcdfd14	0.100580364
5	0x3ee12ce4	0.4397956
6	0xbe2ef602	-0.17086032
7	0x3f133e34	0.5751679
8	0xbd66d488	-0.05635503
9	0x3f0764a0	0.52887917
10	0x3dc4688d	0.09590254
11	0xbdae54f3	-0.085122965
12	0x3cc831f2	0.024437878
13	0xbf345732	-0.7044555
14	0x3da50688	0.08057886
15	0x3f851ecb	1.0400022
16	0xbdcdb088	-0.10043436
17	0xbf3a84f7	-0.7285914
18	0x3eca42d1	0.39504102
19	0x3e326451	0.1742108
20	0x3e2ff2ae	0.17182419
21	0xbeef205b	-0.46704373
22	0xbd72f5d2	-0.059316464
23	0xbeb82126	-0.3596279
24	0xbf2644f7	-0.6494898
25	0x3f720b53	0.9454853
26	0x3ece942b	0.40347418
27	0xbf2a86b3	-0.66611785
28	0x3d9f8f21	0.077909715
29	0xbd00538c	-0.031329677
30	0x3e9aaf20	0.30211735
31	0xbee66696	-0.45000142
32	0x3e10af75	0.14129432
33	0xbec1f72a	-0.37883884
34	0xbeddbcc3	-0.43308076
35	0xbf0338c7	-0.5125851
36	0x3e81874f	0.25298545
37	0xbd3f6b6c	-0.046733305
38	0x3e1413ce	0.1446068
39	0xbe095f4e	-0.13415262
40	0x3e91067f	0.2832527
41	0xbdfa12b3	-0.12210598
42	0x3e473bce	0.19456407
43	0xbc42bbd3	-0.011885601
44	0xbe308ca3	-0.17241149
45	0x3e15311a	0.14569512
46	0xbe193a0b	-0.14963548
47	0x3daa6568	0.08320123
48	0xbeb4f1c0	-0.3534069
49	0x3f454d9c	0.7707155
50	0x3da13a4a	0.07872446
51	0xbf542417	-0.8286757
52	0x3f7a7a31	0.978427
53	0xbf197e98	-0.5995879
54	0x3f33c3c4	0.7022059
55	0xbe122602	-0.14272311
56	0xbe968f5f	-0.29406258
57	0xbedb12f6	-0.42787904
58	0xbf034d28	-0.51289606
59	0x3e051fc7	0.13000403
60	0xbe3f1576	-0.1866053
61	0x3e4001ee	0.18750736
62	0x3e337618	0.17525518
63	0x3e8315a6	0.25602454
64	0xbe25b40b	-0.16181962
65	0xbd42a1e0	-0.047517657
66	0xbbb73e80	-0.0055921674
67	0x3d2cb348	0.042163163
68	0xbe6056ba	-0.21908084
69	0xbe51c449	-0.20485033
70	0x3e20cf40	0.1570406
71	0xbd8aa21a	-0.067692
72	0x3e593795	0.21212609
73	0x3f640f92	0.8908626
74	0x3e1c5a30	0.15268779
75	0xbf576ccd	-0.8415039
76	0x3f781cb2	0.96918786
77	0x3f406c05	0.75164825
78	0xbedc7a87	-0.4306223
79	0x3e07fbc4	0.13279635
80	0xbe8b659e	-0.27225965
81	0x3f0b65bf	0.5445213
82	0x3cc348fc	0.023838513
83	0xbf692a61	-0.9108029
84	0xbe38026a	-0.17969671
85	0x3e6c75be	0.2309179
86	0x3e1f6753	0.15566759
87	0x3dc06ba8	0.09395534
88	0xbe9cd813	-0.30633602
89	0x3e13e460	0.14442587
90	0x3e283349	0.16425814
91	0xbef4df6e	-0.47826713
92	0xbdacc83d	-0.0843663
93	0xbdc39b54	-0.09551111
94	0xbef4ec4e	-0.47836536
95	0x3db18ce9	0.086694546
96	0x3db7b281	0.08969594
97	0x39e6526b	0.00043930425
98	0x3da0ad4c	0.07845554
99	0x3d46138b	0.04835848
100	0xbf39b384	-0.72539544
101	0x3fde4d2a	1.7367299
102	0x3f20c769	0.62804276
103	0x3f03fb1e	0.5155505
104	0xbefac9d9	-0.48982123
105	0xbf40ab12	-0.7526103
106	0x3cabacec	0.020956479
107	0xbf8f5cfc	-1.1200252
108	0xbe302889	-0.17202963
109	0x3f828751	1.0197545
110	0x3ece04d4	0.4023806
111	0xbf043a7c	-0.5165174
112	0x3ec2b67a	0.38029844
113	0xbf13d0a3	-0.5774023
114	0xbe018343	-0.12647729
115	0xbe82b4ed	-0.2552866
116	0x3dfbcf87	0.12295442
117	0x3ead793e	0.33881563
118	0xbdeaae00	-0.11458969
119	0xbf4861a6	-0.78274
120	0xbeabe290	-0.3357129
121	0x3e1ede50	0.15514493
122	0x3f0ccf7e	0.5500411
123	0xbeb23b32	-0.34810787
124	0x3e76cd25	0.24101694
125	0xbf4fd145	-0.81178695
126	0xbec19a97	-0.37813255
127	0xbe57ea3b	-0.21085446
128	0x3b8da3f6	0.004322524
129	0x3ea6aa7b	0.3255194
130	0xbe5cb785	-0.21554382
131	0xbefc8eac	-0.493276
132	0x3e6399e3	0.22226672
133	0x3e2cc00e	0.16870138
134	0x3e69e3a1	0.2284074
135	0x3e5345d0	0.206321
136	0x3e3b021a	0.1826252
137	0x3d9860e0	0.074403524
138	0xbe1ef177	-0.15521799
139	0xbe48be17	-0.19603764
140	0xbe36da4e	-0.17856714
141	0xbc078676	-0.008271804
142	0xbe406004	-0.18786627
143	0x3dd5cd8f	0.10439598
144	0x3f0d5742	0.5521127
145	0xbece4da7	-0.4029362
146	0x3d67574b	0.056479733
147	0x3efe594a	0.49677497
148	0xbe3c1ffd	-0.18371578
149	0xbece7932	-0.4032684
150	0xbdaaa8b7	-0.08332961
151	0x3f119625	0.5686973
152	0x3c42ef94	0.01189794
153	0x3e71d075	0.23614676
154	0xbebf47f1	-0.37359574
155	0xbd8613e2	-0.06546761
156	0xbe2cb148	-0.16864502
157	0xbdfcdf66	-0.12347297
158	0x3e522a3c	0.20523924
159	0xbdc131f4	-0.09433356
160	0xbe5ce618	-0.21572149
161	0x3de37778	0.11106771
162	0x3dbd4950	0.09242499
163	0x3e3f75a2	0.18697217
164	0xbe18f76c	-0.14938134
165	0x3d802eb8	0.06258911
166	0xbdd73aaa	-0.10509236
167	0xbd84d446	-0.064858004
168	0xbe347322	-0.17622045
169	0xbe689e15	-0.22716554
170	0x3d479aed	0.048731733
171	0x3ed86df5	0.4227139
172	0x3ebb32c5	0.36562172
173	0x3c26098a	0.01013411
174	0x3e8edb9b	0.2790192
175	0x3ea6e2c2	0.32594877
176	0xbc9d1c11	-0.019178422
177	0xbf780d18	-0.9689498
178	0xbe1f5537	-0.1555985
179	0xbe920fb5	-0.2852761
180	0xbe3b459f	-0.18288277
181	0x3f56a371	0.8384314
182	0x3daed197	0.0853607
183	0xbe1e2dbc	-0.15447134
184	0xbf7949b0	-0.97378063
185	0x3f254b54	0.64568067
186	0xbf05c2cd	-0.5225037
187	0x3ded1a2f	0.1157726
188	0xbdb280f0	-0.08715999
189	0x3dc59062	0.096466795
190	0x3edd8978	0.43268943
191	0xbd028ec3	-0.03187443
192	0xbf1d7203	-0.61502093
193	0x3dd56e7d	0.104214646
194	0x3eefaaf5	0.46810117
195	0xbe32f321	-0.17475559
196	0x3e4138a8	0.18869269
197	0x3dc26491	0.09491838
198	0x3ef76f3c	0.48327053
199	0xbee6b49d	-0.45059672
200	0x3df08560	0.11744189
201	0xbe3d0604	-0.18459326
202	0x3deb659f	0.11493992
203	0xbf3a8ead	-0.72873956
204	0x3e918a0d	0.28425637
205	0xbde9319d	-0.11386416
206	0xbce876ad	-0.028376902
207	0x3edf9cb8	0.43674254
208	0xbf437421	-0.76349074
209	0xbe0ced0e	-0.13762304
210	0x3e75c087	0.23999225
211	0x3f454edd	0.7707346
212	0xbf042b8a	-0.51628935
213	0x3f38a1c8	0.7212186
214	0x3db0f7c0	0.086410046
215	0x3dad3ab0	0.084584594
216	0x3f172a81	0.5904923
217	0xbe798c72	-0.24369982
218	0x3e472e28	0.19451201
219	0x3e58632d	0.21131583
220	0xbf81ae4a	-1.0131314
221	0x3ecf581c	0.4049691
222	0xbecdf34f	-0.40224692
223	0xbead9bd7	-0.3390796
224	0xbe2b2547	-0.16713439
225	0xbc49a66d	-0.012307745
226	0x3db8dca2	0.09026457
227	0xbecb9a18	-0.39766002
228	0xbe2058d9	-0.15658893
229	0x3f44abb2	0.76824486
230	0x3df50f23	0.11965778
231	0xbf2ff57f	-0.6873397
232	0x3f692b76	0.9108194
233	0xbd0af1cb	-0.033921998
234	0xbe764082	-0.24048045
235	0xbc3144bd	-0.010819611
236	0xbe47ffcb	-0.19531171
237	0x3e87b783	0.26507196
238	0x3e7083fc	0.23487848
239	0x3e4938de	0.196506
240	0xbe3c11a7	-0.18366109
241	0xbcb9d591	-0.022684844
242	0x3e4adafe	0.19810101
243	0xbb483df3	-0.0030554503
244	0xbe1cc25d	-0.15308519
245	0x3bf770c3	0.007551284
246	0xbe4a802f	-0.1977546
247	0xbe05f719	-0.13082542
248	0xbe888307	-0.26662466
249	0x3e908075	0.28223005
250	0x3e54660a	0.2074205
251	0xbdb9f639	-0.09080166
252	0xbee42bce	-0.4456467
253	0x3f11f647	0.57016414
254	0x3ebc43ce	0.3677048
255	0xbee62f95	-0.44958177

l1.bias f4 [400]
0	0x3f313bc1	0.692318
1	0x3e71866b	0.23586433
2	0x3b4c0604	0.0031131515
3	0xbe22da83	-0.15903668
4	0xbf346076	-0.7045969
5	0x3dc1f900	0.09471321
6	0x3ec784e4	0.38968575
7	0xbee54454	-0.44778693
8	0x3fab2571	1.3370801
9	0x3d86288f	0.06550705
10	0xbdfd47db	-0.12367221
11	0xbe5a5c6c	-0.21324319
12	0x3ecaca8a	0.3960765
13	0x3d18c1c8	0.03729418
14	0xbf8e1676	-1.1100605
15	0xbf7a74f9	-0.97834736
16	0xbecbbe77	-0.3979375
17	0xbedf07a8	-0.4356053
18	0x3d9a7aa1	0.07542921
19	0xbf33f817	-0.7030043
20	0x3dc880cb	0.0979019
21	0xbf00fca9	-0.5038553
22	0x3d6df0e3	0.058091056
23	0xbf4bfdbb	-0.79684037
24	0xbe503cc6	-0.20335683
25	0xbd9ea22b	-0.07745775
26	0xbe5d26dc	-0.21596855
27	0xbdc2a241	-0.09503604
28	0x3eea79e3	0.45796117
29	0xbea6e502	-0.32596594
30	0x3eb436ac	0.3519796
31	0x3d82cb73	0.06386461
32	0x3dd23826	0.10264616
33	0x3e3c0ceb	0.18364303
34	0x3eb33bab	0.3500646
35	0xbf3ab28e	-0.729287
36	0x3f47cc20	0.78045845
37	0xbf8d3251	-1.103098
38	0x3f00d885	0.5033038
39	0x3f959d5d	1.1688648
40	0x3f1b221a	0.6059891
41	0x3f8e5aa6	1.1121414
42	0xbe7d586f	-0.24740766
43	0x3e83518a	0.25648147
44	0xbe72fdf4	-0.23729688
45	0xbe164960	-0.14676428
46	0xbcfca0cc	-0.030838393
47	0xbfa7d765	-1.3112608
48	0x3d5d6456	0.054050766
49	0x3ed59e13	0.41722164
50	0x3da67818	0.08128375
51	0x3ebf80b4	0.3740288
52	0xbf4b701d	-0.79467946
53	0xbf1be15e	-0.6089076
54	0x3e250346	0.1611453
55	0x3dc1c91e	0.09462188
56	0xbf412eba	-0.75461924
57	0xbe810672	-0.2520023
58	0x3ceb4d5f	0.028723417
59	0x3f71fa8e	0.9452294
60	0xbe4248c8	-0.18973076
61	0x3e10337a	0.14082137
62	0xbebcbbab	-0.3686193
63	0x3f130f10	0.5744486
64	0xbf4f1c8c	-0.80902934
65	0xbf5f60be	-0.8725699
66	0xbe4cc598	-0.19997251
67	0xbf154276	-0.58304536
68	0x3e2abf49	0.16674532
69	0xbeb4e543	-0.35331163
70	0xbf614fc2	-0.88012326
71	0xbf5e8629	-0.8692346
72	0xbf786a0f	-0.9703683
73	0xbf97e7e7	-1.1867646
74	0xbe382936	-0.1798447
75	0x3dc40601	0.09571458
76	0xbf303e25	-0.68844825
77	0xbcecbfb6	-0.028900009
78	0xbdade9d3	-0.08491864
79	0xbebd8c84	-0.37021267
80	0xbf7d2b00	-0.9889374
81	0xbe1d6330	-0.15369868
82	0xbf8c6447	-1.0968102
83	0xbe8e5c9a	-0.27805024
84	0xbf007cd9	-0.501905
85	0x3e68fef7	0.22753511
86	0xbc067e20	-0.0082087815
87	0xbedb06f5	-0.42778745
88	0x3e9eda00	0.31025696
89	0xbe90d40f	-0.28286788
90	0x3f0d1634	0.55112004
91	0xbd944b03	-0.0724087
92	0x3c424d5b	0.011859263
93	0xbf3ac105	-0.72950774
94	0x3be436bf	0.006964534
95	0x3c6b7bac	0.014372747
96	0x3dd9e4b9	0.106393285
97	0xbf89519f	-1.0728034
98	0xbe931d8f	-0.2873349
99	0xbd098c69	-0.03358117
100	0xbd7bf21c	-0.06151019
101	0x3dc458a3	0.095872186
102	0xbedcdf71	-0.43139222
103	0xbe135040	-0.14386082
104	0xbe8a41f4	-0.27003443
105	0x3eba321f	0.36366364
106	0xbefdaad5	-0.49544397
107	0xbee00ed2	-0.43761307
108	0xbeecbfd8	-0.46240115
109	0x3e45f300	0.19330978
110	0xbe8d01dc	-0.2754048
111	0x3b952e5e	0.0045526465
112	0xbc4b2fff	-0.01240158
113	0xbe601229	-0.21881928
114	0xbf992576	-1.1964557
115	0xbf42c564	-0.76082444
116	0xbf427f00	-0.75975037
117	0xbd616570	-0.05502838
118	0x3e8a4ff1	0.27014115
119	0xbe78c82f	-0.24295114
120	0x3ccd4d30	0.02506122
121	0xbe399621	-0.18123676
122	0xbf118ee2	-0.56858647
123	0xbecc6d9c	-0.39927375
124	0x3f37cb70	0.71794796
125	0xbf1546d9	-0.5831123
126	0x3db68c00	0.08913422
127	0x3ebb0225	0.36525074
128	0x3e8913b4	0.26772845
129	0xbef4b5d3	-0.4779497
130	0xbeda1a11	-0.42598012
131	0xbedbc5f7	-0.42924473
132	0x3dd51f36	0.10406344
133	0xbe5649aa	-0.20926538
134	0xbdb34f24	-0.08755329
135	0x3d937f08	0.07201964
136	0xbfb732d8	-1.4312391
137	0xbf84b7a3	-1.0368541
138	0xbec3aadf	-0.38216302
139	0xbf93211f	-1.1494483
140	0xbed650a4	-0.418584
141	0x3f95c6df	1.1701316
142	0x3daff328	0.085913
143	0x3f437743	0.76353854
144	0xbf8a8105	-1.0820624
145	0xbe64d6f5	-0.22347625
146	0xbeb29bec	-0.34884584
147	0x3f6d0107	0.9257969
148	0xbeb82ca5	-0.3597156
149	0xbf73f0b3	-0.9528915
150	0x3f1855e9	0.5950609
151	0xbd9fb25d	-0.07797692
152	0xbf157aed	-0.58390695
153	0xbedbb371	-0.4291034
154	0xbeed7601	-0.46379092
155	0xbfc35917	-1.5261563
156	0xbfac8a93	-1.347979
157	0xbf2be552	-0.6714679
158	0xbee0f5fa	-0.43937665
159	0xbf4feca6	-0.8122047
160	0xbc996086	-0.018722784
161	0xbf581582	-0.8440782
162	0x3e387da8	0.18016684
163	0x3c7b8c33	0.01535325
164	0xbe9c65e7	-0.30546495
165	0x3e59e09b	0.21277086
166	0x3f3690f6	0.7131494
167	0xbf84f8af	-1.0388392
168	0x3e2c8aaf	0.16849779
169	0xbf2c14c6	-0.672192
170	0xbf942921	-1.1575052
171	0x3d313b00	0.043269157
172	0xbe60ccfc	-0.21953195
173	0xbf31fb57	-0.6952414
174	0xbf2ab38b	-0.6668021
175	0x3dc5b085	0.09652809
176	0xbca2c461	-0.019869031
177	0xbf0f2217	-0.5591139
178	0xbe5fa70f	-0.21841072
179	0xbf7d146c	-0.98859286
180	0x3f88093c	1.0627818
181	0xbd61fb27	-0.05517116
182	0xbc4a3691	-0.012342111
183	0xbef9a81c	-0.4876107
184	0x3ed3191f	0.41230103
185	0xbf7a7204	-0.97830224
186	0xbf650eb4	-0.8947556
187	0xbed598b3	-0.41718063
188	0x3e446f0c	0.19182986
189	0x3e82cef5	0.2554852
190	0xbf1c25ab	-0.60994977
191	0xbf57488e	-0.84095085
192	0xbdb446be	-0.088025555
193	0x3f803406	1.0015876
194	0xbe1bf781	-0.15231134
195	0xbee99d3c	-0.45627773
196	0x3e75ac28	0.23991454
197	0xbee945e6	-0.4556114
198	0x3e2ffddb	0.17186682
199	0x3ed98ed8	0.42491794
200	0xbdbd7032	-0.09249915
201	0xbdd371f5	-0.1032447
202	0xbe5c63f6	-0.21522507
203	0xbe4c9394	-0.19978172
204	0xbf4f648e	-0.8101281
205	0x3ec0f7b1	0.37688974
206	0xbeb0239a	-0.34402162
207	0xbe2d90c0	-0.16949749
208	0xbd7efd35	-0.062253196
209	0xbe1c0434	-0.15235978
210	0xbe3fe125	-0.1873823
211	0xbf02ab32	-0.51042473
212	0xbf057068	-0.52124643
213	0x3f3103e3	0.69146556
214	0x3d583031	0.052780334
215	0x3de636ff	0.112409584
216	0xbec5f6a3	-0.3866473
217	0x3e0a33e9	0.13496365
218	0x3f279eb7	0.65476555
219	0x3d0a23e8	0.03372565
220	0x3f17b75e	0.5926417
221	0xbedee116	-0.43531102
222	0x3e8b86e3	0.27251348
223	0xbf79725a	-0.9744011
224	0xbd39b5be	-0.04533934
225	0xbed67dd7	-0.41892883
226	0xbe5a6a55	-0.21329625
227	0x3f3f415d	0.7470911
228	0xbfb3ce4f	-1.4047335
229	0x3ece6197	0.4030883
230	0xbe132eb4	-0.14373285
231	0xbf0359bf	-0.51308817
232	0x3eb56034	0.3542496
233	0xbf248c24	-0.6427634
234	0xbee73bcf	-0.45162818
235	0xbea7cd98	-0.32774043
236	0x3f898686	1.0744178
237	0x3efb4b6b	0.49080977
238	0x3e0413d4	0.12898189
239	0x3e32d9c9	0.17465891
240	0xbf106470	-0.56403255
241	0xbdb38286	-0.0876513
242	0xbf6e817e	-0.9316634
243	0xbeb66dec	-0.3563074
244	0xbf8b7763	-1.0895809
245	0x3d0cd564	0.034383193
246	0xbf6f7420	-0.9353657
247	0xbf010c32	-0.50409234
248	0xbf86860c	-1.0509658
249	0xbe8f3777	-0.27972004
250	0x3e3c5bee	0.18394443
251	0xbeffb299	-0.49940947
252	0xbedc75d3	-0.43058643
253	0x3eb70963	0.3574935
254	0xbf92c2a9	-1.1465656
255	0xbe4e234f	-0.20130657

l2.weight f4 [300, 400]
0	0x3e22299d	0.15836187
1	0xbc935749	-0.017985957
2	0xbec6e2a0	-0.38844776
3	0x3d049bf1	0.03237528
4	0xbecb57ac	-0.39715326
5	0xbcca58a7	-0.024700476
6	0xbf11926d	-0.56864053
7	0x3e14d6b9	0.14535035
8	0xbeb07830	-0.34466696
9	0xbe9d4a8f	-0.30720946
10	0xbe11d4b3	-0.14241295
11	0xbccc87f2	-0.024967168
12	0xbd42a2dc	-0.047518596
13	0x3c07ca28	0.008287944
14	0xbe78affd	-0.24285884
15	0xbd904811	-0.070449956
16	0xbe62d20e	-0.22150442
17	0xbd78fd9e	-0.060788743
18	0x3d48efdc	0.049056873
19	0xbe76183f	-0.24032687
20	0xbcf362ea	-0.029710252
21	0x3d64a8af	0.05582493
22	0xbe8f78af	-0.28021762
23	0xbed25921	-0.41083625
24	0x3cc236ad	0.023707712
25	0xbbe2a1b7	-0.0069162506
26	0xbd42e5d8	-0.047582477
27	0xbe732b31	-0.23746945
28	0xbcc485a7	-0.023989512
29	0xbec36365	-0.3816177
30	0x3eaede2e	0.34153885
31	0x3ce57cd5	0.028013626
32	0xbe783d75	-0.24242194
33	0xbd21f4fb	-0.039540272
34	0x3b6c2817	0.0036034638
35	0x3e3b7105	0.18304832
36	0xbf1584c5	-0.58405715
37	0xbd4fe193	-0.050752234
38	0xbe52d874	-0.20590383
39	0xbdf347da	-0.11878939
40	0xbe38f29d	-0.180613
41	0x3cfae66a	0.030627448
42	0xbeb4b402	-0.35293585
43	0x3eb51d31	0.35373834
44	0x3ed73da8	0.42039227
45	0x3f338b5c	0.7013452
46	0x3d933422	0.07187678
47	0xbda87c06	-0.082267806
48	0xbe790bc8	-0.243209
49	0x3e50080e	0.20315573
50	0xbcfe6ce3	-0.03105778
51	0xbed85e71	-0.42259553
52	0x3e2e1e3b	0.1700372
53	0x3d08630b	0.03329758
54	0x3f13002b	0.5742213
55	0x3d8dba9d	0.06920359
56	0x3e0e18ef	0.13876699
57	0xbbf84758	-0.007576864
58	0x3c113f38	0.00886517
59	0xbdba7c2a	-0.09105714
60	0x3b91dc28	0.0044512935
61	0xbb974c90	-0.0046172813
62	0xbeba116c	-0.36341417
63	0xbce8ca6c	-0.028416835
64	0x3cf90471	0.030397626
65	0x3db90ad2	0.09035267
66	0x3e2842b3	0.16431694
67	0xbe32bd45	-0.17455013
68	0xbd247c2e	-0.04015749
69	0xbeb3cf63	-0.3511916
70	0x3de6e237	0.11273616
71	0x3e095ee9	0.13415112
72	0xbdae41b5	-0.08508626
73	0x3e1fc5e0	0.15602827
74	0xbcb28c2a	-0.021795351
75	0xbe83d09f	-0.25745103
76	0x3d2b20ec	0.041779444
77	0x3ef7dadd	0.48409167
78	0xbc498f71	-0.0123022655
79	0xbe7d29d2	-0.24722984
80	0xbe06b595	-0.13155206
81	0xbe3250b6	-0.17413601
82	0xbe7a1ee3	-0.24425845
83	0x3e4d7fcc	0.20068282
84	0xbeafde33	-0.34349212
85	0xbe94beed	-0.29051915
86	0x3d334b87	0.0437732
87	0x3e801245	0.2501394
88	0x3e9ecf41	0.31017497
89	0xbdc63e80	-0.0967989
90	0xbdc78942	-0.09742977
91	0xbe1c418d	-0.1525938
92	0x3f058a91	0.5216456
93	0xbec8021a	-0.39064103
94	0x3d63353a	0.055470683
95	0xbe5ea451	-0.21742369
96	0x3e90f413	0.28311214
97	0x3ce72cf4	0.028219678
98	0x3e84b6e5	0.25920787
99	0xbe4b2ee5	-0.19842108
100	0x3bfb7fa8	0.00767513
101	0xbc5e0585	-0.013551121
102	0xbd9c9a6b	-0.076466404
103	0x3dec98f8	0.11552614
104	0x3cc3296e	0.023823466
105	0xbed00fc0	-0.40637016
106	0xbe685f24	-0.22692543
107	0xbea07c94	-0.31345046
108	0xbe4ff243	-0.2030726
109	0xbd990a01	-0.07472611
110	0x3ed98fb1	0.4249244
111	0x3d15b8de	0.036553256
112	0xbe261467	-0.1621872
113	0xbe17ff98	-0.14843595
114	0xbe1d5299	-0.1536354
115	0xbe648a68	-0.22318423
116	0x3eb50d4a	0.353617
117	0x3d2cf00b	0.04222111
118	0xbb92fbc6	-0.00448558
119	0x3b5e0989	0.0033880195
120	0x3d126b3b	0.035746794
121	0x3ec6906b	0.38782057
122	0x3e009b3e	0.1255922
123	0xbd4b4c1b	-0.049633127
124	0x3e99f815	0.30072084
125	0xbe22d016	-0.15899691
126	0x3d4097b5	0.04701968
127	0x3eec905e	0.46203893
128	0xbd23ae46	-0.039961122
129	0x3d69290c	0.05692391
130	0x3eaf2660	0.34208965
131	0xbe56f4f8	-0.20991886
132	0x3cbbbb95	0.022916595
133	0xbe893e87	-0.26805517
134	0xbe4fba96	-0.2028602
135	0x3c9d51f0	0.01920411
136	0xbc8cca41	-0.017186286
137	0xbd842ba5	-0.06453637
138	0xbe3f3f2c	-0.18676442
139	0xbdb5f76f	-0.08885085
140	0x3e4b809f	0.19873284
141	0xbe82101e	-0.2540292
142	0xbdbe4f39	-0.09292454
143	0x3eb45c60	0.35226727
144	0xbe479211	-0.19489314
145	0xbdb6e5fa	-0.08930583
146	0xbe5f193b	-0.21786968
147	0xbe38d8fd	-0.18051524
148	0xbe964663	-0.29350576
149	0x3d0db460	0.034595847
150	0xbe27964c	-0.16365927
151	0x3ddacabf	0.10683202
152	0xbcb6cc43	-0.022314196
153	0xbe1813b7	-0.1485127
154	0xbe982e60	-0.2972288
155	0x3d5f0967	0.054452326
156	0x3da3ba0b	0.07994469
157	0xbdaa838e	-0.08325873
158	0xbe24751c	-0.16060299
159	0x3e7643bd	0.24049278
160	0x3dc94306	0.09827237
161	0xbea99889	-0.33124188
162	0x3f24115b	0.6408898
163	0x3e659ae9	0.22422375
164	0xbd921b50	-0.07134116
165	0x3d01d4ab	0.031696957
166	0xbeaf21b2	-0.34205395
167	0xbe08e94c	-0.13370246
168	0xbe47910a	-0.19488922
169	0xbee602b0	-0.44923925
170	0xbeb13bb3	-0.3461586
171	0xbd1f22fa	-0.038851716
172	0xbb99b718	-0.004691016
173	0x3e429940	0.19003773
174	0x3ec1444f	0.37747428
175	0xbd86eb6e	-0.065878734
176	0x3f1621a5	0.5864509
177	0x3d4d5a42	0.050134905
178	0x3b4252e0	0.0029651448
179	0x3d56de6c	0.05245821
180	0xbe27ec9a	-0.1639885
181	0x3de08bed	0.10964189
182	0x3e2a4408	0.16627514
183	0x3d9bd684	0.07609275
184	0x3ef5d1c7	0.4801161
185	0xbe99d598	-0.30045772
186	0x3e7c0eb7	0.24614988
187	0xbebbebf9	-0.3670347
188	0x3e680e19	0.22661628
189	0xbdfe7655	-0.12424914
190	0xbd34cba4	-0.04413952
191	0xbc8b2202	-0.01698399
192	0x3d18b029	0.037277374
193	0xbea7d424	-0.32779038
194	0xbe90d061	-0.2828398
195	0x3ca056d2	0.01957265
196	0x3c75587c	0.01497471
197	0xbce34b61	-0.027745904
198	0xbe8118c0	-0.25214195
199	0x3e70d64e	0.23519251
200	0xbe987459	-0.29776266
201	0xbed3f848	-0.4140036
202	0xbe8901e2	-0.2675925
203	0x3e4ca857	0.19986092
204	0xbed252c1	-0.4107876
205	0x3e133a3f	0.14377688
206	0x3d01b527	0.0316669
207	0xbe624d09	-0.22099699
208	0xbec99e53	-0.39378604
209	0x3e0abb9a	0.13548127
210	0x3e719f69	0.23595966
211	0xbe9ba529	-0.30399445
212	0x3e5752a9	0.21027626
213	0x3f7200f2	0.9453269
214	0x3dd63d94	0.10460964
215	0xbe8c72a8	-0.27431226
216	0xbecd7aa0	-0.40132618
217	0xbe3f1a9a	-0.18662491
218	0xbdd0a3dd	-0.101875044
219	0x3d197c45	0.03747203
220	0xbe2338bb	-0.1593961
221	0xbb75d696	-0.0037511936
222	0xbe60103a	-0.2188119
223	0x3d2d518a	0.04231409
224	0xbe2589c2	-0.16165832
225	0xbec25e31	-0.37962487
226	0x3f0ff0ae	0.56226623
227	0xbde4d3aa	-0.11173184
228	0x3e4a9144	0.19781977
229	0x3e8c92f7	0.27455875
230	0x3e0016d7	0.12508713
231	0xbf2ba5f0	-0.67050076
232	0x3e9a5492	0.30142647
233	0xbd6b80d0	-0.057495892
234	0xbd0d568a	-0.03450636
235	0x3e175242	0.14777473
236	0x3de543f2	0.111946
237	0x3dcc52ad	0.09976707
238	0x3c5ad796	0.013357064
239	0xbd83f068	-0.06442338
240	0x3ddc0ed0	0.10745013
241	0x3e145d7b	0.14488785
242	0xbcf55df3	-0.029952025
243	0x3ddfd5e3	0.109294675
244	0xbe946c56	-0.28988904
245	0x3cb86b7d	0.022512192
246	0x3d568b24	0.05237879
247	0xbe8f9ecf	-0.2805085
248	0xbedb3101	-0.42810825
249	0x3ef35ede	0.47533315
250	0xbcd35137	-0.025795562
251	0x3e20c781	0.15701105
252	0x3e6b9205	0.23004921
253	0xbeb3fab0	-0.35152197
254	0xbdce2935	-0.10066453
255	0x3da52a88	0.08064753

l2.bias f4 [300]
0	0x3d01d40b	0.03169636
1	0xbda0ff71	-0.078612216
2	0xbc3f0b8f	-0.011660471
3	0xbd8968ed	-0.06709466
4	0x3edf9f45	0.436762
5	0x3ea9782f	0.33099505
6	0x3da4008e	0.08007918
7	0xbd677731	-0.056510154
8	0xbe18daab	-0.14927165
9	0x3c56134d	0.013066125
10	0xbef79112	-0.48352867
11	0xbaf47554	-0.0018650689
12	0x3eac633b	0.33669457
13	0xbeb82607	-0.35966513
14	0xbd344b69	-0.04401723
15	0xbdf66940	-0.120317936
16	0xbd1177a4	-0.03551449
17	0xbc441280	-0.011967301
18	0xbef41776	-0.4767415
19	0x3ebca15a	0.3684185
20	0xbce65b61	-0.028119745
21	0xbd66bd61	-0.05633295
22	0xbebbadbd	-0.3665599
23	0xbf0ba7d5	-0.54552966
24	0x3e03747e	0.12837407
25	0xbe9119bb	-0.28339943
26	0xbded8a74	-0.115986735
27	0xbcce7b77	-0.025205357
28	0xbc178740	-0.009248555
29	0xbcf66338	-0.030076608
30	0xbdbb77b8	-0.09153694
31	0x3e839374	0.25698435
32	0xbbc85c8c	-0.006114548
33	0xbe953c7c	-0.29147708
34	0xbd85553a	-0.06510396
35	0xbd0e3c28	-0.03472534
36	0xbe33b559	-0.17549647
37	0xbd2f1add	-0.04275023
38	0xbf107f1c	-0.56443954
39	0xbe1dcc9f	-0.15410088
40	0xbdec90a3	-0.11551025
41	0xbec6b67c	-0.388111
42	0xbd8648ff	-0.06556892
43	0x3e43810b	0.19092195
44	0xbd89c7f2	-0.0672759
45	0xbe6d808d	-0.2319357
46	0x3ebfc261	0.37452987
47	0x3de8f6bc	0.11375186
48	0x3d68bfc9	0.056823526
49	0xbd2cfbca	-0.042232312
50	0xbd9c93cc	-0.076453775
51	0xbd38eee1	-0.045149688
52	0xbeb7102d	-0.3575453
53	0xbca94c0f	-0.02066615
54	0xbdbd475c	-0.09242126
55	0xbd43369f	-0.047659513
56	0xbcd0d6aa	-0.025492985
57	0x3dd1c014	0.10241714
58	0xbea125b0	-0.31474066
59	0xbee019c3	-0.43769655
60	0xbddef0bf	-0.108857624
61	0xbda795d9	-0.08182878
62	0xbcaa551b	-0.020792535
63	0x3ed3c4db	0.41361126
64	0x3e44dfff	0.19226073
65	0x39c3d18b	0.0003734942
66	0x3c637e4a	0.01388509
67	0xb9e8401c	-0.00044298253
68	0xbed9554b	-0.42447886
69	0xbb51b91d	-0.0032001205
70	0xbed33d1c	-0.4125756
71	0xbe80ca7c	-0.25154483
72	0xbd3dbdec	-0.0463237
73	0xbc32398e	-0.01087798
74	0x3e4acd43	0.19804864
75	0x3c423942	0.011854472
76	0x3df31106	0.11868481
77	0xbd90167f	-0.07035541
78	0x3e4386ba	0.19094363
79	0x3e7e09bc	0.24808401
80	0xbd46fcd3	-0.048580956
81	0x3f60de6d	0.87839395
82	0xbeb85bbe	-0.36007494
83	0xbdb5538b	-0.08853825
84	0xbd0fd77f	-0.035117622
85	0xbe6339cb	-0.22190015
86	0x3f5dab87	0.86589855
87	0xbbab6fae	-0.005231819
88	0x3dfc1b1f	0.123098604
89	0xbd27aefe	-0.04093837
90	0xbbf3a5a8	-0.0074355192
91	0xbd030801	-0.031990055
92	0xbd9f1153	-0.07766976
93	0x3e21dcc2	0.15806869
94	0xbb9440b8	-0.0045243166
95	0x3f0adfa7	0.54247516
96	0xbd52666a	-0.0513672
97	0xbf129882	-0.5726396
98	0xbbf856bb	-0.0075786985
99	0xbd14957f	-0.036275383
100	0xbdf2e2f3	-0.118596934
101	0xbd227623	-0.039663445
102	0xbf329811	-0.69763285
103	0xbe99ca5a	-0.30037194
104	0xbcab1297	-0.020882888
105	0xbd0bb313	-0.034106325
106	0x3eca324f	0.39491507
107	0xbd5b712e	-0.053574733
108	0xbf2bbb3a	-0.6708256
109	0xbd048c08	-0.032360107
110	0xbf501d84	-0.8129504
111	0xbeac9bdc	-0.3371266
112	0xbd8a58fd	-0.067552544
113	0xbe60faaa	-0.21970621
114	0xbdacd427	-0.08438902
115	0x3b2d1baf	0.0026414206
116	0xbed9455f	-0.42435738
117	0x3ed797f6	0.42108124
118	0xbd405628	-0.046957165
119	0xbd5f4bab	-0.054515522
120	0xbda0e072	-0.078553095
121	0x3e059818	0.130463
122	0xbdb7100b	-0.08938607
123	0xbc7fe959	-0.015619599
124	0xbd4661c7	-0.04843309
125	0xbd284d75	-0.041089494
126	0x3c99de7f	0.018782852
127	0x3e498a6d	0.19681711
128	0x3db7f2d1	0.089818604
129	0x3e48a2a5	0.19593294
130	0xbb40f7e4	-0.002944463
131	0xbd42a2b4	-0.047518447
132	0xbce5b87e	-0.028042074
133	0xbe9a7f76	-0.3017537
134	0xbef2cb0a	-0.47420532
135	0xbd8e5b47	-0.069510035
136	0xbd29bdf1	-0.041440908
137	0xbd292166	-0.041291617
138	0x3dc6e47b	0.09711548
139	0x3caa98cc	0.020824812
140	0xbd661f6b	-0.056182306
141	0xbb195a13	-0.0023399636
142	0xbee26e22	-0.4422465
143	0xbcccbc5c	-0.02499216
144	0xbeaa061c	-0.33207786
145	0xbcc25dec	-0.023726426
146	0x3ed29a33	0.4113327
147	0xbf8d806a	-1.1054814
148	0x3e2f6332	0.17127684
149	0xbe646684	-0.22304732
150	0xbc9d55d9	-0.019205974
151	0xbd58629c	-0.052828416
152	0xbf0e90f2	-0.5568992
153	0x3caa93ab	0.020822367
154	0xbf52c396	-0.8232969
155	0xbc8d815b	-0.017273596
156	0xbcf09b89	-0.02937104
157	0xbd623f28	-0.05523601
158	0xbefa3577	-0.48868915
159	0xbdc7e864	-0.09761122
160	0x3f0b7a5d	0.54483587
161	0xbe9f17d2	-0.3107286
162	0x3e9773c8	0.29580522
163	0x3e37346d	0.17891093
164	0xbf5dbac9	-0.86613137
165	0xbe1d43e6	-0.15357932
166	0xbe92291a	-0.28546983
167	0x3de2a777	0.11067098
168	0x3f1a9938	0.60390043
169	0xbbfc4783	-0.0076989545
170	0xbec6558d	-0.38737145
171	0xbf22908f	-0.6350183
172	0xbee178e7	-0.44037554
173	0xbd04cce8	-0.032421976
174	0xbf20f6da	-0.62876666
175	0xbbbf6c4b	-0.005841767
176	0xba63d39f	-0.0008690897
177	0xbef498e3	-0.47772893
178	0x3e9fd5a8	0.31217694
179	0x3ee0fda9	0.43943527
180	0xbf5d0ebc	-0.8635061
181	0xbd55e7f5	-0.052223165
182	0x3e357a66	0.17722473
183	0xbd947ed6	-0.072507545
184	0xbea1441a	-0.3149727
185	0xbd3fde11	-0.04684264
186	0x3e24a633	0.16079025
187	0x3f10bafb	0.5653531
188	0x3e883c59	0.26608542
189	0x3db98d95	0.09060208
190	0xbcf823a4	-0.030290432
191	0xbd21f106	-0.0395365
192	0xbd7d8731	-0.061896507
193	0xbd758f64	-0.0599512
194	0xbc0d534c	-0.008625817
195	0xbd6ffb73	-0.05858941
196	0xbeb73582	-0.3578301
197	0xbd9efaaa	-0.07762654
198	0x3cb66b4c	0.02226796
199	0xbe91db67	-0.28487703
200	0x3f1bc15f	0.60841936
201	0xbd186036	-0.03720113
202	0xbd1b60ed	-0.037934233
203	0xbe11cc42	-0.14238074
204	0xbc53c0f3	-0.012924421
205	0xbf1eb124	-0.61989045
206	0xbd8c2175	-0.06842319
207	0x3f24c864	0.6436827
208	0x3db69225	0.089145936
209	0xbd2170d1	-0.03941423
210	0xbd8152a6	-0.06314592
211	0xbcd6b8b2	-0.026211116
212	0xbedfc4b2	-0.43704754
213	0xbc8c3124	-0.017113276
214	0xbf30299d	-0.68813497
215	0xbec7af34	-0.39000857
216	0xbd4a14ab	-0.049336117
217	0xbf23d48d	-0.639962
218	0xbe7194ef	-0.2359197
219	0xbf04aa98	-0.51822805
220	0xbdc3393e	-0.095324025
221	0xbda7f957	-0.08201855
222	0xbd97d91c	-0.07414457
223	0x3e218c20	0.1577611
224	0xbe090621	-0.13381244
225	0x3e13e405	0.14442451
226	0x3c41b94f	0.011823966
227	0x3ed36203	0.41285715
228	0xbec76cec	-0.38950288
229	0x3e51934e	0.20466349
230	0xbf001369	-0.5002962
231	0x3d5d2e94	0.0539995
232	0xbeed50fa	-0.46350843
233	0xbc205cac	-0.00978772
234	0xbd112846	-0.0354388
235	0xbde429bc	-0.11140773
236	0x3d5c8dab	0.053846043
237	0xbf072350	-0.5278826
238	0xbe1d6c78	-0.15373409
239	0xbe573261	-0.21015312
240	0xbda198b5	-0.07890455
241	0xbdc42fb7	-0.095794134
242	0x3efc45b1	0.4927192
243	0xbe783b32	-0.24241331
244	0x3d556cd6	0.052105747
245	0x3c75a5b6	0.014993122
246	0xbd9080bd	-0.07055805
247	0x3e4666a5	0.19375093
248	0x3d93107f	0.07180881
249	0x3eefb6ba	0.46819097
250	0xbd45d4e7	-0.048298743
251	0xbf815eaa	-1.0107014
252	0xbd8d1c4c	-0.06890163
253	0x3eacdb43	0.33761033
254	0x3c16ba80	0.0091997385
255	0xbc2516f9	-0.010076278

l3.weight f4 [6, 300]
0	0x3e837484	0.25674832
1	0xbd8bc59e	-0.06824802
2	0xbc9ff32c	-0.019525133
3	0x3d467cd9	0.048458908
4	0xbdddc6d7	-0.10828941
5	0x3f0495cb	0.51791066
6	0x3e92500b	0.28576693
7	0xbd06741b	-0.03282557
8	0x3d6faeea	0.05851642
9	0x3d12ca55	0.03583749
10	0xbdfb9e48	-0.12286049
11	0xbc657081	-0.014003874
12	0x3eb13d9c	0.34617317
13	0xbd8e98ce	-0.06962739
14	0x3cc8cd81	0.024512054
15	0xbe070e18	-0.1318897
16	0x3cb57d2d	0.022154415
17	0x3d0f0110	0.034913123
18	0x3cfd7d2a	0.030943472
19	0x3f08b515	0.5340131
20	0x3cdd275a	0.026996303
21	0x3c6fc3eb	0.014634113
22	0x3e264409	0.16236891
23	0x3e6caad6	0.23112044
24	0xbb427476	-0.0029671467
25	0xbc1bcd7d	-0.009509441
26	0xbd48227b	-0.04886101
27	0xbd546c2e	-0.05186098
28	0xbd928eeb	-0.07156166
29	0x3c0073a7	0.007840074
30	0x3d0005c7	0.03125551
31	0xbe47be4c	-0.19506186
32	0xb94ab0ac	-0.00019330037
33	0xbe88bd6c	-0.26707017
34	0x3d3ae996	0.04563292
35	0x3d22f2d4	0.03978236
36	0x3ef4e5df	0.47831628
37	0x3bb4d6c5	0.0055187666
38	0x3d846eee	0.06466471
39	0x3c1f0b9e	0.00970736
40	0xbcab1031	-0.020881744
41	0xbdc9c30d	-0.09851656
42	0xbcfcba3f	-0.030850528
43	0x3e7be816	0.24600253
44	0xbcfb8ebb	-0.030707708
45	0xbd93d7a8	-0.072188675
46	0x3e91acb5	0.28452078
47	0xbbdc13b5	-0.0067162164
48	0x3ad9824a	0.0016594615
49	0x3cbc650d	0.022997404
50	0x3d1cbb3f	0.03826451
51	0x3c0eaa33	0.008707571
52	0xbe49ddf4	-0.19713575
53	0x3b00b49d	0.0019638904
54	0x3eebd583	0.46061334
55	0xbc941d90	-0.018080503
56	0xbd585b73	-0.052821588
57	0xbd4ee2f9	-0.050509427
58	0xbde999db	-0.11406299
59	0x3d9a90b9	0.07547135
60	0xbd12be8b	-0.035826247
61	0xbe338bec	-0.17533845
62	0xbd75e1a0	-0.060029626
63	0x3e5ca03f	0.21545504
64	0xbe83e28e	-0.25758785
65	0x3cdf43aa	0.027253944
66	0x3b68382e	0.0035433876
67	0xbc930059	-0.017944502
68	0xbdc7e5f2	-0.097606555
69	0xbed20a76	-0.41023606
70	0xbccc4e06	-0.024939548
71	0xbd924405	-0.0714188
72	0x3bc53be6	0.0060191033
73	0xbd10967e	-0.03529977
74	0x3eb51725	0.3536922
75	0xbd628edf	-0.055312034
76	0xbe00f741	-0.1259432
77	0xbcb135f4	-0.021632172
78	0xbca66434	-0.020311452
79	0x3e289a5f	0.16465138
80	0x3c6be946	0.014398878
81	0x3f1c7e38	0.61130095
82	0xbe09e80f	-0.1346743
83	0xbdb656eb	-0.08903297
84	0x3c827bc8	0.015928164
85	0xbea30921	-0.31842902
86	0x3f25cfb2	0.6477004
87	0x3ca2cc19	0.019872712
88	0xbea4c155	-0.3217875
89	0x3b1faeea	0.0024365732
90	0xbce6dae6	-0.02818055
91	0x3c25dda1	0.010123641
92	0x3da2a7ca	0.079421595
93	0x3e1a3a98	0.15061414
94	0xbc51445c	-0.012772646
95	0x3eb5313c	0.35389125
96	0xbd236a6c	-0.039896414
97	0x3dde9f47	0.108702235
98	0x3c6e26d7	0.014535627
99	0xbc7b57da	-0.01534077
100	0x3d9d3c7c	0.07677552
101	0x3caf7e81	0.021422626
102	0xbe5438e4	-0.20724827
103	0xbe8be728	-0.27324796
104	0xbd8d830a	-0.06909759
105	0xbc180304	-0.009278063
106	0xbe40fe5e	-0.18847033
107	0xbc2d1f59	-0.010566556
108	0x3d096362	0.033542044
109	0xbd33d583	-0.043904793
110	0xbec6980f	-0.38787887
111	0xbe6b0d71	-0.22954346
112	0xba9cfd1b	-0.0011977287
113	0xbeb19bda	-0.34689218
114	0xbcc42a62	-0.023945991
115	0xbdd809c4	-0.10548738
116	0xbea861f8	-0.32887244
117	0x3d8cb975	0.068713106
118	0xbc3b5406	-0.011433607
119	0xbd7a291c	-0.06107436
120	0xbd6b23a1	-0.057407025
121	0xbeaa18cf	-0.33222052
122	0xbd1df5af	-0.03856438
123	0xbd0cc7cd	-0.034370232
124	0x3e35ae7a	0.17742339
125	0x3d92d575	0.0716962
126	0x3ced0d5a	0.02893703
127	0xbdca4222	-0.09875895
128	0x3d83ce57	0.064358406
129	0x3e3cdb56	0.18443045
130	0xbd88ee2a	-0.06686051
131	0x3c0e781c	0.0086956285
132	0x3e0b8d45	0.13628109
133	0x3d6e563c	0.05818771
134	0xbd6e8294	-0.058229998
135	0xbba92ae3	-0.005162583
136	0xbc32494b	-0.010881732
137	0x3ac582c6	0.0015068881
138	0xbd1f243f	-0.038852926
139	0xbb8a0ccb	-0.004212951
140	0xbce79ab7	-0.028272016
141	0x3e8da0f4	0.2766186
142	0xbea02817	-0.31280586
143	0x3d32ee84	0.043684497
144	0x3d90159c	0.07035372
145	0xbc5506a2	-0.01300207
146	0x3ea5fb79	0.3241842
147	0xbebe1ab1	-0.3712974
148	0x3dbe0886	0.092789695
149	0xbe4efea9	-0.20214333
150	0xbc8915a3	-0.01673395
151	0xbc76b7bb	-0.015058453
152	0xbedb3aee	-0.42818397
153	0xbc035025	-0.008014713
154	0xbeb16ca2	-0.34653193
155	0xbd39fc33	-0.04540653
156	0xbba52317	-0.0050395834
157	0x3c1089d2	0.008821921
158	0x3c779179	0.015110367
159	0x3cf9eacf	0.030507473
160	0x3e57d501	0.21077348
161	0x3d553f80	0.05206251
162	0xbd054d87	-0.03254464
163	0xbebf6584	-0.37382138
164	0xbe3ea9b5	-0.18619426
165	0x3d064ec6	0.032789968
166	0x3e0415b1	0.128989
167	0x3e9d16b1	0.30681375
168	0x3ee9b738	0.45647597
169	0xbd20b4df	-0.039234992
170	0x3e453987	0.19260226
171	0x3d258bfe	0.04041671
172	0xbe5147fc	-0.20437616
173	0xbd80ac79	-0.062828965
174	0xbdf91c79	-0.12163634
175	0xbcdac011	-0.026702913
176	0xbd8c1fcb	-0.068420015
177	0xbe3f05b7	-0.18654524
178	0x3e8cc9ea	0.27497798
179	0x3e7d2aa3	0.24723296
180	0xbeb0e190	-0.3454709
181	0xbd9d2a1d	-0.07674048
182	0xbe104574	-0.14088994
183	0x3cc6f9a0	0.024288952
184	0x3b8da7b1	0.004322969
185	0xbcd20d20	-0.025641024
186	0x3e81d267	0.25355837
187	0xbe4bb3a4	-0.19892746
188	0x3eba9ce1	0.36447814
189	0x3e31cc30	0.17363048
190	0x3cd0ac28	0.025472715
191	0x3cadd3c0	0.021219134
192	0x3d399050	0.045303643
193	0x3bc8c313	0.0061267703
194	0xbd11fc2f	-0.03564089
195	0x3d7d0b76	0.061778508
196	0xbd16e3b6	-0.036838256
197	0x3c04cc28	0.008105315
198	0x3ded1ca5	0.11577729
199	0x3dceb1bd	0.10092495
200	0x3deaae2e	0.114590034
201	0x3c4aa86f	0.012369259
202	0xbc39881d	-0.011323956
203	0xbd437506	-0.047719024
204	0xbd026128	-0.031830937
205	0xbdad0a1c	-0.08449194
206	0x3bd26fc2	0.006422014
207	0x3c058bcf	0.008151009
208	0x3f0d41ae	0.55178344
209	0x3d51ef90	0.051253855
210	0x3c9e9aa2	0.019360844
211	0xbd2635cc	-0.04057865
212	0xbdf3b44d	-0.11899624
213	0xbc9456d0	-0.018107802
214	0x3dd4d93d	0.103929974
215	0xbe10ceba	-0.1414136
216	0xbd02d741	-0.031943563
217	0x3e13afd4	0.14422542
218	0xbdef3704	-0.11680415
219	0xbe4e5f5e	-0.20153567
220	0x3eb0aed6	0.3450839
221	0xbdeaacd6	-0.11458747
222	0x3cbcccf3	0.023046946
223	0x3d2a387c	0.041557774
224	0xbe893788	-0.2680018
225	0xbebc45a2	-0.36771876
226	0x3c589608	0.013219364
227	0x3e2fba50	0.17160916
228	0x3e414f46	0.18877897
229	0x3e671c5c	0.22569412
230	0xbe986b0f	-0.2976918
231	0xbd121f6f	-0.03567451
232	0x3e113ef2	0.14184168
233	0x3c1eda51	0.009695605
234	0xbcef5e46	-0.029219758
235	0x3e977757	0.29583237
236	0x3d445c7a	0.047939755
237	0x3eba2e7d	0.36363593
238	0x3c979667	0.018504335
239	0x3f649f13	0.8930523
240	0xbcb02c5d	-0.021505529
241	0x3da22859	0.07917852
242	0x3ddf5322	0.10904528
243	0xbdfa81df	-0.12231802
244	0xbb777e56	-0.003776451
245	0xbcd02380	-0.025407553
246	0x3c82528e	0.015908506
247	0xbe0b848b	-0.1362478
248	0x3c226d69	0.009913781
249	0x3dd13e48	0.10216957
250	0xbd0cb432	-0.034351535
251	0xbe849be7	-0.25900194
252	0x3b1cd6b7	0.002393169
253	0x3cb05d21	0.021528782
254	0xbca82de9	-0.020529704
255	0xbc9c679c	-0.019092374

l3.bias f4 [6]
0	0x3f211faf	0.6293897
1	0x3c12cdb5	0.008960177
2	0xbe26f6b0	-0.16305041
3	0x3dc76c95	0.09737507
4	0xbc062f38	-0.008189969
5	0x3cf53a10	0.029934913
