results/runs/double_assembly_step/Average_TD3_10_Peg-in-hole-double_assembly_seed_1/83000_actor.pth (torch_old, 510312 bytes, 6 tensors)

l1.weight f4 [400, 12]
00000000: 3a67 e7be 7283 b7be 9e35 913e 3567 0d3f
00000010: 3eda 993d 17a1 033f cb71 fcbd a54d 133f
00000020: 690c 34bd 06fe 143f 74d1 af3d 7f5e e8bd
00000030: 76ce 103c 3bcf 54bf d683 903d f352 943f
00000040: 9b46 2ebe ead4 08bf 943f 743e a2a3 043d
00000050: e00e 863e ca20 cbbe 3384 c03d 3cfa b0be
00000060: 80c6 28bf bca2 723f 6e22 d43e 5dec 25bf
00000070: 454b e93d 1782 f73d e87a d13e e875 a8be
00000080: dcd1 203e b841 9ebe 9c3a 01bf 9110 0bbf
00000090: 4f87 813e 6c6b 3fbd ce13 143e 4e5f 09be
000000a0: 7f06 913e b312 fabd ce3b 473e d3bb 42bc
000000b0: a38c 30be 1a31 153e 0b3a 19be 6865 aa3d
000000c0: f353 08bf 15da 403f 9684 b73d dd5f 4fbf
000000d0: 2b88 983f a06a 3dbf ac20 323f 7b7c 50bd
000000e0: ec58 aebe e84f d0be b730 06bf eaf0 233e
000000f0: 7615 3fbe ee01 403e 1876 333e a615 833e
00000100: 0bb4 25be e0a1 42bd 803e b7bb 48b3 2c3d
00000110: ba56 60be 49c4 51be 40cf 203e 1aa2 8abd
00000120: 9e7e 213e 7d3d 7c3f 3232 b53d effa 6dbf
00000130: d6eb 853f 712c 4a3f b5aa d9be 1709 2f3e
00000140: 5d91 92be 7153 293f 767b 83bb b8df 8dbf
00000150: 44fe 73be d53c 1a3e c047 7e3e c697 393e
00000160: 132b a5be c1ab 293e 10b3 3b3e 1c87 bebe
00000170: 6f77 30be efa1 2e3d e1c6 01bf 322d 973d
00000180: 0848 e83d c56d 1a3d f70a a63c d52c 24bc
00000190: 5424 7abf b7c7 ea3f 7452 283f 8db0 fa3e
000001a0: 6c3c efbe a11f 6abf 46a8 e23c d70e 91bf
000001b0: 069e 4abe 7a79 893f e79a d53e f141 0dbf
000001c0: 6f9d d93e 5fd1 0cbf d56b 15be cdfb 86be
000001d0: 2f32 f13d 3bdd d63e 4db9 debd 282f 53bf
000001e0: 21fe a6be c6b7 0b3e 6b90 113f a801 a9be
000001f0: 9a50 6b3e 89b8 4abf c222 b8be 311c 41be
00000200: 5c23 93bc 9698 b23e 1946 6fbe 5f85 f0be
00000210: e399 633e 0ec0 2c3e a1e3 693e d045 533e
00000220: 1a02 3b3e e060 983d 77f1 1ebe 17be 48be
00000230: 4eda 36be 7686 07bc 0460 40be 8fcd d53d
00000240: d8fc 3d3f 8a42 84be 2e87 ca3d 9177 af3e
00000250: d439 93be 2559 a2be 2c32 0fbe 62ae df3e
00000260: 604f efbd 5d14 bc3e 092c babe d4a8 24be
00000270: 48b1 2cbe 66df fcbd 3c2a 523e f431 c1bd
00000280: 18e6 5cbe 7877 e33d 5049 bd3d a275 3f3e
00000290: 6cf7 18be b82e 803d aa3a d7bd 46d4 84bd
000002a0: 5c92 98be 899c 79be 615b fc3c 5682 dd3e
000002b0: b884 aa3e 4c80 54be a793 b43e 3455 b83e
000002c0: 4eb0 793d 777d 6bbf cf6b 4fbe 8776 0ebf
000002d0: 6567 1fbe cf59 4a3f 8c4d 2f3e 525c 4fbd
000002e0: 095f 90bf dbdc 383f 0a48 d2be 7556 823e
000002f0: 9f38 62be 21e8 873e 2f0c 9e3e d103 1ebe
00000300: 492f 24bf 74ee e43c 2a48 f63e 13ea b3bd
00000310: ba20 2b3e bdb0 a83d 50a1 f83e 761a bebe
00000320: 1f20 123e 0637 adbd e10a d53d 9651 4fbf
00000330: 33f5 9e3e 5fda 80bd 930d ecbc 07a0 d53e
00000340: 7a4b 08bf 1929 08be 5b0c 5d3e f031 4a3f
00000350: 5a51 00bf 88c9 203f 382d 3f3d f1be f83e
00000360: 3e45 313f 094e 56be 9252 233e 52a6 6e3e
00000370: 6ba5 93bf 00a0 3a3f 4a14 f8be 487a bebe
00000380: c75e c7bd 2230 eb3d f6d1 423e 416e 1fbf
00000390: 8a86 47be 9380 6f3f 864f 383d a002 44bf
000003a0: 64ed 833f 332f bdbd 4dde 98be b8fb 05bd
000003b0: 7000 08be 11cd ad3e 41da 893e e54a 62be
000003c0: a711 3cbe 91d5 b9bc feda 4a3e f33d 48bb
000003d0: 5dc2 1cbe c370 f73b 2f80 4abe 19f7 05be
000003e0: 0783 88be 7580 903e 0a66 543e 39f6 b9bd
000003f0: ae4f d4be c258 283f a81c bd3e 7f51 ffbe
-0.45195943 -0.35842472 0.2836122 0.55235606 0.075123295 0.5141768 -0.12326392 0.5754035
-0.043957148 0.5820011 0.08584872 -0.11346149 0.008838287 -0.8312871 0.07056396 1.1587814
-0.17019121 -0.5344988 0.23852378 0.032382615 0.26183224 -0.39673454 0.09400215 -0.34565914
-0.65927887 0.9477956 0.41432518 -0.64813787 0.1139131 0.120853595 0.40914083 -0.32902455
0.15705055 -0.30909514 -0.50480056 -0.54322153 0.25298545 -0.046733305 0.1446068 -0.13415262
0.2832527 -0.12210598 0.19456407 -0.011885601 -0.17241149 0.14569512 -0.14963548 0.08320123
-0.53253096 0.75332767 0.08960836 -0.8100565 1.1916555 -0.7399082 0.69581103 -0.050899964
-0.34052217 -0.40685964 -0.5241808 0.1600987 -0.1866053 0.18750736 0.17525518 0.25602454
-0.16181962 -0.047517657 -0.0055921674 0.042163163 -0.21908084 -0.20485033 0.1570406 -0.067692
0.15770957 0.98531324 0.088474646 -0.9296102 1.0462596 0.7897406 -0.42513052 0.17093311
-0.28626528 0.66142946 -0.0040125204 -1.1083899 -0.23827463 0.15062268 0.24832058 0.18124303
-0.32259426 0.16569425 0.18330026 -0.37212455 -0.1723306 0.0426349 -0.5069409 0.07381667
0.11341864 0.03770234 0.0202689 -0.010020454 -0.9771168 1.8342198 0.65750813 0.48962823
-0.46725786 -0.9145451 0.02766813 -1.1332654 -0.19786844 1.0740197 0.41719744 -0.55178744
0.42502925 -0.55006975 -0.14591916 -0.26363984 0.1177715 0.4196566 -0.10875187 -0.8249383
-0.3261576 0.13644323 0.5686099 -0.33009076 0.22979966 -0.7918783 -0.35964018 -0.1885841
-0.017961197 0.3488204 -0.23366584 -0.46976754 0.22226672 0.16870138 0.2284074 0.206321
0.1826252 0.074403524 -0.15521799 -0.19603764 -0.17856714 -0.008271804 -0.18786627 0.10439598
0.74213934 -0.25832015 0.09889065 0.3427091 -0.28755057 -0.31708637 -0.13983983 0.4368773
-0.116850615 0.36734286 -0.3636172 -0.16080028 -0.16864502 -0.12347297 0.20523924 -0.09433356
-0.21572149 0.11106771 0.09242499 0.18697217 -0.14938134 0.06258911 -0.10509236 -0.064858004
-0.29799163 -0.2437612 0.030805292 0.432635 0.3330438 -0.20752066 0.352689 0.36002505
0.060959153 -0.9198832 -0.2025597 -0.5564961 -0.15566786 0.7904329 0.17119426 -0.050625153
-1.1279002 0.72212 -0.41070586 0.25456586 -0.22091912 0.26544288 0.3086867 -0.15431143
-0.6413465 0.027945735 0.48101932 -0.087848805 0.16711703 0.08236835 0.48560572 -0.37129563
0.14270066 -0.084577605 0.104024656 -0.80983865 0.31046447 -0.06291651 -0.028815066 0.41723654
-0.5324017 -0.13296928 0.21586744 0.7898245 -0.5012413 0.6280751 0.046673983 0.48583177
0.6924628 -0.20928206 0.15949467 0.23305634 -1.1534857 0.7290039 -0.4845298 -0.37202668
-0.09734874 0.1148379 0.19025406 -0.6227761 -0.19484916 0.93555564 0.044997714 -0.76566505
1.0306821 -0.09237518 -0.29857102 -0.03271076 -0.13281417 0.33945516 0.26924327 -0.22098882
-0.18366109 -0.022684844 0.19810101 -0.0030554503 -0.15308519 0.007551284 -0.1977546 -0.13082542
-0.26662466 0.28223005 0.2074205 -0.09080166 -0.4146704 0.65760434 0.36935925 -0.49866864

l1.bias f4 [400]
00000000: e19f 273f 4c3f cd3d 8322 20bc 83da 22be
00000010: f1f2 40bf 00f9 c13d 4e31 ef3e 5547 08bf
00000020: 6cff c53f f47f 923d ab8c 11be 6c5c 5abe
00000030: 7170 bd3e c8c1 183d b428 9bbf 34fd 8dbf
00000040: 4c4b d8be 18d9 bdbe 159a c03d e310 1abf
00000050: cb80 c83d c1d8 00bf 6811 353d fbdc 3dbf
00000060: c63c 50be 65bd 2cbe dc26 5dbe 79ca a2bd
00000070: 3776 d03e 6faa e2be 0886 d93e 73cb 823d
00000080: 59e8 003e eb0c 3c3e 8a2a cf3e c701 4ebf
00000090: 6f24 553f c068 aebf f526 fc3e 5691 af3f
000000a0: 932e 2c3f 4d7a 9a3f 7261 9dbe d048 6d3e
000000b0: 4cc5 74be 7da0 66be f43b 93bd 913e bbbf
000000c0: 41bb 8e3d 9859 ec3e 1878 a63d c4e8 4b3e
000000d0: fc60 47bf d8a4 27bf ce81 6a3e 2d6a 873e
000000e0: 0688 5dbf 7206 81be 5f4d eb3c 261d 8b3f
000000f0: 9f77 7bbe 7a33 103e 8212 cbbe 1a83 203f
00000100: 3d31 45bf 6ffe 5ebf bb9c bcbe 4d92 2abf
00000110: 9e85 543e 4d90 bcbe 4b24 7ebf d453 3bbf
00000120: 53e8 66bf 6d25 aebf 3629 38be 17ce ce3d
00000130: df82 34bf de2e 173d 9932 d4bd 8f1b ddbe
00000140: ad9f 8abf 7f68 55be f9eb a4bf 9a5c 8ebe
00000150: b868 06bf 94ac a03e 207e 06bc 9a79 dfbe
00000160: 9765 823e b0f9 a0be 5e6b 323f 83af 98bd
00000170: 9701 89bd 2c16 59bf 7bbd 71bc dc8c 70bd
00000180: 4846 933e 1aa7 94bf 3086 e8be d63c 48bd
00000190: 1cf2 7bbd b6d7 0d3e 73d4 30bf 593d f0bd
000001a0: f441 8abe e458 093f 08d4 09bf d5cf e5be
000001b0: 6def fdbe 2ea7 de3e 6243 57be c15c d63b
000001c0: f5b1 a2bd e1f8 38be f3fe b5bf 3ea4 4bbf
000001d0: 1c2c 5abf 7065 61bd f14f 8a3e 5f91 ccbe
000001e0: 304d cd3c 74ca f9bd e3de 1cbf 51d1 d9be
000001f0: aadb 4e3f 4d16 12bf 008c b63d 023b f93e
00000200: b413 893e 567c ffbe f936 fbbe ab72 14bf
00000210: f7dd d93d f729 9bbe 87b5 27be 2094 80bb
00000220: 5339 bbbf 4066 89bf b73a 06bf fd2a a1bf
00000230: dc96 c2be 67ab b03f 3cb4 523c 73bc 553f
00000240: 2edc a7bf f101 4cbe 4d4b bebe f9ae 613f
00000250: a5ac cbbe 9778 88bf e3f7 093f f8cd ddbd
00000260: 621a 27bf b7f0 03bf b3a8 e8be 2e0d cdbf
00000270: 67ea b3bf 3058 3cbf 213d eebe ee94 51bf
00000280: dced 59bd 2002 4bbf cc71 1d3e 0039 e33d
00000290: 5745 b4be ac91 d93e d772 3a3f d8ea 80bf
000002a0: 57e6 4e3e 9062 0fbf a9e4 9cbf 003b 313d
000002b0: fccc 60be b326 42bf 65e7 33bf d0b6 823d
000002c0: 3502 873d 5322 20bf 0fa7 5fbe 7705 7fbf
000002d0: a87b a23f dcbd 12be 08e8 99bd c869 efbe
000002e0: 4320 fa3e 1f1b 7cbf 13e5 55bf c5eb f3be
000002f0: 2567 153e 6b92 ba3e 63f3 15bf 1b0e 56bf
00000300: be46 b4bd 3b3c 993f ca2b 7abd 9c77 07bf
00000310: 28ac 753e 0547 debe 0c54 fb3d 28e4 053f
00000320: 06de ddbd 27dc 22be 4921 8cbe 4175 47be
00000330: 6969 5cbf 8438 8f3e 7a71 b0be 925d 93be
00000340: e8cb 9e3c dead 4cbe f427 21be 8deb 06bf
00000350: 16de 0abf 266d 1d3f 3130 583d 5fe8 623d
00000360: 8b86 e1be cce3 263d 2b16 4b3f e823 0a3d
00000370: c109 243f 1e99 23bf 8f84 c83e cd61 98bf
00000380: 5755 07bd 8c68 ffbe a755 3bbe 0d06 733f
00000390: d91e cebf 713a e83e 4c81 18be 8e1b 06bf
000003a0: 1f90 123f 75e6 22bf 83d8 17bf ee87 6bbe
000003b0: c48d 963f 69db 1a3f d413 043e 6e79 953e
000003c0: b551 14bf c8f4 88bb 75ac 8bbf 233e abbe
000003d0: e6d1 9abf 64d5 0c3d abac 7dbf ed87 cdbe
000003e0: 0c18 91bf 7550 a3be ee5b 3c3e e0f3 26bf
000003f0: d333 bdbe 4994 ea3e d730 b7bf 3cb6 72be
0.6547833 0.100218385 -0.009773853 -0.15903668 -0.753707 0.09471321 0.46717304 -0.53233844
1.5468574 0.07153311 -0.14213817 -0.21324319 0.36999848 0.03729418 -1.2121797 -1.1092896
-0.42244947 -0.37079692 0.09404389 -0.6018202 0.0979019 -0.5033074 0.044206053 -0.74165314
-0.20335683 -0.16869123 -0.21596855 -0.07948775 0.4071519 -0.44270656 0.4248507 0.06386461
0.12588634 0.18364303 0.40462142 -0.8047146 0.8325872 -1.3625717 0.49248472 1.3716228
0.67258567 1.2068573 -0.30738407 0.23172307 -0.23903388 -0.22522159 -0.071891695 -1.4628469
0.069693096 0.46162105 0.08128375 0.19913012 -0.7788236 -0.65485907 0.22901079 0.26448193
-0.8653568 -0.2520023 0.028723417 1.086827 -0.2455735 0.14082137 -0.39662558 0.62700045
-0.77028257 -0.87106985 -0.36838326 -0.6662949 0.20754096 -0.36828843 -0.9927413 -0.73174787
-0.9019825 -1.3605171 -0.1798447 0.10097902 -0.70512193 0.03690993 -0.10361213 -0.43185088
-1.0829979 -0.20840643 -1.2884513 -0.27805024 -0.5250354 0.31381667 -0.0082087815 -0.43647462
0.25468132 -0.31440496 0.6969508 -0.07455351 -0.06689756 -0.84799457 -0.014754648 -0.058728084
0.28764558 -1.1613495 -0.45414877 -0.048886143 -0.06151019 0.13851818 -0.6907417 -0.11730451
-0.27003443 0.5365126 -0.5383916 -0.44885126 -0.4959673 0.43486923 -0.21021798 0.006541819
-0.07944099 -0.1806369 -1.4218429 -0.7954749 -0.85223556 -0.05502838 0.27014115 -0.3995466
0.02506122 -0.12196818 -0.612776 -0.42542508 0.8080393 -0.5706528 0.08913422 0.48677832
0.26772845 -0.49899548 -0.49065378 -0.5798747 0.106380396 -0.30305454 -0.16377841 -0.003923908
-1.4626869 -1.0734329 -0.5243334 -1.2591244 -0.38005722 1.3802308 0.012860354 0.83490676
-1.3114069 -0.19922616 -0.37166825 0.8815761 -0.39780155 -1.0661801 0.5389387 -0.10830301
-0.6527463 -0.51539177 -0.45441207 -1.6019647 -1.4055909 -0.73572063 -0.46531013 -0.81867874
-0.053205356 -0.7930012 0.15375441 0.11094856 -0.35209152 0.4249395 0.7283148 -1.0071669
0.20205055 -0.5600977 -1.2257282 0.043269157 -0.21953195 -0.758403 -0.70274955 0.06382525
0.06592218 -0.62552375 -0.21841072 -0.99617714 1.2693987 -0.14330238 -0.075149596 -0.46760392
0.4885274 -0.98478884 -0.83552665 -0.47640815 0.14590128 0.36439833 -0.58574504 -0.83615273
-0.088025555 1.1971506 -0.061076917 -0.52916884 0.23991454 -0.4341356 0.1227189 0.52301264
-0.10833363 -0.15904294 -0.27369145 -0.19478323 -0.86098343 0.27972806 -0.34461576 -0.28782326
0.01938434 -0.199882 -0.15737897 -0.5270317 -0.54245126 0.6149467 0.052780334 0.055397388
-0.4404796 0.040744588 0.793307 0.03372565 0.64077383 -0.63905513 0.39163634 -1.1904846
-0.03304037 -0.4988445 -0.18294393 0.9493111 -1.6103164 0.45357087 -0.14893073 -0.52385795
0.5725116 -0.636329 -0.59314746 -0.23001072 1.1762013 0.60491043 0.12898189 0.29194206
-0.57937175 -0.004179571 -1.0912005 -0.33445844 -1.2095306 0.034383193 -0.99091595 -0.40142766
-1.1335464 -0.3189732 0.18394443 -0.65215874 -0.369536 0.45816258 -1.431178 -0.2370233

l2.weight f4 [300, 400]
00000000: 7cb9 073e 4b1a 553d a495 e4bd f19b 043d
00000010: f850 f4be a758 cabc 168d 17bf e518 313e
00000020: ea75 ddbe 6ae2 a3be af8c 11be f287 ccbc
00000030: 059c 41be 28ca 073c aeba 16be 1428 cabd
00000040: e202 9dbd 4df2 5fbe 38f9 2a3e d827 debe
00000050: ea62 f3bc e061 073d edcc 87be 2c30 b3be
00000060: ad36 c23c 2ca6 4b3c d8e5 42bd 5098 afbe
00000070: 77b5 6fbd 5286 ddbe dad4 a63e d57c e53c
00000080: 5d86 70be fbf4 21bd baf9 6fbd cbed 553e
00000090: a4d8 11bf 0497 a8bd 7f5d 55be 68af 063e
000000a0: 5f4c 2fbe abb3 813c ab7e a6be 3d2c f53e
000000b0: ec6d 073f 75c7 293f d4b7 f53d 5a23 6bbd
000000c0: 592c 12be e287 a53b e36c febc eb51 9dbe
000000d0: acf6 e33d d181 613d 6871 ff3e 8557 2fbc
000000e0: 339f fd3d 5847 f8bb 383f 113c 636c 19be
000000f0: 8d7a 4cbd 904c 97bb f286 a0be 3f5d 20bd
00000100: b7b9 6dbd a5af e83d 2d14 333e 4033 72be
00000110: bbf0 a7bc 6b01 c0be 06dd 2e3e 6b0b 5a3d
00000120: a408 66be d0d0 0bbe 2a8c b2bc d6fe 3cbe
00000130: 7795 c13c 4cd6 403f 921e 46bc 8dd8 a1be
00000140: f250 2cbe b09f dc3d e4a7 88be cc7f 4d3e
00000150: 3396 5bbe f634 d8be 874b 333d fe7a 973e
00000160: c417 8b3e 4ae3 97bd 8efc c5bd 5dff 40be
00000170: 970a 1b3f 4df1 dcbe ed7d ec3b d1f8 3fbe
00000180: ad3f 9a3e 55e4 82bc fafa 753e f6f1 95be
00000190: a87f fb3b 7e4a 8e3d 9434 99bd 8e6a bc3c
000001a0: 6e29 c33c 338f c1bc 8745 a1be 1eef 4ebe
000001b0: e681 93bd cd36 fdbd c035 c73e 05ff 6abd
000001c0: 99bf f4bd cdc5 4fbe e7e8 55be 3936 51be
000001d0: 47d7 3a3e 0bf0 2c3d c6fb 92bb dd06 cb3d
000001e0: 3b6b 123d 4d55 bf3e 849e ea3d c2ac 3abe
000001f0: 3c5c 8b3e 7c52 10be b597 403d 26b7 203f
00000200: 46ae 23bd bf6a d2bd 578e dd3e ea6a 48be
00000210: 5ba3 0fbc e19a a3be fd62 22be f686 00bb
00000220: 41ca 8cbc 71c2 23bd 743f adbd 86db 47be
00000230: 1457 613e ec87 a9be 47d6 18be 53e3 a53e
00000240: e445 84be 2cb2 fbbd ead3 6cbe 2c4d abbd
00000250: 4804 bdbe 3c2d 4a3c c569 12be bfca da3d
00000260: 5f3e 58bc 4452 d2bd 3e34 e2be 94b4 933c
00000270: 4278 87bc 8325 26be 8a43 d1be 0424 6c3e
00000280: 5ad6 053d 5f0d f9be 5b11 243f c886 523e
00000290: 99bc 1bbe 2fc7 9ebd 2d65 e3be f5da 5cbe
000002a0: c999 f9bd 37f7 bcbe 1322 b4be fa22 1fbd
000002b0: 18b7 99bb 5c72 843e b0d4 ee3e 3f8d 1e3c
000002c0: a538 2d3f 73ea e03d e052 423b a6d3 a63d
000002d0: 13c8 60be c7ec 123e d1f2 f33d e82d a23d
000002e0: 19af d33e 2889 20be 6b35 5d3e 4de7 93be
000002f0: 1121 903e 3dec afbe d9fb 8abd 24d8 353d
00000300: 29b0 183d 4733 b7be 8bec a4be 89ee 1b3b
00000310: 7c58 753c 99c9 a6bd 31e4 ebbe de8a d63e
00000320: d679 ccbe 3b1c 0fbf 4ced a6be bb83 633e
00000330: 583f d0be 6b29 153e 27b5 013d 58e9 58be
00000340: afc5 1fbf 8a11 b13d c60f 743e 29a5 9bbe
00000350: 7616 573e 695e 6a3f 943d d63d 957e 6bbe
00000360: 5777 d0be dde9 adbd f438 14be 457c 193d
00000370: 6883 e43d dbe3 97bd 1bfc 53be ccf1 063e
00000380: 71cb 66be ee8c f1be 89e3 193f 291e 3ebe
00000390: 84ec 483d bc19 c33e 8986 0c3e e845 2dbf
000003a0: 8dca 573e d413 18be c2ca 12bd c77e 183e
000003b0: e2d5 0d3e 6dce 813d 96d7 5a3c c8c4 90bd
000003c0: fe69 313e 837b a93e af05 5abc 948d 913e
000003d0: bc30 d0be 7d6b b83c 162b 5dbd a881 e7be
000003e0: 447d ddbe dc2d 073f 3751 d3bc d652 8d3e
000003f0: 59ff 5a3e a49f 23bf bfe5 15be 6bf8 953d
0.1325435 0.052027028 -0.11161354 0.03237528 -0.47718024 -0.024700476 -0.59199655 0.17294653
-0.43254024 -0.32008678 -0.14213823 -0.024967168 -0.18907173 0.008287944 -0.1471965 -0.098709255
-0.076665655 -0.21869774 0.16696632 -0.43389773 -0.029710252 0.033052325 -0.26523533 -0.3499769
0.023707712 0.012429755 -0.047582477 -0.34295893 -0.058522668 -0.4326654 0.32584268 0.028013626
-0.23488756 -0.039540272 -0.058587767 0.20891492 -0.5697119 -0.08231929 -0.20836447 0.1315285
-0.17118977 0.015832743 -0.32518515 0.47885314 0.529021 0.6631997 0.11997953 -0.05740676
-0.1427473 0.005051599 -0.03105778 -0.3072656 0.11131033 0.055055443 0.4989121 -0.010702019
0.123838805 -0.007576864 0.00886517 -0.14982753 -0.04992156 -0.0046172813 -0.31352955 -0.039151426
-0.05803844 0.113616265 0.17488165 -0.23652363 -0.020500531 -0.37501082 0.17076501 0.053233545
-0.22464234 -0.13653874 -0.021795351 -0.18456587 0.02363084 0.7532699 -0.0120922495 -0.31610528
-0.16827753 0.107726455 -0.2669059 0.20068282 -0.21444015 -0.42227906 0.0437732 0.29586023
0.2716657 -0.07416399 -0.096673116 -0.18847413 0.60563034 -0.43152848 0.00721716 -0.1874726
0.30126706 -0.015978018 0.24021521 -0.29286164 0.00767513 0.06947802 -0.074807316 0.023000028
0.023823466 -0.023627853 -0.31498358 -0.20208403 -0.072025105 -0.12363968 0.38908195 -0.05737211
-0.11950607 -0.20290299 -0.20889626 -0.2043084 0.18246184 0.04222111 -0.00448558 0.099134184
0.035746794 0.37369767 0.11456016 -0.18229964 0.27218807 -0.14093965 0.04701968 0.6277946
-0.039961122 -0.102742665 0.4327266 -0.19572034 -0.008766974 -0.319541 -0.15858074 -0.0019611693
-0.017186286 -0.039980356 -0.08459368 -0.19517335 0.22005874 -0.33111513 -0.1492549 0.32399997
-0.25834572 -0.12289843 -0.23127714 -0.08364329 -0.3691733 0.012339886 -0.1429816 0.10683202
-0.013198464 -0.10269597 -0.44180483 0.018030442 -0.016536836 -0.16225247 -0.4087184 0.23060614
0.032675125 -0.48643014 0.6408898 0.20559227 -0.15208663 -0.07752835 -0.44413128 -0.215679
-0.12187535 -0.3690736 -0.35182247 -0.038851716 -0.004691016 0.258685 0.46646643 0.00967723
0.6766456 0.10982218 0.0029651448 0.081458375 -0.21951322 0.14348136 0.11911548 0.07918912
0.41344526 -0.15677321 0.21602409 -0.28887406 0.28150228 -0.34359923 -0.067863174 0.04439558
0.037277374 -0.3578131 -0.32211718 0.00237933 0.01497471 -0.081439205 -0.46072534 0.41902822
-0.39936703 -0.5590245 -0.32602918 0.2221822 -0.40673327 0.14566581 0.0316669 -0.21182764
-0.62411016 0.086459234 0.23834142 -0.30399445 0.21004662 0.9155031 0.10460964 -0.22997506
-0.4071605 -0.084918715 -0.14474851 0.03747203 0.11157876 -0.07416507 -0.2070164 0.13178176
-0.22538544 -0.47177833 0.60112816 -0.18566193 0.049053684 0.3810557 0.13723196 -0.67684793
0.2107336 -0.14851314 -0.035837896 0.14892112 0.13851121 0.06338201 0.013357064 -0.07068783
0.17325589 0.33102044 -0.013307019 0.28428328 -0.4066218 0.022512192 -0.053996168 -0.45216107
-0.43259633 0.5280435 -0.025795562 0.2760226 0.2138647 -0.6391547 -0.14638422 0.073227726

l2.bias f4 [300]
00000000: cb9e fabd 71ff a0bd 8f0b 3fbc ed68 89bd
00000010: 0a7e ea3e d9ac c63e df0f 773d 3177 67bd
00000020: b28c 41be 4d13 563c 3c9c 07bf 5475 f4ba
00000030: 7ad6 ab3e a38c 0abe eaf5 92bd 1651 44be
00000040: a570 9c3d 8012 44bc fedb b2be c809 af3e
00000050: 615b e6bc 61bd 66bd 9610 cbbe 288f f0be
00000060: e2aa ec3d 33d4 e1be 748a edbd dec3 07bd
00000070: ff4c b43c 3863 f6bc b877 bbbd e153 633e
00000080: 8c5c c8bb d859 18bf 3a55 85bd 283c 0ebd
00000090: 7e0d a8be dd1a 2fbd cc16 b6be 304b a2bd
000000a0: a390 ecbd 96dd b6be ff48 86bd cbb5 6e3d
000000b0: f2c7 89bd 25f7 89be d9b4 c53e ad5f ed3d
000000c0: 377b a73d 5d9b 35bd cc93 9cbd e1ee 38bd
000000d0: 5e39 00bf 0f4c a9bc 1dfe 20be 9f36 43bd
000000e0: 2943 643e 354a ea3d 8a4d f1be d3e0 79be
000000f0: bff0 debd c27f 983c 1b55 aabc 910c d43e
00000100: c2fc db3c 8bd1 c339 4a7e 633c 1c40 e8b9
00000110: c966 53be 501e be3d 8b6a f0be 7cca 80be
00000120: ecbd 3dbd 8e39 32bc a9f6 e3bc 0165 503d
00000130: e3c6 cc3d 7f16 90bd 9176 303e 39c9 9c3e
00000140: d3fc 46bd f168 733f 6046 b3be 8f9b 84be
00000150: 7fd7 0fbd aef0 0abe 0fc7 643f 683a c1bb
00000160: db10 7f3d feae 27bd a8a5 f3bb 0108 03bd
00000170: 5311 9fbd aea1 793d b840 94bb 9fe2 0d3f
00000180: 6a66 52bd e4f7 39bf bb56 f8bb 7f95 14bd
00000190: dd95 62bd 2376 22bd 9592 4abf e18a 8ebe
000001a0: 9712 abbc 13b3 0bbd ed6e c43e 2e71 5bbd
000001b0: 7416 40bf 088c 04bd 2abc 88bf 3ade cdbe
000001c0: fd58 8abd fc21 a8be 27d4 acbd 4bd9 48bd
000001d0: 7b7f e6be 0478 d43e 2856 40bd ab4b 5fbd
000001e0: 72e0 a0bd 04a8 633d 0b10 b7bd 59e9 7fbc
000001f0: cefc af3c 754d 28bd 7fde 993c ab5b 113e
00000200: b80e 833d 1d46 a43d e4f7 40bb b4a2 42bd
00000210: e81b 033e 7662 57be 1c25 0ebf b3d7 d23c
00000220: f1bd 29bd 6621 29bd 237d 483e cc98 aa3c
00000230: 6b1f 66bd b6ce a8bd 256e 84be 5cbc ccbc
00000240: a9a2 ddbe ec5d c2bc 2f41 b83e 54df 8bbf
00000250: 6d42 d83c 97cd 5dbe d955 9dbc 9c62 58bd
00000260: c0cd 22bf ab93 aa3c 6ce5 52bf 5b81 8dbc
00000270: d231 f7bc 283f 62bd 9785 dcbe 64e8 c7bd
00000280: dbd6 ed3e 43ed c0be 7ad3 973e 31c9 793d
00000290: 7b5d 49bf 5091 9cbe 6b06 acbe 7ceb 193e
000002a0: b265 273f 8347 fcbb 1d56 a8be 5d5f 24bf
000002b0: ab02 92be e8cc 04bd cc6b 4abf 4b6c bfbb
000002c0: 9fd3 63ba 0e5e 04bf 960b fc3d 1f74 c83e
000002d0: 6b55 67bf f5e7 55bd 89a6 863e 5b4b c2bd
000002e0: 9bbf 00bf 11de 3fbd 0481 c83d 535a e63e
000002f0: b910 3d3e a002 a63d a423 f8bc 06f1 21bd
00000300: 3187 7dbd 648f 75bd 4c53 0dbc c008 1bbe
00000310: 5601 89be aafa 9ebd 4c6b b63c 2b9d a4be
00000320: edf2 433f 5cb7 8abd ed60 1bbd 42cc 11be
00000330: f3c0 53bc da70 d8be b1c7 4f3d 81f8 2f3f
00000340: c507 a93b 100a dabd a652 81bd b2b8 d6bc
00000350: 029e febe 2431 8cbc 122a 51bf 1867 e4be
00000360: ab14 4abd eb2e 4abf 690b 52be b3ac f0be
00000370: d90c 6abe c952 e1bc 1cd9 97bd 00ce 763e
00000380: f1de 80bd daf5 373e 4fb9 413c f71f b63e
00000390: 61ef 96be f587 693e ffcf f8be b761 6dbd
000003a0: 95f3 e9be ac5c 20bc 4628 11bd 77f2 4abe
000003b0: 4a10 ac3d 2457 1fbf 786c 1dbe f927 59be
000003c0: b598 a1bd 01fe a03c dbb7 163f 3159 a9be
000003d0: 5d4b 9abd b6a5 753c bd80 90bd 8810 7a3e
000003e0: 0316 3f3d 026b cd3e e7d4 45bd c828 9abf
000003f0: 4c1c 8dbd 0aaa c33e 80ba 163c f916 25bc
-0.122373186 -0.078612216 -0.011660471 -0.06709466 0.45799285 0.38803747 0.06031787 -0.056510154
-0.18901327 0.013066125 -0.5297277 -0.0018650689 0.3356207 -0.13530211 -0.07175811 -0.19171557
0.07638673 -0.011967301 -0.34933466 0.3418715 -0.028119745 -0.05633295 -0.39661092 -0.4698422
0.11556031 -0.44107208 -0.115986735 -0.033145778 0.02200937 -0.030076608 -0.09153694 0.22199966
-0.006114548 -0.5951209 -0.06510396 -0.03472534 -0.32822794 -0.04275023 -0.35564268 -0.07924497
-0.11551025 -0.35715932 -0.06556892 0.05827884 -0.0672759 -0.2694637 0.38614538 0.11590514
0.08177798 -0.04433762 -0.076453775 -0.045149688 -0.50087535 -0.02066615 -0.15721937 -0.047659513
0.22291245 0.11439935 -0.4712947 -0.2440217 -0.108857624 0.018615607 -0.020792535 0.41415837
0.026853923 0.0003734942 0.01388509 -0.00044298253 -0.20644678 0.092831254 -0.46956286 -0.25154483
-0.0463237 -0.01087798 -0.027827578 0.050877575 0.09998872 -0.07035541 0.1723273 0.3062227
-0.048580956 0.95082 -0.3501463 -0.25899932 -0.035117622 -0.13568375 0.8936624 -0.005896855
0.062271934 -0.04093837 -0.0074355192 -0.031990055 -0.07766976 0.060945205 -0.0045243166 0.5542392
-0.0513672 -0.72643876 -0.0075786985 -0.036275383 -0.055318702 -0.039663445 -0.79129916 -0.2784033
-0.020882888 -0.034106325 0.3836588 -0.053574733 -0.7503426 -0.032360107 -1.0682423 -0.40208608
-0.067552544 -0.32838428 -0.08438902 -0.04903535 -0.45019135 0.41497815 -0.046957165 -0.054515522
-0.078553095 0.055580154 -0.08938607 -0.015619599 0.021482851 -0.041089494 0.018782852 0.14195125
0.06399292 0.080211855 -0.002944463 -0.047518447 0.12803614 -0.21033654 -0.55525374 0.025737619
-0.041440908 -0.041291617 0.19578986 0.020824812 -0.056182306 -0.08242552 -0.25865284 -0.02499216
-0.43288162 -0.023726426 0.3598723 -1.0927529 0.026398862 -0.21660458 -0.019205974 -0.052828416
-0.635952 0.020822367 -0.8238132 -0.017273596 -0.030175123 -0.05523601 -0.4307067 -0.09761122
0.46452984 -0.37681016 0.2965353 0.060982887 -0.78658265 -0.30579615 -0.33598647 0.15031236
0.6538955 -0.0076989545 -0.328782 -0.6420801 -0.2851766 -0.032421976 -0.79070735 -0.005841767
-0.0008690897 -0.51706016 0.12306897 0.39151093 -0.9036471 -0.052223165 0.2629893 -0.09487029
-0.50292367 -0.04684264 0.09790233 0.44990787 0.1846341 0.081059694 -0.030290432 -0.0395365
-0.061896507 -0.0599512 -0.008625817 -0.15140057 -0.26758832 -0.07762654 0.02226796 -0.3215116
0.7654255 -0.06773254 -0.037934233 -0.14238074 -0.012924421 -0.422736 0.05072755 0.6873856
0.005158397 -0.106464505 -0.06314592 -0.026211116 -0.49729925 -0.017113276 -0.8170482 -0.44609904
-0.049336117 -0.7897784 -0.20512165 -0.4700676 -0.22856463 -0.027505295 -0.07414457 0.2410202
-0.06292523 0.17964879 0.011823966 0.35571262 -0.29479507 0.2280577 -0.48596188 -0.057954516
-0.4569365 -0.00978772 -0.0354388 -0.19819055 0.084015444 -0.6224234 -0.15373409 -0.21206655
-0.07890455 0.019652369 0.5887429 -0.3307586 -0.07533906 0.014993122 -0.07055805 0.24420369
0.04665185 0.40120703 -0.048298743 -1.2043695 -0.06890163 0.38215667 0.0091997385 -0.010076278

l3.weight f4 [6, 300]
00000000: d657 933e 9ec5 8bbd 2cf3 9fbc d97c 463d
00000010: d3ba a2be f305 0c3f e759 7e3e 1b74 06bd
00000020: db9e 663e 55ca 123d 01ee 03be 8170 65bc
00000030: 6389 093f 01ac 13be f660 2ebb f120 5dbe
00000040: 887f 84be 1001 0f3d ca2d f93b 7b34 fb3e
00000050: 5a27 dd3c ebc3 6f3c 6e13 263e 5b15 1a3e
00000060: 4c4f 7dbd f9d5 7c3d 7b22 48bd 98e2 a8bc
00000070: 172d f6bc a773 003c c705 003d 93c1 82be
00000080: acb0 4ab9 aff5 93be 96e9 3a3d d4f2 223d
00000090: a367 4b3f c5d6 b43b a268 97bc 49e7 08bd
000000a0: 3110 abbc 911f 33be 3fba fcbc 032f 8e3e
000000b0: bb8e fbbc ae4d 3fbe e600 843e a65a ff3d
000000c0: 7912 963c 0d65 bc3c 3fbb 1c3d 33aa 0e3c
000000d0: 687c 56be 9db4 003b 1d2b 0e3f 901d 94bc
000000e0: 1700 b0bd 7d22 5abe b624 0ebe e169 ccbc
000000f0: 8bbe 12bd 3ddc a1be a0e1 75bd 43c5 6c3e
00000100: ced8 89be aa43 df3c 2e38 683b 5900 93bc
00000110: 65a8 cfbd 917e d3be 57fe 74be 0544 92bd
00000120: e63b c53b 7e96 10bd e0f5 663e 8d71 e0bd
00000130: b605 31be f435 b1bc aac1 0abd bde1 5b3e
00000140: 46e9 6b3c 2af8 703f 1c54 f4bd a899 1bbe
00000150: c87b 823c 78a6 afbe 57ac 593f 1db9 34bc
00000160: 226d d3be eaae 1f3b e6da e6bc a1dd 253c
00000170: caa7 a23d 50f0 ef3d 5c44 51bc 01ae af3e
00000180: 6c6a 23bd 049f 8b3e d726 6e3c da57 7bbc
00000190: 3391 a6bb 817e af3c 6c13 a3be a84f 60be
000001a0: 0a83 8dbd 0403 18bc 6b2d c8be 591f 2dbc
000001b0: 0389 dd3d 83d5 33bd 935e b9be 9d06 aabe
000001c0: 1bfd 9cba b192 8ebe 622a c4bc 584c 18bc
000001d0: f3e0 a0be 3346 2abc 0654 3bbc 1c29 7abd
000001e0: a123 6bbd 6e97 7fbe aff5 1dbd cdc7 0cbd
000001f0: 12e4 903e 75d5 923d 5a0d ed3c 63ee eebd
00000200: f2d4 abbd dace 833e 2aee 88bd 1c78 0e3c
00000210: 3633 003e 6ce6 9a3d 213b 1cbe fe2b 1e3d
00000220: 4b49 32bc c682 c53a f418 e7bc cb0c 8abb
00000230: b79a e7bc 3934 6d3e 72a2 f0be 84ee 323d
00000240: 10ae 8b3d a206 55bc a861 d23e fa3e 02bf
00000250: afee 883d 40ce 31be a315 89bc bbb7 76bc
00000260: 964e e6be 2550 03bc f10b e8be 33fc 39bd
00000270: 0117 05bc d289 103c b829 c0bb cfea f93c
00000280: 04b4 613e 7f94 a63d d30a 2a3c cfba b8be
00000290: 9885 0bbe 465c 903e ee41 9b3e 1fdc 8c3e
000002a0: c312 063f dfb4 20bd d664 e73d 6690 163c
000002b0: 291b 83be 79ac 80bd 6623 3ebe 11c0 dabc
000002c0: cb1f 8cbd ecf1 07be ac83 423e 2069 4d3e
000002d0: c7b7 86be 1d2a 9dbd 4b1c 47bc 1e74 893b
000002e0: 4aaf 7d3d 200d d2bc 47fb 983e 1a53 b2bc
000002f0: 1ee9 9b3e 31fd 103e 28ac d03c c0d3 ad3c
00000300: 5090 393d 13c3 c83b 2ffc 11bd 4c40 2f3e
00000310: 9762 353c 28cc 043c a51c ed3d 9e84 a23d
00000320: ce81 3d3e 6fa8 4a3c 1d88 39bc 0675 43bd
00000330: 2861 02bd e11b 31be 6dfe af3d f23c c73d
00000340: 372a 273f 3a22 d7bc a29a 9e3c cc35 26bd
00000350: 265e 01be d056 94bc 3ee6 953e 6545 cebd
00000360: 41d7 02bd 4e60 893e fffe 64bc 4eea 25be
00000370: 109c 953e efc6 b53c f3cc bc3c d995 143e
00000380: 5fbb f3bd 0c64 9ebe 0896 583c 802b fe3c
00000390: 2869 9b3e 865a 873d ec4d 81be f3e6 71bd
000003a0: abbc a93d 51da 1e3c 465e efbc 0984 d53e
000003b0: bf5b c13d 868e ed3e 6796 973c 0255 803f
000003c0: 5d2c b0bc a730 b33d e890 123e 07ac 47bd
000003d0: df19 cb3d 8023 d0bc 8e52 823c 986d 53be
000003e0: 17c9 fbbd 8659 09be 32b4 0cbd 1438 9dbe
000003f0: b7d6 1c3b e925 a23e e92d a8bc 9c67 9cbc
0.2877795 -0.06824802 -0.019525133 0.048458908 -0.3178316 0.5469658 0.24838983 -0.03282557
0.22521536 0.03583749 -0.1288376 -0.014003874 0.5372526 -0.14421083 -0.0026608086 -0.21594597
-0.2587855 0.034913123 0.0076043354 0.49063477 0.026996303 0.014634113 0.1621835 0.15047209
-0.0618432 0.061727498 -0.04886101 -0.02061586 -0.030050797 0.007840074 0.03125551 -0.2553831
-0.00019330037 -0.2889838 0.04563292 0.03978236 0.7945501 0.0055187666 -0.01848251 -0.033423696
-0.020881744 -0.1749251 -0.030850528 0.27770242 -0.030707708 -0.18681976 0.25781935 0.12468462
0.018319355 0.022997404 0.03826451 0.008707571 -0.20945895 0.0019638904 0.55534536 -0.018080503
-0.08593767 -0.21302219 -0.13881192 -0.02495283 -0.035826247 -0.3161334 -0.060029626 0.23122124
-0.2692322 0.027253944 0.0035433876 -0.017944502 -0.101395406 -0.413075 -0.23925148 -0.0714188
0.0060191033 -0.03529977 0.22554731 -0.10959158 -0.17287335 -0.021632172 -0.0338761 0.21472831
0.014398878 0.9412867 -0.11930105 -0.15195334 0.015928164 -0.34306693 0.85028595 -0.011030463
-0.412942 0.0024365732 -0.02818055 0.010123641 0.079421595 0.11715758 -0.012772646 0.34312442
-0.039896414 0.27269757 0.014535627 -0.01534077 -0.005083227 0.021422626 -0.31850755 -0.21905386
-0.06909759 -0.009278063 -0.3909715 -0.010566556 0.108171485 -0.043904793 -0.36204967 -0.3320817
-0.0011977287 -0.27846292 -0.023945991 -0.0092955455 -0.31421623 -0.010392713 -0.011433607 -0.06107436
-0.057407025 -0.2496011 -0.03856438 -0.034370232 0.28299004 0.0716962 0.02893703 -0.116665624
-0.083902255 0.25743753 -0.06686051 0.0086956285 0.12519535 0.07563481 -0.15256931 0.038616173
-0.010881732 0.0015068881 -0.02821014 -0.004212951 -0.028272016 0.23164453 -0.46998936 0.043684497
0.06820309 -0.01300207 0.4109013 -0.50877345 0.0668615 -0.17363834 -0.01673395 -0.015058453
-0.4498183 -0.008014713 -0.4532161 -0.04540653 -0.00812316 0.008821921 -0.0058643483 0.030507473
0.22041327 0.08133792 0.010378557 -0.36080024 -0.1362518 0.281954 0.30323738 0.2751169
0.5237238 -0.039234992 0.1129853 0.009189701 -0.2560666 -0.062828965 -0.18568191 -0.026702913
-0.068420015 -0.1327588 0.18995541 0.20059633 -0.26312086 -0.07674048 -0.012152742 0.0041947505
0.061934747 -0.025641024 0.2987921 -0.021768142 0.30451292 0.14159085 0.025472715 0.021219134
0.045303643 0.0061267703 -0.03564089 0.17114371 0.011070869 0.008105315 0.11577729 0.07935451
0.18506548 0.012369259 -0.011323956 -0.047719024 -0.031830937 -0.17295791 0.0859345 0.09728421
0.6529879 -0.026261438 0.019360844 -0.04057865 -0.12633571 -0.018107802 0.29277223 -0.1007183
-0.031943563 0.26831287 -0.013976811 -0.16202661 0.2922063 0.022189585 0.023046946 0.14510287
-0.119009726 -0.30935705 0.013219364 0.031026602 0.30353665 0.06609063 -0.25254762 -0.05905814
0.08287939 0.009695605 -0.029219758 0.41702297 0.09441327 0.463978 0.018504335 1.0025942
-0.021505529 0.08749514 0.1431309 -0.048748042 0.09917044 -0.025407553 0.015908506 -0.20647275
-0.12294214 -0.13413057 -0.034351535 -0.30706847 0.002393169 0.31669548 -0.020529704 -0.019092374

l3.bias f4 [6]
00000000: c0d7 223f 0d30 0dbd 21a5 63be 4bb9 fc3d
00000010: a947 39bd 550f f73d
0.6361046 -0.034469653 -0.2223096 0.12340029 -0.045234356 0.12063471
