results/runs/single_assembly_rerun_nochange/Average_TD3_5_Peg-in-hole-single_assembly_seed_1/4000_actor.pth (torch_old, 510312 bytes, 6 tensors)

l1.weight f4 [400, 12]
00000000: 674e 973e 5e5f 4fbe 07b0 113c 860a 253e
00000010: 30a4 96be 38a1 653e f719 073e 5988 3d3e
00000020: b29f 6d3d 54a2 b8bc 6134 afbd d547 9bbd
00000030: ba87 a7bc 887e 25be bd4b 1dbd 3725 c6bc
00000040: af8b bd3a 533c 333e dbba cf3e af52 153c
00000050: 908c 4f3d 033e 94be 9555 4dbd e414 04be
00000060: 311d c7be 5819 a2ba ef6f fe3d 653d c03d
00000070: a72d c3bd 6e3e 0d3e 71a1 2b3e d8f6 ab3e
00000080: 375a 7f3e ee92 57be 7541 9cbe 2036 19be
00000090: 50c9 813e 10f4 44bd 3003 fd3d c85e 09be
000000a0: 9206 913e 7c23 fabd 24ae 5d3e 0007 603b
000000b0: 9fba 1bbe caf1 173e 86e9 1cbe 6ce0 ad3d
000000c0: 898c febe 1ade 473e cad4 26be 4db9 58be
000000d0: bd3d 623e 27fc f4bd d795 d73e cfa8 393e
000000e0: af4c 34bd 59b2 35be 8ae2 073e 2b33 2c3e
000000f0: 7615 3fbe ee01 403e 1876 333e a615 833e
00000100: 0bb4 25be e0a1 42bd 803e b7bb 48b3 2c3d
00000110: ba56 60be 49c4 51be 40cf 203e 1aa2 8abd
00000120: f664 103e 90d1 863c a01e c23d e8ff 813d
00000130: 60f6 d63d a488 123e 83e1 88be d8ca 143e
00000140: 77d8 4fbe 0e09 5fbe c0d0 8f3c e07d 49bd
00000150: 8a7e 8f3e 5711 88be 6242 22be 3bd3 813e
00000160: c829 bfbd 205c a23e 8b0d 433e 3e74 95be
00000170: 4435 543d 35da 2f3c 142b 6dbe 67ca 9dbd
00000180: d4cf 9dbd 3908 9bbb f162 debd 79a2 3dbd
00000190: 61ee 8e3e b17d 8d3e 985d d73e 0761 383e
000001a0: b2c9 86be 44be 57be 4c77 ecbc 6407 4bbd
000001b0: e71d 583d 5aa9 623e a364 063e 4682 0d3e
000001c0: a0ba b93e 559e 85be 0499 6e3c 4e81 523e
000001d0: f4e4 603e 6166 3d3e bc27 76be 801e 73be
000001e0: c13e 3ebe 1cd8 343e 4601 c13e a0dd dc3b
000001f0: 5777 f83d 28a9 d33d d4a3 adbd 33bc 7ebd
00000200: 1ca5 773e 3922 c63d 5ecf ecbe 1104 07bd
00000210: 7810 7f3e f2e1 433e 103a 383e bc10 523e
00000220: 54f9 3a3e e0b4 983d b723 4abe 443c 78be
00000230: 9873 07be e8af 09bd d330 35be 8c4b d83d
00000240: 9a56 9e3d 6df7 56bd 197f 033e c691 be3d
00000250: 9c80 343e d8e2 463e ebab d1bd 2c3e 883e
00000260: d4d1 45bd a10f 5ebc 3cd1 8bbe 2176 3fbe
00000270: 48b1 2cbe 66df fcbd 3c2a 523e f431 c1bd
00000280: 18e6 5cbe 7877 e33d 5049 bd3d a275 3f3e
00000290: 6cf7 18be b82e 803d aa3a d7bd 46d4 84bd
000002a0: eeea 09bf 55cf 203e cdc6 88bd 794d b8bc
000002b0: 0532 2c3e 838a 5bbe 5813 093e fcf8 9e3e
000002c0: ee9e 8f3d 78b9 803d 68e3 d1bd 1c06 833e
000002d0: a2f1 b8bd 1103 5e3d 525b f3bd 4772 1dbd
000002e0: a5e2 59be a2d4 843e 7158 09be 2ad1 46be
000002f0: bc99 67bd 41f7 99bd a65b b83c a8a1 26bd
00000300: 5282 46be d8fb f63d 8bb4 893e 90fa 9abd
00000310: 71a4 273e db7d b43e fb4e ba3e 8185 a7be
00000320: f633 f53d a9d5 c9be c035 043c 3f1f 59be
00000330: 6bcb 333e 2ea2 b53c 7bc6 f83c 4d31 2dbd
00000340: 881a c33b 6ccc 603e 3878 e03c 5f4c 4f3c
00000350: fcab 93be 1240 0e3e 5f80 893e 83ae 3c3e
00000360: 7365 d53e e4c3 95be 525b 7ebd 624a 8b3e
00000370: c815 45be a6f4 663d 1f73 23bf 52a2 71be
00000380: 248a c63c ce79 18be 1cb4 0f3e 2c9d 783e
00000390: 4528 923e f72a 733e cdd7 8e3c 2e79 7abe
000003a0: e5f1 713e 63a6 ef3c 08b4 bbbd bbe9 c43c
000003b0: 62b9 89be 59e4 143e bb7a 0c3e fef7 90be
000003c0: e8cc 72be 8026 cfbc 6452 f83d 20fb 08bc
000003d0: d1e4 15be 4043 d83b 6eec 8abe c0eb 50be
000003e0: aec7 44be 3470 733e bc49 823e 30d0 c8bd
000003f0: f4f5 283d 684a 923e d408 abbb 9a5b 90be
0.29552004 -0.20251223 0.008892066 0.16117296 -0.2942214 0.22424781 0.13193499 0.18509044
0.058013625 -0.022538342 -0.08554912 -0.0758206 -0.020450462 -0.16161549 -0.038402308 -0.024187667
0.0014461185 0.1750348 0.40572247 0.009113952 0.05067116 -0.2895356 -0.050130446 -0.12898594
-0.3888946 -0.0012367172 0.124236934 0.0938671 -0.09530192 0.13793346 0.16760804 0.33586764
0.24936758 -0.21052143 -0.3051869 -0.14962053 0.25348902 -0.04808432 0.123541236 -0.13415062
0.28325325 -0.12213799 0.2164846 0.003418386 -0.15207909 0.14838329 -0.15323457 0.08490071
-0.49716595 0.19518319 -0.1629211 -0.21164437 0.22093864 -0.11962157 0.42106506 0.18130802
-0.044018444 -0.17743815 0.13270012 0.16816394 -0.1866053 0.18750736 0.17525518 0.25602454
-0.16181962 -0.047517657 -0.0055921674 0.042163163 -0.21908084 -0.20485033 0.1570406 -0.067692
0.14101014 0.016457349 0.094784975 0.06347638 0.10496211 0.14309937 -0.26734552 0.14530504
-0.20297419 -0.21780798 0.017555594 -0.04919231 0.2802623 -0.2657573 -0.15845636 0.2535647
-0.09334141 0.3171091 0.19048135 -0.29190248 0.05180861 0.010733177 -0.23160964 -0.07704621
-0.07705656 -0.004731205 -0.10858715 -0.046297524 0.27916244 0.27634957 0.42063594 0.18005763
-0.26325756 -0.21068674 -0.028865479 -0.049567595 0.052762892 0.22134915 0.13124327 0.13819227
0.36275196 -0.2609736 0.014562849 0.20557138 0.21962339 0.18496086 -0.24038595 -0.23742104
-0.18578626 0.17660564 0.37696284 0.006740287 0.12132137 0.10334998 -0.08478513 -0.0621912
0.24184078 0.09674496 -0.4625196 -0.032962862 0.24908626 0.1912916 0.17990899 0.20514196
0.18259174 0.07456374 -0.19740187 -0.2424174 -0.1322769 -0.033615023 -0.17694406 0.105612844
0.07731362 -0.052482057 0.12841453 0.09305148 0.17627186 0.19422472 -0.10237869 0.26609933
-0.04829581 -0.013553531 -0.2730807 -0.18697406 -0.16864502 -0.12347297 0.20523924 -0.09433356
-0.21572149 0.11106771 0.09242499 0.18697217 -0.14938134 0.06258911 -0.10509236 -0.064858004
-0.538741 0.15704091 -0.06678543 -0.02249788 0.16815956 -0.21439557 0.13386285 0.31049335
0.07012735 0.06285375 -0.102484524 0.255906 -0.09030463 0.054202143 -0.11882652 -0.03843906
-0.21277864 0.25943476 -0.13412644 -0.19415727 -0.056543097 -0.07517863 0.022504639 -0.04068151
-0.19385651 0.12059754 0.26895556 -0.07567322 0.16371323 0.3525227 0.36388382 -0.32719043
0.119728014 -0.39420822 0.008069456 -0.21203326 0.17558067 0.02217206 0.03036808 -0.042283345
0.0059540905 0.21952981 0.027401075 0.012652486 -0.2884215 0.13891628 0.26855752 0.18425946
0.41678962 -0.29251015 -0.06209881 0.27205187 -0.1924659 0.05638566 -0.63847536 -0.23597077
0.024235792 -0.14890215 0.1403355 0.24278706 0.28546348 0.23746859 0.017436886 -0.24460289
0.23627432 0.029254144 -0.091651976 0.024037233 -0.26899248 0.14540233 0.13718693 -0.28314203
-0.23710978 -0.025286913 0.1212509 -0.008360654 -0.14638068 0.0065998137 -0.27133507 -0.20402431
-0.19216797 0.23773271 0.2544688 -0.098053336 0.041250184 0.28572392 -0.0052195583 -0.28194886

l1.bias f4 [400]
00000000: f824 973e 4ed9 863e ead8 433e 0532 21be
00000010: fa58 99be 00f9 c13d 00e1 6b3b d89d 793e
00000020: b157 a23e 1599 8b3d c223 103c 0611 41be
00000030: 0d61 2a3c c8c1 183d a868 acbe e08d 02be
00000040: ddd9 b1bc a106 6ebe 13f4 8bbb 2085 8fbe
00000050: e415 1a3e 6482 86be 1e7e 1c3e 767d ebbd
00000060: 8be6 8bbd 324f d23c dc26 5dbe 80df 6d3b
00000070: 5db9 473e be04 b33b 553d 0d3e eab5 453e
00000080: fa9b 7e3e f8f9 443e b2ed 8e3d c8c6 e43b
00000090: b8ea 7cbe 121d d7bd 7b6d 7b3b 83ec 873e
000000a0: 2f9c 063e 567c 053e 6dee 08be a294 723e
000000b0: e5e3 17bd 7cea 0fbe c3bd 03be 8ba3 adbe
000000c0: 5c01 bd3d dd9c 1dbd 1878 a63d 207c ca3d
000000d0: e21b 4abe 5dd7 cb3d 5e74 283e 9bd0 4c3e
000000e0: af03 fcbd 7206 81be 8cf1 803d 3f6f ff3d
000000f0: aa66 0f3d 7a33 103e e779 40be c2fb ba3e
00000100: 7365 26be 7631 c8be e23d 06be a49d 99bc
00000110: 5f6d 3a3e d165 61be fe04 6fbe 8961 2bbe
00000120: e1ac c0be 40fd 96be 3629 38be ec13 853e
00000130: b927 8ebe 950c 2cbd be73 953e bb93 90bd
00000140: d2a6 5c3e 60d0 fbbd d35d 6ebe f863 a23d
00000150: 429a 8cbe 9402 893e 207e 06bc 40ee 93be
00000160: dd5f 2d3e 6464 eabd 1045 1ebe 9590 7c3d
00000170: 483c 953d f6d6 8dbe c64e d23c 306a 143d
00000180: 2bcb edbd 4d26 b7bb 5cc4 bdbd 61e4 b43d
00000190: 1cf2 7bbd 20f1 c73d 5b07 8cbd 8139 b03e
000001a0: f273 80be 250d c9bd bce3 273e 6254 f9bd
000001b0: 10cf 57be a314 9b3d c5ab 443e c1cc 4f3e
000001c0: 140b 703e cd3a 1fbe 2a34 c1be 994a b3be
000001d0: 2295 40bd 7065 61bd c77a 883e 8694 1f3d
000001e0: 304d cd3c 268f 9c3e 3efb 26be be5b 0e3d
000001f0: ccbb 903e 59d4 76be 008c b63d ad3d 8d3d
00000200: b413 893e e7a7 693d afb2 3abe 7b62 d7be
00000210: f11a bcbd c102 d1bd 3b2c e33d 2f6e 823d
00000220: d594 d2be 561b debe e913 4cbe b3d1 e1be
00000230: c469 503d 558e 8b3e 881b a13e bd5b 8fbd
00000240: 659a 99be 7e86 ba3d f551 82be f7a4 113e
00000250: 169a 80be 4190 76be 921b 093e cc4e a93d
00000260: d752 9cbd ada2 3c3e 8cee a7be bce8 86be
00000270: 62bc 81be 956f c7be 1751 b9be 59ea 9dbe
00000280: 585b cb3d 4489 b6bd 1a8e b43e 7b2f f1bd
00000290: a2f2 39bd c313 043d 4d31 d53d fde5 b2be
000002a0: 1aba 8abd d6e3 1abe 10cd 49be 003b 313d
000002b0: fccc 60be 4cfd e43c fce8 c4be dcb9 773e
000002c0: fe63 9f3d 26be 93bd 0fa7 5fbe a05e debe
000002d0: 53ef b83d 80af 813c b39e 01be 8ab9 0dbe
000002e0: f409 96be 8b1a 57be de3d 4cbe 4544 5fbe
000002f0: 8fb3 6c3d d883 433e 9bf9 95be 8c6b babd
00000300: be46 b4bd be8e 7b3c cc07 3abe 57ed 69be
00000310: 28ac 753e 0cb3 bfbd c640 1a3e 7403 413e
00000320: e159 9bbd dc7c a8bc f77a ac3d 9ab7 143e
00000330: ef19 c2be 495d 483e 953f 023e 4984 e6bc
00000340: 97cb e7bc 93ef 613e 9078 9c3e 47c8 a5be
00000350: d04e 9cbd 724e 743e 68b9 d23d b0d3 2d3e
00000360: c431 853d 77b4 db3e 66f5 583e e823 0a3d
00000370: d425 6b3e 93c2 75be e714 48be 5936 98be
00000380: 72fe 443d ca2d 48be 73c6 a1bd 0ab8 7e3e
00000390: fcaf c8be e865 133e 75cf f83d 1ad9 a8bc
000003a0: 4dd9 163e 9dae 3f3d 2e07 9f3e d9f5 85bc
000003b0: 7c39 07be dfaf 923e 8c69 0f3e 2427 92bd
000003c0: a26b d1bd 3880 833c aa9a a1be 2191 8ebe
000003d0: 2ffe 8dbe 9805 0d3d 23b5 acbe ad5f 17be
000003e0: 4504 5fbe c02d b83d ee5b 3c3e 2335 11be
000003f0: e412 febd 4e69 08be 350a 3abe 15f6 7f3e
0.29520392 0.26337665 0.19125715 -0.15741737 -0.29950696 0.09471321 0.0035992265 0.24376619
0.31707528 0.068163075 0.008797588 -0.1885415 0.010399115 0.03729418 -0.33673596 -0.12749434
-0.02171033 -0.23244716 -0.0042710393 -0.28031254 0.15047413 -0.26271355 0.15282485 -0.11498539
-0.06831082 0.025672529 -0.21596855 0.0036296546 0.19504304 0.005463212 0.13792928 0.19307676
0.24864188 0.1923598 0.069789305 0.0069817044 -0.24698913 -0.105035916 0.0038364816 0.26547632
0.13145517 0.13035712 -0.13372202 0.23689511 -0.03708257 -0.14054292 -0.12865357 -0.33913836
0.09228775 -0.038479675 0.08128375 0.09886956 -0.19737199 0.09953187 0.1645064 0.20001452
-0.1230539 -0.2520023 0.062960714 0.124723904 0.035010017 0.14082137 -0.18796502 0.365202
-0.16249637 -0.39100236 -0.13109544 -0.018751927 0.18205784 -0.22011496 -0.23341748 -0.16736425
-0.37631896 -0.2949009 -0.1798447 0.25991762 -0.2776468 -0.042004187 0.29189867 -0.07059427
0.21548012 -0.12295604 -0.23277979 0.07929224 -0.2746144 0.2675978 -0.0082087815 -0.28892708
0.169311 -0.11444929 -0.15456033 0.06166132 0.07286888 -0.27703065 0.025672328 0.03623408
-0.11611017 -0.0055892826 -0.09265968 0.08832622 -0.06151019 0.09762788 -0.068373404 0.34418872
-0.2508846 -0.0981696 0.16395468 -0.12174298 -0.21075082 0.075722955 0.1920615 0.20292951
0.23441726 -0.15549774 -0.3773511 -0.3501785 -0.047017224 -0.05502838 0.26656172 0.038960002
0.02506122 0.30577964 -0.16306779 0.03475546 0.28268278 -0.24104442 0.08913422 0.06896529
0.26772845 0.05704489 -0.18232225 -0.42067322 -0.09184826 -0.102056034 0.11092421 0.06368672
-0.41129175 -0.4338023 -0.1992947 -0.441053 0.050882116 0.27257028 0.31466317 -0.069999196
-0.30000606 0.091076836 -0.25453153 0.14223085 -0.25117558 -0.24078466 0.13389423 0.082669824
-0.07632988 0.18421431 -0.32799184 -0.26349437 -0.25339037 -0.38952318 -0.3619468 -0.30842856
0.09929532 -0.089129 0.35264665 -0.11776634 -0.04539741 0.03224541 0.10409794 -0.34941092
-0.06773777 -0.15125975 -0.19707131 0.043269157 -0.21953195 0.027952813 -0.38459003 0.24191993
0.07782744 -0.07214002 -0.21841072 -0.43431568 0.090300225 0.015830755 -0.12658195 -0.13840309
-0.2930447 -0.21006219 -0.19945475 -0.21803387 0.057788428 0.19093263 -0.29291996 -0.09102544
-0.088025555 0.015353857 -0.18167037 -0.22844444 0.23991454 -0.09360322 0.15063772 0.18848974
-0.075855024 -0.02056735 0.08421891 0.14523163 -0.3791041 0.19566835 0.12719567 -0.02813925
-0.028295321 0.22064047 0.30560732 -0.32379362 -0.0763222 0.2385805 0.1028927 0.16975284
0.06503633 0.4291112 0.21187362 0.03372565 0.22963649 -0.24000005 -0.19539224 -0.29728964
0.04809422 -0.19548717 -0.07899179 0.24874893 -0.39196765 0.14394343 0.12148944 -0.020611335
0.14731331 0.046797384 0.31060165 -0.01635258 -0.13205522 0.28649804 0.14005107 -0.07136372
-0.102256075 0.01605235 -0.31563312 -0.278451 -0.2773299 0.034429163 -0.33731946 -0.14782591
-0.21778972 0.08993101 0.18394443 -0.14180426 -0.12405947 -0.1332142 -0.18167956 0.24996217

l2.weight f4 [300, 400]
00000000: 7166 263d 5bdb 113d 255d 11bd f19b 043d
00000010: 252a 383c a758 cabc 6b41 4bbd 711f 4f3c
00000020: 24c7 32b9 30a9 d93a 81a8 113d 10f5 81bc
00000030: 9d94 9fbc 28ca 073c 4a1a e6bc 4cc9 18bd
00000040: 1715 22bd 739c 4abd ab5b 45bc 312a 043d
00000050: 6817 01bd b7c7 7039 ab17 aa3c 6fbf 8ab9
00000060: 4002 cdba 623c cf3c d8e5 42bd d5d1 083d
00000070: 2e15 2a3d e793 023d 9bf7 393d d0bc 58bb
00000080: 99fd 56bd 5d3a 01bd 8bd8 4ebd f520 1fbd
00000090: 307f 36bd 2497 d53c 9296 b23c d2e0 f0bc
000000a0: 80f7 33bc 2840 a03b 292b e0bb 21b4 dd3c
000000b0: 2063 5a3c f9e5 3cbd 29eb 213d 4d5e e1bc
000000c0: da84 f0bc 4891 2c3d e36c febc b696 c8bc
000000d0: e025 73bb ad11 5abd 3000 ed3c 3cbc 003d
000000e0: a7b2 77bd 5847 f8bb 383f 113c efbc b63c
000000f0: f6d5 a83c 904c 97bb 888a 153d 99ac 98bc
00000100: 6e2e b3bb f669 2fbd 0a86 ebbc 7a92 bcbc
00000110: 8a4a 3bbd cab7 86bc 8510 303b 99c3 2ebd
00000120: d9e8 4abd abbe 133d 2a8c b2bc b693 36bd
00000130: e38a 8bbb b79a c0bc e507 6dbd 6f80 83bc
00000140: 5b05 febc f940 bebc d800 613c 9546 b4bb
00000150: 2893 243d 5bed 6bbd 874b 333d 2e64 9c3c
00000160: ac62 b0bc f3a9 0d3d 8fc6 3f3d 1e8a 273b
00000170: 849a 633c 661f b3bc de31 59bc a001 1dbb
00000180: a47e 05bd 7f1c 223a 0b8e eebc 404c 8e3c
00000190: a87f fb3b adb6 1ebd dc20 133d af18 d43b
000001a0: 6e29 c33c 77aa 6abd ef00 0f3d 2f44 6e3b
000001b0: 8088 80bb 4ab3 25bd b902 923a 395c 393c
000001c0: ea77 f23b 41cd d83c 57cb 5cbd 4b9e 43bd
000001d0: 29d9 253d 0bf0 2c3d b954 9cbb 285e 923c
000001e0: 3b6b 123d 94cf e33c f6d6 06bd 2b6a d8bc
000001f0: 5d0c d6bc e0dd b6bc b597 403d 329e 11bc
00000200: 46ae 23bd 11a2 f43c 90e4 293c 0f6e 55bb
00000210: 4a5f 16bd 3fb9 983c 842e 16bd 8414 5f3c
00000220: 038b 61bc efec d8bc eeaa 58bd 694b a7ba
00000230: 1a69 04bd 04dd e1bc bd2e 393c 4265 2bbd
00000240: f8ed 203d a02d 053d b4ce d83c 7394 38bb
00000250: 6b0a 4bbd 4044 9fbc f30a 03bd 704d e6bb
00000260: 4aea 5ebd 3929 f8bc 740e 59bc 5c20 05bc
00000270: cfce adbc 26d4 313b 005f 0fbd d93d 2bbd
00000280: 5031 15bd e692 1d3d cef0 f23c 2010 11bd
00000290: c8d1 4ebd f56c 51bc 12d6 0dbd 934f 123c
000002a0: e2f5 91bc ef74 9e3b 7c57 a7bc fa22 1fbd
000002b0: 18b7 99bb 80ec 1a3d b1a8 fb3c 50c3 35bd
000002c0: 8e77 eb3a c3e6 313d e052 423b 86b2 7ebc
000002d0: 8a54 0f3d 80fd 3c3a ed5b 88bc b056 143d
000002e0: 5f9f bd3c 443d 22bd 7fa1 ed3c 47cd 153d
000002f0: efd9 fb3c 8160 01bd 29e2 ddbc 1734 a73c
00000300: 29b0 183d aa08 28bd 2fb9 093d f531 8a3c
00000310: 7c58 753c b5df c1bc 2de1 84bc c252 103d
00000320: 95d4 293c 5cf4 c83c a6e6 26bd e108 d1bc
00000330: 439d 8abc 32f4 a53c f796 1e3c 0a72 993c
00000340: 6c3b 11bd 93a0 87bc ca9e 3f3c 90e6 9fbc
00000350: adc3 e23c a759 103d 66f6 e23c 5613 803c
00000360: 703b b63c 2f03 4dbd 612f bdbc 457c 193d
00000370: a56a e9bc 6b30 e2bb 6a2d 8bbc 13fd 26bc
00000380: 04ea 9fbc 4da8 c6bc 1864 113c 8f1a 3c3d
00000390: 8402 dfbb 2048 6bbc 68b6 e93c c40f fbbc
000003a0: c23e aa3b 1c24 f4bb 3c0e c43b 6abb ef3c
000003b0: 44ef 583c 0646 39bc b2a0 af3c 1c78 d5ba
000003c0: 92d5 8cbc 3efc 9d3c e8dc 13bd ed21 aabb
000003d0: 3992 19bd d27b b83c bf7b 263d 5262 c8bc
000003e0: 0911 57bd ac08 033d 3751 d3bc e55b e23c
000003f0: 0ec5 d03c b57e d5bc 6e5f e8bb 1d42 edbc
0.04062504 0.035609584 -0.03548922 0.03237528 0.011240517 -0.024700476 -0.049622934 0.012641774
-0.00017049588 0.0016606208 0.03556109 -0.015863925 -0.019480044 0.008287944 -0.028088707 -0.037301347
-0.039570894 -0.049465608 -0.012045781 0.0322668 -0.031516463 0.00022962583 0.020763239 -0.0002646404
-0.0015640929 0.025297347 -0.047582477 0.033403236 0.041524105 0.031879332 0.04540215 -0.0033071525
-0.052487943 -0.0315498 -0.05049948 -0.03884979 -0.04455489 0.026073046 0.021800313 -0.029404078
-0.010984302 0.0048904605 -0.0068410826 0.027063431 0.013329297 -0.046117757 0.039530907 -0.027510786
-0.029360224 0.04213074 -0.03105778 -0.024485927 -0.0037101433 -0.053239513 0.028930753 0.031429514
-0.06047311 -0.007576864 0.00886517 0.022306887 0.020609837 -0.0046172813 0.036509067 -0.018636988
-0.0054681813 -0.04282566 -0.028750438 -0.023019064 -0.045725383 -0.01644506 0.0026865315 -0.042667005
-0.049538467 0.036070507 -0.021795351 -0.044574462 -0.0042585 -0.023511274 -0.057868857 -0.016052453
-0.031008413 -0.02322434 0.013733111 -0.005501578 0.0401794 -0.057599407 0.0437732 0.019090738
-0.021531425 0.034585904 0.04682022 0.0025564502 0.01389182 -0.021865558 -0.013256518 -0.0023957267
-0.032591477 0.0006184056 -0.029120466 0.017370343 0.00767513 -0.038748432 0.03592001 0.006472669
0.023823466 -0.057291474 0.034913 0.0036356559 -0.003922522 -0.040454186 0.0011139727 0.0113134915
0.007399549 0.02646506 -0.053904857 -0.04775838 0.040490303 0.04222111 -0.004770842 0.017867163
0.035746794 0.027808942 -0.032919846 -0.026417812 -0.026128942 -0.022322595 0.04701968 -0.008887814
-0.039961122 0.029862436 0.010369435 -0.003256682 -0.03671197 0.01864302 -0.036665455 0.013615731
-0.013766053 -0.026480166 -0.052897386 -0.0012763563 -0.032326795 -0.027571209 0.011302647 -0.041844614
0.039289445 0.032514215 0.026465751 -0.0028164655 -0.049570482 -0.019441724 -0.031992864 -0.0070282742
-0.054422654 -0.030293094 -0.013248075 -0.008125391 -0.021216778 0.0027134507 -0.03500271 -0.04180703
-0.03642398 0.03847017 0.02965584 -0.03541577 -0.05049303 -0.012782325 -0.03462798 0.008930105
-0.017817441 0.004835717 -0.020427458 -0.038851716 -0.004691016 0.0378232 0.030720087 -0.044375718
0.0017964707 0.043432962 0.0029651448 -0.015545493 0.034992732 0.00072094053 -0.016645396 0.036215484
0.023147283 -0.03960921 0.029007671 0.03657272 0.030743567 -0.031586174 -0.02708538 0.02041058
0.037277374 -0.041023888 0.03362387 0.016869524 0.01497471 -0.023666242 -0.016220653 0.035235174
0.010365625 0.024530582 -0.040747307 -0.02551693 -0.016920691 0.020258043 0.0096795475 0.018731136
-0.03545706 -0.01655606 0.011695573 -0.01951912 0.027681196 0.03524175 0.027705383 0.01563422
0.022245139 -0.050051864 -0.023093881 0.03747203 -0.028493235 -0.0069027445 -0.016989429 -0.0101921735
-0.019520767 -0.024250174 0.008873962 0.045923766 -0.00680572 -0.014360458 0.02852936 -0.030647166
0.0051954696 -0.0074505936 0.005983142 0.02926417 0.013240639 -0.011308199 0.02143893 -0.0016286406
-0.017191682 0.019285318 -0.036099344 -0.0051920325 -0.037492964 0.02251998 0.040645357 -0.024460945
-0.05250648 0.031990692 -0.025795562 0.02763171 0.025484588 -0.026061395 -0.007091454 -0.02896219

l2.bias f4 [300]
00000000: ada4 5dbd 5f76 2439 aa10 b7bc 7326 48bd
00000010: 198e a8bb 100c c5bd 84e9 0abd 643e afbc
00000020: 5c86 04bd 6fd4 1f3d 8015 32bd 219e 203d
00000030: 05f4 90bc 295c 72bc ccff 2dbd 9c22 0bbd
00000040: c2c0 04be 0740 153d f1c3 4dbd 73e6 bf3c
00000050: 90a9 8b3b 2c9e ebbc 7253 be3c 71bd dbbd
00000060: 66df 213d b724 3f3d 9a81 e9bc c3fe 7ebc
00000070: 7ab4 6e3d 8ecd 5eba 30cb 46bd 9cf9 dbbd
00000080: 099a a3bc 6971 f93d 607c fbbc 7082 13bb
00000090: d87a 7dbd 7a2c 213d afe2 8ebd 88a7 6f3c
000000a0: ee2a 01bc 148d aabd 16b6 a03d e72e a2bd
000000b0: 4de2 f4bc 80c9 f03c 452f 0dbd cddc 08bd
000000c0: 8111 9e3b b2f8 25bd 34de d4bd 34f8 e23d
000000d0: 4254 de39 2f9e 0a3d eb00 be3c d0b6 32bc
000000e0: 4cf4 4abc 9555 e23c 01bd e3bd 86df 0d3c
000000f0: 75f6 c2bd 8492 06bb 868a 833c c832 c33d
00000100: 7b2d aebd 7d94 603d 96b8 8c3d 4660 193c
00000110: 8c29 063d dc97 473a 0096 b13b a5f6 1a3c
00000120: b0c9 10bd 1e25 ecbb d4c5 ce3c c96b 39bc
00000130: 93a5 0e3c da3c 27bd 0c81 07be 2046 2f3c
00000140: f3c5 e7bb 8c96 22bd 5993 5d3d 6a17 223c
00000150: 25a6 03bc 7827 033e e7cd 8b3a 7ea0 54bc
00000160: c748 04be 30db 153c 83fe 68bd b238 de3c
00000170: c629 33bd e8bf bc3d a8a3 0dbd 3103 263e
00000180: 23b1 c5bc 0481 4fbd 9c4b 6e3a ce34 21bd
00000190: 39be bcbd 86a4 a8bd d18d 1cbd fec9 87ba
000001a0: 955c 15bd eae5 86bd 600e 1abc 8e5e 24bd
000001b0: d9e0 18be b011 acbc 02bd 19bc 9d16 5f3d
000001c0: 9d10 90bc 42f4 63bd a345 45bd 5f91 94bc
000001d0: af6a 36bd 353b 333d 1d25 14bd a9bf 103d
000001e0: abbd 56be c380 a6bc fa2e 89bd e48c ec3d
000001f0: d3eb 523c 7e38 133d f935 f73c b005 f9bc
00000200: 228c efbd 4832 7b3d 5b26 253d 1ab7 633d
00000210: c2a1 62bd 53a3 95bc 1d00 bfbd cb2b 373b
00000220: b1fa 8a3d 224b a23a 9169 c83d a2a0 213d
00000230: fd08 6fbd 1354 1fbc d7d5 1b3d a1ce e1bb
00000240: 266c 05bc 8417 963d 5b7f fe3c 5cb6 5d3d
00000250: 9f46 1ebd ecfa 4cbc 1ea1 773c 8c0b 10bd
00000260: aaaa 99bc 45b4 ff3c f6d2 af3d 66d6 593c
00000270: 3876 7b3c 6e7c 503d f8fa 183d 2454 efbc
00000280: 9991 efba 26d4 3dbd fa32 09bd d9a6 00bd
00000290: 3453 b13c 4033 93ba 20b4 85bc fc0a 12be
000002a0: 5940 ae3c 5544 793c 44a1 16bd f959 4cbd
000002b0: d82f 033d 4424 aa3d 695b 6ebc f26f da3c
000002c0: 3030 a73d 30ec 0e3b 84b3 553c 44ab 8abd
000002d0: 6ef1 47bd 4a0c b9bc 9ef2 2abd 79a1 3fbd
000002e0: de27 01be e612 94bd b18f 05bd 9085 1ebd
000002f0: 6547 093d 688f 18bd e44b 9dbb 139e c2bc
00000300: 6450 45bd 276a 30bd 1563 043d 08ac df3b
00000310: 5748 81bc 0f35 743c 8ded 13bd 636f cfbd
00000320: 848d 823d a85c 44bc b012 e23b ae5e 09be
00000330: 343e ec3b 9a0e 5abd 37e7 8b3d b074 03bd
00000340: 2026 0bbd 1365 c8bc 146c e03d 4b76 ee3b
00000350: 8446 4d3d 28e2 283c 01a7 b3bd bb07 51bd
00000360: c34a 1ebd 2f32 8c3d 7e62 69bd 418b d53d
00000370: e4c9 143d 0d39 ca3c 73db 40bd 6c10 fcbc
00000380: 6e31 64bc 75a0 6fbd 4aa2 bc3c acc3 0a3e
00000390: 0316 0e3e 23be c2bd 864d adbc 0354 3c3d
000003a0: 6c06 52bc 5df3 c7ba c713 ec3b bfcc cfbc
000003b0: 4700 e7bd 913d 983d 0789 163d 66f4 a53c
000003c0: 307a b1bd 7856 9a3d 52be 37bb cb7a 90bd
000003d0: 2eea b13c ef77 273d 703c e5bc c99b c2bc
000003e0: 54da 61be cb5d ee3c 612a 1dbd 10f8 863c
000003f0: 304c 41bd 4462 d9bd a7d0 9bbc fcf3 bc3c
-0.054112125 0.00015684355 -0.022346813 -0.048864793 -0.0051438925 -0.09621441 -0.033914104 -0.021392055
-0.032354698 0.03902095 -0.043477535 0.039213303 -0.017694483 -0.0147924805 -0.042480275 -0.033968553
-0.12964156 0.036438014 -0.050235692 0.023425316 0.004262157 -0.028761946 0.02323315 -0.107294925
0.03951969 0.046665873 -0.028504182 -0.01556367 0.058277585 -0.0008499258 -0.04853362 -0.107409686
-0.01997091 0.121798344 -0.030698955 -0.0022508167 -0.06188473 0.039349057 -0.0697683 0.014627345
-0.00788377 -0.0832769 0.0784723 -0.07919102 -0.029893065 0.029392958 -0.034468908 -0.033413697
0.004823864 -0.040520377 -0.103939444 0.11082497 0.00042405917 0.033842262 0.023193797 -0.010907844
-0.0123873465 0.0276287 -0.11120034 0.008659249 -0.09519664 -0.0020534107 0.016057264 0.0953117
-0.085047685 0.05482911 0.068711445 0.009361332 0.032754466 0.00076138764 0.0054194927 0.009458219
-0.035348594 -0.007206573 0.025240816 -0.011317202 0.008706468 -0.040829517 -0.13232821 0.010697871
-0.007073158 -0.039694354 0.0540956 0.009893278 -0.008035217 0.12808025 0.0010666222 -0.012977717
-0.12918387 0.009146497 -0.056883346 0.027126644 -0.04374101 0.09216291 -0.034579903 0.16212155
-0.024132317 -0.05066015 0.0009090246 -0.039357 -0.092159696 -0.08234505 -0.038221184 -0.0010359881
-0.036465246 -0.065868214 -0.009402841 -0.040129237 -0.14929523 -0.021004528 -0.009383442 0.054464925
-0.017586047 -0.055652864 -0.048162114 -0.018135725 -0.044535335 0.043757636 -0.036168206 0.03533903
-0.2097079 -0.02032507 -0.06698413 0.1155031 0.012873608 0.035942547 0.030177103 -0.03039822
-0.1169665 0.06132725 0.04031978 0.05559454 -0.055330046 -0.018266356 -0.093261935 0.0027949687
0.06786097 0.001238201 0.0978576 0.039459832 -0.05835818 -0.009724635 0.03804573 -0.006891087
-0.00814346 0.07328704 0.031066587 0.05412899 -0.03864157 -0.012510996 0.015114097 -0.035167262
-0.018758137 0.031213889 0.085851595 0.0132957455 0.01534801 0.050899915 0.037348717 -0.029214926
-0.0018277644 -0.0463449 -0.03349588 -0.03140912 0.02164612 -0.0011230484 -0.016321242 -0.14262003
0.021270918 0.0152140455 -0.03677489 -0.049890492 0.03202805 0.08307698 -0.014548161 0.026664708
0.08163488 0.002180826 0.013043288 -0.067709476 -0.04881423 -0.022588868 -0.041735284 -0.04678485
-0.12612864 -0.07230167 -0.032607738 -0.038701594 0.033515353 -0.037246138 -0.0048003066 -0.023757016
-0.04817237 -0.043069985 0.032321054 0.0068259276 -0.015781565 0.014905228 -0.036115218 -0.10128667
0.06374648 -0.011984982 0.0068992004 -0.13415024 0.0072095636 -0.05323658 0.0683121 -0.032093704
-0.033971906 -0.024462258 0.10958114 0.007277285 0.050116077 0.010307826 -0.08772088 -0.051032763
-0.038645517 0.06845509 -0.056978695 0.10426951 0.03632535 0.024685407 -0.047084283 -0.03076955
-0.013927801 -0.058502633 0.023026604 0.13551205 0.13875584 -0.09508922 -0.02115513 0.045978557
-0.012818914 -0.0015255023 0.007204506 -0.025366185 -0.1127935 0.07433618 0.036751773 0.02025814
-0.086658835 0.07536024 -0.0028037024 -0.07054671 0.02171811 0.040885862 -0.02798292 -0.023755925
-0.22055942 0.029097458 -0.038370494 0.016475707 -0.0471918 -0.10614446 -0.019020392 0.02306556

l3.weight f4 [6, 300]
00000000: 5232 b43c 9dd5 3ebc 57d2 db3c 8d2f 483d
00000010: 7169 f33c 91ad 153b dedd 773d 2cab 723c
00000020: c91b adbc 0412 be3c ef99 79bd ed5f 46bb
00000030: 911a 10bc 10c5 65bd b240 ca3c 6afc d8bb
00000040: b5bd 8f3c 1001 0f3d 0dc8 69bd 015b 093d
00000050: 2863 e43c 68c5 b53c 05e9 3f3d 4dfd a73b
00000060: 265a ccbc 8be9 25bd 1c1e 8a3c 2e6c 54bd
00000070: ff7e 873d 7870 023c 2a78 e13c f9ea 79bb
00000080: 0814 293d 498b 8c3d 96e9 3a3d c008 de3c
00000090: f619 89bc 55d1 f93d 0510 11bd bdc5 ae3d
000000a0: 61e5 2ebd 2b17 8dbc 2f2e 42bc d2f3 8d3b
000000b0: 00e9 3abc e1f6 83bb 8ea8 f73c e4d8 8dbc
000000c0: 4f50 063d d83b 083d e429 353d 0167 683d
000000d0: 36f7 52bd e23e 343d 61e7 633d cfa9 8b3c
000000e0: 9640 c8bc fdea 403d 40bc 4abd 4ccb 5cbd
000000f0: 6143 d0bc e5fb d6bc 54cf 5bbd a319 033e
00000100: 4f83 4d3d b781 873d 0535 993d 9d48 ad3c
00000110: 0d0b 4bbd edcb 8fbc f40c 43bc 4431 b3bc
00000120: 5050 cc3b d9e9 0ebd 6ca2 cb3c 0405 f7ba
00000130: e20f e4bc e438 93bb f172 3b3d b0b3 e43c
00000140: dcc4 063d c279 cfbc 0d97 dc3c 6925 083c
00000150: c87b 823c 1ff0 babc 4477 fbbb 2ebd 823d
00000160: 9c69 cebc 2793 333c 9845 d5bc 88e4 efbb
00000170: 9709 a2bc d236 fb3c e4a2 a63c b8f5 273c
00000180: c8ba d6bb 5add 893c 0ce4 f83c 0255 34bd
00000190: 5754 d6bd e2b7 893d 7f62 c1bb 5046 7a3c
000001a0: 9294 8bbc b6b2 e2bc fca7 d6bc 0d7c 86bc
000001b0: 008b d2bc e7e4 21bc fe8a de3c 9df4 c7bb
000001c0: a03e 0bbb 4788 993c 20af 923a 5cab c23b
000001d0: c624 cfbc 504c b03c 9424 35bc 2818 2dbc
000001e0: fc54 eabc cfac 7b3c 17dd 3a3b a2ee 513d
000001f0: 38a8 a33d 375f b93c 9cf0 183c b891 553c
00000200: 14e7 563d 71e5 613d f7f8 57bd a0eb 373d
00000210: bf51 0f3d 8fce cebb d7f8 a8bc 659b 00bc
00000220: 6e5d ea3c c19f 323d f139 4f3d b75c 18bd
00000230: 3d8f 2abd 5886 c03c 0b5c a93c 84ee 323d
00000240: f4f6 1cbd 7095 893c 5edc 7a3d c483 023c
00000250: 0c93 cabc 4833 33bc cd6c 88bc 4584 e6bc
00000260: 88af adbc 8795 513d c92e 99bc 3ffc 39bd
00000270: 4275 77bc 3a2c 603d fd9d 9aba ae02 2d3d
00000280: a750 c63c b20e e8bc f81e 323d 2032 ecbc
00000290: f00c e8bc 8e97 3ebd c712 f93c 405e 8c3c
000002a0: a4c6 4d3d 5978 28bd 1d7b b8bc 0048 3cbd
000002b0: f83a 89bb 9aee f8bc 6001 143c 8ece c9bc
000002c0: 98d7 5fbc 4249 3abd 9f0c 7b3c 88bb e63c
000002d0: fc14 a23c 0206 23bd 407d a73c 207a c33c
000002e0: b566 533b 4bf5 b73c 258a 203d 3c6a 023c
000002f0: 407e c43c 7ce0 b0bc 9e76 b73c 644f b23c
00000300: cca4 4e3d 0424 38bc 48ba 123c 01b6 853d
00000310: 3689 393d b022 283d 0ae2 493d c22c a23c
00000320: 87c4 963d 258d acbb 8aa4 f23c 40fc 9dbc
00000330: ebcc 20bd 0ae6 b0bc d6fa 753d 9256 39bd
00000340: 5288 b83c 90ef 513d bcb7 943d ca45 2bbd
00000350: e55a 03bd 3e8e 34bd 975a f9bc a424 d1bc
00000360: 5b28 25bd 3878 c23a 2707 9b3c 2979 19bc
00000370: c161 bb3c 1be7 a13c 52eb 513d e1f9 3fbc
00000380: 9fcf 7fbd 0f7b 443c 0896 583c f7ae 983d
00000390: 90a6 723d 7655 863d 8657 adbc 207e b33c
000003a0: 3473 40bd 91b6 1e3c 12d9 56bd fc07 803d
000003b0: 694a 3abd f52f 223c ca29 163c 8803 1e3d
000003c0: 3014 873c 4565 983d 5f96 b73d 30b0 8bbc
000003d0: 0469 1f3b 8023 d0bc 12a4 19bb 66e3 44bc
000003e0: 6b8c e0bc 456a b83c b868 0fbd d03e 9c3c
000003f0: cb94 83bc 3157 c73c 16fb 8abc a1ed 2abd
0.02199665 -0.011647609 0.026833696 0.048873473 0.029713364 0.002283905 0.060514323 0.014811318
-0.021131413 0.02320195 -0.06093782 -0.0030269579 -0.008795396 -0.056096137 0.024689052 -0.006621887
0.017546514 0.034913123 -0.05707555 0.033534054 0.027879313 0.022188857 0.046853084 0.0051266314
-0.02494533 -0.040505927 0.01686006 -0.05186098 0.066160195 0.007961385 0.027523119 -0.003813444
0.04127887 0.06862504 0.04563292 0.027103782 -0.016736012 0.1219813 -0.035415668 0.08533809
-0.04269922 -0.017222961 -0.011851831 0.004332044 -0.011408091 -0.004027233 0.03023174 -0.017315336
0.032791432 0.033260196 0.044229403 0.056738857 -0.05150529 0.044005282 0.055640582 0.017048744
-0.02444486 0.047099102 -0.049495935 -0.053904817 -0.025422754 -0.02624316 -0.05366452 0.12802748
0.050174054 0.06616538 0.07480816 0.021152789 -0.049571086 -0.017553294 -0.011904944 -0.021874078
0.00623516 -0.034890983 0.024857722 -0.0018846099 -0.027839605 -0.004492866 0.045763914 0.027917713
0.032902583 -0.025326613 0.026927495 0.0083097005 0.015928164 -0.022819577 -0.0076741297 0.063837394
-0.025196843 0.010960377 -0.026034161 -0.007320944 -0.019779963 0.030665789 0.020341344 0.010251455
-0.006553028 0.016829181 0.030382179 -0.044026382 -0.10465305 0.06724526 -0.005901634 0.015275553
-0.017038617 -0.027673107 -0.026203148 -0.016416574 -0.025701046 -0.009881235 0.027165886 -0.006102158
-0.0021247044 0.01874174 0.0011191107 0.005940838 -0.02528609 0.021520764 -0.011056084 -0.010564841
-0.028604977 0.015361025 0.0028513127 0.05125297 0.079910696 0.02262841 0.0093347095 0.01303523
0.052466467 0.055150453 -0.052727666 0.044902444 0.03499007 -0.006311245 -0.020626469 -0.007849549
0.028609004 0.043609384 0.050592367 -0.037197795 -0.04164051 0.02350156 0.020673772 0.043684497
-0.03832145 0.01679489 0.061245315 0.007965986 -0.02472832 -0.010937519 -0.016653443 -0.028139243
-0.021201864 0.05116799 -0.018699067 -0.045406576 -0.01510364 0.054729678 -0.0011796352 0.042238884
0.02420838 -0.02832732 0.043486565 -0.028832495 -0.028326482 -0.046531253 0.030404462 0.017134786
0.050238267 -0.041130397 -0.022519642 -0.045967102 -0.004187938 -0.030387212 0.009033531 -0.024634626
-0.013662241 -0.04548002 0.015322833 0.028165594 0.019785397 -0.03980065 0.020445466 0.023861945
0.0032257263 0.022455832 0.039194245 0.007959899 0.023985982 -0.021591417 0.022395428 0.021766372
0.05045013 -0.011239056 0.008955546 0.06528855 0.04529687 0.041048706 0.049287833 0.019796733
0.07361703 -0.005265849 0.029619474 -0.019285321 -0.039257925 -0.021594066 0.06005367 -0.045248576
0.02252594 0.051253855 0.07261607 -0.041814603 -0.032069106 -0.044080965 -0.030438704 -0.025530167
-0.04032169 0.0014836853 0.018924309 -0.009367266 0.022873761 0.01976352 0.05124981 -0.011717291
-0.062453862 0.01199223 0.013219364 0.07455247 0.059240878 0.06559269 -0.021159898 0.021910727
-0.046984866 0.009687082 -0.052453108 0.06251523 -0.04548112 0.009899129 0.009165237 0.038577586
0.016489118 0.07441191 0.08964228 -0.017051786 0.0024324069 -0.025407553 -0.002344374 -0.012017107
-0.027410707 0.02251161 -0.035011977 0.01907292 -0.016062161 0.024333568 -0.01696543 -0.041730527

l3.bias f4 [6]
00000000: d849 073d 0362 0b3e 6030 233d 29d4 333d
00000010: aec9 c6bd cc37 29bd
0.033029407 0.13611607 0.039841056 0.043903504 -0.09706436 -0.041312978
