results/runs/single_assembly_rerun_nochange/Average_TD3_5_Peg-in-hole-single_assembly_seed_1/89000_actor.pth (torch_old, 510312 bytes, 6 tensors)

l1.weight f4 [400, 12]
0.16313279 -0.0074374536 0.047576327 -0.45355934 -0.7044513 1.7431978 0.10225151 -0.0014487223
-0.053768963 0.22931656 0.11827307 0.55135447 -0.82243776 -0.88659066 0.09295583 0.55888486
0.00033484047 0.10979342 0.16874139 0.08331081 0.05635651 0.15697122 0.35266942 -0.58530986
-1.3756908 1.3107346 0.116910174 -0.8185317 0.4831907 0.6989577 0.30383486 0.3804808
0.19460088 0.312669 -0.14355507 -0.42823258 0.9023975 -0.2098171 0.24971284 0.42450064
-0.10303302 -1.1550035 0.4406815 0.15546402 -0.18146807 0.21431443 -0.5344149 -0.49685928
-1.2403792 0.16425331 -0.06996101 -0.44520697 0.36233327 -1.0337214 0.055666108 0.3252314
0.03163989 0.3536837 0.71663177 -0.9343182 -0.1866053 0.18750736 0.17525518 0.25602454
-0.16181962 -0.047517657 -0.0055921674 0.042163163 -0.21908084 -0.20485033 0.1570406 -0.067692
0.16428754 0.042483844 0.12626313 0.06251306 0.101877615 0.14218524 -0.23587023 0.114661254
-0.23442377 -0.2336359 -0.009730612 -0.05909898 -0.12945595 -1.2539289 0.16042033 1.3531339
-0.08531457 1.2000268 0.5042118 -0.011426796 0.020326694 0.51017207 -0.49552542 0.22755146
-1.0633048 0.38100058 -0.009792915 0.012505492 -0.6404754 1.9506432 0.2787474 0.06308344
-0.018353269 0.08904985 0.639538 0.67127067 -0.46787575 0.22033586 0.31106633 0.08043843
0.6986077 -0.021895573 -0.30736774 0.02627582 0.17236215 -0.3174255 -0.29818162 0.40563303
-0.16684282 0.0829804 0.4990253 0.07579726 0.06324519 0.10345279 -0.06024761 -0.6029543
0.28465426 -0.42870316 -0.6633193 -0.19180258 0.22802773 0.1731857 0.19362931 0.21414988
0.17724192 0.067270316 -0.18048063 -0.2285143 -0.14609495 -0.011409391 -0.20200482 0.12737411
1.2169276 -0.27866894 0.12470887 0.5720294 0.27863315 -0.8136183 -0.0016189894 0.7652348
-0.15607198 0.6245367 -0.52818316 -1.0024556 -0.16864502 -0.12347297 0.20523924 -0.09433356
-0.21572149 0.11106771 0.09242499 0.18697217 -0.14938134 0.06258911 -0.10509236 -0.064858004
-0.50439095 -0.032497287 -0.05092998 0.2245941 0.2724281 -1.5284443 0.3083811 0.35872567
-0.18632714 0.06086678 -0.5326852 -0.7513863 0.26402232 0.41907683 0.09554259 -0.53679615
-0.5132642 0.8658972 -0.30081385 -0.58437145 -0.31040543 -0.34240052 0.1708978 -0.88157237
-0.3618417 -0.674968 0.49988592 0.52799 0.14687753 0.8553845 0.3151784 -0.4259259
0.22046754 -0.66229254 0.07553642 -0.27856943 0.15259402 0.053113338 0.033279594 -0.058640786
0.01614033 0.24916437 0.027221223 0.012498209 -0.28208402 0.13882612 0.26836058 0.18425946
0.8629358 -0.31389725 0.018907445 0.45990485 0.2888304 0.45479128 -1.0103294 -0.36270964
-0.14651671 -0.70268226 0.20702001 1.0119704 0.7563328 0.98815864 0.009536576 -0.54673886
-0.7475541 0.4448003 0.4852212 0.24190521 -1.0510098 0.41607898 -0.36025712 0.06893341
-1.2690964 -0.4526373 -0.039383788 -0.27097046 0.7880105 -0.11023978 -0.72576594 -0.56105596
-0.1057323 -0.001041517 0.539051 -0.21609256 0.36036724 0.48609254 0.2535068 -0.5230952
00000000: 480c 273e e2b5 f3bb 65df 423d ee38 e8be
00000010: ec56 34bf 1b21 df3f 3d69 d13d 0ee3 bdba
00000020: d83c 5cbd f6d1 6a3e 2739 f23d 9125 0d3f
00000030: 488b 52bf 9bf7 62bf a05f be3d 1413 0f3f
00000040: 878d af39 5fdb e03d 8bca 2c3e dc9e aa3d
00000050: 15d6 663d 10bd 203e 1691 b43e ded6 15bf
00000060: a316 b0bf 27c6 a73f 9a6e ef3d 4b8b 51bf
00000070: c564 f73e e4ee 323f 3e90 9b3e 61ce c23e
00000080: 7445 473e 2716 a03e 1a00 13be 4d41 dbbe
00000090: 8603 673f 4bda 56be b9b4 7f3e 2658 d93e
000000a0: fa02 d3bd 28d7 93bf 01a1 e13e f631 1f3e
000000b0: c4d2 39be 3e75 5b3e 6acf 08bf 5764 febe
000000c0: bfc4 9ebf 0532 283e b847 8fbd 2bf2 e3be
000000d0: bf83 b93e fc50 84bf 2502 643d bb84 a63e
000000e0: d498 013d 0816 b53e 2e75 373f 7a2f 6fbf
000000f0: 7615 3fbe ee01 403e 1876 333e a615 833e
00000100: 0bb4 25be e0a1 42bd 803e b7bb 48b3 2c3d
00000110: ba56 60be 49c4 51be 40cf 203e 1aa2 8abd
00000120: fe3a 283e 8a03 2e3d 1f4b 013e d906 803d
00000130: 36a5 d03d 0299 113e f787 71be 85d3 ea3d
00000140: c90c 70be 403e 6fbe 256d 1fbc c611 72bd
00000150: 1a90 04be be80 a0bf 3a45 243e 7e33 ad3f
00000160: 68b9 aebd 7a9a 993f 0614 013f 7537 3bbc
00000170: 2b84 a63c a39a 023f 82b5 fdbe 4003 693e
00000180: 5f1a 88bf 8212 c33e 7672 20bc d6e3 4c3c
00000190: 32f6 23bf adae f93f fbb7 8e3e e431 813d
000001a0: 9859 96bc c55f b63d c3b8 233f 65d8 2b3f
000001b0: 698d efbe b99f 613e 1644 9f3e e7bc a43d
000001c0: f4d7 323f 585e b3bc 4e5f 9dbe 6340 d73c
000001d0: b47f 303e 9885 a2be 43ab 98be 22af cf3e
000001e0: d8d8 2abe a1f1 a93d 3e80 ff3e 983b 9b3d
000001f0: b286 813d 0edf d33d 33c6 76bd 375b 1abf
00000200: 34be 913e fb7e dbbe 4bcf 29bf e567 44be
00000210: 1a80 693e 9857 313e c346 463e 1b4a 5b3e
00000220: e87e 353e 05c5 893d eacf 38be a7ff 69be
00000230: ea99 15be 74ee 3abc 5ada 4ebe 5c6e 023e
00000240: 49c4 9b3f b2ad 8ebe 5d67 ff3d 8570 123f
00000250: 01a9 8e3e 4a49 50bf 4534 d4ba 6ee6 433f
00000260: 55d1 1fbe a3e1 1f3f 0337 07bf 7750 80bf
00000270: 48b1 2cbe 66df fcbd 3c2a 523e f431 c1bd
00000280: 18e6 5cbe 7877 e33d 5049 bd3d a275 3f3e
00000290: 6cf7 18be b82e 803d aa3a d7bd 46d4 84bd
000002a0: c41f 01bf e01b 05bd f49b 50bd fffb 653e
000002b0: b27b 8b3e 10a4 c3bf 21e4 9d3e e4aa b73e
000002c0: 8bcc 3ebe 724f 793d 0f5e 08bf da5a 40bf
000002d0: ef2d 873e 3d91 d63e d5ab c33d 796b 09bf
000002e0: 4865 03bf 70ab 5d3f 4604 9abe 5e99 15bf
000002f0: 76ed 9ebe 1f4f afbe d5ff 2e3e baae 61bf
00000300: 5143 b9be b4ca 2cbf 0cf1 ff3e 5a2a 073f
00000310: 1067 163e 7bfa 5a3f 105f a13e f612 dabe
00000320: 3ec2 613e 018c 29bf d7b2 9a3d a7a0 8ebe
00000330: 9b41 1c3e 5f8d 593d 2f50 083d 5231 70bd
00000340: ba38 843c f224 7f3e 0bff de3c 4ac5 4c3c
00000350: 516d 90be 6f28 0e3e 8f66 893e 83ae 3c3e
00000360: 5ce9 5c3f 24b7 a0be c9e3 9a3c a678 eb3e
00000370: 94e1 933e 67da e83e 7952 81bf 14b5 b9be
00000380: 7a08 16be fce2 33bf 0efd 533e 3f88 813f
00000390: 079f 413f f7f7 7c3f 4d3f 1c3c 14f7 0bbf
000003a0: b55f 3fbf ddbc e33e ea6e f83e 00b6 773e
000003b0: 7d87 86bf 4e08 d53e 9f73 b8be f62c 8d3d
000003c0: c071 a2bf 14c0 e7be e550 21bd a4bc 8abe
000003d0: 0ebb 493f 65c5 e1bd cccb 39bf 5da1 0fbf
000003e0: 2d8a d8bd 8383 88ba 3fff 093f 5e47 5dbe
000003f0: 0e82 b83e 1fe1 f83e a5cb 813e 91e9 05bf

l1.bias f4 [400]
1.8788978 0.08329243 -0.011786528 -0.7849111 -1.3059807 0.09471321 -0.023267237 0.13448286
0.93350565 -0.15675206 -0.01513769 -0.20857866 0.48968554 0.03729418 -1.428071 -0.19953586
-0.18970053 -0.23908825 0.07880731 0.5452465 0.90885824 -0.38088986 0.068920255 -0.69438976
-0.6703908 0.32633355 -0.25706428 -0.23129751 0.7411986 -0.646605 0.39540857 0.18984273
0.94701374 0.16887778 -0.012375894 -0.19128206 -0.26456323 -0.39953518 -0.01951924 0.6702777
0.6678818 0.5717022 0.14092511 0.39820552 -0.06381919 0.43163455 -0.22844982 -1.3818481
0.34990877 0.6815016 0.08128375 -0.67668265 -0.97956955 -0.41015536 -0.012971895 0.5513404
-1.4498847 -0.28047198 0.05295515 0.34219092 0.5663235 0.14082137 -0.38193423 0.7413212
-1.0825756 -1.0585539 0.40979296 -0.12601459 0.15611611 -1.1592901 -1.5928749 -0.41895813
-0.7894915 -0.95717734 -0.1798447 0.8937822 -0.21510871 -0.07424375 0.069020465 -0.24483262
-0.008986626 -0.3342181 -0.2654619 -0.34072623 -0.4832453 0.46416402 -0.0082087815 -0.47854015
0.70258343 -0.017962791 -0.15456033 0.2670765 0.42156202 -1.1429812 -0.09537878 -0.09983258
-0.5666443 -0.19634722 -0.93959945 -0.094153665 -0.06151019 0.16101956 -0.540374 0.30739388
-0.2508846 -0.22812927 -0.53515977 -0.37550196 -0.2347455 0.34349838 0.39348334 0.5080796
0.4834487 -0.24685287 -1.180877 -0.67752767 -0.68889016 -0.05502838 0.2579929 -0.23700128
0.02506122 1.2495141 -0.13617125 -1.0776225 0.25068265 -0.0011603372 0.08913422 -0.23613894
0.26772845 0.33435023 -0.24012907 -0.91273206 -0.9285653 -0.35341853 0.028078482 -0.3424964
-0.8179256 -1.5546677 -1.4686189 -1.1519121 -0.14054996 1.187246 0.2368412 -0.684666
-1.6887304 0.11343729 -0.5582007 -0.24680553 -0.49535966 0.050110858 1.249185 0.40368626
-1.2871968 0.3878218 -0.37210137 -0.6703619 -1.253994 -1.5806988 -1.1327306 -0.6998437
0.037591215 -0.0280158 1.0922247 -0.38867715 0.4058516 -0.42088678 -0.037477866 -1.0193292
0.2918744 -0.7808406 -1.0435251 0.043269157 -0.21953195 0.6500623 -1.3405085 0.13658258
-0.08221567 -0.3030574 -0.21841072 -0.70038986 0.46161988 -0.014694375 -0.0025752205 -0.4267752
-0.9001022 -0.66237444 -0.08803788 -0.3576912 0.24463792 0.657685 -0.5419543 -0.321397
-0.088025555 0.50029033 -0.40091607 -0.93733114 0.23991454 -0.70799476 -0.11302439 0.18635105
-0.0031344916 -0.3291521 -0.19683103 0.90075475 -0.9459268 0.07227405 0.4627598 0.093727544
-0.46197698 0.4505422 1.1413033 -0.07960223 -0.6450452 0.52136666 0.13984938 0.07816582
-0.2902983 1.6952806 0.33274445 0.03372565 0.47733927 -0.61093324 -0.75451463 -1.3413554
-0.22774926 -0.5352239 0.13084115 0.09862763 -1.145369 0.14394343 0.47231352 0.2120605
0.6403779 0.19417134 0.9174819 0.24157645 -0.43372786 0.8618772 0.08539695 -0.2913512
-0.18481885 -0.16722307 -0.84937155 -0.5176337 -1.0580565 0.013904967 -0.5854534 -0.3537938
-1.040969 0.04799015 0.18394443 -0.30473524 -0.18756077 -0.28652984 -0.32619467 0.6860195
00000000: b97f f03f 3995 aa3d 481c 41bc efef 48bf
00000010: 602a a7bf 00f9 c13d ef9a bebc e0b5 093e
00000020: 3afa 6e3f 9d83 20be 1304 78bc a595 55be
00000030: 10b8 fa3e c8c1 183d 08cb b6bf 2153 4cbe
00000040: db40 42be 8dd3 74be ba65 a13d 4695 0b3f
00000050: efaa 683f ff03 c3be 1026 8d3d 87c3 31bf
00000060: bb9e 2bbf 3115 a73e ee9d 83be 41d9 6cbe
00000070: 31bf 3d3f e887 25bf fe72 ca3e 2266 423e
00000080: 7e6f 723f 4cee 2c3e 43c4 4abc 72df 43be
00000090: d574 87be e08f ccbe d0e6 9fbc 5297 2b3f
000000a0: 4dfa 2a3f 135b 123f ac4e 103e 98e1 cb3e
000000b0: a3b3 82bd 34ff dc3e c0ee 69be 66e0 b0bf
000000c0: 3e27 b33e e476 2e3f 1878 a63d 133b 2dbf
000000d0: 12c5 7abf e2ff d1be 1288 54bc a524 0d3f
000000e0: d295 b9bf 069a 8fbe 80e7 583d a633 af3e
000000f0: 94fa 103f 7a33 103e e28c c3be 3ac7 3d3f
00000100: d691 8abf b27e 87bf 62d0 d13e f809 01be
00000110: e7dc 1f3e 9e63 94bf 53e3 cbbf ae81 d6be
00000120: 1d1c 4abf 9309 75bf 3629 38be e9ce 643f
00000130: 7545 5cbe 1b0d 98bd 9a5a 8d3d 67b5 7abe
00000140: a43c 13bc a31e abbe 9fea 87be ab73 aebe
00000150: ee6b f7be e8a6 ed3e 207e 06bc 3703 f5be
00000160: 82dc 333f b426 93bc 1045 1ebe 40be 883e
00000170: fad6 d73e 354d 92bf f355 c3bd 0675 ccbd
00000180: 9a0f 11bf 3f0f 49be 9789 70bf a3d3 c0bd
00000190: 1cf2 7bbd 50e2 243e f355 0abf bb62 9d3e
000001a0: f273 80be b89a 69be 3b00 09bf cb41 c0be
000001b0: 2061 70be 05df af3e a676 c93e 8111 023f
000001c0: 9786 f73e 00c7 7cbe fa26 97bf 7472 2dbf
000001d0: 1b5b 30bf 7065 61bd a517 843e 77b0 72be
000001e0: 304d cd3c 14f0 9f3f 7a70 0bbe 89ef 89bf
000001f0: 7a59 803e 7516 98ba 008c b63d 68ce 71be
00000200: b413 893e f42f ab3e 65e4 75be cfa8 69bf
00000210: 75b6 6dbf 46f3 b4be d804 e63c b05b afbe
00000220: 9263 51bf 5aff c6bf b4fb bbbf db71 93bf
00000230: 54ec 0fbe adf7 973f 8086 723e 4546 2fbf
00000240: 5128 d8bf cf51 e83d 3ee6 0ebf 97ba 7cbe
00000250: c89f fdbe 0b41 4d3d 4be5 9f3f f7af ce3e
00000260: ddc2 a4bf 9490 c63e 1284 bebe d69c 2bbf
00000270: e082 a0bf 5754 cabf 51fd 90bf f528 33bf
00000280: 3ff9 193d 6481 e5bc 05ce 8b3f b100 c7be
00000290: c8cb cf3e 797e d7be 6482 19bd 6179 82bf
000002a0: 9070 953e 2be5 47bf 3b92 85bf 003b 313d
000002b0: fccc 60be 7c6a 263f c895 abbf 4edc 0b3e
000002c0: b060 a8bd 572a 9bbe 0fa7 5fbe c04c 33bf
000002d0: 7159 ec3e adc0 70bc 08c5 28bb 4782 dabe
000002e0: 196d 66bf 5f91 29bf 344d b4bd 4d23 b7be
000002f0: 5d82 7a3e 0b5e 283f 84bd 0abf 268e a4be
00000300: be46 b4bd 0713 003f df44 cdbe eff4 6fbf
00000310: 28ac 753e 253f 35bf 5579 e7bd cfd2 3e3e
00000320: 0b6c 4dbb a086 a8be 138e 49be dd97 663f
00000330: 4228 72bf 6b04 943d daee ec3e 3af4 bf3d
00000340: 3f88 ecbe 78ad e63e 3a16 923f 7e06 a3bd
00000350: af21 25bf 4978 053f ad34 0f3e 6715 a03d
00000360: fba1 94be f4fe d83f 7b5d aa3e e823 0a3d
00000370: d065 f43e 1f66 1cbf df27 41bf 89b1 abbf
00000380: 1a37 69be 6f04 09bf 39fb 053e 48fd c93d
00000390: 749b 92bf e865 133e 14d3 f13e 6326 593e
000003a0: ceef 233f dad4 463e 18e0 6a3f d15f 773e
000003b0: 9411 debe fca3 5c3f 99e4 ae3d fc2b 95be
000003c0: 2741 3dbe 863c 2bbe 6a70 59bf a483 04bf
000003d0: 656e 87bf a9d1 633c 46e0 15bf 7624 b5be
000003e0: 793e 85bf 5291 443d ee5b 3c3e 4206 9cbe
000003f0: ee0f 40be 0ab4 92be fd02 a7be f99e 2f3f

l2.weight f4 [300, 400]
0.0015449348 0.010393455 -0.0348901 -0.039677463 -0.05281371 -0.024700476 -0.049622934 0.012105082
-0.00016895802 0.0114034 0.04733336 -0.015863925 -0.03306822 0.008287944 -0.089942716 -0.060906924
-0.08915162 -0.049465608 -0.013615854 -0.024752552 -0.03738687 0.025266133 0.023654679 -0.00026663818
-0.08011481 0.031651426 -0.047582477 0.031333886 -0.02168215 0.03149313 0.04293804 -0.0033071525
-0.06802188 -0.0315498 -0.050482966 -0.022391476 -0.04455489 0.02393942 0.021800313 -0.029402006
0.0066129006 -0.027184404 -0.030972335 0.0020750873 0.0131642455 -0.08582499 0.013935489 -0.08060228
-0.008378704 0.0063668266 -0.03105778 -0.034081534 -0.037074734 -0.053247444 0.013425204 0.00018310893
-0.1288285 -0.007576864 0.00886517 -0.00033977316 -0.038241196 -0.0046172813 0.04434395 -0.055776626
-0.05224534 -0.07743149 -0.08625855 -0.032751564 -0.045725383 -0.07826171 -0.035843458 -0.037596893
-0.073628455 0.013403867 -0.021795351 -0.0445898 -0.01469475 -0.023511274 -0.07946764 -0.0025790255
-0.037858095 -0.09104704 -0.008335388 -0.017115515 0.042367708 -0.097472586 0.0437732 0.01976422
-0.057998728 0.0017579407 0.04682022 -0.0061496994 0.021290127 -0.05747125 -0.01866986 -0.0023957267
-0.018810596 0.0004396638 -0.03563257 0.028317701 0.00767513 -0.1107178 -0.021871716 -0.0224904
0.023823466 -0.057291474 0.00567427 0.012634064 -0.003922522 -0.05177485 -0.012701665 0.011320118
-0.020156292 0.02059839 -0.05191675 -0.09065003 0.037109684 0.04222111 -0.004770842 0.011541998
0.035746794 0.0009651141 -0.019926589 -0.07253065 -0.026128942 -0.036158223 0.04701968 -0.026382212
-0.039961122 -0.0025153828 0.025019709 -0.004445938 -0.10863224 0.027976742 -0.037476853 0.004250745
-0.013764797 -0.06723552 -0.12689608 -0.042257745 -0.07423883 -0.05115382 0.019693535 -0.07376246
-0.021647941 0.003011176 0.0011893534 -0.025661184 -0.038538102 -0.03945418 -0.060968544 -0.06302081
-0.102770396 -0.045450304 -0.022677278 0.0025362312 -0.08102664 -0.030160785 -0.058027536 -0.04387597
-0.050014768 0.00044214676 -0.00012224662 -0.02695311 -0.06277391 -0.006712778 -0.06265595 -0.01803999
-0.029329317 -0.014569944 -0.061778788 -0.038851716 -0.004691016 -0.033272322 -0.016333863 -0.046693087
-0.032614592 0.0024434114 0.0029651448 -0.013735092 0.032570656 0.00072094053 -0.06207844 0.027435968
-0.0040014954 -0.069432676 0.032318667 0.042176705 0.04204691 -0.05303067 -0.010803799 0.007896761
0.037277374 -0.10236524 -9.1680726e-05 -0.007415782 0.01497471 -0.04649565 -0.007290385 0.035235174
0.02056841 0.042615995 -0.03591143 -0.040379997 -0.047266368 -0.016726334 -0.022002144 0.025686514
-0.03633682 -0.014849007 -0.030705515 -0.027233012 -0.018092064 -0.037381392 -0.0053831376 0.025404796
0.012113356 -0.07241077 -0.04161847 0.03747203 -0.029179975 -0.0011145691 -0.01694032 -0.04444909
-0.000508766 -0.01917756 -0.043596826 0.05266226 -0.0089162905 -0.014360458 0.023975885 -0.016139835
0.0051151644 0.017950982 -0.022757474 -0.027058776 -0.021110322 -0.011681495 0.02143893 -0.0016285488
-0.036551304 0.018377848 -0.05071925 -0.022737062 -0.06045323 0.02251998 -0.002743856 -0.009159438
-0.07230076 0.009764121 -0.025795562 0.005681642 0.03335707 -0.052252416 -0.024670668 -0.029030625
00000000: 697f ca3a 4f49 2a3c ece8 0ebd d684 22bd
00000010: 3053 58bd a758 cabc 6b41 4bbd 6554 463c
00000020: 532a 31b9 54d5 3a3c a0e0 413d 10f5 81bc
00000030: 8b72 07bd 28ca 073c e333 b8bd 8a79 79bd
00000040: 2095 b6bd 739c 4abd 0815 5fbc ddc5 cabc
00000050: f922 19bd ecfa ce3c 75c7 c13c 92cb 8bb9
00000060: 3c13 a4bd eda4 013d d8e5 42bd f657 003d
00000070: c49e b1bc f1fe 003d ccdf 2f3d d0bc 58bb
00000080: 0e4f 8bbd 5d3a 01bd 3ac7 4ebd 546e b7bc
00000090: 307f 36bd 9a1c c43c 9296 b23c 7adc f0bc
000000a0: 08b1 d83b d4b1 debc b2b9 fdbc 30fe 073b
000000b0: d9ae 573c 03c5 afbd ad51 643c cf12 a5bd
000000c0: d546 09bc d0a0 d03b e36c febc 1499 0bbd
000000d0: addb 17bd fe19 5abd 63f5 5b3c ee00 4039
000000e0: 9eeb 03be 5847 f8bb 383f 113c 9523 b2b9
000000f0: cda2 1cbd 904c 97bb 00a2 353d 0876 64bd
00000100: 36ff 55bd 6794 9ebd 53a8 b0bd 8126 06bd
00000110: 8a4a 3bbd ad47 a0bd 97d0 12bd 33ff 19bd
00000120: 84ca 96bd e59b 5b3c 2a8c b2bc cba3 36bd
00000130: 40c2 70bc b79a c0bc eebf a2bd de04 29bb
00000140: 1711 1bbd df76 babd 2791 08bc d635 8cbc
00000150: c389 2d3d b59f c7bd 874b 333d 93e8 a13c
00000160: 1390 6dbd b46a e63a 8fc6 3f3d 6b83 c9bb
00000170: a268 ae3c f966 6bbd 89f1 98bc a001 1dbb
00000180: ae18 9abc ad82 e639 75f3 11bd 86fa e73c
00000190: a87f fb3b 04c0 e2bd 502c b3bc ca3d b8bc
000001a0: 6e29 c33c 77aa 6abd 3aef b93b 1bff 4e3c
000001b0: 8088 80bb dd11 54bd a51a 50bc 0478 393c
000001c0: cf1e a5bc f4bd a83c a8a6 54bd b9a6 b9bd
000001d0: 5300 183d 0bf0 2c3d b954 9cbb a61a 3d3c
000001e0: 3b6b 123d b6ff 7c3a 163d a3bc f38a 94bd
000001f0: 5d0c d6bc a51a 14bd b597 403d 821f d8bc
00000200: 46ae 23bd 1fd9 24bb 22f6 cc3c 3baf 91bb
00000210: 947a debd 7b2f e53c 5481 19bd d549 8b3b
00000220: be85 61bc c7b2 89bd 0cf1 01be 7516 2dbd
00000230: 870a 98bd ab86 51bd 5654 a13c c610 97bd
00000240: 0657 b1bc 2657 453b 14e4 9b3a 6737 d2bc
00000250: 21da 1dbd b59a 21bd 27ba 79bd 0e11 81bd
00000260: 4979 d2bd 192a 3abd b3c5 b9bc e636 263b
00000270: 4cf1 a5bd c013 f7bc 48ae 6dbd 4ab7 33bd
00000280: 49dc 4cbd efcf e739 542f 00b9 c5cc dcbc
00000290: 9c8f 80bd ddf6 dbbb c351 80bd 9ac8 93bc
000002a0: 0944 f0bc c6b6 6ebc c10b 7dbd fa22 1fbd
000002b0: 18b7 99bb 8f48 08bd 98ce 85bc 4041 3fbd
000002c0: e196 05bd a421 203b e052 423b 2709 61bc
000002d0: cf68 053d 80fd 3c3a f645 7ebd 65c1 e03c
000002e0: fa1e 83bb b832 8ebd 9460 043d 7bc1 2c3d
000002f0: 6139 2c3d b036 59bd 6b02 31bc 6b61 013c
00000300: 29b0 183d dea4 d1bd b744 c0b8 1700 f3bb
00000310: 7c58 753c 3972 3ebd 2fe4 eebb c252 103d
00000320: 157f a83c 1c8e 2e3d dd17 13bd 7f65 25bd
00000330: 619a 41bd aa05 89bc d73d b4bc 866c d23c
00000340: ebd5 14bd 4049 73bc 228a fbbc c417 dfbc
00000350: cf35 94bc 3b1d 19bd 0865 b0bb b81d d03c
00000360: 1977 463c 194c 94bd 2178 2abd 457c 193d
00000370: d80a efbc bc16 92ba 6dc6 8abc 4010 36bd
00000380: b55e 05ba 421a 9dbc 9692 32bd 62b4 573d
00000390: a215 12bc 2048 6bbc 1369 c43c b037 84bc
000003a0: 1c9d a73b f00d 933c e26d babc 5eaa ddbc
000003b0: 8eef acbc be63 3fbc b2a0 af3c 0875 d5ba
000003c0: d2b6 15bd 248d 963c fdbe 4fbd 1343 babc
000003d0: ce9d 77bd d27b b83c 44d2 33bb 7811 16bc
000003e0: 6c12 94bd b1f9 1f3c 3751 d3bc 112d ba3b
000003f0: 6ca1 083d a106 56bd 241a cabc a2d1 edbc

l2.bias f4 [300]
-0.10164592 -0.11073448 -0.059137728 -0.092982374 -0.033049226 -0.14816219 0.3505187 -0.06026121
-0.1058767 -0.28596553 -0.06698754 0.62000465 -0.039695054 -0.0147924805 -0.83442414 0.093588695
-0.0882266 0.010877213 -0.15843566 -0.011288999 -0.08496088 -0.07097701 -0.31816447 -0.19420952
0.00095737143 0.019152157 -0.04673594 -0.01556367 -0.22587639 -0.019813837 -0.06748176 -0.13672914
-0.3954443 -0.34976715 -0.41821364 0.37262866 -0.083411396 -0.051014375 -0.12635885 -0.14362155
-0.01388326 0.08465801 -0.25543198 0.081689335 -0.059876908 -0.1610498 -0.30032912 0.041760035
0.0877795 -0.16061902 -0.13950393 0.4063534 -0.024948638 0.004523265 0.21570161 0.26269767
-0.051501483 0.29452804 -0.30958703 -0.020148272 -0.27731642 -0.7698869 0.006876357 0.0414077
-0.24815522 0.21265009 -0.040784754 0.14788638 -0.011871942 -0.3996739 -0.042561557 -0.33347425
0.29856798 -0.015115859 -0.018737767 -0.012328435 -0.011356624 -0.72675586 0.06875807 -0.00753843
0.018147118 0.14126404 0.10411294 -0.07281814 -0.032870445 -0.24672931 -0.024311334 0.14531639
0.09326707 -0.044611678 -0.081145674 -0.0012562762 -0.081791304 -0.0184682 -0.06706666 0.5770252
-0.05867155 -0.0932917 -0.023507355 -0.039357 -0.12384397 0.54755515 -1.0055363 -0.027615834
-0.036465246 -0.15566811 -0.0098390225 -0.43127573 -0.5578942 -0.021004528 0.24441306 -0.009348682
-0.056216046 -0.06311164 -0.05273971 0.103785515 -0.067233175 -0.10212353 -0.051843785 -0.07752691
-0.5947653 -0.039748274 0.119528584 -0.74030584 -0.25389645 0.16313626 0.24951586 -0.045970775
-0.32619762 -0.021319093 -0.3728414 0.889801 -0.06840416 -0.2625699 -0.98758817 -0.030960713
-0.010347769 -0.6988153 -0.18836491 -0.15914188 -0.05835818 -0.08217645 0.0010358315 -0.04453723
-0.6912312 -0.3621164 -0.17538702 0.4251825 -0.06600287 -0.025191095 -0.012827516 -0.080011226
-0.040570587 -0.17404594 0.41262788 -0.46934626 -0.36147422 0.5470768 -0.38751888 -0.061113574
-0.045676865 -0.13568336 -0.043310706 -0.03140912 -0.00089751673 -0.026913553 -0.016332516 0.22193733
0.0047496078 -0.009533652 -0.054861758 -0.76103544 -0.018478226 0.5085783 -0.04805085 -0.31525654
0.42511192 0.41683134 0.012504771 -0.028382765 -0.07842619 -0.061713986 -0.07119003 -0.09281642
-0.19922848 -0.47324598 -0.06296888 -0.038701594 -0.054260157 0.08759304 0.31004453 -0.0528107
-0.06438651 -0.08772306 -0.10851448 -0.3515847 -0.43296754 0.14926158 0.45338777 -0.56576014
0.38050234 -0.055700477 -0.029741513 -0.15303192 -0.0060106176 -0.08210217 0.29315367 0.063982226
-0.055535227 -0.05954576 0.5936513 -0.42194727 -0.79347855 0.0038031102 -0.08772088 -0.562099
-0.04627363 0.03585327 -0.32771623 -0.20760764 -0.40412807 0.016168233 -0.07377765 -0.048189133
-0.04011521 0.054718718 -0.00056845695 0.12047513 0.06452534 -0.25326625 -0.22097479 0.029837681
-0.016889898 0.3559721 0.19130602 -0.02131466 -0.15023209 -0.13850383 0.033940185 -0.01611775
-0.011850972 0.46740246 0.29655892 -0.37384355 0.27053073 0.010388021 0.39492014 -0.026462168
-0.40629232 7.465216e-05 -0.038370494 0.016475707 -0.13323152 -0.39810246 -0.95404774 -0.27495265
00000000: bc2b d0bd c2c8 e2bd 673a 72bd 8b6d bebd
00000010: a05e 07bd d4b7 17be 3077 b33e 75d4 76bd
00000020: e2d5 d8bd 136a 92be c330 89bd a0b8 1e3f
00000030: 4897 22bd 295c 72bc d29c 55bf 6eab bf3d
00000040: 26b0 b4bd 5736 323c f53c 22be 7ef5 38bc
00000050: f8ff adbd 655c 91bd 74e6 a2be dcde 46be
00000060: 1cf8 7a3a fce4 9c3c 2f6e 3fbd c3fe 7ebc
00000070: 244c 67be a150 a2bc e133 8abd b902 0cbe
00000080: ad77 cabe ae14 b3be 1920 d6be 2fc9 be3e
00000090: 98d3 aabd 73f4 50bd 3764 01be 8711 13be
000000a0: 9d76 63bc 2e61 ad3d fbc7 82be bd4c a73d
000000b0: 7d41 75bd 3dea 24be bdc4 99be 920c 2b3d
000000c0: bdc5 b33d 5079 24be 1eda 0ebe 8e0d d03e
000000d0: 1661 ccbc e637 943b e2e0 5c3e 4f80 863e
000000e0: 38f3 52bd 61cc 963e 3182 9ebe fd0d a5bc
000000f0: 6bfc 8dbe 4f17 45bf 1053 e13b 1f9b 293d
00000100: 671c 7ebe f2c0 593e ea0d 27bd 876f 173e
00000110: 8982 42bc 0fa2 ccbe 0755 2ebd 23bd aabe
00000120: e7dd 983e 82a8 77bc f27f 99bc 34fd 49bc
00000130: 2211 3abc ac0c 3abf 08d1 8c3d ef04 f7bb
00000140: 44a9 943c 85a7 103e 2a39 d53d ad21 95bd
00000150: 29a3 06bd 9ca6 7cbe 9028 c7bc d2cd 143e
00000160: ce02 bf3d bcba 36bd b42f a6bd a2a9 a4ba
00000170: 3382 a7bd 9f4a 97bc 3f5a 89bd ecb7 133f
00000180: 9451 70bd b80f bfbd 7f92 c0bc ce34 21bd
00000190: e8a1 fdbd 932c 0c3f 6ab5 80bf 9a3a e2bc
000001a0: 955c 15bd 7667 1fbe da33 21bc 2cd0 dcbe
000001b0: 27d2 0ebf b011 acbc 6b47 7a3e 372b 19bc
000001c0: cc42 66bd ad40 81bd 9805 58bd 808d d43d
000001d0: 8cb1 89bd 2426 d1bd 265a 54bd 6ec6 9ebd
000001e0: 8a42 18bf 16cf 22bd 67cb f43d af84 3dbf
000001f0: b7fe 81be 310d 273e 1681 7f3e da4b 3cbd
00000200: 6003 a7be 61a5 aebc 11e5 bebe 00ca 633f
00000210: 7b17 8cbd 906f 86be 94d2 7cbf 52a1 fdbc
00000220: b089 29bc 8fe5 32bf bbe2 40be 17f6 22be
00000230: fd08 6fbd 204c a8bd bdc4 873a ac6c 36bd
00000240: 87f4 30bf 5267 b9be a898 33be 85b1 d93e
00000250: 832c 87bd 8e5d cebc 802a 52bc eddc a3bd
00000260: 582d 26bd 1939 32be f643 d33e 274e f0be
00000270: 2613 b9be 3a0d 0c3f e068 c6be 3a52 7abd
00000280: aa17 3bbd 94f0 0abe 9166 31bd d9a6 00bd
00000290: 5447 6bba d079 dcbc c5cb 85bc 8a43 633e
000002a0: 99a2 9b3b 0933 1cbc b9b6 60bd 38d3 42bf
000002b0: a65f 97bc 3032 023f f8d0 44bd 4e69 a1be
000002c0: 45a8 d93e eb6a d53e d0e0 4c3c f982 e8bc
000002d0: e99d a0bd cec7 7cbd 14cc 91bd 8916 bebd
000002e0: 8d02 4cbe 4c4d f2be d4f5 80bd 9085 1ebd
000002f0: e63f 5ebd fb63 b33d 28be 9e3e 0850 58bd
00000300: 13dd 83bd 26a8 b3bd d73c debd e902 b4be
00000310: ecad ddbe 07d8 183e 7122 e83e a8d5 10bf
00000320: 34d1 c23e 2f26 64bd 79a4 f3bc 66b4 1cbe
00000330: b7f4 c4bb 2f25 a8bd 3d18 963e 1d09 833d
00000340: e878 63bd 41e6 73bd 88f9 173f 7909 d8be
00000350: 6921 4bbf 9a3d 793b 01a7 b3bd b8e5 0fbf
00000360: 6b89 3dbd e1da 123d 6cca a7be 1997 54be
00000370: e0e9 cebe 3e73 843c bd18 97bd f861 45bd
00000380: d94f 24bd bc20 603d 8004 15ba aabb f63d
00000390: dd25 843d 1dac 81be 3747 62be 276e f43c
000003a0: af5c 8abc fa41 b63e bae5 433e 159c aebc
000003b0: 71d6 19be f3d3 0dbe dd04 0b3d 5f09 84bc
000003c0: 942a 42bc 604f ef3e 92d6 973e 6c68 bfbe
000003d0: 0183 8a3e 8532 2a3c f932 ca3e 30c7 d8bc
000003e0: 8c05 d0be 938e 9c38 612a 1dbd 10f8 863c
000003f0: d86d 08be 16d4 cbbe 793c 74bf 98c6 8cbe

l3.weight f4 [6, 300]
0.009996078 -0.12766711 0.02685126 0.048855536 0.029713364 0.010635959 0.020640632 -0.010510498
-0.021131413 -0.12142209 -0.060104176 -0.06251383 -0.008795396 -0.056096137 -0.5174989 -0.057144612
0.36177567 0.034913123 0.030328743 0.033534054 0.28876212 0.022286681 0.17630284 0.2688135
-0.024839925 -0.04050548 0.01686006 -0.05186098 0.10501147 0.007960124 -0.0040764003 0.10129011
0.043190833 0.08865514 -0.09314134 0.32327935 -0.016736012 0.14642945 -0.21809255 0.7735806
-0.04269922 -0.021553202 -0.029319944 -0.009218266 0.39632866 -0.3775047 0.008986516 0.17483722
0.3294923 0.012843335 0.090912715 0.28562644 -0.051482223 0.044005282 0.029238114 0.4880137
-0.03825723 -0.025040573 -0.33187345 -0.053904817 0.12042667 -0.19876416 0.49245247 0.8582492
-0.07804439 -0.034330703 0.074811436 0.31971386 -0.049571086 -0.05433805 -0.011899983 0.082651496
0.6766997 -0.034890983 -0.0082802065 -0.0018845735 -0.027839605 -0.08812871 0.078814894 0.011645347
-0.19326408 -0.1582014 0.399635 -0.018606436 0.015969457 -0.49016613 -0.0076741297 0.03433272
0.35954884 0.045072537 -0.02603357 0.011700317 -0.019779524 0.020722235 0.020341704 0.22073087
-0.0026922256 0.016829181 0.030382179 -0.044026382 -0.10543999 0.3094692 -0.10541942 0.015264984
-0.017038617 0.23757996 -0.026109023 -0.4089757 -0.22717376 -0.009881235 0.37570137 0.019223476
0.028473714 0.019664865 -0.024904596 0.3964066 -0.042217318 0.80037844 -0.008542887 0.0075993575
0.046150915 0.015361025 0.57461905 0.1876306 0.024754629 0.24824719 0.20445281 0.01303523
0.0841849 0.20958461 -0.015679609 0.3234879 0.76838857 0.16770087 -0.20748194 -0.007849302
0.02452774 -0.4355418 0.390132 -0.29564503 -0.04164051 0.05239622 0.13413265 0.019851524
-0.055720035 0.12997001 0.061252743 -0.15219302 -0.024721248 -0.010937519 -0.016653433 0.00091148034
-0.009692062 0.448922 0.06946058 0.33942372 -0.19099191 0.32431 0.16232333 0.042058505
0.029859414 -0.038745496 0.01975133 -0.028832495 -0.035482626 -0.046531253 0.030404462 0.4306088
0.05024791 -0.041130397 -0.022519642 -0.21239427 0.027493473 0.46348488 0.009033531 -0.11371013
0.14955708 0.32891604 0.015322833 0.11537086 0.0301058 -0.03191956 0.020445466 0.034280133
0.007856483 -0.014183851 0.039194245 0.007959899 0.023985982 0.18779236 0.10988565 0.021766372
0.050456025 -0.011239056 -0.091813534 -0.15630029 -0.247337 0.53905064 0.43432415 0.2486035
0.43079308 -0.0051343716 0.029619602 -0.019285321 -0.039257925 -0.021594066 -0.071421154 0.011274667
0.022547608 0.051288947 0.65718424 0.0614339 0.18969099 -0.044080965 -0.030438704 -0.26090237
-0.04032169 0.0014836853 -0.19448827 -0.16289724 -0.43739602 0.01976352 0.05124981 -0.04322994
-0.070528515 0.2866777 0.013219364 0.52699476 -0.47666365 0.10342785 -0.054426406 0.021921897
-0.046968102 0.53487146 0.029573025 0.08825958 0.5109327 -0.11661852 -0.12143716 0.03904194
0.3178021 0.29179406 0.5245466 -0.19375418 -0.37786618 0.0004435141 0.24405383 -0.012017107
0.011501036 0.04500757 -0.035011977 0.01907292 0.13019648 -0.12714367 0.29793143 0.1958196
00000000: 97c6 233c 2bbb 02be 2cf7 db3c be1c 483d
00000010: 7169 f33c 7242 2e3c 8b16 a93c 3934 2cbc
00000020: c91b adbc 25ac f8bd cc2f 76bd 4007 80bd
00000030: 911a 10bc 10c5 65bd cf7a 04bf 7810 6abd
00000040: a93a b93e 1001 0f3d fc73 f83c 015b 093d
00000050: a1d8 933e 8f92 b63c bb88 343e eca1 893e
00000060: 197d cbbc 13e9 25bd 1c1e 8a3c 2e6c 54bd
00000070: 4110 d73d 2e6b 023c 5393 85bb 3071 cf3d
00000080: dfe8 303d d390 b53d e3c0 bebd df84 a53e
00000090: f619 89bc 9af1 153e a753 5fbe 6109 463f
000000a0: 61e5 2ebd 5790 b0bc 6130 f0bc 3608 17bc
000000b0: 97eb ca3e 4c48 c1be 2e3c 133c 8708 333e
000000c0: 37b3 a83e da6c 523c 7230 ba3d a13d 923e
000000d0: 06df 52bd e23e 343d c584 ef3c efdc f93e
000000e0: 9db3 1cbd e321 cdbc 51eb a9be 4ccb 5cbd
000000f0: 42a2 f63d d588 4bbe bb22 fc3e 38b6 5b3f
00000100: bdd5 9fbd 5a9e 0cbd bd36 993d 89b1 a33e
00000110: 0d0b 4bbd 9391 5ebd 25f8 42bc 3045 a93d
00000120: 313c 2d3f d9e9 0ebd b4a9 07bc cb03 f7ba
00000130: e20f e4bc d37c b4bd b469 a13d 20cc 3e3c
00000140: 05e7 45be 8cff 21be f59c cc3e 866c 98bc
00000150: 61d2 823c 0ef7 fabe 4477 fbbb 77a0 0c3d
00000160: c916 b83e fb9d 383d 5a44 d5bc b0b2 3f3c
00000170: ab08 a2bc adc1 a93c a5a3 a63c 4607 623e
00000180: 0d70 30bb 5add 893c 0ce4 f83c 0255 34bd
00000190: ecf0 d7bd bf72 9e3e 23e6 d7bd fc19 7a3c
000001a0: 9294 8bbc 2948 733e 97e2 d5bc 4365 d1be
000001b0: 3da0 68be e7e4 21bc ee5b c03e 8d7a 9d3c
000001c0: b541 e93c 3618 a13c b904 ccbc cef5 ca3e
000001d0: 11ec 2cbd 9ae5 4c3f 77f7 0bbc 0804 f93b
000001e0: be08 3d3d cfac 7b3c 3c1a 133f 3c22 403e
000001f0: 38ca ca3c 8334 7e3e 145c 513e b891 553c
00000200: 2269 ac3d 599d 563e 8672 80bc 35a0 a53e
00000210: 1db5 443f c7b9 2b3e 2576 54be 5c9a 00bc
00000220: 66ee c83c 56ff debe 62bf c73e c95e 97be
00000230: 3d8f 2abd 6b9d 563d 125a 093e aa9f a23c
00000240: b13a 64bd dc16 053e 28e4 7a3d 7dd8 1bbe
00000250: 3784 cabc 4833 33bc c86c 88bc 69f0 6e3a
00000260: 74cb 1ebc 1bd9 e53e 5941 8e3d f2c8 ad3e
00000270: 6293 43be f60b a63e 1638 263e 8a45 2c3d
00000280: bb9b f43c 99b3 1ebd 8bcd a13c 2032 ecbc
00000290: 3b56 11bd 8e97 3ebd c712 f93c c278 dc3e
000002a0: c1d0 4d3d 5978 28bd 1d7b b8bc e27d 59be
000002b0: fe39 e13c e44d ed3e 6001 143c dbe0 e8bd
000002c0: 7e25 193e af67 a83e 9f0c 7b3c 8f47 ec3d
000002d0: 70a0 f63c 16be 02bd 407d a73c 5369 0c3d
000002e0: 7ab8 003c 6263 68bc 258a 203d 3c6a 023c
000002f0: 407e c43c a44c 403e ba0b e13d 644f b23c
00000300: faaa 4e3d 0424 38bc bc08 bcbd 2f0d 20be
00000310: e945 7dbe 39ff 093f bc5f de3e ea91 7e3e
00000320: e990 dc3e 3b3e a8bb cfa4 f23c 40fc 9dbc
00000330: ebcc 20bd 0ae6 b0bc 4145 92bd 62b9 383c
00000340: c3b5 b83c 5c14 523d 3a3d 283f 1da2 7b3d
00000350: 5b3e 423e 3e8e 34bd 975a f9bc ff94 85be
00000360: 5b28 25bd 3878 c23a ef27 47be 89ce 26be
00000370: 5ff2 dfbe 1be7 a13c 52eb 513d e111 31bd
00000380: 4171 90bd 6bc7 923e 0896 583c 21e9 063f
00000390: 420d f4be fbd1 d33d 39ee 5ebd 8d95 b33c
000003a0: a061 40bd 56ed 083f 2143 f23c 70c1 b43d
000003b0: 7ccc 023f b1d5 eebd 0cb4 f8bd 71ea 1f3d
000003c0: f5b6 a23e 0866 953e b048 063f 7f67 46be
000003d0: ad77 c1be 7487 e839 3fe9 793e 66e3 44bc
000003e0: d76e 3c3c dc59 383d b868 0fbd d03e 9c3c
000003f0: 3a52 053e f331 02be 788a 983e ef84 483e

l3.bias f4 [6]
0.23238103 -0.27214324 -0.04385443 0.22878529 -0.22129014 -0.15283139
00000000: 4bf5 6d3e 5c56 8bbe b4a0 33bd b146 6a3e
00000010: e299 62be d57f 1cbe
