results/runs/single_assembly_step/Average_TD3_10_Peg-in-hole-single_assembly_seed_2/1000_actor.pth (torch_old, 510312 bytes, 6 tensors)

l1.weight f4 [400, 12]
00000000: 410d 223d 1c51 9abd c592 873d 34a6 65bc
00000010: 760d fb3d c05e 8e3d 93e9 26bd 3792 71be
00000020: 5f36 b43d 7840 8abe 8e84 5d3d 9de5 033d
00000030: 6001 82bd c4b6 713e 30d2 9d3c 2029 f53d
00000040: 1032 fa3d c062 2ebe bc47 e3bd be24 8e3e
00000050: b5c4 90be 709d a0bc 7069 bbbc 9aac 513e
00000060: 10fa 27bc 3ab3 923d c85b ddbc 17af 2abe
00000070: 5736 22be 3614 24be 1ac3 90be 63f6 36be
00000080: 492a 323d 14e5 523e ef92 d33c af03 09be
00000090: 9ba2 1d3e badf 14be c459 9bbd 9477 1dbe
000000a0: 8810 c3bd caf9 68be 3a96 373e 4cf2 153e
000000b0: 54a0 c43d e7d0 303e fad2 833d 2767 3c3d
000000c0: c072 fa3c c094 b43c b6bb 1d3e 1292 463e
000000d0: 4649 543e 5655 2b3e 4c24 90bd a08d 52bc
000000e0: f84a 70bd 3ef6 2b3e 1051 033d c0cb 883e
000000f0: 9ced 153e f9a3 7cbe 0dec ac3d d004 8e3e
00000100: b048 833e 80a6 94bb 2c24 c43d eea5 8abe
00000110: 1e78 bcbd d625 103e 50a4 86be eac3 803e
00000120: 5db5 25be e8c3 f93c 351e 02bd 792d 693d
00000130: ba18 b33c 610f 55be 5749 da3c 56cc 22be
00000140: 77bc 983e 2a15 f83b 89bd bbbe 2dd9 f73d
00000150: ceb5 223e 5299 36be 80e8 01bd 2cec 0a3e
00000160: b213 43be 6136 aebd 550b fe3c 5e40 18be
00000170: 8acf 613e a9e9 813d e64a e23d 775f 473e
00000180: 8b24 87be 09bf f7bd 7f4d 30be 6f12 cabd
00000190: 7fe3 cbbd fc15 c5bd a8fe b9be a869 b23d
000001a0: 0743 c83d 837a 4e3d ef12 833e 6e6d 383e
000001b0: fae7 91be 109c 323d 3e1a 893e 873a 56be
000001c0: 689e 03be 6012 79bc d2e3 37be 08dd 5ebd
000001d0: d8b9 2ebd e0af 833e 90b2 94bc 224c 203e
000001e0: 4c36 3a3e 9b11 0e3e b20d 7cbe e69a 583e
000001f0: 1bf3 473e b3bd 5ebe 3766 dcbd 4343 183e
00000200: d0cf 99be b712 8abe aff0 3fbe 2699 a83d
00000210: 1e6e f1bd c6d0 83be 642b e53d e485 153e
00000220: 9871 dd3d ce43 7dbe caea 8f3e 506d b2bc
00000230: 89ac 8cbe 7c00 32bd 1813 413e 4a22 083e
00000240: d4c7 1cbd 6a41 743e e292 70be 4526 493e
00000250: f8b7 943e 193f 3cbe 8b5b 613d 3ab7 9fbd
00000260: 787f 76be 052c bbbc 51e6 cabd 4bee 80be
00000270: a065 57be c066 ce3b 9e05 893e c8ab d33d
00000280: 00ad 44be 4ae4 4b3e 401d c23c 686c 90be
00000290: 405a 603c 94c2 3d3e f8d0 2dbe 609e 59bc
000002a0: f154 27be 3020 50be dff3 12be 0214 d23c
000002b0: e58c 423e 0487 85bd d935 83be e701 fabc
000002c0: 2d00 76be 1f82 c23b e0ed 5b3e dcc3 e63d
000002d0: c381 32be cf93 80bd 6f16 ef3d 3de8 a13d
000002e0: 483d 8bbe 71bf 2bbe 1d32 97bd e735 0b3e
000002f0: 23b9 843e 37cc 113e 5fae b53d 9b9a 80be
00000300: 6c96 0b3e 2f5c 153e 259b a9bd 15e7 13be
00000310: dc4e b43d dd8e 5abe 18e6 d03c 6c42 3e3e
00000320: 0db0 85be 07d7 6ebe c193 18bd de3d 95be
00000330: 089b 07bd 661d 383e e845 dd3d cc84 bebd
00000340: 48ca 12bd 008c 00be 809f 6ebe fa5c a1bd
00000350: 7034 a33c 5fe8 15be 7a75 5dbe a4b1 ac3d
00000360: 8121 d23d 978a 3cbe d49f 28bc 5db2 903e
00000370: 3a90 78b9 cb8a 0bbe 86ed b23e 76d7 8c3e
00000380: 0288 393d 991c 81bd 1649 4ebe 16fa 9b3e
00000390: 6afe 033e 287c 02be 2a69 193d 3ed2 713d
000003a0: 7fa3 9c3d a37a 91bc 51c6 1abe 70a7 12bc
000003b0: ad07 74bd d478 c6bd c5a4 12be 6c55 0fbe
000003c0: 7347 16be 5272 e13d b724 80be fc7a 8cbe
000003d0: 1686 7c3e 524f da3d fa03 fa3d 1020 c43d
000003e0: 64b9 dbbd f965 4fbe 8aee 2abe e5b0 6abc
000003f0: 9fe2 b43d c7d6 8ebe 2dcc 60be 00b7 283e
0.03956342 -0.07535002 0.06619791 -0.014016677 0.12258427 0.06951666 -0.040750097 -0.23590933
0.08799433 -0.2700231 0.054081492 0.0322014 -0.063479185 0.23604876 0.019265264 0.119707346
0.1221658 -0.17029858 -0.110976666 0.27762407 -0.28275076 -0.019606322 -0.022877425 0.20475999
-0.010252491 0.07163091 -0.027021304 -0.16668354 -0.15841042 -0.16023335 -0.2827385 -0.17867427
0.043497358 0.20595199 0.0258269 -0.13380311 0.1539406 -0.1453847 -0.07585481 -0.15377647
-0.095246375 -0.22751537 0.179284 0.1464321 0.09600893 0.1726719 0.06436725 0.04599681
0.030572295 0.022043586 0.15403637 0.19391659 0.20731077 0.16731772 -0.07038173 -0.012851149
-0.058665246 0.16793153 0.03205973 0.2671795 0.14641422 -0.24671926 0.084434606 0.27738047
0.25641394 -0.00453645 0.09577212 -0.2707972 -0.09202598 0.14076933 -0.26297235 0.2514947
-0.16182466 0.030488923 -0.03176709 0.05692813 0.021862376 -0.20806648 0.0266463 -0.1589826
0.29831287 0.0075708823 -0.3666804 0.1210197 0.15889665 -0.17831925 -0.03171587 0.13566655
-0.19050482 -0.08506466 0.031011263 -0.14868304 0.22051826 0.06343395 0.11049442 0.1947001
-0.26395068 -0.12096984 -0.17217062 -0.09866797 -0.09955501 -0.09623334 -0.363271 0.087115586
0.097784095 0.050409805 0.25600383 0.18010494 -0.28497297 0.043605864 0.26777834 -0.20920764
-0.12853396 -0.015202135 -0.17958 -0.05441001 -0.042657703 0.2572012 -0.018151551 0.15654042
0.18184775 0.13873903 -0.246146 0.21152839 0.19526331 -0.21752052 -0.107616834 0.14869408
-0.3004136 -0.26967403 -0.18744157 0.08232336 -0.11788581 -0.2574522 0.11189917 0.14601856
0.10812682 -0.24732897 0.28108817 -0.02178064 -0.27475384 -0.043457493 0.1885494 0.1329433
-0.03827651 0.23853078 -0.23493531 0.19643505 0.29046607 -0.18383445 0.055018943 -0.077986196
-0.24072063 -0.022848139 -0.099072106 -0.25181803 -0.2103486 0.00629887 0.26762098 0.10335499
-0.1920662 0.19911304 0.023695588 -0.28207707 0.013693392 0.18531257 -0.16974247 -0.013282388
-0.16340996 -0.20324779 -0.14350842 0.025644306 0.1899906 -0.06519893 -0.2562702 -0.030518485
-0.24023505 0.005935922 0.21477461 0.11267826 -0.17432313 -0.06278192 0.11674201 0.07905624
-0.2719519 -0.16772248 -0.07382605 0.13594781 0.25922498 0.14238058 0.08871149 -0.25117955
0.136316 0.14585947 -0.082815446 -0.1444362 0.08804104 -0.2134356 0.025500342 0.18580025
-0.2611088 -0.23324214 -0.037250284 -0.29148763 -0.033106834 0.17979965 0.10804349 -0.09302673
-0.03583744 -0.12553406 -0.23303032 -0.07879062 0.019922465 -0.14639424 -0.21626845 0.0843232
0.102602966 -0.18412243 -0.010292012 0.2826108 -0.00023704852 -0.13627164 0.3494684 0.27508134
0.045295723 -0.06304283 -0.20145068 0.30464238 0.1289002 -0.12742674 0.037453808 0.059038393
0.07648372 -0.017758673 -0.15114714 -0.008951053 -0.059577633 -0.09691015 -0.14320667 -0.1399743
-0.14675693 0.11008133 -0.2502801 -0.2743758 0.24660525 0.106596604 0.1220779 0.09576428
-0.1072872 -0.20253743 -0.16692558 -0.0143244015 0.08832287 -0.27898237 -0.21952887 0.16476059

l1.bias f4 [400]
00000000: a6cd db3d 93dc 3cbe 9362 93bd 2d73 22bd
00000010: c008 4dbc b8d6 2cbd 7b42 713c 409a 993e
00000020: 45c7 87be cc2f 213e cdbe 923c 5e5e 433e
00000030: 857b 43be f85c 3c3d c04c 51be 3784 6a3d
00000040: 8a65 783e d0ab 993d 2ef2 263e 8750 503d
00000050: b533 2b3e d250 723e a02c 04ba 09c9 18be
00000060: 9446 133e d6e5 90bd 67ad 7abc 6498 2b3d
00000070: f55b f9bd 3398 24be 051b 41be ed52 183e
00000080: 0e9d 3cbe 94a8 633e 5a4d 79be 4cd5 e43d
00000090: d478 9bbe 94f9 afbd 5cfd 0fbe 651e 5b3d
000000a0: 47c9 62be a5e9 63be 694e 993d 5816 323d
000000b0: c13e 82be d02f ff3d a4fa 5cbd 00c1 0fbb
000000c0: 8632 7a3e eb4b 63bd d9ba 443d 2d9b 4a3e
000000d0: 1d83 13bd 585b a13d 1a8a 993d a353 45be
000000e0: 8a75 80be 81f2 9abd f0a8 3a3e 372c 833e
000000f0: 6f20 58be a7da 663d ca87 333e 8c96 793e
00000100: 641d cb3d 9f20 2cbe c7d5 02be b8a6 073d
00000110: 135f 3d3e 4871 8b3e 9b8e 10be 95a8 353e
00000120: 031b 7fbe 060f 203e 40e5 0c3e cc91 02be
00000130: 092e f7bd 97d3 98bd b4d5 163e b731 0d3d
00000140: e71e 0ebe 2b53 68be fccc 9ebe c0ec 08bd
00000150: 9b51 c3bd 5583 0f3e 2df9 8b3c da60 753d
00000160: 70f8 753e 1a7b 94be 2cf0 763e ac0a d13d
00000170: d46e 22be bca8 64be 3529 23be a280 873e
00000180: 03c7 34be 7ef0 5cbd b5f1 ca3c 0712 72bc
00000190: 8dc9 a43d 3d18 2bbe c4aa 883e e57e 693e
000001a0: f6b8 27be 613e 4dbe 4b7b 84be 7313 0e3d
000001b0: df80 8abe 7182 a83e 6d05 6a3d 6fd2 903d
000001c0: 926f dd3d d966 4d3d 64fa 5abe 9754 8abe
000001d0: 2c59 5d3e 6c09 523e d15f 4c3e f646 833e
000001e0: 4f9e 90be 5448 79be b802 173e 52bc 8e3e
000001f0: 3ccd b23d c0d3 1d3e 382a e63d 1726 8d3d
00000200: 8858 97bd a13c 27be c5c5 52bd d41e 5e3e
00000210: 8547 2cbc 18a9 82be c467 883d e68b 253e
00000220: 3412 b33d 2ac6 99be 6b1d 0cbe 8cd6 013e
00000230: 65e3 253e 9eeb 11be 90e3 44be 97c5 d8bb
00000240: 519c 82be 39f1 3e3e 3c4c d73c d63c 383e
00000250: c194 99bc 7ab6 5c3e 5704 a93d 31f7 fabd
00000260: c7e3 3d3e d9af 55be 485e 8abd c18c 8f3e
00000270: f57e ad3d f98b 33be 19e5 0bbd ecef 4a3e
00000280: 9108 3d3e 9b04 153d 9178 9f3e c4ea 2a3e
00000290: 41bf 113d d1bf 70be b297 6ebd c9da 3e3d
000002a0: 5df5 acbe a256 5d3e b004 55be fcb9 7e3e
000002b0: d68f 05be 807b 623d c438 84be d4d3 253e
000002c0: d8b9 b23d 0c38 b83d c13c 1a3e e876 5e3d
000002d0: fd08 6d3e e43f d23d cee6 fa3d 0dd7 04be
000002e0: 35d8 4abe f92f 81be 29a0 0e3d 1a71 3a3e
000002f0: 5c60 823e b6c9 953e af0a 703e 42da 5cbe
00000300: 2e59 2cbe 0159 2c3e c0a4 b5bc e709 83be
00000310: 36f6 5d3d 340d 54be bc58 153e e65a 79bc
00000320: 1d54 8cbe 9901 043e 2c16 953d 0e02 723e
00000330: 34be 57be 921d 253e 3841 49be 6f69 b93d
00000340: 39a1 4d3e e707 923d 5c2b 57be 7251 8dbe
00000350: c675 473e 7113 673e b9be b3bd fbc8 903d
00000360: 7bab 213e 092f 7bbe 6128 613d d86a 68be
00000370: ac43 81be 63c9 dc3d 0066 8e3e 3347 1e3e
00000380: 251b bfbc 9d56 773e 0d93 b4bd 4dd5 db3d
00000390: 58e3 22bd 07dc 03be 78bc 9fbe d0a3 7d3e
000003a0: a028 0cbe 43f8 e0bd 8707 c43d 4020 f2bb
000003b0: 16d0 bcbd 8d73 e23d 05ee 7a3e 4c0e 8fbe
000003c0: 5993 023e a77b fbbd bc4b 74bd 6790 1b3e
000003d0: de3e 46be 3e21 88be d82f 96bd 36ed 283e
000003e0: c27c 94be bb5a 4e3d 7400 0fbe bad3 febd
000003f0: 20bd 1b3e deaf 913e 4c16 81be 2aec bebd
0.10732584 -0.18443517 -0.07196536 -0.03966062 -0.012514293 -0.04219696 0.014725323 0.30000496
-0.26519218 0.1574089 0.017913247 0.19078967 -0.19090088 0.0459871 -0.20439434 0.057254996
0.24257484 0.07503474 0.16303322 0.050858047 0.16718943 0.23663643 -0.000504205 -0.14920439
0.14382392 -0.07075088 -0.015300131 0.041893378 -0.121757425 -0.16073684 -0.18857963 0.14875384
-0.18419287 0.22232276 -0.24345914 0.11173496 -0.30365622 -0.08592525 -0.14061493 0.053495783
-0.22147094 -0.22257097 0.07485659 0.04347834 -0.25438502 0.124602914 -0.053949967 -0.0021935105
0.24433336 -0.055492323 0.048029754 0.19785757 -0.03601371 0.078787506 0.07497044 -0.19270186
-0.25089675 -0.07565785 0.18228507 0.2561967 -0.21106122 0.056360867 0.17532268 0.24373835
0.09917715 -0.16809319 -0.12776862 0.03311798 0.18493299 0.27234864 -0.141169 0.1774009
-0.24912648 0.15630731 0.13759327 -0.1275093 -0.120693274 -0.074622326 0.14729959 0.03447124
-0.13878976 -0.22687976 -0.31015766 -0.033428907 -0.095370494 0.14014943 0.01708659 0.059906818
0.24020553 -0.2900017 0.24115056 0.102071136 -0.1586259 -0.22329992 -0.15933688 0.26465327
-0.17654042 -0.05394029 0.024773458 -0.014774806 0.08046255 -0.16708465 0.26692784 0.22802313
-0.16379151 -0.20043327 -0.25875315 0.034686517 -0.27051446 0.3291202 0.05713408 0.07071387
0.10812296 0.05014691 -0.21384579 -0.27017662 0.21616048 0.20511407 0.19958426 0.25640076
-0.2824578 -0.24343997 0.14747131 0.27878052 0.087305516 0.15412807 0.11238521 0.06892031
-0.07389933 -0.16331722 -0.05145814 0.21691447 -0.010515098 -0.25519633 0.06660417 0.16166648
0.08743706 -0.30034 -0.13683097 0.126795 0.16200025 -0.14250037 -0.19227433 -0.0066153514
-0.25509885 0.18646707 0.026281469 0.17991957 -0.01874769 0.21553984 0.08252781 -0.12254179
0.18543921 -0.20867862 -0.06756264 0.28037074 0.08471481 -0.17533864 -0.03415403 0.19818085
0.18460299 0.036381345 0.31146672 0.16691118 0.035582785 -0.23510672 -0.058250137 0.04659537
-0.33780947 0.21615079 -0.2080257 0.24875635 -0.1304315 0.05529356 -0.2582456 0.16194087
0.08726853 0.08995065 0.15062238 0.054312617 0.2314796 0.102660924 0.12251054 -0.1297266
-0.19809039 -0.25231913 0.03482071 0.18207207 0.2546414 0.29255456 0.23441575 -0.21567634
-0.16830894 0.16830827 -0.022173285 -0.25593492 0.054189883 -0.20708162 0.1458463 -0.015219426
-0.27407923 0.12891234 0.072796196 0.23633596 -0.2106865 0.16124561 -0.19653785 0.09053313
0.20081033 0.071304135 -0.21012634 -0.276012 0.19478521 0.2256601 -0.08776612 0.07069584
0.15788071 -0.24529661 0.05497015 -0.22697008 -0.25246942 0.10780599 0.27812195 0.15456848
-0.023328373 0.24154134 -0.0881711 0.10734043 -0.039767593 -0.12876903 -0.31198478 0.24769521
-0.13687372 -0.10984852 0.09571748 -0.0073890984 -0.09219377 0.11057196 0.2450486 -0.27940595
0.12751521 -0.12279444 -0.05964254 0.15191804 -0.1935992 -0.26587862 -0.07333344 0.16496739
-0.29001433 0.050379496 -0.13965017 -0.124427274 0.15208864 0.2845449 -0.25212324 -0.093223885

l2.weight f4 [300, 400]
00000000: 49b8 173d 86ab 82bc 7f5b 413d 0059 a6b9
00000010: d068 adbc 62d6 3cbd 8a70 dbbc 750d 45bd
00000020: f87d 12bd 38b3 17bd 94e2 103c 0096 1d3a
00000030: 804e b039 40d6 a53b 227a d53c 467d 973c
00000040: 332b 253d fa07 85bc f729 433d 146b 773c
00000050: 48ab 4ebc 427b 44bd 948f 5dbc e875 aebb
00000060: 4659 d23c 94ba 0ebc c54a 49bd ae0c 923c
00000070: 82f9 15bd 1a2c 3bbd 02d3 d63c e496 7f3c
00000080: 1eee e33c 0d31 2c3d 57a2 42bd b005 f8bb
00000090: 366c e63c 54d3 263c 20fa 4abd 4182 283d
000000a0: c094 113c 6857 043c c40a 8dbc 974a b8bc
000000b0: a8cd d53b 05ec 30bd 0778 b0bc 3809 2cbc
000000c0: 80d4 01bc eb6d 3ebd 86aa d63c 746f 65bc
000000d0: e3f3 efbc 3240 f63c 3be8 0a3d 3dd9 aabc
000000e0: 03e2 40bd d87d 05bd ef28 183d 281a bfbb
000000f0: 4151 273d ddb6 04bd 26d3 27bd 6010 daba
00000100: 7e8b 15bd a6c9 17bd d0f1 c5bb 201a 2dbc
00000110: 177f b9bc 47ab 423d 3a44 d43c 4ca9 3e3c
00000120: b833 4bbc 6080 a8bc 4147 1f3d cc16 513c
00000130: 372a d4bc 62e2 c43c eb9e 043d f5c5 003d
00000140: 005a 7fb9 c254 16bd 3972 443d e952 433d
00000150: 5444 97bc b863 20bd aafb b9bc 1959 363d
00000160: 5843 d33b beb9 a73c 2048 08bb a21e 9e3c
00000170: 7f9e 42bd b06c f0bc 4d41 c4bc cc9d 0b3c
00000180: 9de1 41bd 854a 093d 4dde c2bc 40bc adbc
00000190: c7b0 f6bc 874e dbbc 4016 48bc 05dd 113d
000001a0: baac 9c3c 124c de3c 8a62 8ebc 9878 4bbc
000001b0: 8a9d d7bc 7490 93bc a326 2bbd e3df 1ebd
000001c0: 8f63 023d c3b8 debc 885b 4cbd 7a12 adbc
000001d0: 4642 d33c b4ab 78bc 6d0f f0bc b0a9 d4bb
000001e0: 647c 6d3c 22b6 b13c 359e 323d 5090 04bb
000001f0: 95c7 153d 3efe d53c a6d7 17bd b86a 203c
00000200: 380d 38bd c649 96bc 4056 8d3b 821d f23c
00000210: f59f 44bd e368 2d3d 18f0 99bb 0c04 5bbc
00000220: 80e9 703a a5e4 003d da9b 82bc ded9 b63c
00000230: 7815 6dbc cb8d 3abd f0c9 e53b 060b 0cbd
00000240: 83f7 0ebd f45a 2bbc a5e8 413d 1a8c 35bd
00000250: ca2b f2bc 7476 793c a790 303d 0df9 c0bc
00000260: f26b ba3c 08e1 42bd 0063 96ba cd04 abbc
00000270: c812 11bc 3246 833c 30ca f83b 014c 3e3d
00000280: 91b0 4a3d c333 443d 4a9a 47bd 26ec e63c
00000290: abfb 093d 5076 b33b da16 9b3c 5fbf 44bd
000002a0: 58cf 1a3c 7cee 4d3c 5399 2cbd a376 0fbd
000002b0: a112 0a3d 8dc5 043d e095 7fbc 3d7b b4bc
000002c0: 70fc dbbb 3000 90bb 8094 c8bc 4d37 fbbc
000002d0: 00ab 443c c039 b83b 3a5b 903c 540c 263c
000002e0: 2fb5 38bd ce69 b23c 28be 9cbb 2081 4cbc
000002f0: 96ac 8f3c dfa2 063d 1c44 80bc 7d89 0cbd
00000300: 5af3 e5bc 16df 9e3c d513 28bd f0ce 973b
00000310: 70d6 b6bc 7d36 b4bc 71af 103d c0d9 aa3a
00000320: 00b6 9138 7e65 983c 9216 cf3c 02a1 b03c
00000330: 5673 f93c eeab 903c 79c8 063d 91d3 2e3d
00000340: 1bd3 193d 5263 8a3c 2bc2 38bd ed51 003d
00000350: 3072 9a3b 6d33 2b3d c00f a6bb 342f 27bc
00000360: 3f69 0a3d 32ce 953c cc41 84bc 409f ab3b
00000370: fe1e b83c 7719 39bd 9ac9 32bd e3ab fdbc
00000380: 90fa babb a10d 143d e87f 41bc 301d 5bbb
00000390: 5861 3fbc 8803 5cbc 383c 34bd c8f5 09bd
000003a0: 1a45 b5bc b8da 14bd 2686 b23c 9929 273d
000003b0: ca3a d2bc 4ba4 3fbd 1817 a8bb 42fc 9a3c
000003c0: 60fc 0b3c 398e 0f3d 90b7 bdbb 585f 6abc
000003d0: 3182 0d3d 2732 0e3d 8e12 1ebd c9d6 083d
000003e0: f429 3abc c0e7 a33a ee63 db3c 8009 7d3b
000003f0: 9256 38bd bd9d e6bc 6420 543c 1387 3c3d
0.037040982 -0.01595093 0.047206398 -0.00031728297 -0.021168143 -0.04610289 -0.026787061 -0.048108537
-0.035764664 -0.03703615 0.008843083 0.00060114264 0.00033627823 0.005060941 0.026059214 0.018492352
0.0403244 -0.016239155 0.047647443 0.015101213 -0.012614079 -0.04796911 -0.013523001 -0.005324114
0.025677335 -0.008711476 -0.04914357 0.017828312 -0.036614902 -0.045696355 0.026223663 0.01559994
0.027823504 0.042038966 -0.0475181 -0.0075690374 0.02812777 0.0101822205 -0.049554944 0.041139845
0.008885562 0.00807748 -0.017217048 -0.022496505 0.0065247603 -0.043193836 -0.021541608 -0.010500245
-0.007924199 -0.046491545 0.026204359 -0.014003623 -0.029291099 0.030059908 0.03391288 -0.02085554
-0.04709054 -0.032590717 0.037148412 -0.0058319755 0.040848974 -0.032400955 -0.04097285 -0.001663696
-0.036509983 -0.03705754 -0.006040789 -0.010565311 -0.022643609 0.047526624 0.02591144 0.011637043
-0.012402467 -0.020569026 0.038886312 0.012761783 -0.025899036 0.024033729 0.03237812 0.031438787
-0.00024352223 -0.036701925 0.047960494 0.04768649 -0.018465199 -0.0391576 -0.02270301 0.044518564
0.006447237 0.020474311 -0.0020794943 0.019301716 -0.047514435 -0.029348701 -0.02395692 0.008521508
-0.047334302 0.033518333 -0.023787642 -0.021207929 -0.03011359 -0.026770843 -0.012212336 0.03561117
0.019125331 0.027135883 -0.017380971 -0.0124188885 -0.026320238 -0.018013217 -0.041784894 -0.038787734
0.031833228 -0.02718771 -0.04989198 -0.021126974 0.025788438 -0.015177656 -0.02930423 -0.006489955
0.014494989 0.021693293 0.04360791 -0.0020227619 0.03656729 0.026122209 -0.037070893 0.009791069
-0.04493448 -0.018345725 0.0043132603 0.029555086 -0.04800411 0.042336356 -0.004697811 -0.013367664
0.00091900676 0.031468052 -0.015943456 0.022320684 -0.014470451 -0.04554538 0.007012598 -0.0341902
-0.034904014 -0.010458697 0.047341008 -0.044323064 -0.029561896 0.015225995 0.0431067 -0.023556257
0.02275655 -0.047577888 -0.0011473596 -0.020876313 -0.008854575 0.016024683 0.007592462 0.0464592
0.049484793 0.047900926 -0.048731126 0.028188776 0.033687275 0.0054767504 0.018931795 -0.04803407
0.009448849 0.012569066 -0.04213841 -0.03502525 0.033709172 0.03241496 -0.015599698 -0.02203142
-0.0067134425 -0.0043945536 -0.024484873 -0.030666018 0.01200366 0.0056221187 0.017621625 0.010134775
-0.045094665 0.021778967 -0.0047834106 -0.012481958 0.01753835 0.03287017 -0.015657477 -0.034310807
-0.02807014 0.019393485 -0.04103454 0.004632823 -0.022319049 -0.021998638 0.035323564 0.0013034865
6.948039e-05 0.018603083 0.025279317 0.02156115 0.030450504 0.017660107 0.03290603 0.042682234
0.03755484 0.016893063 -0.045107048 0.03132813 0.0047133192 0.04179709 -0.0050677955 -0.010204125
0.033791777 0.018286798 -0.016144656 0.00523749 0.022475716 -0.0451903 -0.043649293 -0.030965751
-0.005706139 0.03614581 -0.01181028 -0.0033434145 -0.011680923 -0.013428576 -0.04400274 -0.03368166
-0.022127677 -0.0363414 0.021792483 0.040811155 -0.025662798 -0.04678754 -0.005129706 0.018919114
0.008544058 0.035047743 -0.0057897046 -0.014304958 0.03454799 0.034715798 -0.038591914 0.03340796
-0.0113625415 0.001250498 0.026781049 0.0038610399 -0.045004435 -0.028151387 0.012947176 0.046027254

l2.bias f4 [300]
00000000: c68b 10bd 31d4 ef3c c974 f53b 56aa ba3c
00000010: b172 b3bc 4ea9 133d 7cff 05bd a2e6 25bd
00000020: 9548 b93c c3cd 58bd acc4 643b a122 233d
00000030: f5c5 6a3d 6403 d43c a590 13bd 2229 0abd
00000040: b8b8 983d 8549 253d 532b cabc db5b 8fbc
00000050: 95f1 1b3d 55f6 a7bc 0ebb d63a 66e2 06bd
00000060: d896 243c 0f8d e5ba b14e 12bd 15e3 933d
00000070: fdee a53c 460a b43c 82c2 26bd 2e15 12bb
00000080: 903f 953d 1132 5bbd c2e9 ec3c c28c dc3c
00000090: 5895 2bbd 3c97 bb3c 3977 303c f9bf 003d
000000a0: 6ac4 e23a 73d8 1cbd f9e6 1fbc b4f9 183c
000000b0: 0514 4abd bb9d a9bc dd03 87bc cfd4 bf3c
000000c0: 908b e13c 45df 583a 9650 bc3c c9be 9e3b
000000d0: 311d 873b bef9 eb3c 66a6 62bd 1846 133c
000000e0: b200 09bd cda9 89bc 355d 38bd 1b20 ccbc
000000f0: cfe9 1a3d 3ad4 dfbc b9da 8dbb 2078 d0bc
00000100: 742d 70bc 7a6c c53c a0de 98bc a08a edbc
00000110: e5ac 0ebd 4f95 093d 9bd3 f3bc 9c8f 1d3d
00000120: e86c 9b3c 520e 2dbc 0d29 4a3d e4c3 0d3d
00000130: 5c74 c4bc 02c1 833c b2f7 123d b783 29bd
00000140: 7f10 1dbb 1ddb aabc b713 c2bc 7a0d 24bd
00000150: a460 ea3c f05d eebc ad7e 2c3d d9e9 5bbd
00000160: 9573 173d 2a4d a6bc 8c6d 50bc 9573 b73c
00000170: 87f7 ac3a e503 0bbd 0ef5 3fbd 677f 57bd
00000180: b76b b5bc 2039 453d 2f24 48ba 1a43 52bd
00000190: cc73 3ebc f656 9d3c 66a9 c43c e782 b6bc
000001a0: 53e0 d03d 0212 af3c 5e85 9f3c 4042 d5bc
000001b0: e275 9cbd 741c 5abd d82c 9a3b 9236 9cbc
000001c0: 9f0e 8f3b 4c34 d33c f2d4 9f3c 801a 433d
000001d0: c573 4a3d fa39 ea3c 6fab f8bc 27cc 253d
000001e0: 32e6 ea3c 796e b1ba e66c cc3c e983 f5bc
000001f0: 9aec 1fbd 30de c4bb 8a61 8dbd 3e96 b63a
00000200: 64e3 643c e165 293b 75de 59bd 95bd 0b3d
00000210: eced 17bd f70a a73c e7fe 2e3c cd12 9a3d
00000220: 2960 813c 6248 abbb b983 e5bc 00f8 83bc
00000230: 6ee1 01bd 681f ea3c abec 30bc a15c 39bd
00000240: a4bb 90bc 86a9 033d 48a0 57bd 5e55 d33c
00000250: d72c 283d f006 fcbc 54ca 5fbc 0fec 713d
00000260: 2ed1 033d 903c a3bc 086a 413c 571a 3a3d
00000270: d73e 8ebc ade5 88bc 5205 b63c 9180 083d
00000280: 8494 bc3d 1fe7 113d d8af 24bd 67a9 d1bc
00000290: a30b 833d e7fd a63c 8370 3b3d 364a 133d
000002a0: d089 6cbb 0af8 9f3c b7eb 343d dc24 8cbd
000002b0: f792 8e3d dcdf c53c f79d e4bc b64d 1ebd
000002c0: 9ae2 85bc fe83 f2bc 0cb4 313d 77df 3b3d
000002d0: f828 70bd a1f3 483d f6a2 81bc 9cd0 3fbd
000002e0: 3ab0 3ebd 805a 6b3c 5ca6 b53c 1f8d 5abd
000002f0: 9e7d c13b 8d63 2d3c 4d53 35bd 69c6 9c3c
00000300: aa34 eebb b858 6dbc 5138 f43c 8060 11bb
00000310: 64f5 953d 0311 2a3a f070 c4bb 4245 cbbc
00000320: def5 3cbd 8363 8f3d ba33 2a3d c416 663c
00000330: 74f0 733c 4eca 51bd c346 5cbd a2f2 2cbd
00000340: 0fbf 12bd 6e36 143c fea9 d83c 4f40 de3c
00000350: e282 0b3d d9ba 56bb be52 d83d b429 c13b
00000360: 84bd 12bd a2b4 0abd 9366 e2bc e836 8e3a
00000370: 824d ea3c 6136 eebb f2db 40bc 2530 043d
00000380: dbc9 43bd 4a8f a13c 4a5a 4ebd 5296 fa3c
00000390: f6b8 1cbd 88a4 543a c28f 22bd aabd 21ba
000003a0: 1f0f 63bd 95fc 0f3c 0c87 783c 00c0 7138
000003b0: 00a0 8639 6e0c 0fbc 4b6d 063d afd4 963c
000003c0: f5ab babc 7999 43bb 305d 2d39 fe69 213d
000003d0: 1dd7 20bd 835c 93bc 981d b43d 7015 1e3d
000003e0: 9b97 48bd 928d f83c 7811 1abd d6c5 063d
000003f0: e1df 2abd a14b 463d 759b 193d e631 003d
-0.03528955 0.029275985 0.0074907285 0.0227863 -0.021905275 0.036050133 -0.032714352 -0.04050315
0.022617618 -0.052930605 0.0034907265 0.039827947 0.057317693 0.025880523 -0.036026616 -0.033730634
0.07457107 0.040353317 -0.024678862 -0.017499855 0.038072187 -0.020503202 0.0016382651 -0.032930754
0.01004573 -0.0017513352 -0.035719577 0.07221047 0.02025556 0.021977555 -0.04071284 -0.0022290456
0.07287514 -0.053514544 0.028920058 0.026922587 -0.041890472 0.022899263 0.010770612 0.03143308
0.0017300968 -0.03829236 -0.009759658 0.009336878 -0.0493355 -0.020705095 -0.016481334 0.023416905
0.027532369 0.0008273016 0.022987645 0.0048445207 0.004123353 0.02880561 -0.05533447 0.00898888
-0.03344793 -0.0168046 -0.045010764 -0.024917653 0.037820634 -0.027322877 -0.0043290523 -0.025447905
-0.014659274 0.024099577 -0.018660843 -0.028996766 -0.034832854 0.033589657 -0.029763987 0.038467035
0.018972829 -0.010562496 0.049355555 0.034610644 -0.023981266 0.016083244 0.035880752 -0.04138538
-0.0023966131 -0.020856434 -0.023691041 -0.040051915 0.028610535 -0.029097527 0.042112995 -0.05368981
0.036975462 -0.020300467 -0.0127214305 0.022393981 0.0013196327 -0.03393926 -0.04686456 -0.052611735
-0.022146089 0.04815018 -0.00076347863 -0.051333524 -0.011624288 0.019206505 0.024006557 -0.022279216
0.101990364 0.021370891 0.019472774 -0.026032567 -0.07639672 -0.05324979 0.004705053 -0.01906899
0.0043657566 0.025781773 0.01951072 0.047632694 0.049426813 0.028592099 -0.030355183 0.040477898
0.028674219 -0.0013536952 0.02495427 -0.029970126 -0.039044 -0.006007932 -0.0690337 0.0013930274
0.01397023 0.0025848078 -0.053190667 0.034116346 -0.037092134 0.02039097 0.010680891 0.07523117
0.015792923 -0.0052271346 -0.028016912 -0.016109467 -0.031709127 0.028579429 -0.010798614 -0.045254353
-0.017667599 0.032144092 -0.05264309 0.025797542 0.041058388 -0.030765027 -0.013659079 0.059063014
0.03218191 -0.01992634 0.011805065 0.045435276 -0.017363949 -0.01671108 0.022219334 0.033325735
0.092080146 0.035620805 -0.04020676 -0.025593473 0.06398704 0.020384742 0.045761596 0.035959445
-0.0036092885 0.019527454 0.044170108 -0.06842968 0.06961625 0.024154596 -0.027907355 -0.03864833
-0.016343404 -0.029603954 0.043384597 0.04586741 -0.05863282 0.049060468 -0.015824776 -0.046829805
-0.04655478 0.014364839 0.022174053 -0.05335724 0.0059048673 0.010582817 -0.044268895 0.019137578
-0.0072694616 -0.014486484 0.02981201 -0.0022182763 0.07322195 0.00064875203 -0.0059949085 -0.024813298
-0.046132915 0.07001402 0.041553237 0.014043514 0.014888871 -0.051218323 -0.05377842 -0.04222358
-0.03582674 0.00904618 0.026448246 0.027130274 0.034060366 -0.0032765178 0.10562657 0.005894864
-0.035825267 -0.03386367 -0.027636802 0.0010850104 0.028601412 -0.007269666 -0.011771189 0.032272477
-0.047799926 0.019721646 -0.050379075 0.030589256 -0.03826233 0.0008111675 -0.03968788 -0.0006169925
-0.055434342 0.008788248 0.015168916 5.763769e-05 0.0002567768 -0.008730991 0.032819074 0.018411962
-0.022787074 -0.0029846116 0.0001653328 0.039407723 -0.039267648 -0.017988449 0.08794707 0.038594663
-0.048972707 0.030340943 -0.037614316 0.032903515 -0.041717414 0.04841197 0.03750177 0.031297587

l3.weight f4 [6, 300]
00000000: 38e7 8bbb 0303 23bd 6ebe 4fbd 1dfc 36bd
00000010: 36a7 0abd 2703 f6bb 3a2c 5dbd 4ca8 f6bc
00000020: b590 6f3d bc3c 4c3d 4034 903d f7a1 013d
00000030: 0ebe 813d 0e7d 50bd 5f56 693d 7037 ab3c
00000040: 7270 3ebd 67fb 63bb e888 a63c 900f 27bb
00000050: f6ab 22bd a0a3 e53b 0722 bd3c 5ab9 103d
00000060: 2651 09bd b7f6 0fbd 814a bb3c 5454 3c3c
00000070: d2bb 0abc 449c 25bd 4c31 17bc f606 223d
00000080: d8c2 333c df32 4a3d 181c af3c 9096 563d
00000090: 224c 2d3d ee8f 75bb adbe 6bbd f420 debc
000000a0: f3fc 0abb fa95 a1bc 0410 853c 5f6e 55bd
000000b0: 0e67 46bd 1674 033d 1984 18bc 1921 59bd
000000c0: 041d 06bd 0439 c83c 8e33 0e3d b30c 09bd
000000d0: 5dee 9cbc d0d8 0e3d 44da 953c 7c7d 79bc
000000e0: 0224 0abc f532 873c 282e c1bb 32f2 87bc
000000f0: cf11 0dbb 9029 723b de51 4d3c a554 e8bc
00000100: 366d 25bd 1adc f53c 145f 503d a896 343c
00000110: 0ee3 27bd b046 bb3c 5097 fe3c dbb1 4b3d
00000120: b466 013d 088f 2dbd a8fc 413d a38a 35bd
00000130: 3b98 ffbc f057 ab3b 72ae bc3b 025a d63c
00000140: 24e3 1bbb 90a0 dd3b c24f 133d 7acc 603d
00000150: a888 0aba 4281 08bd 1d67 07bd b0f5 59bb
00000160: bad3 9b3c 42d9 8c3c 5dde f6bc a1f3 6f3d
00000170: aaed 2dbc 23c3 16bc 409b c3bb edd0 11bd
00000180: ccfb c4bc ab1a 1e3d 764a 613d e265 453d
00000190: a08b c63c 04f4 b9bc 0065 9d3c e45a d43c
000001a0: c356 273d 1321 39bd a8c2 e8bb a51c d33c
000001b0: d85b 3bbc e1ae 1ebc a5f7 e4bc 60df 1b3d
000001c0: 3b76 3c3d 3ea4 9c3b cd00 f7bc e15f 6f3d
000001d0: 7673 113d 29d2 dd3b aed9 35bd a1e6 20bd
000001e0: 00f0 293a 6151 173b 121f 25bd 9186 e03c
000001f0: 10fd 0fbd f0a3 52bb 33d2 f93a 8601 40bd
00000200: 14c4 323d 2d95 48bd f089 d63c 2020 653b
00000210: 99b6 023d 6049 123c d3f1 ce3c bc8a 91bc
00000220: 27cf 153d 23e2 c93c edb9 673d 389a b2bc
00000230: d984 40bd 4e2d d1bc bbc3 b53b d0f1 313d
00000240: d09c 343d 6c37 05ba e540 d9bc ccf5 45bd
00000250: 0d22 093d 80a7 48ba e07b 35bd 915d 603d
00000260: c35d 483c a3ea 0a3c 9083 883c 4cc8 de3c
00000270: a3ea 2a3d 4ea0 23bd 1351 4abd 731c 6e3d
00000280: 2b1b 393c 2acd 65bd abb3 d13b 6034 b33c
00000290: 7021 3dbd 93e0 22bd 24e9 babc 0942 0abd
000002a0: e9e6 11bd 25cc 62bc 0e47 a83c e8b7 04bd
000002b0: d27f 65bb 0b59 1d3d 63d8 28bd 1f82 51bd
000002c0: f3cb 823d d82e d73c 877b 853c ea01 1fbd
000002d0: 94b9 0a3d e642 c53c 74b8 c63c 9758 f03c
000002e0: 22e3 453b 6292 69bc 8938 003d 03ea cabc
000002f0: 3f56 18bd c75b 75bb f7f2 e5bc 0769 2cbd
00000300: a936 573d 1012 6a3d 27a9 dabc 6cf6 6e3d
00000310: f2f4 7c3d c6f8 613d c23a 57bd 4d1f b33c
00000320: 31b1 b5bc 59fd 163d 7b8e 1ebb e07d 693c
00000330: 27d7 3dbd efcf 52bd fbf4 abbc 1843 84bc
00000340: 6972 6cbb 3091 17bb a139 f33b 99af 013b
00000350: e715 3fbd 8bba b4bc 4b8e d1b6 7fdd a1bc
00000360: 82bb 33bc 5289 dcbc 15d7 a53c d120 263d
00000370: 10d9 c83c d66c 42bd 640f c1bc 60ce b33b
00000380: 28ac 04bc 22ba 83bc 0057 9a3b b818 edbc
00000390: 6e39 46bd e710 8d3b 20f2 253b e0ec 58bd
000003a0: ce06 b1bc 6328 53bd f8b1 34bc 68a5 303c
000003b0: d8c1 7bbc c2a5 393c 9cea 44bd a412 edbc
000003c0: b331 b8bc a86c d13c a40f 933c fb6e 44bd
000003d0: b4dd 2fbd 0edf cdbc 21fd 8e3d 604e 45bd
000003e0: a043 d1bc 3516 31bd 8a82 683d 2cf5 383d
000003f0: a4df e1bb 3a96 e5bc 70f6 f03c ceb3 16bd
-0.004269507 -0.039797794 -0.050718717 -0.044674028 -0.03385087 -0.0075077 -0.053997256 -0.030109547
0.058487613 0.04986261 0.07041216 0.031648602 0.06335078 -0.05090051 0.056967136 0.020900458
-0.046493955 -0.0034787299 0.020328954 -0.0025491454 -0.039714776 0.007008031 0.023087515 0.035333015
-0.033524655 -0.035147395 0.022862675 0.011494715 -0.008467631 -0.04043223 -0.009228062 0.03955742
0.010971747 0.04936492 0.0213757 0.05238968 0.042308934 -0.0037469822 -0.05755489 -0.027115323
-0.0021207898 -0.019724835 0.016242988 -0.05210721 -0.048438124 0.03209313 -0.009308838 -0.05301008
-0.032742515 0.02444125 0.034717135 -0.033459377 -0.01915663 0.034874737 0.018292554 -0.015227672
-0.0084314365 0.01650379 -0.005895395 -0.01659498 -0.0021525507 0.0036951043 0.012531726 -0.028360674
-0.040387355 0.03001218 0.050871924 0.011022247 -0.04098802 0.022860855 0.03107801 0.049730163
0.031592086 -0.042372733 0.047360092 -0.044321667 -0.031200519 0.005228989 0.0057581 0.026165966
-0.002378651 0.0067635253 0.035964735 0.054882504 -0.00052846456 -0.033326395 -0.03305732 -0.0033258013
0.019021858 0.01719344 -0.030135328 0.058581952 -0.010615746 -0.009201798 -0.005969435 -0.035599638
-0.024045847 0.03859965 0.055002652 0.048192866 0.0242365 -0.022699364 0.0192132 0.025922246
0.040854227 -0.045197558 -0.007103283 0.025770495 -0.0114354715 -0.009685249 -0.027950117 0.038054824
0.04601119 0.0047803214 -0.030151749 0.058441047 0.035510503 0.006769438 -0.04439705 -0.039282445
0.0006482601 0.0023089277 -0.040312834 0.027407916 -0.03515345 -0.0032141171 0.0019059837 -0.046876453
0.043644026 -0.04897039 0.02618882 0.0034961775 0.03191242 0.008928627 0.025261795 -0.017766349
0.03657451 0.024643963 0.056573797 -0.021802053 -0.047001693 -0.025534298 0.0055470145 0.0434435
0.04409486 -0.0005081806 -0.026520202 -0.048330113 0.03347974 -0.0007654354 -0.04430759 0.054776732
0.012229386 0.008478793 0.016664296 0.027195118 0.041727673 -0.0399478 -0.049393725 0.0581326
0.011297981 -0.056103863 0.006399592 0.02187556 -0.046174467 -0.039764952 -0.022816248 -0.033754382
-0.035620604 -0.013842617 0.020541694 -0.03240195 -0.0035018814 0.038414996 -0.041221987 -0.051149484
0.063865565 0.026267454 0.016294254 -0.038820185 0.033868387 0.024079751 0.024257876 0.029339118
0.0030195196 -0.014256092 0.031303916 -0.024769789 -0.037191626 -0.0037438737 -0.028069956 -0.04209235
0.052542362 0.057146132 -0.026691986 0.058340475 0.061757036 0.05516889 -0.05254627 0.021865511
-0.022179218 0.036862705 -0.0024193812 0.014251202 -0.046347763 -0.051467832 -0.02099084 -0.016145274
-0.0036078936 -0.002312731 0.0074226414 0.0019788502 -0.046651747 -0.022061607 -6.2452505e-06 -0.019758938
-0.010969998 -0.026920948 0.02024416 0.04055864 0.024517566 -0.047467075 -0.02356691 0.0054872483
-0.008097686 -0.016079966 0.0047100782 -0.02894245 -0.048394613 0.0043049934 0.002532132 -0.052960277
-0.02160969 -0.051552188 -0.011028759 0.010781623 -0.01536604 0.011331024 -0.048075303 -0.028939553
-0.022484636 0.025564507 0.017951794 -0.0479574 -0.042936042 -0.025130775 0.06981874 -0.048170447
-0.025544941 -0.04323407 0.056765117 0.04515569 -0.006893115 -0.028025735 0.029414386 -0.03679257

l3.bias f4 [6]
00000000: ead0 0fbd f271 aebc 238e 24bd 15ee 4ebc
00000010: 7fed 523d 4ab6 28bb
-0.035111345 -0.021294568 -0.040174615 -0.012630005 0.051496025 -0.0025743418
