results/runs/double_assembly_step/Average_TD3_20_Peg-in-hole-double_assembly_seed_5/33000_actor.pth (torch_old, 510312 bytes, 6 tensors)

l1.weight f4 [400, 12]
0	0x3e2eabfd	0.17057796
1	0xbe52e1da	-0.20593968
2	0x3e7c2d64	0.2462669
3	0x3e369a13	0.17832212
4	0x3e78996a	0.24277273
5	0xbe62151c	-0.22078365
6	0xbe3d4e68	-0.18486941
7	0x3dfcad28	0.123377144
8	0xbe90d810	-0.28289843
9	0x3e886110	0.26636553
10	0x3d5745d2	0.05255682
11	0x3d4f63c1	0.050632242
12	0xbf13ee1b	-0.57785195
13	0xbc8134ea	-0.015772302
14	0x3e6492ed	0.22321673
15	0x3df244bb	0.118295155
16	0x3ee5edd7	0.4490802
17	0xbcd2a4ed	-0.025713408
18	0xbe95bbe7	-0.2924492
19	0x3edcd0bb	0.43128
20	0x3e57bbf7	0.21067797
21	0x3e19365b	0.14962141
22	0xbe1de55d	-0.15419526
23	0x3e0af0a8	0.13568366
24	0x3fa2c60e	1.2716691
25	0xbe8fb0e9	-0.2806466
26	0xbcbac95c	-0.022801094
27	0x3e0d2b82	0.13786128
28	0xbda7dfdd	-0.081969954
29	0xbe66a12c	-0.2252242
30	0xbecdfdc4	-0.4023267
31	0xbe899b0d	-0.26876107
32	0x3d3c5dfb	0.045988064
33	0xbe6fadc5	-0.23406132
34	0x3eb0d56b	0.34537825
35	0x3e0d7dd0	0.13817525
36	0xbda05b80	-0.07829952
37	0xbd48ac1c	-0.04899226
38	0x3e1ee5a5	0.1551729
39	0x3e3c72cc	0.18403167
40	0x3cd10ac8	0.025517836
41	0xbe539249	-0.20661272
42	0xbeaf23f5	-0.3420712
43	0x3e8c43ce	0.2739548
44	0x3e0e54ab	0.13899486
45	0xbe029b57	-0.1275457
46	0x3e2f32d2	0.1710923
47	0x3ee9df4c	0.45678174
48	0xbd428894	-0.047493532
49	0x3d02e795	0.031959135
50	0x3eec638f	0.46169707
51	0xbc932a7f	-0.0179646
52	0x3e6208aa	0.22073618
53	0xbda8c896	-0.08241384
54	0x3e9f5ed3	0.31127033
55	0x3e4ce9e4	0.20011097
56	0x3e4c3dfc	0.1994552
57	0xbde5a5c5	-0.11213259
58	0xbe7ddc7b	-0.24791138
59	0x3f381952	0.71913636
60	0xbec664ff	-0.3874893
61	0xbf135a51	-0.57559687
62	0xbab3d110	-0.0013718922
63	0x3ce24308	0.027619854
64	0xbda79404	-0.081825286
65	0xbd0b8117	-0.034058657
66	0xbdcf22ce	-0.1011406
67	0xbe497665	-0.1967407
68	0xbe20253f	-0.15639208
69	0xbf86d394	-1.0533319
70	0x3e687e2e	0.22704384
71	0xbd460860	-0.04834783
72	0xbd3c4030	-0.04595965
73	0x3e5fb458	0.2184614
74	0x3e8844f6	0.26615113
75	0x3e81bf86	0.25341433
76	0x3e2a0268	0.1660248
77	0x3e896062	0.26831347
78	0xbdd503d6	-0.10401122
79	0xbc9684b0	-0.018373817
80	0xbdca3620	-0.09873605
81	0xbcadcf90	-0.021217138
82	0xbd0fc630	-0.035101116
83	0x3e1deefc	0.15423197
84	0x3e867329	0.26259735
85	0xbeac02f7	-0.33596012
86	0x3dc8886b	0.09791645
87	0xbe7a68d4	-0.24454051
88	0x3cb77da4	0.022398777
89	0x3e95dd5b	0.29270443
90	0xbe65f0e4	-0.22455174
91	0xbe266da2	-0.16252759
92	0xbe878fc1	-0.26476863
93	0x3d89c796	0.06727521
94	0xbe2949d9	-0.16532077
95	0xbeaa2d07	-0.33237478
96	0xbdadeb0a	-0.08492096
97	0xbd8449bc	-0.06459376
98	0x3e8216a2	0.25407892
99	0x3e43d1fb	0.1912307
100	0xbdc28180	-0.094973564
101	0xbe8843bf	-0.26614186
102	0xbe37b9cb	-0.17941968
103	0xbe47134b	-0.19440953
104	0xbd5f4f02	-0.054518707
105	0xbddc9ad1	-0.107717164
106	0xbe636cd0	-0.22209477
107	0x3d95abad	0.07308135
108	0xbf2fdba8	-0.68694544
109	0x3d26ca17	0.04072007
110	0x3ae50aca	0.0017474529
111	0xbdd525cf	-0.10407602
112	0xbe9defa4	-0.30846894
113	0x3f99f419	1.2027618
114	0x3f279178	0.6545634
115	0x3ec4120e	0.38295025
116	0xbf1f6398	-0.62261343
117	0xbf2e8760	-0.68175316
118	0xbde109e6	-0.10988216
119	0xbf6b4054	-0.9189503
120	0x3db2c440	0.08728838
121	0xbe029dbf	-0.12755488
122	0x3e4d280e	0.20034811
123	0xbdddb30c	-0.10825166
124	0xbe1f2e8e	-0.15545103
125	0x3e8610c0	0.26184654
126	0x3d9c9ce4	0.07647112
127	0xbb029a00	-0.0019928217
128	0xbe4e0298	-0.20118177
129	0xbd82dc96	-0.0638973
130	0xbe631533	-0.22176056
131	0xbe46e40d	-0.19422932
132	0xbf05c065	-0.52246696
133	0xbd098145	-0.033570547
134	0x3cfcc5e3	0.030856078
135	0x3e80a754	0.2512766
136	0xbd71972a	-0.058982052
137	0xbdca785b	-0.09886237
138	0x3eb64239	0.355974
139	0xbe6205ed	-0.22072573
140	0xbf0936e0	-0.5359936
141	0x3e79fe40	0.24413395
142	0xbe99e4d6	-0.300574
143	0xbe9b5258	-0.3033626
144	0xbd3da174	-0.04629655
145	0x3f93a06e	1.1533334
146	0xbbc8ba47	-0.0061257216
147	0xbec81de1	-0.39085296
148	0xbdd9512e	-0.10611187
149	0x3d215b65	0.0393938
150	0xbe307b26	-0.17234477
151	0x3e2f608f	0.17126678
152	0xbc0c6953	-0.008570033
153	0x3fb2d4db	1.3971208
154	0xbdf7b35c	-0.12094757
155	0xbee30cf5	-0.44345823
156	0xbdb3ea4f	-0.08784925
157	0xbe8ca2f8	-0.27468085
158	0x3d66cf65	0.05635013
159	0xbce3c2fb	-0.027802935
160	0xbd31d763	-0.0434183
161	0x3dbdeb72	0.09273423
162	0xbd470514	-0.048588827
163	0x3aa547c7	0.0012609892
164	0xbdd37b62	-0.10326268
165	0xbf52206e	-0.82080734
166	0x3d2330c1	0.039841417
167	0x3e5bea65	0.21476133
168	0x3e89a179	0.26881006
169	0x3fae736e	1.3628976
170	0xbdafca25	-0.08583478
171	0xbe423efe	-0.18969342
172	0x3e38fa55	0.18064244
173	0x3f06b882	0.52625287
174	0xbe67f08f	-0.2265036
175	0xbde74b80	-0.11293697
176	0xbe757f77	-0.23974405
177	0x3dc7b305	0.09750942
178	0xbe4eaa08	-0.2018205
179	0xbe5540e7	-0.2082554
180	0xbf57f95d	-0.84364873
181	0xbe70931d	-0.2349362
182	0x3e09d617	0.13460575
183	0xbeb88aa5	-0.36043277
184	0x3bab0f12	0.0052203024
185	0xbe1a69d1	-0.15079428
186	0xbe430f1f	-0.19048737
187	0x3e09f81f	0.13473557
188	0x3d621e71	0.055204812
189	0xbf87e28c	-1.0616012
190	0x3df5b478	0.11997312
191	0x3eae4a61	0.34041122
192	0x3ebadaf1	0.36495164
193	0x3f8ce813	1.1008323
194	0xbb7ed040	-0.003888145
195	0xbf2f6699	-0.68515927
196	0x3e3572a1	0.17719509
197	0x3f0feeca	0.5622374
198	0xbe09f16b	-0.13471
199	0xbea7ad7a	-0.3274954
200	0xbe49ed4e	-0.19719431
201	0x3dec6544	0.115427524
202	0xbd9b89eb	-0.07594665
203	0xbe735e6f	-0.23766492
204	0x3e39d082	0.18145946
205	0xbb4e9d00	-0.0031526685
206	0x3e1b1452	0.1514447
207	0x3e4f11ce	0.20221636
208	0x3e3cba36	0.18430409
209	0xbe8cc371	-0.2749286
210	0x3e85f574	0.26163828
211	0x3d9c53a4	0.07633141
212	0xbe9285dc	-0.28617752
213	0x3d931d70	0.07183349
214	0xbe4b8da8	-0.19878256
215	0x3e88cef0	0.2672038
216	0x3e856071	0.2605014
217	0xbe4c2fd2	-0.19940117
218	0x3982612b	0.00024867928
219	0xbd4c4643	-0.049871694
220	0xbe1a020c	-0.15039843
221	0x3e66d3c0	0.22541714
222	0xbe9224d8	-0.28543735
223	0x3e440b7f	0.1914501
224	0xbe12ac97	-0.1432365
225	0xbee510da	-0.4473942
226	0xbe43a8f1	-0.19107415
227	0xbddcd4ef	-0.10782801
228	0xbd90ac67	-0.07064133
229	0x3fbc01f7	1.46881
230	0xbb427303	-0.0029670603
231	0xbed2b590	-0.41154146
232	0xbd8a04b7	-0.067391805
233	0x3f4dba26	0.80362165
234	0xbe80833b	-0.2510012
235	0x3d5fdce5	0.05465402
236	0xbf25c28b	-0.64749974
237	0x3e982ec8	0.2972319
238	0xbda4d893	-0.08049121
239	0x3e4cc075	0.19995292
240	0x3f56262a	0.83651984
241	0xbb77164a	-0.0037702494
242	0x3dc035ec	0.09385285
243	0x3de1d5d5	0.11027113
244	0xbe8e3fb7	-0.27782986
245	0xbd28a532	-0.041173168
246	0x3def0446	0.11670737
247	0xbe96e8b5	-0.29474416
248	0xbd4ec430	-0.050480068
249	0x3dd6a2b8	0.10480255
250	0xbed111d2	-0.40833908
251	0xbebb8fc2	-0.36633116
252	0xbdb3c84e	-0.087784395
253	0xbc94bae0	-0.018155515
254	0x3debfe74	0.115231425
255	0xbe6c9408	-0.23103344

l1.bias f4 [400]
0	0x3c11e2cd	0.008904171
1	0xbc667961	-0.014067025
2	0x3f715fd6	0.9428686
3	0xbe544b97	-0.2073196
4	0xbe8f98ec	-0.28046358
5	0xbea9ac43	-0.33139238
6	0x3dd83f94	0.105590016
7	0x3f1b34b5	0.606273
8	0xbe3dcc7b	-0.18535034
9	0x3f53eb42	0.8278085
10	0xbe26adab	-0.16277187
11	0x3d942000	0.07232666
12	0xbeb4b365	-0.35293117
13	0xbede50a7	-0.43420908
14	0xbeeb1011	-0.45910695
15	0xbf56b8e2	-0.8387586
16	0x3e6c5ab5	0.23081477
17	0xbe89694b	-0.26838145
18	0xbed7ad01	-0.4212418
19	0x3dc1c7fc	0.09461972
20	0x3f1e0659	0.61728436
21	0xbdec3eaa	-0.1153539
22	0xbde7c4ee	-0.11316858
23	0xbf282874	-0.65686727
24	0xbf0fcdb6	-0.56173265
25	0xbf53d6f6	-0.8274988
26	0x3d4db98b	0.050225776
27	0x3c92f120	0.017937243
28	0xbf18d13f	-0.59694284
29	0xbd2e9135	-0.04261895
30	0xbd9eb5cf	-0.07749521
31	0xbf0e7564	-0.55647874
32	0x3e44ca23	0.19217734
33	0xbeb98c86	-0.36240023
34	0xbf8b2c0d	-1.0872818
35	0xbf46ed88	-0.77706194
36	0x3f74f4b8	0.9568591
37	0xbe74481c	-0.23855633
38	0x3df6169b	0.120160304
39	0xbe0fc336	-0.14039311
40	0x3e898c43	0.26864824
41	0xbf16e31b	-0.58940285
42	0x3efa391b	0.48871693
43	0xbdd13fe3	-0.102172635
44	0x3d9240c2	0.07141258
45	0xbdc20844	-0.09474233
46	0x3e117258	0.14203775
47	0xbe3ab63d	-0.18233581
48	0xbeb2c229	-0.34913757
49	0xbcf1805f	-0.029480157
50	0x3f080589	0.53133446
51	0xbed89e0a	-0.42308074
52	0x3f2b866b	0.6700198
53	0x3de46742	0.11152507
54	0xbe3168ae	-0.17325088
55	0xbf084386	-0.5322803
56	0xbd4b4998	-0.04963073
57	0xbf216a85	-0.6305316
58	0xbecbba71	-0.3979068
59	0xbde0346e	-0.109475
60	0xbf6174e5	-0.8806899
61	0x3ed22dfa	0.41050702
62	0xbed0f915	-0.40815035
63	0xbf575521	-0.8411427
64	0x3e197ff6	0.1499022
65	0x3f0436bf	0.51646036
66	0xbe269e98	-0.16271436
67	0xbf08be0f	-0.53415006
68	0x3eafcd73	0.34336433
69	0xbebb5634	-0.36589205
70	0xbdd3763d	-0.103252865
71	0x3e7978c4	0.24362475
72	0x3ecba3bc	0.39773357
73	0x3d61e3e8	0.05514899
74	0xbe0c8b97	-0.13725124
75	0xbe5bb5a4	-0.21456009
76	0xbecc98ed	-0.39960423
77	0x3ee8686b	0.45392165
78	0xbdb9557f	-0.0904951
79	0xbf931567	-1.1490906
80	0x3d90b0c0	0.070649624
81	0x3f191e4a	0.5981184
82	0xbe5166e8	-0.20449412
83	0x3eda080b	0.4258426
84	0x3eab6e03	0.3348237
85	0xbe9f72ab	-0.31142172
86	0x3ed37d38	0.41306472
87	0xbf2f140a	-0.6838995
88	0xbd0928f0	-0.033486307
89	0xbf2e3afa	-0.6805874
90	0x3bcc37f5	0.0062322565
91	0xbe5a0407	-0.21290599
92	0x3d3d9d0e	0.046292357
93	0xbeb36d9e	-0.3504457
94	0xbf6016a4	-0.87534547
95	0xbe42df4b	-0.19030492
96	0xbe8332a8	-0.25624585
97	0x3f75f1b4	0.96071935
98	0x3daa659a	0.0832016
99	0xbfafa7c3	-1.3723072
100	0xbec8c5cd	-0.3921341
101	0x3f721e88	0.94577837
102	0x3e6462b8	0.22303283
103	0xbf0fad83	-0.5612413
104	0x3e2b36a8	0.16720068
105	0xbd6214c8	-0.0551956
106	0x3e079fc4	0.1324454
107	0x3e8522fa	0.26003247
108	0x3e42db5c	0.19028991
109	0xbe8f253a	-0.2795809
110	0xbee1e7cf	-0.44122168
111	0xbe3d03e2	-0.18458512
112	0xbf1f04a9	-0.62116486
113	0xbea7c02a	-0.32763797
114	0x3e9d3056	0.3070094
115	0x3fa3ad97	1.278735
116	0xbf3574ce	-0.70881355
117	0xbe4476f2	-0.19185999
118	0xbe87ed96	-0.2654845
119	0x3ed9dfb4	0.42553484
120	0x3e092b7a	0.13395491
121	0x3c440778	0.011964671
122	0xbf2c97ea	-0.674193
123	0x3e5ede2f	0.21764444
124	0xbe2e1565	-0.17000349
125	0x3e175a62	0.14780572
126	0xbe8037f3	-0.25042686
127	0x3c362f01	0.011119605
128	0x3e8df808	0.27728295
129	0xbdadbaf5	-0.08482925
130	0xbf651594	-0.8948605
131	0xbf2a2b5b	-0.66472405
132	0xbe9ff47d	-0.31241217
133	0x3e0606b4	0.13088495
134	0x3f21c243	0.63187045
135	0x3d9c80ec	0.076417774
136	0x3da107b5	0.07862798
137	0xbe460884	-0.19339186
138	0xbecd7fa8	-0.40136456
139	0x3d859798	0.06523055
140	0xbe5af35c	-0.21381897
141	0x3eafc2ca	0.343283
142	0xbf4c1b54	-0.797292
143	0x3e411f8d	0.18859692
144	0xbf173a3d	-0.5907324
145	0xbc961944	-0.018322594
146	0xbe19c62b	-0.15017001
147	0xbf6d2ebb	-0.9264943
148	0xbf21c6f0	-0.6319418
149	0xbc070ce5	-0.00824282
150	0x3e181081	0.14850046
151	0x3dc8fa0d	0.098133184
152	0xbf8e2c03	-1.1107181
153	0xbd6f9929	-0.058495674
154	0x3e06698d	0.13126202
155	0xbe265b1b	-0.16245691
156	0xbf2f27b9	-0.68419987
157	0xbf681df9	-0.90670735
158	0x3eed9ba7	0.46407816
159	0xbe7e7e81	-0.24852945
160	0x3c559da0	0.013038069
161	0xbe9c851a	-0.30570298
162	0xbe0e342a	-0.13887087
163	0xbe468b31	-0.19389035
164	0xbe791e83	-0.24328046
165	0xbf3a7f48	-0.72850466
166	0x3deb1520	0.11478639
167	0xbe187b52	-0.14890793
168	0x3de2529f	0.11050915
169	0x3e93285d	0.28741732
170	0x3e08cf0a	0.13360229
171	0xbee14de5	-0.4400474
172	0xbe932f91	-0.28747228
173	0xbe2276ec	-0.15865678
174	0x3e35b562	0.17744973
175	0x3ec6f1e7	0.38856432
176	0xbecae9e8	-0.3963158
177	0xbf47f09d	-0.7810152
178	0xbed3c51c	-0.4136132
179	0x3e8d05e2	0.2754355
180	0x3ebfa80d	0.374329
181	0x3e78ba60	0.24289846
182	0xbf150c37	-0.58221763
183	0x3dd40b7c	0.10353753
184	0xbef5cd65	-0.48008266
185	0x3e3b4188	0.18286717
186	0x3d6242a6	0.055239342
187	0x3f324954	0.6964314
188	0xbe4157af	-0.18881105
189	0x3f6951e1	0.9114056
190	0xbfa5f0ff	-1.2964171
191	0xbe90126a	-0.2813905
192	0x3eaf98f9	0.34296396
193	0x3e781159	0.24225368
194	0x3df61f7a	0.120177224
195	0xbf2322fa	-0.63725245
196	0x3e069831	0.13143994
197	0xbddcf154	-0.10788217
198	0xbed7b61f	-0.42131135
199	0x3e97dacf	0.29659125
200	0xbe848122	-0.2587977
201	0x3e31fcbc	0.17381567
202	0xbdce74fd	-0.100809075
203	0x3e87dd96	0.26536244
204	0xbf93d097	-1.1548032
205	0xbf3366ba	-0.70078623
206	0xbe91042f	-0.28323504
207	0x3e32f50c	0.1747629
208	0x3d7c150a	0.061543502
209	0xbf6d925a	-0.9280144
210	0x3f1e2097	0.6176848
211	0x3f2a4d64	0.6652434
212	0xbe7dab70	-0.2477243
213	0xbe6ff95d	-0.23434968
214	0x3e1cefb2	0.15325812
215	0xbf3c9341	-0.7366219
216	0xbec69149	-0.3878272
217	0xbdb3f0f6	-0.08786194
218	0xbe822489	-0.254185
219	0xbf03a9f5	-0.5143121
220	0x3c57c7e4	0.013170216
221	0xbe10f7ba	-0.14157
222	0xbe9fa4d7	-0.3118045
223	0x3f0b7ebd	0.5449026
224	0x3dff1e91	0.12457002
225	0xbebd24f4	-0.36942255
226	0x3f1068a9	0.564097
227	0xbe63bb00	-0.22239304
228	0xbf22a849	-0.6353803
229	0x3e1c10bc	0.15240759
230	0x3eef60ba	0.46753484
231	0xbf07f41b	-0.5310685
232	0x3ddc0ade	0.1074426
233	0x3e347fe2	0.17626908
234	0x3e54722f	0.20746683
235	0x3e80f214	0.2518469
236	0x3e2b163c	0.167077
237	0xbf26329c	-0.64920974
238	0x3e11cbbf	0.14237879
239	0xbd317515	-0.04332455
240	0xbf54d3c3	-0.8313562
241	0x3e2dfe40	0.1699152
242	0x3e6adf7c	0.22936815
243	0x3f5074bd	0.8142813
244	0xbe81aab8	-0.2532556
245	0x3ed8df4c	0.42357862
246	0xbe7b3db6	-0.2453526
247	0x3f1ef828	0.62097406
248	0xbf219d93	-0.63131064
249	0x3c72e1a0	0.014824301
250	0xbf580b0a	-0.84391844
251	0x3d0c905f	0.03431737
252	0xbe855dae	-0.26048034
253	0x3db8513b	0.089998685
254	0xbe5a99bb	-0.21347706
255	0xbef715d4	-0.4825884

l2.weight f4 [300, 400]
0	0xbcee2522	-0.02907044
1	0x3e4cdab3	0.20005302
2	0xbea18dcf	-0.31553504
3	0x3e5a527a	0.21320525
4	0x3ef01cbc	0.46896923
5	0x3d91f28b	0.071263395
6	0xbc4ad1d4	-0.0123791285
7	0x3dcffd9c	0.10155794
8	0x3cda9d8d	0.026686454
9	0x3ed77d57	0.42087814
10	0xbba70e90	-0.0050981715
11	0xbcbab2da	-0.022790361
12	0xbcb93996	-0.022610467
13	0x3d2ea3fe	0.042636864
14	0xbd7c7643	-0.06163622
15	0x3e48daca	0.19614711
16	0xbe1a8382	-0.15089229
17	0xbd29d2b6	-0.041460715
18	0x3c6a757c	0.014310237
19	0xbd8efa6a	-0.069813564
20	0xbe618a35	-0.22025378
21	0x3d429df9	0.047513936
22	0x3edf4b52	0.43612152
23	0x3e07142a	0.13191286
24	0x3e1d328b	0.15351312
25	0x3de2a4b8	0.11066574
26	0xbcdad825	-0.026714394
27	0xbc5b5920	-0.013387948
28	0xbee1908d	-0.44055596
29	0x3d887aba	0.06664033
30	0x3d78d8d2	0.06075365
31	0x3eaacd13	0.33359584
32	0x3e491b8a	0.19639412
33	0x3db686c2	0.08912422
34	0xbd984c24	-0.07436398
35	0xbe349c49	-0.17637743
36	0xbdc9aae0	-0.09847045
37	0x3e042f0e	0.12908575
38	0x3e532336	0.206189
39	0xbe0b279b	-0.13589327
40	0xbd0854ad	-0.033283878
41	0x3db7fb6c	0.08983502
42	0x3e453558	0.1925863
43	0xbcfb364f	-0.030665545
44	0xbde77ce6	-0.11303119
45	0x3e174c0a	0.147751
46	0x3ea7d322	0.3277827
47	0x3dd6080b	0.10450753
48	0xbdae3791	-0.08506692
49	0xbeb95534	-0.36197817
50	0x3f377192	0.7165767
51	0xbe3288d1	-0.17435004
52	0x3e7cab7c	0.24674791
53	0xbc8cb2dd	-0.017175132
54	0x3c9c4eb1	0.019080492
55	0xbde75671	-0.11295784
56	0xbb616850	-0.003439445
57	0xbe2d2e61	-0.16912223
58	0x3db1ff50	0.08691275
59	0xbbed15d8	-0.00723527
60	0x3ce1a808	0.027545944
61	0x3dc2ab95	0.09505383
62	0x3d7a64f9	0.06113145
63	0xbd9fcb02	-0.078023925
64	0x3da791b7	0.0818209
65	0xbe8ce716	-0.27520055
66	0x3d05cb69	0.03266469
67	0xbe5e0f3a	-0.21685496
68	0xbe32a039	-0.17443933
69	0xbdb9b521	-0.09067751
70	0x3cd03fc2	0.025421027
71	0xbc34a1dd	-0.011024919
72	0xbd198d40	-0.037488222
73	0xbcd91223	-0.026497906
74	0xbd0177bd	-0.031608332
75	0x3e77c408	0.24195874
76	0xbd495368	-0.049151808
77	0xbe2f9513	-0.17146711
78	0xbec0da8b	-0.37666735
79	0xbeece1c5	-0.46265998
80	0x3e304916	0.1721538
81	0x3e19ca49	0.15018572
82	0x3d451560	0.048116088
83	0x3e0deb07	0.13859187
84	0xbbf1ee82	-0.0073831687
85	0x3bdbdbfb	0.0067095733
86	0x3d44b851	0.04802734
87	0xbd2e0053	-0.042480778
88	0xbc82925c	-0.01593893
89	0x3dd9ff1f	0.106443636
90	0x3b75cef7	0.0037507394
91	0x3e785642	0.24251655
92	0xbcaef409	-0.0213566
93	0x3e0556f0	0.13021445
94	0x3de832f9	0.11337847
95	0xbc84e754	-0.016223587
96	0x3e63fefe	0.2226524
97	0xbf2f6966	-0.685202
98	0x3ee9b973	0.456493
99	0xbe3fc73a	-0.18728343
100	0x3e94464b	0.2895988
101	0xbace3bb6	-0.0015734348
102	0x3bfcecb0	0.007718645
103	0xbeae23af	-0.340116
104	0x3d15cd60	0.036572814
105	0x3e8ad4f4	0.27115595
106	0xbb93cd5b	-0.0045105643
107	0x3f37d61e	0.7181109
108	0x3e3013c9	0.17195047
109	0x3cd27365	0.02568979
110	0x3f275b99	0.6537414
111	0x3daa9e90	0.08331025
112	0x3dadd33b	0.08487555
113	0x3dacf792	0.08445658
114	0x3e0fd97b	0.14047806
115	0x3f0ca32c	0.5493648
116	0xbddf4d3c	-0.10903403
117	0x3e86b078	0.2630651
118	0xbd21c0ca	-0.0394905
119	0xbca7cbd3	-0.020482933
120	0x3e85c925	0.26130024
121	0x3e489728	0.19588912
122	0x3e3571b5	0.17719157
123	0xbd0cac88	-0.034344226
124	0x3e725a6d	0.23667307
125	0x3d155671	0.03645939
126	0x3e5ab402	0.2135773
127	0x3c9f7a8d	0.019467616
128	0x3c0498b4	0.008093048
129	0xbe39a7bf	-0.18130396
130	0xbe800074	-0.25000346
131	0x3d5b8c90	0.053600848
132	0x3d8aa1f2	0.0676917
133	0xbe714929	-0.23563065
134	0x3f154860	0.5831356
135	0xbe375ca6	-0.17906436
136	0x3dfc98ce	0.12333833
137	0x3bd5d1f9	0.006525275
138	0x3eb4a483	0.35281762
139	0xbdb0b9ee	-0.08629213
140	0xbd12eec6	-0.035872243
141	0x3dc9bce4	0.09850481
142	0xbce74616	-0.028231662
143	0x3e0c19ce	0.13681719
144	0xbe7d0a3e	-0.24710938
145	0xbbb9e6b0	-0.005673252
146	0xbced9900	-0.02900362
147	0x3ddbdae8	0.107351124
148	0xbddc086d	-0.107437946
149	0x3e0e9d17	0.13927113
150	0x3dc43ea5	0.09582261
151	0xbe47ca6b	-0.1951081
152	0xbd880db3	-0.06643238
153	0x3d252300	0.04031658
154	0x3d04a6bc	0.032385573
155	0x3cf15002	0.029457096
156	0xbe76b00a	-0.24090591
157	0x3b9db8ff	0.004813313
158	0x3e579b84	0.21055418
159	0xbcf6c05a	-0.030121017
160	0xbcd682b0	-0.026185364
161	0x3e3d4fe1	0.18487503
162	0xbcf15b10	-0.029462367
163	0x3e73396e	0.23752376
164	0xbdca026e	-0.09863745
165	0xbedc2544	-0.4299718
166	0xbd04fb6a	-0.03246633
167	0x3cb64db2	0.022253845
168	0x3e1da300	0.15394211
169	0x3cdc64d9	0.026903557
170	0xbd1ad338	-0.03779909
171	0x3da71790	0.08158791
172	0x3e4bca10	0.199013
173	0xbd4a258b	-0.04935221
174	0x3db7aa1d	0.089679934
175	0x3dd5acc7	0.10433345
176	0xbc4c6efe	-0.0124776345
177	0x3e389f37	0.18029486
178	0xbe18f80a	-0.1493837
179	0x3ea7f6a4	0.3280536
180	0x3e0099f5	0.1255873
181	0x3cfaa126	0.03059442
182	0x3e73e544	0.23817927
183	0xbe589c86	-0.21153459
184	0xbe03a3e3	-0.12855487
185	0x3ee3c5e3	0.44486913
186	0x3d215239	0.039385054
187	0xbe026d5f	-0.12737034
188	0xbc94f2dd	-0.018182212
189	0x3c6a7ee1	0.014312477
190	0x3c02394d	0.007948232
191	0xbe36017d	-0.17774005
192	0x3d4a954f	0.049458798
193	0x3dbb521f	0.09146523
194	0x3bb70664	0.0055854786
195	0xba6838e6	-0.0008858576
196	0x3e006d95	0.12541802
197	0x3d23214b	0.039826673
198	0xbbc49e3c	-0.0060003083
199	0x3e539d22	0.2066541
200	0x3e9ada10	0.30244493
201	0xbd4c7c32	-0.04992313
202	0xbdf6a0cd	-0.12042389
203	0x3ea82d0f	0.32846877
204	0x3da44629	0.080211945
205	0xbe017da4	-0.12645584
206	0xbd97cad9	-0.07411737
207	0xbdbcffc6	-0.092284724
208	0x3ec22da3	0.37925443
209	0xbc8b7fce	-0.017028715
210	0xbe568151	-0.20947768
211	0x3df6f658	0.12058705
212	0xbe208893	-0.15677099
213	0xbe8513b8	-0.25991607
214	0xbccd992d	-0.025097454
215	0x3dff5dba	0.12469049
216	0x3d67c42a	0.05658356
217	0xbcf336f7	-0.029689295
218	0x3c91ceac	0.017798744
219	0xbe105993	-0.1409667
220	0xbc724ad4	-0.014788348
221	0x3d643d96	0.055722795
222	0xbd10d662	-0.0353607
223	0x3da1731a	0.07883282
224	0xbd33d1bd	-0.043901194
225	0xbd63085f	-0.055427905
226	0x3dcb6c1e	0.09932731
227	0x3c681d2e	0.014167113
228	0xbe9b070f	-0.30278823
229	0xbd77afbd	-0.06047033
230	0x3e1b46e4	0.15163761
231	0x3e16c188	0.14722264
232	0xbe280fef	-0.16412328
233	0x3c3e5938	0.011617951
234	0xbd3b3c16	-0.0457116
235	0xbe3ddc6f	-0.1854112
236	0x3d132743	0.035926115
237	0xbe3fa36b	-0.18714683
238	0x3e54f370	0.20795989
239	0x3dc86dec	0.09786591
240	0x3e3c0292	0.18360355
241	0x3c938ef3	0.0180125
242	0xbd23143b	-0.039814215
243	0x3dba4866	0.0909584
244	0xbc14cf0c	-0.009082567
245	0x3e85bad6	0.26119107
246	0x3d2016e3	0.039084326
247	0x3e3ad5a9	0.18245567
248	0xbd14ee5b	-0.036360126
249	0x3d450251	0.048097912
250	0xbe418b9c	-0.18900913
251	0xbe5538a3	-0.20822386
252	0x3d21ac73	0.0394711
253	0x3ee9a1f8	0.45631385
254	0x3cb16e26	0.021658968
255	0xbe091db7	-0.13390242

l2.bias f4 [300]
0	0x3ecfc468	0.40579534
1	0x3d197706	0.037467025
2	0xbd16cb9d	-0.036815275
3	0xbcf3651c	-0.029711299
4	0x3cfd292a	0.030903418
5	0xbeb3af91	-0.35094884
6	0xbd59c4de	-0.053166263
7	0xbd886250	-0.066593766
8	0x37083599	8.118711e-06
9	0xbd8775fb	-0.066143
10	0x3d3c2be9	0.045940313
11	0x3be18c10	0.006883152
12	0xbc9ca14f	-0.019119887
13	0x3d14415a	0.036195137
14	0x3c1c5883	0.009542587
15	0x3f09010f	0.5351724
16	0xbe2c0de0	-0.16802168
17	0x3cac6f1c	0.021049075
18	0x3ee4a75c	0.44658935
19	0x3ee5573c	0.44793117
20	0xbd8bd228	-0.068271935
21	0x3d0c85ce	0.034307294
22	0xbf1fcf19	-0.6242538
23	0xbd2d4a01	-0.042306904
24	0xbc6dcdf0	-0.014514431
25	0xbccefd63	-0.025267309
26	0x3f12fa95	0.5741361
27	0xbd9413c0	-0.072303295
28	0x3e1d6af0	0.15372825
29	0xbdc3f8ff	-0.095689766
30	0xbd6a14e3	-0.057148825
31	0xbd2035b3	-0.03911371
32	0xbb40d25a	-0.0029422254
33	0xbcd2189f	-0.025646506
34	0xbe932272	-0.28737217
35	0xbd800856	-0.0625159
36	0xbc9ea066	-0.019363593
37	0xbe9a3484	-0.3011819
38	0xbe342dcc	-0.17595595
39	0x3edd3dbb	0.4321116
40	0x3db710a5	0.089387216
41	0xbd67ee23	-0.05662359
42	0x3e2f5a51	0.17124297
43	0xbc5695e6	-0.013097262
44	0xbe21d09f	-0.15802239
45	0xbb81ae47	-0.003957543
46	0x3c26f77e	0.010190843
47	0xbd49d1dc	-0.049272403
48	0x3ec1a4e2	0.37821108
49	0xbd4fc479	-0.05072448
50	0xbf104a48	-0.56363344
51	0xbc477feb	-0.012176494
52	0x3e562aab	0.20914714
53	0x3d9c0911	0.07618917
54	0x3ccf3211	0.025292428
55	0xbd96dda4	-0.07366493
56	0xbcdda9b0	-0.027058452
57	0x3d3c414f	0.04596072
58	0x3d1ce1c0	0.03830123
59	0x3c77e680	0.015130639
60	0xbd1e77df	-0.038688537
61	0x3d194e93	0.03742845
62	0x3cb89fd8	0.022537157
63	0xbd6db2f9	-0.05803201
64	0xbd4f8f27	-0.05067363
65	0x3dd49492	0.103799
66	0xbc8b5ccd	-0.017012024
67	0xbe7d8d54	-0.24760944
68	0x3c63a05d	0.013893214
69	0xbdf5d8f9	-0.12004275
70	0xbd9609a7	-0.0732606
71	0xbe9c9e9c	-0.3058976
72	0xbe0fd85c	-0.14047378
73	0xbd493935	-0.049126823
74	0xba09f1f9	-0.0005262192
75	0x3c9adb89	0.01890351
76	0x3da969ba	0.08272119
77	0x3e5168f5	0.20450194
78	0xbf3013cb	-0.687802
79	0xbcee1123	-0.029060906
80	0x3bf0302e	0.007329962
81	0xbcef7bef	-0.0292339
82	0x3c06fe21	0.0082393
83	0xbd90fbc0	-0.070792675
84	0xbdc7f384	-0.09763244
85	0xbd3bd814	-0.045860365
86	0x3cee9b30	0.029126734
87	0x3c2cb70e	0.0105416905
88	0x3d4471de	0.047960155
89	0x3e3d8cf0	0.18510795
90	0x3e6e3e47	0.23265944
91	0x3e7de117	0.24792896
92	0xbe66ba5e	-0.22532031
93	0xbcd0d911	-0.02549413
94	0xbe9d5b7a	-0.30733854
95	0xbf0389a3	-0.5138189
96	0xbcebd2b6	-0.028786998
97	0x3c912a53	0.017720377
98	0xbc3f2e7a	-0.011668796
99	0xbd32fac9	-0.0436962
100	0x3d3a4586	0.04547646
101	0xbda3b9e6	-0.07994442
102	0x3c7f2fda	0.015575374
103	0xbc8c5cbc	-0.017134063
104	0xbea734da	-0.3265751
105	0x3f18f0fe	0.59742725
106	0x3d961649	0.07328469
107	0x3c90691f	0.01762825
108	0xbd13f0cc	-0.036118314
109	0x3c5abb99	0.013350391
110	0x3eae35e1	0.3402548
111	0x3d270a64	0.040781394
112	0xbd69157a	-0.056905247
113	0xbe3c84d0	-0.18410039
114	0x3c9839b1	0.018582197
115	0x3f0358ec	0.5130756
116	0xbe389918	-0.1802715
117	0x3eea3523	0.45743665
118	0x3e19a4d9	0.1500429
119	0x3cab926b	0.020943841
120	0xbd5a1280	-0.0532403
121	0xbd337fd8	-0.043823093
122	0x3ca4cd48	0.020117417
123	0x3c80b2ab	0.015710196
124	0xbbaab3e4	-0.005209433
125	0xbda4b0d2	-0.08041538
126	0x3d28d8c9	0.041222367
127	0x3bbb4736	0.005715276
128	0xb9ba3640	-0.00035517104
129	0xbd41a0b6	-0.047272407
130	0x3c98049c	0.018556885
131	0xbd3bec5b	-0.045879703
132	0xbbe5e8ef	-0.0070162932
133	0xbc8ee007	-0.017440809
134	0x3ba4b6c2	0.0050266692
135	0x3c197d57	0.009368262
136	0xbe361304	-0.17780691
137	0xbce526a4	-0.027972527
138	0x3ed159d9	0.4088886
139	0x3a3183b6	0.00067716406
140	0xbe5a9d89	-0.21349157
141	0xbe7de355	-0.24793752
142	0xbaca9718	-0.0015456406
143	0xbd922e39	-0.071377225
144	0x3e994f51	0.29943326
145	0x3c989126	0.0186239
146	0xbea6483b	-0.32476982
147	0xbd8a416f	-0.06750762
148	0xbbd76af7	-0.0065740305
149	0x3d6fd5dc	0.05855356
150	0xbe476aed	-0.19474383
151	0xbb5f27fa	-0.0034050927
152	0xbe9ea87c	-0.30987918
153	0xbe202b92	-0.15641621
154	0x3d2dad36	0.042401515
155	0x3c8bf6fb	0.017085543
156	0x3b45d6db	0.0030187878
157	0xbe9dfbec	-0.30856264
158	0xbd447e9d	-0.04797231
159	0x3e0c1130	0.13678432
160	0x3ccf791c	0.025326304
161	0xbc204c29	-0.009783783
162	0x3d0f28b7	0.034950938
163	0xbe69eb49	-0.2284366
164	0xbd1a87d8	-0.037727207
165	0xbc323f98	-0.01087942
166	0x3bf565c0	0.007488936
167	0x3ee8b642	0.45451552
168	0x3eab616f	0.33472773
169	0x3cc9a804	0.024616249
170	0xbd6c6009	-0.057708774
171	0xbd254227	-0.04034629
172	0xbbfa9e4c	-0.007648265
173	0xbe817034	-0.25280917
174	0xbea17652	-0.31535584
175	0xbd772eb6	-0.06034728
176	0xbdad270d	-0.08454714
177	0x3d0dcca0	0.034618974
178	0xbefde016	-0.49585027
179	0xbd055265	-0.03254928
180	0xbc6fe911	-0.01464297
181	0x3c8b56a9	0.017009096
182	0xbb7c26df	-0.0038475317
183	0x3c29329f	0.01032701
184	0x3e3bbbbc	0.18333334
185	0xbf09ddac	-0.5385387
186	0x3c880f2e	0.0166088
187	0x3cc93b47	0.024564398
188	0xbd2edd89	-0.04269174
189	0x3b7041da	0.0036660344
190	0x3cac28ec	0.021015607
191	0xbd4e4e8f	-0.050367888
192	0xbce51ab4	-0.027966835
193	0xbb1a9ad9	-0.0023590832
194	0xbc62cc0d	-0.013842595
195	0x3e42417e	0.18970296
196	0x3c87437b	0.01651167
197	0x3d1ffc50	0.039058983
198	0xbd8e2818	-0.06941241
199	0x3cf8ebcb	0.030385872
200	0xbd660954	-0.05616124
201	0xbceb8645	-0.028750548
202	0xbc61c801	-0.013780595
203	0xbdbd5b55	-0.09245936
204	0xbd76b8a4	-0.06023468
205	0xbce54ca4	-0.027990647
206	0x3c773603	0.015088561
207	0x3c75278b	0.014963041
208	0x3c9df3cf	0.019281296
209	0x3e232fba	0.15936175
210	0xbeddd473	-0.43326148
211	0xbdb0d5e2	-0.08634545
212	0x3e0789dd	0.13236184
213	0xbd8b1bac	-0.06792387
214	0xbe6015bb	-0.2188329
215	0xbe49ca01	-0.19705965
216	0xbd49b9ec	-0.049249575
217	0xbe56e02c	-0.20983952
218	0x3c542b43	0.0129497675
219	0xbbd99cfb	-0.006641028
220	0xbbc1acaa	-0.0059104757
221	0x3da536b4	0.080670744
222	0x3b9ba12b	0.0047494373
223	0x3f158857	0.58411163
224	0xbd31cefa	-0.04341028
225	0xbef11221	-0.47084144
226	0xbc59c66a	-0.0132919345
227	0xbe3aa33b	-0.1822633
228	0x3daf91b6	0.08572714
229	0xbd98a1be	-0.07452725
230	0xbd450031	-0.048095886
231	0x3dddb88a	0.10826214
232	0x3c2d03b4	0.010559965
233	0x3d6c5635	0.0576994
234	0x3c8e83f2	0.0173969
235	0x3e8a78ce	0.27045292
236	0xbea84037	-0.32861492
237	0xbd945f0b	-0.072446905
238	0xbc3fd75a	-0.011709059
239	0x3d0a15e3	0.03371228
240	0x3c2ceb81	0.010554195
241	0xbd491534	-0.049092487
242	0xbd09d77d	-0.03365277
243	0xbe6bf6ac	-0.23043317
244	0xbd71e530	-0.05905646
245	0xbd316d2c	-0.043317005
246	0xbee50ef4	-0.4473797
247	0x3da5152e	0.0806068
248	0xbc1b2236	-0.009468606
249	0xbe611175	-0.21979316
250	0xbe9e9a96	-0.30977315
251	0xbd6bbd29	-0.057553444
252	0x3e662d0a	0.22478119
253	0x3ea285c3	0.31742677
254	0xbd19af2e	-0.03752058
255	0xbd02134c	-0.031756684

l3.weight f4 [6, 300]
0	0x3dd80046	0.10546927
1	0x3d3e7260	0.046495795
2	0xbdb8e6ba	-0.090283826
3	0xbcc2084c	-0.023685597
4	0x3c83ad21	0.016073765
5	0x3db05bd1	0.086112626
6	0x3d45520c	0.04817395
7	0xbdfb3ac4	-0.12267068
8	0xbd26165e	-0.040548675
9	0xbcd0ed64	-0.025503822
10	0x3d496e31	0.049177352
11	0xbd22e5e3	-0.03977002
12	0xbcd16efc	-0.025565617
13	0xbd17b556	-0.03703817
14	0xbd5ee63f	-0.0544188
15	0xbdadf8cc	-0.0849472
16	0x3cb623f0	0.022233933
17	0xbb62f7a2	-0.0034632464
18	0x3e91b62d	0.28459302
19	0x3e8bc4f0	0.2729869
20	0xbbd03010	-0.0063533857
21	0xbc5c5610	-0.013448253
22	0xbcdf26f6	-0.027240258
23	0xbd4ba53e	-0.049718134
24	0xbc4df348	-0.01257021
25	0xbd4e1225	-0.050310273
26	0xbe4e4238	-0.20142448
27	0xbc0536c8	-0.008130737
28	0x3d5b340a	0.053516425
29	0xbbad4a5d	-0.005288406
30	0xbd307dcd	-0.043088723
31	0xbc9f71e7	-0.019463493
32	0x3c06a2a0	0.008217484
33	0x3c8ab044	0.016929753
34	0x3d5248d7	0.051338997
35	0xbb77c26d	-0.0037805096
36	0x3d2fb70d	0.04289918
37	0xbd428231	-0.04748744
38	0xbc04d3cd	-0.008107138
39	0x3e656bbf	0.22404383
40	0x3ec5fd8e	0.3867001
41	0xbd0cc599	-0.03436813
42	0x3e0f705f	0.1400771
43	0xbc8f6a26	-0.01750667
44	0x3a2eaeac	0.00066636014
45	0xbbff2600	-0.0077865124
46	0xbdad3288	-0.08456904
47	0xbd33d029	-0.04389969
48	0x3e2fdc7d	0.17173953
49	0xbb520a03	-0.0032049424
50	0x3c0be316	0.008538028
51	0xbd625543	-0.055257093
52	0xbe91c378	-0.28469443
53	0xbd7e5945	-0.062096853
54	0xbce5d436	-0.028055292
55	0xbb376248	-0.0027982164
56	0x3c4a1cd8	0.012335978
57	0x3cab1436	0.02088366
58	0xbaf16cc7	-0.0018419259
59	0xbd1869c5	-0.037210245
60	0xbd63121c	-0.055437192
61	0xbd9c39c5	-0.07628206
62	0xbd6876a1	-0.05675376
63	0x3ce82255	0.028336683
64	0xbd2d5030	-0.0423128
65	0xbd6bd2df	-0.05757415
66	0x3d53c19c	0.051698312
67	0x3d98fc37	0.07469981
68	0xbd1b777e	-0.037955754
69	0xbd8e8dc9	-0.06960637
70	0xbd7c1306	-0.06154158
71	0x3dbac923	0.09120395
72	0x3daa7b5e	0.08324312
73	0xbcca58b0	-0.024700493
74	0xbd516634	-0.05112286
75	0xbd69432e	-0.056948833
76	0xbdc0ff7e	-0.09423731
77	0xbd147aa7	-0.036249783
78	0x3d863ba4	0.06554344
79	0x3cffd21c	0.031228118
80	0x3d4e317e	0.05034017
81	0xbd3c50cd	-0.045975495
82	0xbcd5ef7e	-0.026115175
83	0xbd18113a	-0.037125804
84	0xbc7f287e	-0.015573619
85	0xbd00312b	-0.03129689
86	0xbc8a4637	-0.016879184
87	0x3b82bb80	0.003989637
88	0x3e520ee8	0.20513499
89	0xbdedcfee	-0.11611925
90	0xbe0ccaa2	-0.13749173
91	0x3df1b9a3	0.118029855
92	0x3de83135	0.113375105
93	0xbdcf0b3c	-0.10109565
94	0x3e514059	0.20434703
95	0x3eeb3d0c	0.45945013
96	0xbd0b1998	-0.033959955
97	0xbc901f0f	-0.017592935
98	0xbd1e763c	-0.038686976
99	0xbc90d219	-0.017678307
100	0x3c8a2b9b	0.016866496
101	0x3e260247	0.16211806
102	0xbd74b06c	-0.05973856
103	0x3cdc15b0	0.02686581
104	0x3d22bf6b	0.03973333
105	0xbdaabf4f	-0.083372705
106	0xbd085498	-0.0332838
107	0x3cd04478	0.025423273
108	0x3d02683a	0.03183768
109	0xbd70612f	-0.05868643
110	0x3e16edc2	0.14739135
111	0x3e1fa8c9	0.1559173
112	0x3ca3c610	0.019991904
113	0xbeba4a2e	-0.3638472
114	0xbd019d38	-0.031644076
115	0x3da3670b	0.07978638
116	0x3e702ed2	0.2345536
117	0xbdf54b6d	-0.11977277
118	0x3dcccd88	0.100001395
119	0x3bde7aab	0.0067895255
120	0xbd71f7b9	-0.059074137
121	0xbcfb5d77	-0.030684216
122	0x3d236660	0.039892554
123	0x3d2379d6	0.039911114
124	0x3ab18592	0.0013543835
125	0xbd86fd06	-0.06591229
126	0x3e0705cf	0.1318581
127	0x3d138821	0.036018495
128	0x3a403c00	0.00073331594
129	0x3c338550	0.010957077
130	0x3ca5ad3a	0.020224202
131	0xbcb2f6a6	-0.021846127
132	0xbd918a3d	-0.07106445
133	0x3cfe5194	0.031044759
134	0xbc2b7c79	-0.010466688
135	0x3d48dd3b	0.049039107
136	0x3e93e402	0.28884894
137	0xbc93018a	-0.01794507
138	0xbe756817	-0.23965488
139	0x3cc94759	0.024570154
140	0x3e09a412	0.13441494
141	0xbd96b08f	-0.07357895
142	0x3cb27646	0.021784913
143	0xbdbc1bcc	-0.09184989
144	0x3e3f535c	0.18684143
145	0xbd5f1d65	-0.054471392
146	0x3e2d16a6	0.16903171
147	0x3d011173	0.03151078
148	0x3d37cffb	0.04487608
149	0x3d599f0f	0.053130206
150	0x3c89365c	0.016749553
151	0x3d671500	0.05641651
152	0x3e2a5c02	0.1663666
153	0xbd593401	-0.05302811
154	0xbc0d47ac	-0.008623045
155	0x3c04b640	0.008100092
156	0x3cc99c02	0.024610523
157	0xbe7a0bdc	-0.24418586
158	0xbd2e8763	-0.042609584
159	0xbc4fa3d8	-0.012673341
160	0x3d1d8626	0.038458012
161	0x3cab4c4a	0.0209104
162	0x3aff7180	0.0019488782
163	0x3c8d6584	0.01726032
164	0x3cadbafb	0.021207323
165	0xbd44a902	-0.04801274
166	0xbcf72f7a	-0.030174006
167	0x3e9e9cb6	0.30978936
168	0x3d981860	0.07426524
169	0x3aa0e3bd	0.0012274903
170	0xbd1a8451	-0.037723843
171	0xbd3d3f6e	-0.04620307
172	0x3cb5ab91	0.022176536
173	0x3d950757	0.072767906
174	0x3d5ea61d	0.054357637
175	0xbb1c5318	-0.0023853239
176	0x3cd17a4d	0.025571013
177	0xbcd97794	-0.026546277
178	0x3e217c05	0.15769966
179	0xbd00bebb	-0.031431895
180	0xbd253ab6	-0.040339194
181	0xbc092495	-0.008370538
182	0x3c9fd4e9	0.019510703
183	0x3f03716c	0.51344943
184	0xbd93bc55	-0.07213656
185	0x3c633a6e	0.013868911
186	0x3bd97825	0.006636637
187	0x3cd55463	0.026041215
188	0xbcd0267e	-0.02540898
189	0xbd3793f3	-0.04481883
190	0xbc81c5fc	-0.015841477
191	0x3b247684	0.0025095055
192	0xbc2002e8	-0.009766318
193	0xbcf8cd6b	-0.030371388
194	0x3cfd96c7	0.030955685
195	0x3d8deb37	0.06929629
196	0x3d5a8c92	0.053356715
197	0xbc90728a	-0.017632741
198	0xbd4fedc5	-0.050763864
199	0xbd581e6a	-0.05276338
200	0xbc6cb3c4	-0.014447156
201	0x3d1230de	0.035691135
202	0x3d511293	0.051043104
203	0x3db4323a	0.087986425
204	0xbd19f1e1	-0.03758419
205	0xbd97a058	-0.0740363
206	0x3c765f4d	0.01503737
207	0xbd28c26c	-0.04120104
208	0x3d52b51c	0.05144225
209	0x3d79d923	0.060998093
210	0x3ed795c6	0.42106456
211	0x3ce3496e	0.027744975
212	0x3df1166a	0.11771853
213	0x3c61e9c2	0.013788642
214	0x3d884259	0.0665328
215	0x3cc278de	0.023739275
216	0xbc9e5874	-0.019329287
217	0x3dfb6c28	0.122764885
218	0x3cf960fa	0.03044175
219	0xbd60216d	-0.054719377
220	0x3e610dd0	0.21977925
221	0xbc37f3a7	-0.011227525
222	0x3c855bf8	0.016279206
223	0x3e6c216e	0.23059627
224	0xbd3f1b78	-0.046657056
225	0x3e92037c	0.28518283
226	0xbd3b563f	-0.045736548
227	0x3deebeba	0.11657472
228	0xbbd9bf58	-0.0066451244
229	0x3bff3804	0.00778866
230	0xbd050f47	-0.032485273
231	0xbdc9442b	-0.09827455
232	0xbd398a39	-0.045297835
233	0x3dd89145	0.10574583
234	0xba13ddfc	-0.0005640683
235	0x3e71f8f1	0.2363012
236	0x3cb8b3f5	0.022546748
237	0xbe9f385a	-0.3109768
238	0xbae3b59c	-0.0017372849
239	0xbc08da48	-0.008352824
240	0x3d5442e4	0.051821604
241	0x3d2e2337	0.042514052
242	0x3c938842	0.018009309
243	0x3e86da38	0.26338363
244	0x3b98d813	0.00466443
245	0xbcce775d	-0.025203401
246	0x3eeda00a	0.46411163
247	0xbc081269	-0.008305171
248	0xbc646260	-0.01393947
249	0x3b830acb	0.0039990894
250	0x3e1adf49	0.15124239
251	0x3ce92922	0.028461996
252	0x3dd5c785	0.10438446
253	0x3eb90e2a	0.3614362
254	0x3cb36e3c	0.02190315
255	0x3d4125ca	0.04715518

l3.bias f4 [6]
0	0xbe3f7094	-0.18695289
1	0x3f035732	0.51304924
2	0x3d87c571	0.06629456
3	0x3c87699a	0.016529847
4	0x3e2c7e6a	0.16845098
5	0xbe7c89c9	-0.24661936
