results/runs/double_assembly_step/Average_TD3_20_Peg-in-hole-double_assembly_seed_5/93000_actor.pth (torch_old, 510312 bytes, 6 tensors)

l1.weight f4 [400, 12]
0.17057796 -0.20593968 0.2462669 0.17832212 0.24277273 -0.22078365 -0.18486941 0.123377144
-0.28289843 0.26636553 0.05255682 0.050632242 -0.88925755 -0.037609763 0.3314319 0.13979678
0.5909127 -0.22642168 -0.347438 0.4667335 0.35307494 0.24007747 -0.088078745 0.20656358
1.569036 -0.32996643 -0.26878327 0.20183973 -0.3289136 0.018051628 -0.22224358 -0.120945066
0.12804252 -0.20890628 0.23408577 0.037835434 -0.2971564 -0.06943766 0.26268932 0.20114104
0.15929277 -0.6454026 -0.5461852 0.32350785 0.29902494 -0.02871463 0.35480815 0.46548215
-0.06886382 0.04685482 0.6146076 -0.04865212 0.25817394 -0.15605058 0.20899077 0.13240266
0.071390405 0.011643999 -0.2766788 0.8034259 -0.36469302 -0.5824417 -0.0152073605 0.021103552
0.005134759 -0.21149582 -0.2376533 -0.29439166 -0.17822176 -1.1399285 0.30807877 -0.08423424
-0.04595965 0.2184614 0.26615113 0.25341433 0.1660248 0.26831347 -0.10401122 -0.018373817
-0.09873605 -0.021217138 -0.035101116 0.15423197 0.32913667 -0.45677528 0.21065834 -0.13731958
0.015921518 0.13417725 -0.26715434 -0.13149595 -0.22377478 0.22813198 -0.1981615 -0.32536054
-0.08492096 -0.06459376 0.25407892 0.1912307 -0.094973564 -0.26614186 -0.17941968 -0.19440953
-0.054518707 -0.107717164 -0.22209477 0.07308135 -0.60514456 0.14111966 -0.08292833 -0.29025128
-0.647418 1.6393591 0.9773075 0.47595108 -0.48666126 -0.91223735 -0.29157472 -1.286434
0.08728838 -0.12755488 0.20034811 -0.10825166 -0.15545103 0.26184654 0.07647112 -0.0019928217
-0.20118177 -0.0638973 -0.22176056 -0.19422932 -0.6452289 -0.019092819 0.06516096 0.18299605
-0.040011767 -0.060277563 0.29698214 -0.44165415 -0.62920314 0.057067033 -0.21897104 -0.47799727
-0.37009394 1.3834314 -0.13191703 -0.5788186 0.32373363 0.38322297 -0.09614948 0.19356044
-0.031091344 1.0025364 -0.16224411 -0.5208792 -0.039320607 -0.23511277 0.09742973 -0.06624173
-0.0982462 0.133051 0.0025209733 -0.033801373 -0.14030167 -0.85721475 -0.010402594 0.19253065
0.4636107 1.3441203 -0.07040167 -0.3527636 -0.13861403 0.87814164 0.22857423 -0.5630436
-0.814232 -0.03519845 -0.67010266 -0.122909755 -1.1563982 -0.23978135 0.09361289 -0.3603585
0.19531143 -0.20421542 -0.07973122 0.11949889 0.113370836 -1.165113 0.06997373 0.37775782
0.86023057 0.90351593 -0.24145162 -0.63709044 0.1891943 0.85867184 -0.35178754 -0.46616033
0.014748052 -0.046266496 0.16909054 -0.16504969 0.18145946 -0.0031526685 0.1514447 0.20221636
0.18430409 -0.2749286 0.26163828 0.07633141 -0.28617752 0.07183349 -0.19878256 0.2672038
0.6116233 -0.097522505 0.122332305 -0.15522331 -0.8095789 0.0022689118 -0.27514404 0.06358312
-0.23709512 -0.48936307 -0.21741039 -0.4716681 -0.33869192 1.4692796 0.11867104 -0.30158597
-0.1628045 0.73426664 -0.18660301 0.2113903 -0.77893436 0.3475659 -0.15473787 0.29599157
0.9934963 -0.14027849 0.16150561 0.28641602 -0.84903485 -0.058363605 0.037869178 -0.00997916
0.042415753 0.4102086 -0.3148538 -0.10485496 -0.087784395 -0.018155515 0.115231425 -0.23103344
00000000: fdab 2e3e dae1 52be 642d 7c3e 139a 363e
00000010: 6a99 783e 1c15 62be 684e 3dbe 28ad fc3d
00000020: 10d8 90be 1061 883e d245 573d c163 4f3d
00000030: 62a6 63bf b20c 1abd 71b1 a93e e326 0f3e
00000040: 0e46 173f 16db 67be 65e3 b1be b1f7 ee3e
00000050: 3dc6 b43e ded6 753e a162 b4bd 6785 533e
00000060: 2cd6 c83f 5cf1 a8be f69d 89be 13af 4e3e
00000070: 5d67 a8be 02e1 933c d293 63be 0cb2 f7bd
00000080: 941d 033e 87eb 55be 2eb4 6f3e 54f9 1a3d
00000090: e224 98be 5535 8ebd 377f 863e ebf7 4d3e
000000a0: a51d 233e 1b39 25bf cbd2 0bbf d2a2 a53e
000000b0: cc19 993e f23a ebbc 6aa9 b53e ad53 ee3e
000000c0: 7908 8dbd d7ea 3f3d ec56 1d3f 7247 47bd
000000d0: 602f 843e b9cb 1fbe ad01 563e 9094 073e
000000e0: 2235 923d 79c6 3e3c d8a8 8dbe 52ad 4d3f
000000f0: 0bb9 babe e61a 15bf 4b28 79bc 5be1 ac3c
00000100: 7b41 a83b 5c92 58be 635b 73be 81ba 96be
00000110: c47f 36be 2de9 91bf 80bc 9d3e 0083 acbd
00000120: 3040 3cbd 58b4 5f3e f644 883e 86bf 813e
00000130: 6802 2a3e 6260 893e d603 d5bd b084 96bc
00000140: 2036 cabd 90cf adbc 30c6 0fbd fcee 1d3e
00000150: 9a84 a83e 73de e9be d2b6 573e 819d 0cbe
00000160: d86d 823c c365 093e 74c8 88be e0a6 06be
00000170: 3725 65be 6e9b 693e d9ea 4abe a895 a6be
00000180: 0aeb adbd bc49 84bd a216 823e fbd1 433e
00000190: 8081 c2bd bf43 88be cbb9 37be 4b13 47be
000001a0: 024f 5fbd d19a dcbd d06c 63be adab 953d
000001b0: c1ea 1abf ac81 103e 54d6 a9bd d19b 94be
000001c0: 30bd 25bf 85d6 d13f d330 7a3f dcaf f33e
000001d0: aa2b f9be 6388 69bf 4849 95be dfa9 a4bf
000001e0: 40c4 b23d bf9d 02be 0e28 4d3e 0cb3 ddbd
000001f0: 8e2e 1fbe c010 863e e49c 9c3d 009a 02bb
00000200: 9802 4ebe 96dc 82bd 3315 63be 0de4 46be
00000210: b92d 25bf 8b68 9cbc 1c73 853d 5163 3b3e
00000220: 61e3 23bd 9be5 76bd 0b0e 983e 7e20 e2be
00000230: 7513 21bf 1fbf 693d f239 60be 0fbc f4be
00000240: f47c bdbe 4814 b13f 4215 07be 752d 14bf
00000250: 6ac0 a53e cd35 c43e 05ea c4bd b534 463e
00000260: 46b3 febc 1d53 803f 5223 26be 5758 05bf
00000270: a50e 21bd 67c1 70be 3d89 c73d bea9 87bd
00000280: 4e35 c9bd 853e 083e ea36 253b 4f73 0abd
00000290: 3eab 0fbe 6d72 5bbf a46f 2abc c126 453e
000002a0: 625e ed3e 220c ac3f c02e 90bd 6e9d b4be
000002b0: d6f0 0dbe e4cd 603f 5d0f 6a3e a023 10bf
000002c0: 8271 50bf 402c 10bd d98b 2bbf 1cb8 fbbd
000002d0: db04 94bf 3e89 75be 1db8 bf3d e980 b8be
000002e0: b8ff 473e d91d 51be 1f4a a3bd d6bb f43d
000002f0: f82e e83d 6c22 95bf 634e 8f3d 7969 c13e
00000300: 1238 5c3f d24c 673f 183f 77be 5c18 23bf
00000310: 27bc 413e ebd1 5b3f 7f1d b4be 91ac eebe
00000320: d0a1 713c f081 3dbd 1226 2d3e c902 29be
00000330: 82d0 393e 009d 4ebb 5214 1b3e ce11 4f3e
00000340: 36ba 3c3e 71c3 8cbe 74f5 853e a453 9c3d
00000350: dc85 92be 701d 933d a88d 4bbe f0ce 883e
00000360: 5893 1c3f e1b9 c7bd 5c89 fa3d dcf2 1ebe
00000370: 9040 4fbf 06b2 143b aedf 8cbe de37 823d
00000380: 10c9 72be cc8d fabe d4a0 5ebe 7b7e f1be
00000390: 0769 adbe 5b11 bc3f cd09 f33d 7a69 9abe
000003a0: 39b6 26be e6f8 3b3f dc14 3fbe b376 583e
000003b0: 3e68 47bf 28f4 b13e 9b73 1ebe 358c 973e
000003c0: c655 7e3f 2aa5 0fbe ba61 253e 1fa5 923e
000003d0: 595a 59bf ad0e 6fbd b61c 1b3d a17f 23bc
000003e0: 24bc 2d3d dd06 d23e 8434 a1be 33be d6bd
000003f0: 4ec8 b3bd e0ba 94bc 74fe eb3d 0894 6cbe

l1.bias f4 [400]
0.008904171 0.0083735585 0.8942703 -0.20842981 -0.43169722 -0.23994006 0.105590016 0.6075746
-0.18535034 1.0900025 -0.16277187 0.012421526 0.06748221 -0.47980812 -0.31807208 -0.7546175
0.53342736 -0.26838145 -0.68246615 0.045675468 0.47808722 -0.1153539 -0.261304 -0.6833923
-0.091402754 -0.79999 -0.11653382 0.017937243 -0.71273386 -0.1829575 0.13398866 -0.5453112
0.18106587 -0.47794574 -0.7930247 -0.9181 1.164836 0.19121294 -0.014822836 -0.094269305
0.28748772 -0.89056444 1.0524695 0.31518006 0.05418349 -0.057962373 -0.2449387 -0.19310223
-0.3738478 0.0137204975 0.5454388 -0.47148085 1.0781027 0.07948716 0.19175325 -0.5322803
-0.04963073 -0.8670259 -0.24394836 -0.109475 -0.8786423 0.52742225 -0.46118322 -0.8818364
0.08781232 0.40887836 -0.16271436 -0.5444997 0.22216955 -0.36589205 -0.103252865 0.21597518
0.55011106 0.05514899 -0.13725124 -0.111631595 -0.23170955 0.43655208 -0.11527034 -1.151309
-0.04293455 1.1177466 -0.23374313 0.2672445 0.5598994 -0.31142172 0.5386485 -0.33412802
-0.033486307 -0.69597477 0.09324553 -0.3673947 0.04135087 -0.38264167 -0.9950358 -0.07004599
-0.25657073 0.9325009 0.006881799 -1.3915341 -0.44723415 0.7991773 0.22303283 -0.58608836
0.36347324 -0.030596025 0.1324454 0.18173839 -0.12459495 -0.081313536 -0.39882794 -0.18458512
-0.6059739 -0.32763797 0.23810464 1.2518622 -0.9369331 -0.22095442 -0.34071344 0.21103643
0.13510612 0.0052889334 -0.57654643 0.21764444 -0.40955243 0.14780572 -0.7609103 0.011119605
0.27728295 -0.12551257 -1.0254794 -0.9532802 -0.3973845 0.1935086 0.53607947 0.093480825
-0.11512671 0.13335882 -0.5358588 0.2458531 -0.15530014 0.4125195 -1.0144514 0.5659287
-0.26949993 -0.23906016 -0.15017001 -1.2501284 -0.20094477 0.16544236 0.11681055 0.6324674
-0.8249521 -0.017548254 0.117773525 -0.16245691 -0.3228639 -0.36624762 0.37156147 -0.24852945
-0.009931881 -0.17944874 -0.054620516 0.17090596 -0.314389 -0.86136514 0.11478639 -0.14890772
0.049435213 0.2864767 0.13360229 -0.26712975 -0.30180573 -0.15865678 0.26347008 0.29360655
-0.40266275 -1.0231653 -0.33255348 -0.0008286142 0.13519944 0.24289846 -0.60584575 0.7363471
-0.28115794 -0.025331762 0.055239342 0.4782751 0.012540836 1.014572 -1.1919103 -0.31624702
0.11006128 0.10469567 0.120177224 -0.7844238 0.3604215 -0.10788217 -0.3893234 0.15120763
0.21417455 0.17381567 -0.2912763 0.2870254 -1.2664545 -0.13407172 -0.48743722 0.38226968
0.09842172 -0.99790716 0.64978606 1.0945557 0.25652707 0.10918294 0.15325812 -0.86061937
-0.45418337 0.12835687 -0.254185 -0.57137287 0.013170216 -0.08510654 -0.17609385 0.16164869
0.12457002 -0.26766175 0.789309 -0.21837556 -0.598582 0.48441276 0.13843332 -0.13522704
0.6590559 0.17626908 0.281653 0.43789652 0.167077 -0.97667634 0.14984624 0.019305188
-0.94827014 0.1699152 0.22936815 1.1928706 -0.2532556 0.51612186 -0.24654087 1.2210864
-0.95321965 0.014824301 -1.0256022 0.18822856 -0.26048034 0.03831815 -0.21347706 -0.46726662
00000000: cde2 113c 4031 093c e6ee 643f a06e 55be
00000010: 6b07 ddbe d9b2 75be 943f d83d 028a 1b3f
00000020: 7bcc 3dbe 3485 8b3f abad 26be a883 4b3c
00000030: 1d34 8a3d 69a9 f5be 58da a2be 9d2e 41bf
00000040: b28e 083f 4b69 89be 1ab6 2ebf 3316 3b3d
00000050: d9c7 f43e aa3e ecbd a3c9 85be ccf2 2ebf
00000060: 5e31 bbbd 25cc 4cbf 49a9 eebd 20f1 923c
00000070: ba75 36bf 3659 3bbe 5334 093e 8499 0bbf
00000080: 5569 393e 4eb5 f4be ab03 4bbf 9a08 6bbf
00000090: 5919 953f 53cd 433e 7bdb 72bc 4410 c1bd
000000a0: 9731 933e 08fc 63bf 52b7 863f 485f a13e
000000b0: 82ef 5d3d f469 6dbd 36d1 7abe 97bc 45be
000000c0: fb68 bfbe f0cb 603c e1a1 0b3f f065 f1be
000000d0: 45ff 893f 2aca a23d f75a 443e 8643 08bf
000000e0: 9849 4bbd 69f5 5dbf 99cd 79be 6e34 e0bd
000000f0: b4ee 60bf 2505 073f 3520 ecbe 08c0 61bf
00000100: f2d6 b33d 8158 d13e 989e 26be 5564 0bbf
00000110: 6a80 633e 3456 bbbe 3d76 d3bd 9928 5d3e
00000120: 14d4 0c3f e8e3 613d 978b 0cbe 1b9f e4bd
00000130: 4545 6dbe c183 df3e db12 ecbd 185e 93bf
00000140: 24dc 2fbd 5212 8f3f 5c5a 6fbe 45d4 883e
00000150: 9155 0f3f ab72 9fbe dee4 093f d412 abbe
00000160: f028 09bd 672b 32bf 83f7 be3d 281b bcbe
00000170: 885f 293d 9ce9 c3be abba 7ebf 4674 8fbd
00000180: 3d5d 83be 61b8 6e3f b780 e13b ca1d b2bf
00000190: e0fb e4be e296 4c3f b862 643e e309 16bf
000001a0: 2a19 ba3e 84a4 fabc c49f 073e a119 3a3e
000001b0: a32b ffbd b687 a6bd 2d33 ccbe e203 3dbe
000001c0: 1b21 1bbf 2ac0 a7be b4d1 733e 053d a03f
000001d0: d9da 6fbf e041 62be fe71 aebe ef19 583e
000001e0: 4259 0a3e ca4e ad3b 8c98 13bf 2fde 5e3e
000001f0: dbb0 d1be 625a 173e 04cb 42bf 012f 363c
00000200: 08f8 8d3e 5e86 00be e942 83bf 2c0a 74bf
00000210: fb75 cbbe 1e27 463e 813c 093f e072 bf3d
00000220: 8dc7 ebbd 378f 083e 0b2e 09bf eac0 7b3e
00000230: 0007 1fbe c235 d33e 8bd9 81bf b4e0 103f
00000240: e5fb 89be 30cc 74be 2bc6 19be 3504 a0bf
00000250: 77c4 4dbe b969 293e 5f3a ef3d 62e9 213f
00000260: 1030 53bf 5bc1 8fbc 3f33 f13d 1b5b 26be
00000270: 6b4e a5be cf84 bbbe 4e3d be3e 817e 7ebe
00000280: 54b9 22bc 69c1 37be c3b9 5fbd f901 2f3e
00000290: 98f7 a0be 6d82 5cbf 2015 eb3d 447b 18be
000002a0: 947c 4a3d 13ad 923e 0acf 083e 3bc5 88be
000002b0: 4886 9abe ec76 22be 8de5 863e 9953 963e
000002c0: d029 cebe 15f7 82bf 7344 aabe 5c37 59ba
000002d0: b971 0a3e 60ba 783e b518 1bbf 3e81 3c3f
000002e0: eff3 8fbe 8e84 cfbc a642 623d 79e0 f43e
000002f0: 1478 4d3c 7fdd 813f 8490 98bf 21eb a1be
00000300: cf67 e13d af6a d63d 7a1f f63d 00d0 48bf
00000310: 2b89 b83e 54f1 dcbd 6655 c7be 2cd6 1a3e
00000320: 9350 5b3e bcfc 313e 2b22 95be fef4 923e
00000330: 2e1b a2bf 194a 09be 5f91 f9be dab8 c33e
00000340: 5491 c93d d876 7fbf 6158 263f 671a 8c3f
00000350: 8457 833e 4e9b df3d b2ef 1c3e 8d51 5cbf
00000360: b98a e8be fc6f 033e 8924 82be 7e45 12bf
00000370: e4c7 573c 564c aebd f251 34be 3c87 253e
00000380: 911e ff3d f60a 89be 2810 4a3f d89d 5fbe
00000390: ac3c 19bf f304 f83e 77c1 0d3e f578 0abe
000003a0: e3b7 283f e27f 343e d234 903e f933 e03e
000003b0: 3c16 2b3e 7607 7abf 4b71 193e ea25 9e3c
000003c0: d5c1 72bf 40fe 2d3e 7cdf 6a3e fcaf 983f
000003d0: b8aa 81be 9020 043f 3675 7cbe 8f4c 9c3f
000003e0: 3406 74bf a0e1 723c ef46 83bf fdbe 403e
000003f0: ae5d 85be 7ef3 1c3d bb99 5abe 923d efbe

l2.weight f4 [300, 400]
-0.02907044 0.5197482 -0.06586505 0.48990494 0.4813 0.2246989 -0.0123791285 0.37526336
0.026686454 0.10435071 -0.0050981715 -0.022790361 -0.14283189 0.03502932 -0.066849135 0.10688791
-0.32176256 -0.041460715 0.2993175 -0.08335235 0.04512609 0.047513936 0.40111995 0.060950812
-0.25824216 0.37943843 0.23295738 -0.013387948 -0.19029969 0.105526134 0.39710787 0.6728486
0.61206144 0.3832409 -0.0005864022 -0.00013138923 -0.31848484 -0.21501733 0.19617528 0.28317595
0.07148886 0.3254017 -0.1210107 0.008762925 -0.10481537 0.39674062 0.551353 0.050944075
-0.07284216 -0.22901544 0.9001845 0.15526006 0.26982257 -0.017175132 -0.29997018 -0.11295784
-0.003439445 0.016153252 0.17236575 -0.00723527 0.26787505 -0.020344073 -0.07128176 -0.04992212
0.07985909 0.0062871026 0.03266469 -0.06659765 0.09329003 -0.09067751 0.025421027 -0.042610362
0.107400246 -0.026497906 -0.031608332 0.5972899 -0.5550134 -0.17595315 -0.2721634 -0.49938166
0.18027775 -0.1371345 0.020731427 0.51305735 -0.0804212 0.0067095733 0.16013439 -0.76182926
-0.01593893 0.3610734 -0.035219423 0.2561602 0.21184587 0.28562593 0.07047721 -0.015099472
0.40564656 -0.4949546 0.8050356 -0.06711588 0.4460177 0.26354253 0.007718645 -0.19950056
-0.27155575 0.486298 -0.0045105643 1.0917535 0.30869552 0.27053043 0.9732576 0.08331025
0.25709692 0.08445658 0.34942806 0.73269683 0.07022785 0.26418728 -0.1113927 -0.060719028
0.52479786 0.20042866 0.5050578 -0.034344226 0.2780682 0.03645939 0.34485683 0.019467616
0.008093048 -0.04086989 -0.25074378 0.15143506 0.031967014 -0.7621879 0.95475703 -0.264642
0.30831873 -0.040975254 0.627737 -0.2757487 -0.37800178 0.28299245 0.049546022 -0.09154147
-0.18350248 -0.073605865 -0.02900362 0.35434774 -0.06250782 0.14875089 0.06413159 -0.10736571
-0.10142161 0.11480873 0.5375235 0.029457096 -0.062118396 -0.1747323 0.44427705 -0.030121017
-0.012777755 0.44472829 0.12965944 -0.104820244 -0.15304163 -0.15762682 -0.03246633 0.022253845
-0.12910354 0.3986488 -0.03779909 0.20541228 0.4779301 -0.04935221 0.183912 0.36360484
0.29891932 0.16647026 -0.1250047 0.58298916 0.31290266 0.03059442 0.49769583 -0.53798825
-0.32154253 0.7034923 0.039385054 0.1576778 -0.03878917 0.20369792 0.13671811 -0.36320138
0.18661594 0.121059954 0.0055854786 0.03367683 -0.2333535 0.039826673 -0.03623579 0.44378895
0.12543435 -0.04992313 0.20106477 0.46069753 0.07636771 -0.34545702 0.2820757 -0.21744174
0.66544914 0.015060872 -0.52901226 0.21763699 -0.4901143 -0.34769785 -0.025097454 0.23153622
0.11877037 0.41586238 0.017798744 -0.13132793 -0.014788348 0.13650374 -0.33791867 0.37291253
-0.043901194 -0.16201013 0.2928221 -0.40224478 -0.2707229 -0.034752835 0.43512794 0.081186175
-0.29907838 0.011617951 0.062292535 -0.6594554 0.035926115 0.102916785 0.47082183 0.39316848
0.123566724 0.0180125 -0.039814215 -0.15345667 -0.009082567 0.23652133 -0.08172088 0.067024894
0.19025563 0.048097912 -0.18900913 -0.3525581 0.0394711 0.7665972 0.021658968 -0.17633046
00000000: 2225 eebc 380e 053f 41e4 86bd d2d4 fa3e
00000010: f46c f63e 7817 663e d4d1 4abc 8522 c03e
00000020: 8d9d da3c d3b5 d53d 900e a7bb dab2 babc
00000030: 8642 12be e77a 0f3d 33e8 88bd 0ce8 da3d
00000040: 10be a4be b6d2 29bd 2540 993e a3b4 aabd
00000050: 23d6 383d f99d 423d 985f cd3e 8fa7 793d
00000060: 5138 84be c145 c23e 618c 6e3e 2059 5bbc
00000070: ecdd 42be 161e d83d b951 cb3e ce3f 2c3f
00000080: 0fb0 1c3f 2738 c43e c9b8 19ba 87c5 09b9
00000090: 7210 a3be 812d 5cbe 2ce2 483e 70fc 903e
000000a0: c068 923d 0d9b a63e 75d4 f7bd 5f92 0f3c
000000b0: 71a9 d6bd 9621 cb3e 7825 0d3f bcaa 503d
000000c0: 452e 95bd 0683 6abe 7e72 663f 7efc 1e3e
000000d0: 2f26 8a3e ddb2 8cbc b195 99be 7156 e7bd
000000e0: 5068 61bb d353 843c a680 303e d815 edbb
000000f0: eb26 893e 9da8 a6bc 2cfc 91bd 237b 4cbd
00000100: 2a8d a33d 0a04 ce3b 69cb 053d 5964 88bd
00000110: d80e bf3d 21b5 b9bd c23f d03c 3488 2ebd
00000120: a9f4 db3d 2312 d9bc bd77 01bd fee7 183f
00000130: 5c15 0ebf 102d 34be 0059 8bbe f4ae ffbe
00000140: bb9a 383e fd6c 0cbe f4d4 a93c ba57 033f
00000150: dfb3 a4bd fbdb db3b 45fa 233e 3e07 43bf
00000160: 5c92 82bc 9dde b83e 3e42 10bd 6e27 833e
00000170: 20ee 583e 903d 923e 5b56 903d c763 77bc
00000180: e8b0 cf3e b06a fdbe d016 4e3f 0d74 89bd
00000190: 6f5c e43e 0cef 863e b0ec fc3b e049 4cbe
000001a0: 5b09 8bbe 0dfc f83e 5bcd 93bb 94be 8b3f
000001b0: 570d 9e3e f782 8a3e 6927 793f 909e aa3d
000001c0: 35a2 833e 92f7 ac3d 3ce8 b23e 0592 3b3f
000001d0: 9ed3 8f3d 8e43 873e db21 e4bd 84b4 78bd
000001e0: 2759 063f 2c3d 4d3e 784b 013f 88ac 0cbd
000001f0: f55e 8e3e 7156 153d 1391 b03e 8d7a 9f3c
00000200: b498 043c 3067 27bd 7d61 80be cb11 1b3e
00000210: d8ef 023d bf1e 43bf f56a 743f 287f 87be
00000220: f4db 9d3e abd5 27bd 5fb3 203f ef2e 8dbe
00000230: 7389 c1be 63e4 903e c5f0 4a3d 187a bbbd
00000240: 13e8 3bbe acbe 96bd 0099 edbc 116d b53e
00000250: 1a04 80bd 2752 183e 6c57 833d 8ee2 dbbd
00000260: 22b6 cfbd d720 eb3d 249b 093f 0250 f13c
00000270: dc6f 7ebd 06ed 32be 4878 e33e 5ac0 f6bc
00000280: ca59 51bc 6db3 e33e 72c5 043e ffab d6bd
00000290: f2b6 1cbe ed68 21be 6afb 04bd b24d b63c
000002a0: b833 04be b21b cc3e 38d3 1abd 9957 523e
000002b0: 41b3 f43e 8b25 4abd 6d53 3c3e 6a2a ba3e
000002c0: f40b 993e 2e77 2a3e 3b01 00be c73e 153f
000002d0: c734 a03e 26a1 fa3c fdd1 fe3e 99b9 09bf
000002e0: 39a1 a4be 1218 343f 3952 213d 4a76 213e
000002f0: 65e1 1ebd 3096 503e d5ff 0b3e 88f5 b9be
00000300: 4018 3f3e 48ee f73d 6406 b73b b7f0 093d
00000310: 38f4 6ebe 4b21 233d fb6b 14bd 4e38 e33e
00000320: dd71 003e 327c 4cbd ece3 4d3e 8ce0 eb3e
00000330: ad66 9c3d bedf b0be 3a6c 903e 0ca9 5ebe
00000340: e05a 2a3f e0c1 763c 596d 07bf 3bdc 5e3e
00000350: 43f0 fabe 7405 b2be 2d99 cdbc d517 6d3e
00000360: e13d f33d eaeb d43e acce 913c d47a 06be
00000370: d44a 72bc a3c7 0b3e ad03 adbe 64ee be3e
00000380: bdd1 33bd fce5 25be c7ec 953e 07f3 cdbe
00000390: 319c 8abe fd58 0ebd 17c9 de3e f044 a63d
000003a0: cd20 99be 3859 3e3c 7526 7f3d 12d2 28bf
000003b0: 4327 133d 09c6 d23d 8f0f f13e 614d c93e
000003c0: 8d10 fd3d f38e 933c 3b14 23bd bf23 1dbe
000003d0: 0ccf 14bc a632 723e 475d a7bd 5944 893d
000003e0: 5fd2 423e 5102 453d 9c8b 41be 7f82 b4be
000003f0: 73ac 213d b73f 443f 266e b13c f98f 34be

l2.bias f4 [300]
0.4361163 0.037467025 -0.036815275 -0.042739067 0.030903418 -0.35094884 -0.053166263 -0.066593766
8.118711e-06 -0.066143 0.045940313 0.006883152 -0.019119887 0.036195137 0.009542587 0.56943756
0.07425422 0.021049075 0.60444164 0.3934662 -0.068271935 -0.08416319 -0.6242538 -0.06764603
0.04331887 -0.025267309 0.9405488 -0.072303295 -0.066306055 -0.0046012606 -0.057148825 -0.03911371
-0.0029422254 -0.025646506 -0.12185545 0.015199512 -0.019363593 -0.3011819 -0.27807412 0.46444052
-0.13194679 -0.05662359 0.03712319 -0.013097262 0.09696626 -0.003957543 0.010190843 -0.049272403
0.42466924 -0.15212704 -0.5512441 -0.012176494 0.53419375 0.006983113 0.33261105 -0.07366493
-0.027058452 0.04596072 0.03830123 0.015130639 -0.038688537 0.03742845 0.022531442 -0.05803201
-0.05067363 -0.053479183 -0.017012024 -0.28420916 0.013893214 -0.12004275 -0.0732606 -0.3058976
-0.14047378 -0.049126823 -0.0005262192 0.01890351 -0.026901608 0.2582549 -0.687802 -0.029060906
-0.01215315 -0.0292339 -0.02104854 -0.070792675 -0.09763244 -0.045860365 0.06753621 0.0105416905
-0.033230107 0.81262785 0.54128635 -0.13852763 -0.32115194 -0.028502699 -0.36032256 -0.69942206
-0.028786998 0.015889488 -0.011668796 -0.07546194 0.04547646 0.03521711 -0.09373552 0.07690419
0.082315534 0.8920892 0.15908653 0.01762825 -0.036118314 0.013350391 0.27529955 0.18145943
-0.056905247 0.3891739 0.017942833 0.3408511 -0.22847351 0.3663351 0.14897399 0.020943841
-0.085004024 -0.043823093 0.020117417 0.015710196 -0.005209433 -0.08041538 0.041222367 0.005715276
-0.00035517104 -0.047272407 0.018556885 -0.045879703 -0.0070162932 -0.017440809 0.0050266692 0.009368262
0.095820755 -0.027972527 0.5631472 -0.02631724 0.04446032 -0.24793752 -0.0015456406 -0.15309767
0.34888557 0.0186239 -0.3436993 0.16183192 -0.0065740305 0.027264286 -0.19474383 -0.0034050927
-0.33742198 0.6949104 0.042401515 0.017085543 0.0030187878 -0.30438694 0.1412235 0.13678432
0.025326304 -0.009783783 0.034950938 0.07647434 -0.037727207 -0.01087942 0.007488936 0.22007062
0.36125928 0.024616249 -0.057708774 -0.04034629 -0.007648265 -0.27501133 -0.32007042 -0.06034728
-0.08454714 0.034618974 0.08769461 -0.03254928 -0.01464297 0.017009096 -0.0038475317 0.05829876
0.48424998 -0.56047326 0.0166088 0.3072391 -0.04269174 0.0036660344 0.021015607 -0.05037491
-0.027966835 -0.0023590832 -0.013842595 0.13567747 0.01651167 0.039058983 -0.06941241 0.018777473
-0.05616124 -0.028750548 -0.013780595 -0.09245936 -0.06023468 -0.04125257 0.015088561 0.014963041
0.019281296 0.30695096 -0.67361903 -0.08634545 0.07633985 -0.06792387 -0.2188329 -0.23709577
-0.049249575 -0.20983952 0.0129497675 -0.006641028 -0.015222838 0.10519892 0.0047494373 0.6320502
-0.04341028 -0.6010785 -0.0132919345 -0.06541131 0.05518965 -0.07452725 -0.048095886 0.3250353
0.010559965 -0.0473825 -0.013842513 0.38872927 -0.32861492 -0.22237636 -0.011709059 0.03371228
-0.007578054 -0.081189595 -0.03365277 -0.3841755 -0.05905646 -0.043317005 -0.5714884 0.3183753
-0.009468606 -0.21979316 -0.4035835 -0.057553444 0.21853822 0.25478482 -0.03752058 -0.031756684
00000000: a34a df3e 0677 193d 9dcb 16bd 290f 2fbd
00000010: 2a29 fd3c 91af b3be dec4 59bd 5062 88bd
00000020: 9935 0837 fb75 87bd e92b 3c3d 108c e13b
00000030: 4fa1 9cbc 5a41 143d 8358 1c3c a9c6 113f
00000040: 9912 983d 1c6f ac3c b0bc 1a3f 6774 c93e
00000050: 28d2 8bbd c05d acbd 19cf 1fbf 008a 8abd
00000060: 216f 313d 63fd cebc cec7 703f c013 94bd
00000070: 78cb 87bd 2cc6 96bb e314 6abd b335 20bd
00000080: 5ad2 40bb 9f18 d2bc 5a8f f9bd 6007 793c
00000090: 66a0 9ebc 8434 9abe bb5f 8ebe 26cb ed3e
000000a0: 0f1d 07be 23ee 67bd 7c0e 183d e695 56bc
000000b0: 3f96 c63d 47ae 81bb 7ef7 263c dcd1 49bd
000000c0: 3f6e d93e 31c7 1bbe 551e 0dbf eb7f 47bc
000000d0: ecc0 083f 99d2 e43b ff4b aa3e a4dd 96bd
000000e0: b0a9 ddbc 4f41 3c3d c0e1 1c3d 80e6 773c
000000f0: df77 1ebd 934e 193d dc93 b83c f9b2 6dbd
00000100: 278f 4fbd fd0c 5bbd cd5c 8bbc dd83 91be
00000110: 5da0 633c f9d8 f5bd a709 96bd 9c9e 9cbe
00000120: 5cd8 0fbe 3539 49bd f9f1 09ba 89db 9a3c
00000130: c360 dcbc fc39 843e cb13 30bf 2311 eebc
00000140: 011e 47bc ef7b efbc fd6d acbc c0fb 90bd
00000150: 84f3 c7bd 14d8 3bbd 6d50 8a3d 0eb7 2c3c
00000160: 4b1c 08bd 6108 503f be91 0a3f 30da 0dbe
00000170: 076e a4be 7e7e e9bc 337c b8be 530d 33bf
00000180: b6d2 ebbc ac2a 823c 7a2e 3fbc ca8b 9abd
00000190: 8645 3a3d d13f 103d 69f8 bfbd f27f 9d3d
000001a0: 0c95 a83d f55f 643f 94e7 223e 1f69 903c
000001b0: ccf0 13bd 99bb 5a3c 10f4 8c3e 80d0 393e
000001c0: 7a15 69bd cd41 c73e d9fc 923c 0984 ae3e
000001d0: f6f4 69be 4690 bb3e a38c 183e 6b92 ab3c
000001e0: 9716 aebd d87f 33bd 48cd a43c abb2 803c
000001f0: e4b3 aabb d2b0 a4bd c9d8 283d 3647 bb3b
00000200: 4036 bab9 b6a0 41bd 9c04 983c 5bec 3bbd
00000210: efe8 e5bb 07e0 8ebc c2b6 a43b 577d 193c
00000220: ac3d c43d a426 e5bc 6a2a 103f 4197 d7bc
00000230: 061c 363d 55e3 7dbe 1897 caba a3c5 1cbe
00000240: 21a1 b23e 2691 983c 5bf9 afbe 44b7 253e
00000250: f76a d7bb 5a59 df3c ed6a 47be fa27 5fbb
00000260: 93c2 acbe a6e5 313f 36ad 2d3d fbf6 8b3c
00000270: dbd6 453b 9bd8 9bbe e59c 103e 3011 0c3e
00000280: 1c79 cf3c 294c 20bc b728 0f3d 949e 9c3d
00000290: d887 1abd 983f 32bc c065 f53b 315a 613e
000002a0: faf6 b83e 04a8 c93c 0960 6cbd 2742 25bd
000002b0: 4c9e fabb 49ce 8cbe 45e0 a3be b62e 77bd
000002c0: 0d27 adbd a0cc 0d3d 3b99 b33d 6552 05bd
000002d0: 11e9 6fbc a956 8b3c df26 7cbb aeca 6e3d
000002e0: 9def f73e 2d7b 0fbf 2e0f 883c 714e 9d3e
000002f0: 89dd 2ebd da41 703b ec28 ac3c ec55 4ebd
00000300: b41a e5bc d99a 1abb 0dcc 62bc 09ef 0a3e
00000310: 7b43 873c 50fc 1f3d 1828 8ebd 37d3 993c
00000320: 5409 66bd 4586 ebbc 01c8 61bc 555b bdbd
00000330: a4b8 76bd 74f8 28bd 0336 773c 8b27 753c
00000340: cff3 9d3c ad28 9d3e 4c72 2cbf e2d5 b0bd
00000350: 1158 9c3d ac1b 8bbd bb15 60be 3cc9 72be
00000360: ecb9 49bd 2ce0 56be 432b 543c fb9c d9bb
00000370: 3669 79bc 8872 d73d 2ba1 9b3b 0bce 213f
00000380: face 31bd 48e0 19bf 6ac6 59bc 5df6 85bd
00000390: 8b0e 623d bea1 98bd 3100 45bd 076b a63e
000003a0: b403 2d3c 2714 42bd b5cb 62bc 8607 c73e
000003b0: 3740 a8be a1b6 63be 5ad7 3fbc e315 0a3d
000003c0: 5351 f8bb bb46 a6bd 7dd7 09bd a7b2 c4be
000003d0: 30e5 71bd 2c6d 31bd 104d 12bf 1602 a33e
000003e0: 3622 1bbc 7511 61be 7fa2 cebe 29bd 6bbd
000003f0: 7cc8 5f3e 2873 823e 2eaf 19bd 4c13 02bd

l3.weight f4 [6, 300]
0.4214756 0.046495795 -0.090283826 -0.023685597 0.016073765 0.086112626 0.04817395 -0.12267068
-0.040548675 -0.025503822 0.049177352 -0.03977002 -0.025565617 -0.03703817 -0.0544188 -0.08846234
-0.108125314 -0.0034632464 0.51064205 0.26446852 -0.0063533857 0.09216209 -0.027240258 -0.049718134
-0.41902393 -0.050310273 -0.31358927 -0.008130737 -0.22724003 -0.1990581 -0.043088723 -0.019463493
0.008217484 0.016929753 -0.09480109 -0.1697792 0.04289918 -0.04748744 -0.21264336 0.18514413
0.6701062 -0.03436813 0.24582374 -0.01750667 -0.38750082 -0.0077865124 -0.08456904 -0.04389969
-0.0034621763 0.01358521 0.022853121 -0.055257093 -0.7429047 -0.09322031 -0.3151496 -0.0027982164
0.012335978 0.02088366 -0.0018419259 -0.037210245 -0.055437192 -0.07628206 -0.05675376 0.028336683
-0.0423128 -0.15596874 0.051698312 0.045313425 -0.037955754 -0.06960637 -0.06154158 0.09120395
0.08324312 -0.024700493 -0.05112286 -0.056948833 -0.101720534 -0.20364927 0.06554344 0.031228118
0.05034017 -0.045975495 0.005715568 -0.037125804 -0.015573619 -0.03129689 0.015936458 0.003989637
0.22404258 -0.3207315 -0.29474205 0.3719912 0.22021832 -0.10109565 0.40290666 0.29891825
-0.033959955 -0.017592935 -0.038686976 -0.017678307 0.016866496 -0.115752205 -0.029085578 -0.19368958
-0.0038291917 -0.02823554 -0.33752796 0.025423273 0.03183768 -0.05868643 0.14390706 0.09955416
0.019991904 -0.48422942 -0.031644076 0.12012425 0.16478121 0.49560794 -0.1006457 0.0067895255
-0.059074137 -0.030684216 0.039892554 0.039911114 0.0013543835 -0.06591229 0.1318581 0.036018495
0.00073331594 0.010957077 0.020224202 -0.021846127 -0.07106445 0.031044759 -0.010466688 0.049039107
0.13730982 -0.01794507 0.03769484 0.28248036 0.18630882 -0.07357895 0.021784913 -0.26399007
-0.06448579 -0.054471392 0.18015204 -0.0076470883 0.04487608 0.053130206 0.016749553 0.05641651
0.43718272 -0.14107186 -0.008623045 0.008100092 0.024610523 -0.32240337 0.08073209 -0.012673341
0.038458012 0.0209104 0.0019488782 -0.04995638 0.021207323 -0.04801274 -0.030174006 0.72754747
0.33279186 0.0012274903 -0.037723843 -0.04620307 0.022176536 0.072767906 0.10712883 -0.0023853239
0.025571013 -0.026546277 -0.25658333 -0.031431895 -0.040339194 -0.008370538 0.019510703 0.08457908
-0.3385273 -0.20451961 0.006636637 -0.019338625 -0.02540898 -0.04481883 -0.015841477 0.0025095055
-0.009766318 -0.030371388 0.030955685 -0.024546064 0.053356715 -0.017632741 -0.050763864 -0.05276338
-0.014447156 0.035691135 0.051043104 0.087986425 -0.03758419 -0.119165726 0.01503737 -0.04120104
0.05144225 -0.20796798 0.7210915 0.027744975 0.13289846 0.013788642 0.0665328 -0.04125325
-0.019329287 0.122764885 0.03044175 -0.054719377 0.26669228 -0.07411516 0.016279206 0.13841583
-0.046657056 0.7980525 -0.045736548 -0.004454819 -0.0066451244 0.00778866 -0.032485273 -0.3287779
-0.045297835 0.02401943 -0.00093077804 0.56208867 0.022546748 -0.4476684 -0.0017372849 -0.008352824
0.046827704 0.010871698 0.018009309 0.19851567 0.00466443 -0.025203401 0.50337046 -0.33660886
-0.01393947 0.0039990894 -0.047754385 0.028461996 0.44526738 0.746937 0.02190315 0.04715518
00000000: a6cb d73e 6072 3e3d bae6 b8bd 4c08 c2bc
00000010: 21ad 833c d15b b03d 0c52 453d c43a fbbd
00000020: 5e16 26bd 64ed d0bc 316e 493d e3e5 22bd
00000030: fc6e d1bc 56b5 17bd 3fe6 5ebd be2b b5bd
00000040: ce70 ddbd a2f7 62bb 70b9 023f 6b68 873e
00000050: 1030 d0bb 7abf bc3d f626 dfbc 3ea5 4bbd
00000060: 4e8a d6be 2512 4ebd c68e a0be c836 05bc
00000070: 9cb1 68be e3d5 4bbe cd7d 30bd e771 9fbc
00000080: a0a2 063c 44b0 8a3c 1327 c2bd 99da 2dbe
00000090: 0db7 2f3d 3182 42bd 2ebf 59be 6c96 3d3e
000000a0: 148c 2b3f 99c5 0cbd 38b9 7b3e 266a 8fbc
000000b0: 8266 c6be 0026 ffbb 8832 adbd 29d0 33bd
000000c0: aee5 62bb 8094 5e3c 7836 bb3c 4355 62bd
000000d0: 012f 3ebf 4aea bebd 4a5b a1be 4862 37bb
000000e0: d81c 4a3c 3614 ab3c c76c f1ba c569 18bd
000000f0: 1c12 63bd c539 9cbd a176 68bd 5522 e83c
00000100: 3050 2dbd 45b6 1fbe 9cc1 533d 929a 393d
00000110: 7e77 1bbd c98d 8ebd 0613 7cbd 23c9 ba3d
00000120: 5e7b aa3d b058 cabc 3466 51bd 2e43 69bd
00000130: db52 d0bd 6f89 50be a43b 863d 1cd2 ff3c
00000140: 7e31 4e3d cd50 3cbd a949 bb3b 3a11 18bd
00000150: 7e28 7fbc 2b31 00bd 2d8d 823c 80bb 823b
00000160: 6b6b 653e eb36 a4be 6ee8 96be a175 be3e
00000170: e980 613e 3c0b cfbd c849 ce3e d00b 993e
00000180: 9819 0bbd 0f1f 90bc 3c76 1ebd 19d2 90bc
00000190: 9b2b 8a3c 7e0f edbd e144 eebc 9056 46be
000001a0: 2df3 7abb 384e e7bc 77d0 acbe 7844 d03c
000001b0: 3a68 023d 2f61 70bd 5f5c 133e 0de3 cb3d
000001c0: 10c6 a33c ebec f7be 389d 01bd b403 f63d
000001d0: 68bc 283e 53c0 fd3e 551f cebd ab7a de3b
000001e0: b9f7 71bd 775d fbbc 6066 233d d679 233d
000001f0: 9285 b13a 06fd 86bd cf05 073e 2188 133d
00000200: 003c 403a 5085 333c 3aad a53c a6f6 b2bc
00000210: 3d8a 91bd 9451 fe3c 797c 2bbc 3bdd 483d
00000220: f29a 0c3e 8a01 93bc e865 1a3d 44a1 903e
00000230: bdc7 3e3e 8fb0 96bd 4676 b23c b529 87be
00000240: 2011 84bd 651d 5fbd c779 383e 6d94 fabb
00000250: fbcf 373d 0f9f 593d 5c36 893c 0015 673d
00000260: 6ad6 df3e 2475 10be ac47 0dbc 40b6 043c
00000270: 029c c93c 0e12 a5be de56 a53d d8a3 4fbc
00000280: 2686 1d3d 4a4c ab3c 8071 ff3a 109f 4cbd
00000290: fbba ad3c 02a9 44bd 7a2f f7bc 8d40 3a3f
000002a0: b263 aa3e bde3 a03a 5184 1abd 6e3f 3dbd
000002b0: 91ab b53c 5707 953d 5c66 db3d 1853 1cbb
000002c0: 4d7a d13c 9477 d9bc e45e 83be bbbe 00bd
000002d0: b63a 25bd 9524 09bc e9d4 9f3c cc37 ad3d
000002e0: 7353 adbe 976d 51be 2578 d93b 096c 9ebc
000002f0: 7e26 d0bc f393 37bd fcc5 81bc 8476 243b
00000300: e802 20bc 6bcd f8bc c796 fd3c d414 c9bc
00000310: 928c 5a3d 8a72 90bc c5ed 4fbd 6a1e 58bd
00000320: c4b3 6cbc de30 123d 9312 513d 3a32 b43d
00000330: e1f1 19bd 290d f4bd 4d5f 763c 6cc2 28bd
00000340: 1cb5 523d 8ff5 54be 7499 383f 6e49 e33c
00000350: 8916 083e c2e9 613c 5942 883d 2bf9 28bd
00000360: 7458 9ebc 286c fb3d fa60 f93c 6d21 60bd
00000370: e48b 883e b0c9 97bd f85b 853c e1bc 0d3e
00000380: 781b 3fbd 2b4d 4c3f 3f56 3bbd bbf9 91bb
00000390: 58bf d9bb 0438 ff3b 470f 05bd 9455 a8be
000003a0: 398a 39bd 65c4 c43c 75ff 73ba 0be5 0f3f
000003b0: f5b3 b83c cb34 e5be 9cb5 e3ba 48da 08bc
000003c0: 68ce 3f3d 351f 323c 4288 933c b147 4b3e
000003d0: 13d8 983b 5d77 cebc e3dc 003f ff57 acbe
000003e0: 6062 64bc cb0a 833b 1a9a 43bd 2229 e93c
000003f0: 16fa e33e 4337 3f3f 3c6e b33c ca25 413d

l3.bias f4 [6]
-0.28667137 0.293431 0.17062332 0.015594671 -0.1582651 0.048262563
00000000: 97c6 92be 973c 963e e1b7 2e3e ca80 7f3c
00000010: 3f10 22be f7ae 453d
