results/runs/single_assembly_smallaction/Average_TD3_10_Peg-in-hole-single_assembly_seed_5/60000_actor.pth (torch_old, 510312 bytes, 6 tensors)

l1.weight f4 [400, 12]
00000000: 423f 433e b40b 5dbe 18e6 703e 9c24 3d3e
00000010: 305e 783e 54a4 62be fa69 46be d6a8 0c3e
00000020: f2f7 89be 2815 923e 60af 7b3d 28b3 183d
00000030: 9370 bdbd 465d 273d afee 843e 4975 103e
00000040: 42aa b73e a117 21bc 2c26 9abe 9e2d c73e
00000050: 44b3 903d e619 db3d f2a9 4cbe a3f7 87bd
00000060: 437b bd3e 9479 a7be 9e7a b9bc 62bf 063e
00000070: e525 be3c fc94 8abc 79bb fbbe dc4a eabc
00000080: 5dba 3dbf fe82 143e 4a6d d93e 6504 553e
00000090: 623e 1f3f 4db4 ccbe 0029 753d c052 d03d
000000a0: f13e 853e c9a7 debe 1c86 00bf 8f09 7f3e
000000b0: c066 4b3e 1ca8 913e e57a e33e eab4 8b3e
000000c0: 2c72 b93d f0dc 9d3e 95c2 be3e 960f cd3b
000000d0: b8dd 6cbb 334e 2dbd 35e8 d13d 480b 5b3d
000000e0: 10af 4e3e 48c5 9ebe 2bbc 10be e235 723e
000000f0: b247 d2be c44b 58be ef8b c63c 71bb f03d
00000100: 325d babe 8969 0d3f fd5b 313d e43b c63d
00000110: f534 ebbd fdde 5abe db31 7a3d 86d5 4f3c
00000120: 3040 3cbd 58b4 5f3e f644 883e 86bf 813e
00000130: 6802 2a3e 6260 893e d603 d5bd b084 96bc
00000140: 2036 cabd 90cf adbc 30c6 0fbd fcee 1d3e
00000150: 8858 443f d946 42bb 93f1 1cbe 1aea 06bf
00000160: 599e 023e 8488 55bf 00f5 9dbe d58e b2bc
00000170: d826 43be 67e9 293e 6bff c0bd 46dc dd3e
00000180: 9b1b d8bd f58f 57bd 7621 8e3e c324 423e
00000190: da80 bfbd 413a 87be 0f09 27be b969 2cbe
000001a0: 23d4 a4bd 4b4a f1bd 31c4 55be 17f3 843d
000001b0: 95b6 0dbf 0b6b c33d 46bd 9dbd ffd8 923e
000001c0: a5ae 81be b343 783e 4fd4 ad3d 5e9b 873e
000001d0: 12d8 e2be 85d8 7e3d bcc0 9e3e 8a80 ad3e
000001e0: 40c4 b23d bf9d 02be 0e28 4d3e 0cb3 ddbd
000001f0: 8e2e 1fbe c010 863e e49c 9c3d 009a 02bb
00000200: 9802 4ebe 96dc 82bd 3315 63be 0de4 46be
00000210: fd2c 00bf 23dd a53d 2450 f9bc 766d 1a3f
00000220: 2425 213e 349d d33e 9ffc d13e 0809 51be
00000230: 45fc a2be fe43 723e 6635 cbbe 2e8c d7be
00000240: b25f 9b3e 1d0d 453e 888c acbd 04a3 e5be
00000250: 4ed6 b03e df38 44bf ed99 0abf 9c60 773e
00000260: 6b34 c63d cb5a 953e e56c 773e aefa 9c3c
00000270: 8ccc 10bf e390 b2be d388 303e be69 013f
00000280: 41f0 0bbe ff98 a43e 4512 553e 6b55 393e
00000290: 83b4 493e 2458 d03c 1727 e8bd 3db1 b1be
000002a0: 4c01 303f a807 023f 521b 2cbe be00 16be
000002b0: 31d2 593e 260a 2fbf 813c 0fbf ffe4 aabe
000002c0: 5bcc 85bd 4973 8bbe b130 313e 67c7 b03e
000002d0: ce0a 24bf 2fef 7bbe 73b9 f63d eecd 44bc
000002e0: 7df4 35be 7615 723e e713 1f3e 30af 5b3e
000002f0: c886 ff3d 44ae 3fbe be4d 42be 1520 3dbe
00000300: 30f6 2b3f 06f5 0f3f d024 b8bc b02b ccbe
00000310: 10a8 f63d 64e1 d4be d06b 69be 066c fcbe
00000320: 5a68 82be aa00 afbd f893 b7bd ff31 bb3e
00000330: 82d0 393e 009d 4ebb 5214 1b3e ce11 4f3e
00000340: 36ba 3c3e 71c3 8cbe 74f5 853e a453 9c3d
00000350: dc85 92be 701d 933d a88d 4bbe f0ce 883e
00000360: 63d6 1e3e fe2d 44bd 048c abbd 31e9 bdbd
00000370: da4f 4c3d 3087 cfbd 665e 2dbf 99c1 223f
00000380: 0d0e dfbd cc50 993e 96e4 b73d a963 153f
00000390: 524e 143f 94d3 163f 3960 32be 3ff3 13bf
000003a0: f144 523e 15f9 efbe 4b6f f0be 43bc 08be
000003b0: 2008 a1be 1db5 c33e f0f5 113e 6de0 293f
000003c0: abfb 163d 3546 00be 45fc 593d 01b2 6b3e
000003d0: 67f0 a4bd f2c9 9c3e 8bb5 abbd 8b55 083e
000003e0: 52ad 973c 3438 0abe 387f 22bd 96d9 22be
000003f0: 4ec8 b3bd e0ba 94bc 74fe eb3d 0894 6cbe
0.190671 -0.21586496 0.23525274 0.18470997 0.2425468 -0.22132999 -0.19376364 0.13736281
-0.2694698 0.28531766 0.061446548 0.03728023 -0.092499875 0.040860437 0.2596335 0.1410724
0.35872084 -0.009832294 -0.30107248 0.3890199 0.07065442 0.10698299 -0.19986704 -0.0663903
0.37008104 -0.32709944 -0.022641476 0.13158944 0.023211429 -0.016916744 -0.49166468 -0.028600149
-0.7411249 0.14503095 0.42466193 0.20802458 0.62204564 -0.3998131 0.059853554 0.10172033
0.26024583 -0.43487385 -0.50204635 0.2490599 0.19863415 0.2844857 0.444297 0.27286464
0.0905498 0.30832624 0.3725783 0.0062579615 -0.0036142897 -0.042310905 0.10249368 0.053477556
0.20183969 -0.3100989 -0.1413428 0.23653367 -0.41070324 -0.21122652 0.024236647 0.117545016
-0.36399227 0.5523916 0.043300617 0.09679392 -0.1148471 -0.21374126 0.061082702 0.012685185
-0.04595965 0.2184614 0.26615113 0.25341433 0.1660248 0.26831347 -0.10401122 -0.018373817
-0.09873605 -0.021217138 -0.035101116 0.15423197 0.7669759 -0.002964428 -0.15326528 -0.5270096
0.12755717 -0.8341143 -0.30850983 -0.021796623 -0.19057786 0.16592942 -0.09423717 0.43332118
-0.1055214 -0.052627522 0.27759904 0.18959336 -0.09350748 -0.26411632 -0.1631205 -0.16837205
-0.08048274 -0.117817484 -0.20875622 0.06491678 -0.55356723 0.09541901 -0.07702117 0.2868118
-0.25328556 0.24244575 0.0848776 0.26485723 -0.44305474 0.062218208 0.3100642 0.3388713
0.08728838 -0.12755488 0.20034811 -0.10825166 -0.15545103 0.26184654 0.07647112 -0.0019928217
-0.20118177 -0.0638973 -0.22176056 -0.19422932 -0.50068647 0.08098819 -0.030433722 0.60323274
0.15736824 0.41330874 0.41013047 -0.20413601 -0.3183309 0.2365875 -0.39689177 -0.42099136
0.30346447 0.19243284 -0.08425242 -0.44850934 0.34538502 -0.7664928 -0.5414112 0.24157947
0.09677967 0.29170832 0.24162634 0.019162502 -0.56562114 -0.34876165 0.17239694 0.50551975
-0.13665868 0.32147977 0.2080775 0.1809899 0.19697766 0.025432654 -0.11335581 -0.34705535
0.6875198 0.5079293 -0.16807297 -0.1464872 0.21271588 -0.6837486 -0.55951697 -0.33377835
-0.06533118 -0.27236393 0.1730373 0.34527132 -0.64078987 -0.2460296 0.120470904 -0.012011988
-0.17769046 0.23640999 0.15534936 0.21453547 0.12476879 -0.18718821 -0.18974969 -0.1846927
0.6717253 0.5623325 -0.022478491 -0.3987708 0.12043774 -0.4157821 -0.22795033 -0.49301165
-0.2547024 -0.085450485 -0.0896377 0.36561581 0.18145946 -0.0031526685 0.1514447 0.20221636
0.18430409 -0.2749286 0.26163828 0.07633141 -0.28617752 0.07183349 -0.19878256 0.2672038
0.1551147 -0.047895424 -0.08376315 -0.09272993 0.04988084 -0.10133207 -0.67722166 0.63576657
-0.10891352 0.29944456 0.08979146 0.58355194 0.5793201 0.5891659 -0.17419519 -0.5779304
0.20534112 -0.46869722 -0.4695991 -0.13353066 -0.3145151 0.38224116 0.14253974 0.6635807
0.036861103 -0.12526782 0.0532191 0.23017122 -0.080536656 0.30622822 -0.08384236 0.13313882
0.018515263 -0.13498002 -0.039672107 -0.15903315 -0.087784395 -0.018155515 0.115231425 -0.23103344

l1.bias f4 [400]
00000000: 802c c43c d9ce b03d b544 e03e ad88 6b3e
00000010: 0bd2 1bbe a0c2 24be 943f d83d d20a f03e
00000020: 3920 36be fca5 343e abad 26be bc18 d7bd
00000030: 2508 3c3d b4d7 84be 5fba 003d 0021 15bf
00000040: 6aa1 823e 4b69 89be 6bf3 6fbe b715 0c3f
00000050: f98e 193e aa3e ecbd 2b5c 8fbd afb3 bcbe
00000060: 663a a6bd e86c 17bf 409f 66bc 20f1 923c
00000070: 07b8 90be 612c 9fbe 04ee 943d 8813 373d
00000080: 09f5 5dbe 3d6a 20be f246 debe c3fd 07bf
00000090: 2f41 1e3e 6951 f2be eb36 f7bc b028 7cbe
000000a0: dc6c 423e 0fdb 9bbe f341 dbbd 93b4 273e
000000b0: 8fde fdbb 8413 d43d 5869 b93e 85e9 c0bd
000000c0: 23dd 0d3e d130 71bc 1682 d13d c0d6 8ebe
000000d0: 9fe9 d03e f0fe fe3d 4666 98be d6c0 dabe
000000e0: 9849 4bbd 5452 9ebd 7a9b 26bd 6e34 e0bd
000000f0: f7be b2be 706d 7c3e e9de bebe 3a8e 4cbe
00000100: 28f6 2a3e 948f c53e 989e 26be acb0 b63c
00000110: 2a4b 9c3e c282 7cbe d654 9dbd b4d7 813e
00000120: 8f3a 76bd e8e3 613d ba52 d1bd b105 e0bd
00000130: cf4b 3bbe 77f1 c93d 4812 38be 1fe4 c8be
00000140: eed4 3e3e 03a5 ee3e 4b6d 62be 4e8a f43e
00000150: f14e 1c3e d681 9bbe 419b 9cbd 793a f1be
00000160: f028 09bd 46f6 96be 23e2 bfbd a0bf 46be
00000170: 1d4b 54be fa94 0a3e 53d2 49be 4052 54be
00000180: c7c0 aebd 3a63 4d3e afe9 bdbe cde5 15bf
00000190: 8364 76be 578e 363f b862 643e dd11 99be
000001a0: 93e4 263e 2a43 e2bd 6892 7d3e 43a4 04be
000001b0: e953 873e 3095 84be c80c 18bf c41c d4bb
000001c0: e177 c3be 8a34 16be d3a8 1fbe 42ae 153f
000001d0: e927 dbbe 3429 033d acb4 2bbe f442 b93e
000001e0: e624 81be 89d9 083f 4129 abbe a07e 613e
000001f0: f9bc 86be 625a 173e a2bc fabd 8d33 493d
00000200: 08f8 8d3e 2492 88be 40b6 79be e650 ecbe
00000210: 955d 243c 1203 c13e 5b77 723d df52 5e3c
00000220: b168 38bd eb0a 81be 2f83 b2be 1420 d13d
00000230: 9095 4abe ce36 d03e 85f5 38be b567 d13d
00000240: e4c0 99be 711b 17bc 2bc6 19be 7c7b 0cbf
00000250: 278c 41be 6778 d0bc f930 a3bd 2b2b 693e
00000260: 0e6b 47be 0d91 503d 7667 cd3d 1b5b 26be
00000270: 3924 dabe 5184 ffbe 52c0 a23e 53d4 76be
00000280: a09d 553c a942 0d3e 68be 25bd dd5a e9bd
00000290: 5456 8bbd 85fe 0abf 2015 eb3d 0096 9cbe
000002a0: e8a0 b03d 9c61 933e 0acf 083e 9f09 94be
000002b0: 9521 36be 2c97 1fbe ade4 d53e e89f 923d
000002c0: 180b a83c 9af3 07bf 71ed 1b3e 8a11 623e
000002d0: ef23 303e 60ba 783e 0fe6 b4be b3b5 c4bc
000002e0: b0cd febe 8582 bd3d d09b 883d 4434 9a3e
000002f0: deaa c13e c4df b23e a588 36bf eddf 60be
00000300: 0003 4a3c 9d69 183e f485 533e 0ffa 49be
00000310: 4994 6b3d 54f1 dcbd ef56 8fbe a805 373d
00000320: 1138 2dbe bcfc 313e 78cb 89be 6c28 1f3e
00000330: 105b 1fbf 3f75 88be 9e31 c8be 1649 1f3e
00000340: e296 8c3d 6051 b6be 2a7f e23e bacc 833e
00000350: 358d 31be 9934 07be b2ef 1c3e 41d7 f5be
00000360: 0b1d c5be 914d e9bd 0770 5cbe 5eb5 2a3b
00000370: 9008 fd3c 233b 97be 2405 78bd b473 493e
00000380: f17e 053e fbb9 acbb c1d5 b8bc 6829 87be
00000390: e93f 0cbf 94d4 993e 3643 38be d547 dfbe
000003a0: b92a fe3d e27f 343e 0baf 4cbd df66 a83e
000003b0: 3c16 2b3e fbdd a5be e091 c9bc 4608 d8be
000003c0: 43db 1ebf 3daa 123f 63a9 683e c273 bcbc
000003d0: b8aa 81be 0532 07be 53f1 bebd 10bf 783d
000003e0: 2887 81be a0e1 723c e9f4 b0be b076 b4bd
000003f0: ae5d 85be 15ce c5bd bb99 5abe 06c7 3ebe
0.023947 0.08633203 0.4380242 0.23001356 -0.15216844 -0.16089869 0.105590016 0.46883255
-0.1778573 0.17641443 -0.16277187 -0.105027646 0.045906205 -0.25945818 0.031427737 -0.5825348
0.25513774 -0.26838145 -0.234327 0.54720634 0.14995946 -0.1153539 -0.070000015 -0.36855838
-0.08116607 -0.5915055 -0.014076054 0.017937243 -0.28265402 -0.31088546 0.072719604 0.04469636
-0.21675505 -0.15665527 -0.43413502 -0.53121585 0.15454553 -0.47327736 -0.030177554 -0.24624896
0.18986839 -0.30440566 -0.10705938 0.16377477 -0.0077474783 0.10355285 0.36213183 -0.0941954
0.13853888 -0.014721111 0.1022989 -0.27898216 0.4080324 0.12450969 -0.29765528 -0.42725247
-0.04963073 -0.077305466 -0.040675618 -0.109475 -0.3491132 0.24651122 -0.37279442 -0.1997613
0.16695464 0.38586104 -0.16271436 0.02230104 0.30526096 -0.24659255 -0.07682197 0.2535988
-0.06011444 0.05514899 -0.10220857 -0.109385855 -0.18290637 0.09860509 -0.17975724 -0.39236543
0.18635914 0.4661027 -0.22112004 0.47761768 0.15264489 -0.30372494 -0.076468 -0.47114924
-0.033486307 -0.29484767 -0.09369304 -0.19409037 -0.20731778 0.13533393 -0.19709139 -0.20734501
-0.08532863 0.20057383 -0.3709235 -0.58553773 -0.2406178 0.71310943 0.22303283 -0.2989644
0.16298132 -0.11047967 0.24762881 -0.12953286 0.26431206 -0.2589507 -0.593945 -0.0064731557
-0.38177398 -0.1466848 -0.15591745 0.5846902 -0.42803887 0.032021716 -0.1676814 0.36183894
-0.25223464 0.5345693 -0.33429912 0.2202096 -0.2631605 0.14780572 -0.1224301 0.04912143
0.27728295 -0.26673996 -0.24385929 -0.4615547 0.010032077 0.37697655 0.059195857 0.013569563
-0.045021717 -0.25203642 -0.3486571 0.102111965 -0.19783616 0.40666813 -0.18062408 0.10224859
-0.30029976 -0.009222851 -0.15017001 -0.5487592 -0.1890112 -0.025448037 -0.07968325 0.22770374
-0.19474432 0.05091958 0.10029499 -0.16245691 -0.4260576 -0.49905637 0.31787354 -0.24104433
0.013038069 0.1379496 -0.04046479 -0.11394284 -0.06803575 -0.54294616 0.11478639 -0.3058319
0.086244404 0.28785408 0.13360229 -0.2891359 -0.17786248 -0.15585011 0.41776028 0.07159406
0.020513102 -0.5310608 0.15227295 0.22077003 0.17201208 0.24289846 -0.3533177 -0.024012422
-0.49766302 0.0925341 0.06670344 0.30118 0.37825674 0.34936345 -0.71302253 -0.21960421
0.012329817 0.14884038 0.20656568 -0.19724296 0.057514463 -0.10788217 -0.27996013 0.04468313
-0.16915919 0.17381567 -0.26913047 0.15542763 -0.62248325 -0.26651952 -0.39100355 0.15555224
0.06864716 -0.3560896 0.44237643 0.2574213 -0.17339022 -0.13203658 0.15325812 -0.48015788
-0.3849872 -0.11391748 -0.2152711 0.0026048045 0.030887872 -0.29537305 -0.060551777 0.19673043
0.13036706 -0.005271194 -0.022562863 -0.26398778 -0.5478502 0.30044997 -0.17994389 -0.4360949
0.124104924 0.17626908 -0.04997162 0.32890984 0.167077 -0.3239592 -0.024605691 -0.42193812
-0.62053317 0.57291013 0.22720866 -0.023004416 -0.2532556 -0.13202675 -0.09323373 0.060729086
-0.2529843 0.014824301 -0.34561852 -0.088117 -0.26048034 -0.09658448 -0.21347706 -0.18630609

l2.weight f4 [300, 400]
00000000: b388 f7bc fc36 95bd f48a 86bb 93db bebd
00000010: 0bdb 29be ece5 0a3d d4d1 4abc 5975 35bd
00000020: ecd0 533d ac68 c93c 900e a7bb 8697 18bd
00000030: 746d a83d 9920 8bbd 4f1d 8ebb fd1a ca3c
00000040: eadc 833d b6d2 29bd 8425 b2bb 321f 163d
00000050: e6c6 2cbd f99d 423d 0e25 b2bd 7bf9 c1bc
00000060: f07a 97bc 0869 e83c ac72 893b 2059 5bbc
00000070: 7860 a13c 861c 7fba fb50 f33c efb2 36bd
00000080: dbd3 c7bd a70a 0c3a 2a33 783b 2c81 79bd
00000090: dadd 50be 38c6 04be c4ee 943c ab3c b9bd
000000a0: f8dd 3dbd 6951 b9bc d809 12bc 3bc5 b13d
000000b0: 5bfb 11bd a4dd 96bd 23ab 04bd 43cb e2bd
000000c0: f63d f4ba 309a d1bd d51a bbbd 9c0c 87bd
000000d0: 5087 d0be 402e cb3b 24dd 463d bcad 3d3d
000000e0: 5068 61bb 1f01 313d 50cc 9dbc d815 edbb
000000f0: c601 ae3c fefd e63c 7237 a6bb 946e 2ebe
00000100: 613b 58bd d433 f8bd 69cb 053d 67b4 adbd
00000110: c451 ebbd 14aa 17bc c23f d03c 7663 5fbb
00000120: c154 86bd 2312 d9bc 685d 28bc 1b87 773d
00000130: f504 623c ba06 94bc 378b ccbe 8089 adbd
00000140: 66d1 8d3d b025 ab3c 62e7 7d3b 4616 41bd
00000150: 4ed9 15be 644e 043d 4a1f bb3d 7b09 0cbe
00000160: 5c92 82bc 90fa 113b fc9e 923c a420 4dbd
00000170: 0059 c33c 6d41 fa3c 65fb 3dbc 4eab 13be
00000180: af2e b33d 54f2 97bc a6e7 6cbc 9a17 afbd
00000190: b00c 9a3d 7c07 9c3b b0ec fc3b 2a19 24be
000001a0: 53fb 1a3c 946e 86bc 0710 4b3d 820d a03c
000001b0: 29fa 553c 3dcf 0ebd 5b03 a4bd 5c56 a2bd
000001c0: 20c9 a8bc 3d90 12be b1a5 cb3d ebcf 383e
000001d0: 3f28 6c3d ea8d 62be fbe3 68ba a5b0 083c
000001e0: a49d c0bd 4a2c 823e 7de5 aebd 0b3f 38bd
000001f0: a0d3 2ebe 7156 153d 1fd3 cabd 397d 9f3c
00000200: b498 043c bf00 0cbe d4da 563c 35f0 e8bd
00000210: 145a 1cbd 680f 86bd 216b 1fbd 0ca8 d0be
00000220: bfd3 d6bc e188 adbd 6db3 9abc 408d bfbc
00000230: 2baa d33d 1c25 ef3d 81d1 013d d0bd efbe
00000240: c727 31be 3992 36be 0099 edbc 9d5e 983c
00000250: c80b 20bd f097 523d cace 48bd ecd2 ddbe
00000260: 64ff c1bd 431a cd3d 5f16 04bd 0250 f13c
00000270: d66f 30be 85ff 893d 912b a63d 5ac0 f6bc
00000280: b082 d6bc 332d 6fbd 4cef a53d e906 4c3d
00000290: a668 c73a c17c 503d 6afb 04bd f1c8 c63c
000002a0: 0790 46be c6de c83c 38d3 1abd 973b 253b
000002b0: b73d 143d 8b25 4abd 9fcd 943c 8263 b03d
000002c0: 5beb 593d 98d1 f73d 53f2 063e 06a8 61bd
000002d0: 66a5 94bd 26a1 fa3c 46eb 6ebc 8cd6 193b
000002e0: 92a1 1cbd d175 fcbc 3952 213d e8a5 883d
000002f0: ad5f 0e3c 0a15 84bd e38c cc3c 34fa 773c
00000300: 7c72 ae3c 526d 4bbe 8820 2bbc 0ba1 aabd
00000310: 86b3 74bc 4b21 233d 6e1f 333d 81a4 873c
00000320: dc37 92be 327c 4cbd f81e 483d 8efd 4fbe
00000330: 77d2 6eb8 1389 07be 29fb 173d 7d20 9e3c
00000340: c90a 20be 88c4 0abc 2ab7 1cbe cc92 f23d
00000350: f90e 193c 83bc d1bd 2d99 cdbc 3037 69bc
00000360: d90b 8abc fcc5 27be 9007 a53c bd75 54bd
00000370: d44a 72bc da5e 323d 6bf4 9f3b aabd f4bb
00000380: 5998 2ebd 39a7 3cbd f5e9 e13d 2c84 08be
00000390: 8488 0ebe 41c7 483d 6f2d 31be f1b7 4fbd
000003a0: 9683 fabc 3859 3e3c a770 17be 0224 afba
000003b0: 4327 133d 3bd3 b73d 42b3 89bd 9ab8 ddbd
000003c0: 37a2 05be c9f6 933e 3b14 23bd 173d 983c
000003d0: 0ccf 14bc 5e8a 823c ac81 d8bc 0f16 6bbe
000003e0: d1b3 9b3c 5102 453d 1d62 65bd 7eb6 dcbd
000003f0: 73ac 213d c9d9 1ebe 266e b13c 8d19 f5bd
-0.03021655 -0.07285878 -0.00410592 -0.09319224 -0.16587465 0.033910677 -0.0123791285 -0.044301365
0.051712915 0.024586044 -0.0050981715 -0.03725388 0.082240015 -0.06793327 -0.00433699 0.024671072
0.064386204 -0.041460715 -0.005436601 0.036650844 -0.04218187 0.047513936 -0.08698474 -0.023678532
-0.018491238 0.028370395 0.004194578 -0.013387948 0.01969932 -0.00097317284 0.0297017 -0.044604238
-0.09757205 0.00053421635 0.0037872293 -0.060914204 -0.2039713 -0.1296624 0.018180259 -0.090447746
-0.046354264 -0.022621827 -0.00891348 0.08680197 -0.035640102 -0.07366493 -0.03238977 -0.11073925
-0.0018634188 -0.10234487 -0.09135977 -0.06594202 -0.40728235 0.006200582 0.04855074 0.046308264
-0.003439445 0.04321396 -0.019262463 -0.00723527 0.02124108 0.028197285 -0.0050725276 -0.1703437
-0.052791003 -0.121192604 0.03266469 -0.08481675 -0.11490205 -0.009256858 0.025421027 -0.0034086383
-0.06559134 -0.026497906 -0.010276176 0.06043158 0.013795127 -0.018069614 -0.39949962 -0.08473492
0.06924705 0.020891994 0.0038742651 -0.047140382 -0.14633676 0.03230132 0.09136827 -0.13675492
-0.01593893 0.002227459 0.017898075 -0.050079957 0.02384615 0.030548776 -0.011595582 -0.14420816
0.087491386 -0.018548168 -0.014459526 -0.085494235 0.07521951 0.0047616344 0.007718645 -0.16025224
0.009459334 -0.01641015 0.04957583 0.019537691 0.013060131 -0.034865607 -0.080084525 -0.07926628
-0.020603716 -0.14312835 0.099437125 0.18048064 0.05765557 -0.22124448 -0.00088840694 0.008342897
-0.094050676 0.25424415 -0.08539865 -0.044981997 -0.17072916 0.03645939 -0.099035494 0.01946889
0.008093048 -0.1367216 0.013113696 -0.11373941 -0.038171843 -0.06545907 -0.038920525 -0.4075321
-0.026224015 -0.08473373 -0.018884385 -0.023382783 0.10335191 0.11677 0.03169394 -0.46824503
-0.1730033 -0.17829217 -0.02900362 0.018599803 -0.039073735 0.05141443 -0.049025334 -0.43324983
-0.0947254 0.10014775 -0.032247897 0.029457096 -0.17230162 0.067381896 0.081137784 -0.030121017
-0.026185364 -0.058392715 0.08102283 0.049811278 0.0015213683 0.050900225 -0.03246633 0.024265738
-0.1939088 0.02452029 -0.03779909 0.002521252 0.03619167 -0.04935221 0.018164454 0.086127296
0.053202968 0.12100524 0.13178377 -0.05509188 -0.0725811 0.03059442 -0.014582461 0.0023473827
-0.038240023 -0.030817898 0.039385054 0.06672269 0.008689803 -0.064493254 0.024969524 0.015135337
0.021294825 -0.19865921 -0.010444768 -0.08331498 -0.01493538 0.039826673 0.043731146 0.016557934
-0.28558242 -0.04992313 0.04885766 -0.20311567 -5.6939632e-05 -0.13235883 0.03710476 0.019302601
-0.15629114 -0.008469708 -0.15304247 0.118444055 0.009341949 -0.10241034 -0.025097454 -0.014234349
-0.016851353 -0.16384119 0.020145208 -0.051870096 -0.014788348 0.04354749 0.004881432 -0.007468899
-0.04262576 -0.046057913 0.11030952 -0.1333167 -0.13919264 0.04901815 -0.17302488 -0.05071253
-0.030580323 0.011617951 -0.14789067 -0.0013362172 0.035926115 0.08975836 -0.06723644 -0.108262256
-0.13050161 0.2889922 -0.039814215 0.018583817 -0.009082567 0.01593512 -0.02642902 -0.22957633
0.019006642 0.048097912 -0.05600177 -0.10776995 0.0394711 -0.15512766 0.021658968 -0.11967764

l2.bias f4 [300]
00000000: 91b7 18bc 8a18 1e3d 573a b3bd e87c ddbd
00000010: 0bff 54be 3fc0 1abe 372b 3abd 3866 91bb
00000020: 0b9d 843c ec44 d83c 0deb 3b3d 0787 113d
00000030: 77c0 c2bc 857c fcbc a2ff 063c dfe8 4c3a
00000040: c75a fe3c cd74 a9bc c5e4 c53d a77b 2c3e
00000050: 671d 81bd 4c7e aabc ff69 64bc db53 08be
00000060: 5f61 403e 1bdc d2bc 0671 91bd 9261 2f3e
00000070: 17d0 36be 4181 84be 7603 0fbd dc63 83be
00000080: 593c 833d 1ac2 923e 30c4 8bbb af6b 1f3d
00000090: b715 4bbc 8d04 f5bc 8c31 f1bc c6b3 ba3c
000000a0: dfcf ebbc c28c 5ebd 4501 f5bc 114e 8c3b
000000b0: 0f3f 27be 688d 623c db07 e53c 68e0 49bd
000000c0: 4455 24bd 674b e53c 1a19 99bb ef61 273e
000000d0: d1f8 59bd 41c1 7bbc 8e28 42be ccd4 0e3d
000000e0: b575 25be 34dc 15bc 05be 073d 7450 6a3c
000000f0: dc90 87bd 50ce 87bc 453c 253d d390 27bd
00000100: 7925 ee3c 02e4 db3d b27e 9fbb df2d 85be
00000110: e647 2fbc 5a10 fabd 4d81 23bd 7d8f d0bc
00000120: 2098 c63c e187 69bd d5fb 843e 3aca 63be
00000130: ca23 8e3d 6975 ab3d f659 79bd 1278 fb3b
00000140: 60f4 e7bb cfd9 4bbe 4249 27be c6d7 2fbe
00000150: c0f1 a23d 1273 11bd 7fa2 833c 6b87 81bd
00000160: 7f59 e5bc bf58 54be 538f a23c 31ec 01bd
00000170: 67b8 353e 1795 a23c 60a8 8b3c d07a 70bc
00000180: 354d 563e f698 13be 6dd2 b63d dfed c5bd
00000190: a91c a03d c5da 9cbe 7703 64bd 2702 e43d
000001a0: 257b 29bd 49d1 bd3b 1354 6f3b e845 ef3c
000001b0: 4171 0fbd 19bc e13c b933 aabc eac0 b3bc
000001c0: b42c 22bd 53c4 2bbe c675 623d 3801 f5bc
000001d0: b14b b3bd dba8 4dbd 2ab1 13bc ff92 ab3c
000001e0: a466 20bd 29d8 36bd e7b9 cf3c 9fe2 043c
000001f0: 54f9 163e 6a6e 67bc abdc c93c cf99 ea3b
00000200: b338 85bb c1c1 1cbd d3e7 bc3c 8805 59bd
00000210: 857d ca3c a1f0 3f3e e2d8 e83c 41a8 2b3c
00000220: 4989 65bd 973e 87bc 83b5 153d 03b5 80be
00000230: 6c73 0c3d cc98 d1bc b2dc 99bc f4ef 7fbc
00000240: 4f06 2cbd 0150 983c ac39 93bd 9f61 2fbe
00000250: 1940 0ebc 738f 7b3d 73be a4bd 5411 25be
00000260: 78b3 93bc 2536 653d 5008 e1bd 392b 3c3c
00000270: aef9 2e3e 2da6 21bc a3bb 32bd 1499 c8bc
00000280: f13d c53c 0d62 80bd 8962 0ebe fa3f f1bb
00000290: 300b 4b3e 5e02 34bc e0c0 a43c 1541 09b9
000002a0: efde b8ba 79c7 acbd 9bdd 4cbe b45e a63d
000002b0: bb97 8fbc d876 34bb 56c1 89bd fa20 7cbb
000002c0: 643a 5cbd 7a74 013d 794c b2bd 7b96 fabc
000002d0: 065a 4bbe 3947 0c3d e855 813c 904c bebd
000002e0: 605c 26be 007e 5e3b d6a5 03be 3373 203e
000002f0: 3ed0 66bc 4ddc 023d f984 043d d720 513e
00000300: 12b2 4dbc 2ec6 3d3a 89b1 43b9 68fd 0dbe
00000310: a6ce 793c b144 2c3c e30a 65bd 508e c63c
00000320: 8f0d 09bd fe9b 8ebd 66ac e03d 03c3 babc
00000330: 410e 53be 517e 47bc 8179 ed3c eabb 363d
00000340: 0324 ebbd 3897 92bd a18e 783e b67e 61bd
00000350: 715d dc3c 5aa8 5bbd 70ec b2ba bdf1 48bd
00000360: 4eb7 32bc 87ae 81bd 1e82 9fbd 55b5 a6bb
00000370: a266 cd3c 1eac 6cbe 8a42 f13b 30e0 b7bd
00000380: dee2 623e 5c67 013c 4b37 59bc 7e05 423e
00000390: 32a0 5dbe f9cf 59bd dace b3bd 0f31 a9bc
000003a0: 6d47 f1bc 3218 bf3c eb40 923c e299 44be
000003b0: dd59 3dbe f3fa a3be a6a0 4cbb 54bc 593d
000003c0: 96e1 20bd c94b 47bd 848a 0cbd 730d 6a3c
000003d0: faad 44bd 77f9 2d3e fd47 453d 5ebd 0ebe
000003e0: 04f5 083d 844b df3d 5703 8b3d 20fd 22be
000003f0: 4f36 a23d d567 60bd 4d5d 0bbd a77e babb
-0.009321109 0.03859762 -0.08751362 -0.108148396 -0.20800416 -0.15112399 -0.04545137 -0.0044372343
0.016188165 0.026400052 0.04587846 0.035529163 -0.023773415 -0.030821094 0.008239659 0.0007816683
0.031049145 -0.020685578 0.09662775 0.16844045 -0.06304436 -0.020812176 -0.013941287 -0.13313238
0.18787144 -0.02573972 -0.07101636 0.17127064 -0.17852817 -0.25879863 -0.03491541 -0.25662124
0.06407995 0.28663713 -0.0042653307 0.038921054 -0.012395314 -0.029909397 -0.029442571 0.0227908
-0.028785644 -0.054333456 -0.029907832 0.004281767 -0.16332649 0.013827659 0.027957847 -0.049286276
-0.040120378 0.027990056 -0.004672182 0.16345952 -0.053215805 -0.0153659 -0.18960783 0.034870908
-0.16158183 -0.009146739 0.0331402 0.014301408 -0.066194266 -0.01657787 0.04034068 -0.0409096
0.029070603 0.107368484 -0.004867398 -0.2601156 -0.010698294 -0.1221015 -0.039918233 -0.025459046
0.02424246 -0.05701435 0.25973383 -0.22245112 0.0694042 0.083720036 -0.06087681 0.0076742256
-0.0070786923 -0.19907306 -0.1633654 -0.17172155 0.079562664 -0.03551013 0.016068695 -0.06324657
-0.027996777 -0.20736979 0.019843733 -0.03171939 0.17746125 0.019846482 0.01704806 -0.014677718
0.2092789 -0.14413819 0.08926854 -0.09664511 0.078179665 -0.30635658 -0.055667367 0.11133223
-0.041377205 0.005792771 0.0036518618 0.029208139 -0.035020117 0.027555512 -0.020776616 -0.021942575
-0.039593413 -0.1677411 0.0552881 -0.029907808 -0.08754671 -0.05020986 -0.009014407 0.020944117
-0.039160386 -0.04463974 0.0253572 0.008110671 0.14743549 -0.014125446 0.024641355 0.0071594487
-0.004065597 -0.038270716 0.023059761 -0.05298379 0.024718056 0.18744136 0.02842373 0.010477127
-0.05603913 -0.016509337 0.036550056 -0.251381 0.034289762 -0.025585555 -0.018781994 -0.015621174
-0.041998204 0.018592836 -0.071887344 -0.17127083 -0.008682274 0.0614161 -0.08044138 -0.16119891
-0.018029913 0.05595984 -0.109879136 0.011484914 0.17087433 -0.00986628 -0.043635976 -0.024487056
0.024077388 -0.06268702 -0.13904776 -0.007362363 0.19828486 -0.0109868925 0.020111501 -0.00013089583
-0.0014104525 -0.08436484 -0.20006411 0.08123532 -0.017528405 -0.0027536657 -0.06726329 -0.0038471804
-0.053766623 0.03160522 -0.08705992 -0.030589333 -0.1985856 0.03424761 0.015788034 -0.09291947
-0.16246176 0.0033949614 -0.1285623 0.15668945 -0.014087735 0.031948376 0.032353375 0.20422684
-0.012554662 0.0007239309 -0.00018662786 -0.13866198 0.015247023 0.010514424 -0.055918586 0.024237782
-0.033460196 -0.06963347 0.109703824 -0.022798067 -0.20610906 -0.012176112 0.028988602 0.044612803
-0.11481478 -0.07157749 0.24273159 -0.05505248 0.026900025 -0.05362735 -0.0013650786 -0.049058665
-0.010907961 -0.063321166 -0.0778849 -0.0050875344 0.025073353 -0.23112532 0.0073626684 -0.08978307
0.22156855 0.007898178 -0.013257812 0.18947408 -0.21643141 -0.053176854 -0.08779688 -0.020653276
-0.029453004 0.023326967 0.01785322 -0.19199327 -0.18491311 -0.32027397 -0.0031223684 0.05315812
-0.039277636 -0.04865626 -0.034311786 0.014285433 -0.04801748 0.16989695 0.048164356 -0.13939425
0.03343679 0.10903075 0.067877464 -0.15916872 0.07920515 -0.054786522 -0.034024525 -0.0056913677

l3.weight f4 [6, 300]
00000000: a085 823d 5672 3e3d 73bf c8bc 5ee1 863c
00000010: 9b37 9b3d c8ec f63c 0c52 453d d2bd dc38
00000020: c98d 26bd dee8 d0bc 28ed 493d ceaf 89bd
00000030: fc6e d1bc 56b5 17bd 3fe6 5ebd d89d 2a3c
00000040: 342d d8bc 6f19 9dba 8bd4 e53d 1abf 983d
00000050: 1030 d0bb c865 fb3c 0c08 8dbd b64f 68bc
00000060: 55a9 a63d 5994 80bd 1af0 0abd 84cf 5cbc
00000070: 549a 8f3b d550 6b3d da21 29bd f79e 0c3d
00000080: 0d7c fd3b b828 db3d e551 69bc 3e64 b8bc
00000090: cfa4 493d 3a86 ba3a 4cbb 4fb7 f5c0 5b3c
000000a0: 735a 5d3d 109e 0dbd 66bc 563d f258 8fbc
000000b0: 59c7 5e3d aa1e ffbb a88b 69bd 5bd0 33bd
000000c0: ec20 2d3e e68b febc b000 1fbd c715 d73c
000000d0: 6621 05bc e3a8 133d 0c30 5e3d 7e93 753d
000000e0: 0c5a 703d 9495 ca3c 247e c83a 0476 0ebd
000000f0: c91c 4fbd 0c68 61bd 9160 64bd ce95 e73c
00000100: bb95 f6bc 52b2 3d3c b584 903d 33d8 ce3d
00000110: 510b 14bd 3c7d 05bd ca74 75bd 518d 313b
00000120: 9eb1 233d b058 cabc 714b 0c3c ea79 40bc
00000130: 7494 1abd 331b 9fbd 1aa1 e93c 5ad6 ff3c
00000140: ddab 513d 832a 3ebd a388 c83c 7393 94ba
00000150: fb45 833e 3331 00bd e00a 423b 0902 053e
00000160: 62ab 653c 931a ce3d b5fd 08bd c347 94bd
00000170: eb9c f43d d24a 00bd 2ee7 12bd d2aa 3f3d
00000180: aac9 b23c 93ac 31bd 945c 373b 2f93 88bc
00000190: 7216 2c3e 0023 b23d 40a3 2f3b cb7f 0b3d
000001a0: b88a 5bbd 4b66 dc3c 78b5 2fbd f6d6 d03c
000001b0: ef72 013d 9afa 6bbd 0e39 0b3c 658c 4fbb
000001c0: 10c6 a33c 9e8b a03c 15ac c3bc 994b ec3a
000001d0: 23e5 653d 1ef5 cabc 6705 f0bc 3b78 de3b
000001e0: b2f8 71bd 70d5 efbc 6066 233d 4aa0 233d
000001f0: a07e 8dbc 8eba 88bd 2f17 bf3c 7dfd 133d
00000200: 003c 403a 5085 333c 997c a73c aebd b2bc
00000210: 15e2 19bd 2415 cd3d 0d3d 23bc 35dd 483d
00000220: 53c1 ad3c 8a01 93bc aff3 183c b737 7a3d
00000230: d551 013d 899a 58bc 9782 603d d070 aa3c
00000240: 9318 4e3d 3821 5fbd 921c 93bc 3ff3 a93d
00000250: dbf7 813d b82d b73d 7f17 1b3d 8bcd d73d
00000260: 91c4 c2bc 6857 8abd 0fbf 613d e6bc 043c
00000270: 3652 3a3d d7e1 51bc 90ba 39bc 215f 2abd
00000280: be37 243d 8324 bb3c b3f2 5f3d 7496 883c
00000290: 2316 b63d d4bb 3ebd 1545 f7bc fa84 81bd
000002a0: 1b07 afbc 62c7 e53c 8b28 ffbb b429 a93d
000002b0: 9ede b53c 744c 9f3d d1a4 c83c 8413 193d
000002c0: 1b72 d13c 5104 d4bc 2c43 063d 42a8 06bc
000002d0: 9087 013c 82d1 013d e85d a43c 1b65 25bc
000002e0: 1896 a53d c67d 7fbc 460c 6b3d 8622 903b
000002f0: c7e1 4abd f393 37bd 9d22 82bc 6206 163d
00000300: 76f9 1abc 45d4 f0bc 3c84 fd3c 9eff 5a3d
00000310: 2d8f 5a3d 9b72 90bc e61a ed3b 05a0 6abb
00000320: c4b3 6cbc b6d1 403d e69b d83d d97e 9d3c
00000330: be8c ab3c d33a f43c cfd6 873c 3c34 27bd
00000340: b5ed ec3d 81fc 78bc 6861 ef3d 3f4a e33c
00000350: 26d8 85bc fe5a 963c 5d75 30bd aa28 993c
00000360: e7c3 9ebc efb2 073d fe43 e53d 71ce 60bd
00000370: f7a6 edbc a789 a63d 035c 853c 8f19 2a3d
00000380: 6945 ce3b 0178 c0bc 60f7 37bd 0780 7bbd
00000390: 34c8 0d3c 8f62 fa3c a2f3 01bd 3fe0 ea3c
000003a0: 9193 9f3d 41fc 3dbd 017e d0b8 92f2 0cbd
000003b0: 6d77 ae3c 75d1 223d 5085 8ebb 786f 843e
000003c0: 2356 823d b634 2e3d eeda 9b3c 9ce2 efbc
000003d0: 58d5 983b edfa ed3d 614c 303d e5ad 23bc
000003e0: b7d6 4abc 1dbe 163d 13d9 ea3d a9be 853d
000003f0: 87a5 a5bc f076 1abb 67b5 c93a ca25 413d
0.06373143 0.046495758 -0.024505353 0.016464885 0.07578965 0.030142203 0.04817395 0.00010525774
-0.04066256 -0.025501665 0.049298435 -0.06722985 -0.025565617 -0.03703817 -0.0544188 0.010413609
-0.026388742 -0.0011985729 0.1122218 0.07458325 -0.0063533857 0.030688182 -0.068863004 -0.014179161
0.08137766 -0.06278295 -0.033920385 -0.01347721 0.004382411 0.057450134 -0.04129205 0.03433129
0.0077357353 0.10701126 -0.014240717 -0.022508737 0.04922944 0.0014230676 -1.238177e-05 0.013412704
0.054041337 -0.03457457 0.052425765 -0.017498467 0.05438933 -0.007785638 -0.057017952 -0.043899875
0.1690709 -0.031072568 -0.038819015 0.026255501 -0.008125639 0.036049735 0.05424504 0.059955113
0.058679625 0.024729528 0.0015296382 -0.034780517 -0.05056456 -0.055030867 -0.055756155 0.028269675
-0.030100694 0.011578159 0.07056562 0.100998305 -0.036143605 -0.032590136 -0.05992583 0.0027092288
0.03996431 -0.024700493 0.0085629085 -0.011747817 -0.037739232 -0.0776886 0.028519202 0.03123014
0.051189292 -0.04642726 0.024479216 -0.0011335447 0.25639328 -0.03129692 0.0029608533 0.12989058
0.014017912 0.100636624 -0.03344508 -0.0724025 0.11943992 -0.031321354 -0.035865 0.046793766
0.021824677 -0.04337747 0.0027978765 -0.016671745 0.16805437 0.08698082 0.0026800185 0.03405742
-0.05359909 0.026904246 -0.04289767 0.025493126 0.03160375 -0.05761204 0.00849749 -0.0031669375
0.019991904 0.019597825 -0.023885766 0.0018027901 0.056126725 -0.024775084 -0.029299451 0.006789235
-0.059075065 -0.02927658 0.039892554 0.039947785 -0.017272294 -0.066762075 0.023326484 0.036130417
0.00073331594 0.010957077 0.020445155 -0.021818962 -0.037569124 0.10013798 -0.009963286 0.049039084
0.021210348 -0.01794507 0.009335442 0.06108829 0.03157218 -0.013220438 0.05481204 0.020805746
0.050316405 -0.05447504 -0.01795796 0.08298349 0.06346103 0.08944267 0.037864204 0.10537251
-0.02377537 -0.06754953 0.05511385 0.0081016775 0.04548856 -0.012810192 -0.011335984 -0.04159463
0.040092222 0.022844559 0.054674815 0.016673304 0.08890941 -0.046565846 -0.030184308 -0.063241914
-0.021365693 0.028049175 -0.0077868155 0.08259907 0.022200879 0.07778254 0.024492653 0.037372127
0.025567105 -0.025880964 0.032778904 -0.008218827 0.007905856 0.031693943 0.02006431 -0.010094906
0.08085269 -0.015593952 0.05738475 0.0043986468 -0.049531724 -0.04481883 -0.015885646 0.03662718
-0.00945889 -0.029398093 0.030946843 0.05346643 0.0533592 -0.017632773 0.0072358726 -0.0035800945
-0.014447156 0.047074996 0.1057661 0.019225525 0.020941135 0.029813206 0.01658192 -0.0408213
0.115687765 -0.01519692 0.11688501 0.027745364 -0.01633842 0.018353935 -0.043080676 0.018696148
-0.019380523 0.03312963 0.11194609 -0.054884378 -0.02901028 0.08131724 0.016279226 0.04152828
0.0062948954 -0.023494722 -0.04491365 -0.061401393 0.008653689 0.030564575 -0.031726487 0.028671382
0.07791818 -0.046383146 -9.941683e-05 -0.03441102 0.021297181 0.039750535 -0.004349388 0.25866294
0.063640855 0.042530738 0.019025292 -0.02928286 0.0046641044 0.11620126 0.04304159 -0.00999019
-0.012380294 0.0368024 0.11467185 0.06530506 -0.020220531 -0.0023569427 0.0015389145 0.04715518

l3.bias f4 [6]
00000000: db77 efbb 3fe0 2f3d bb22 63bc b20b d7bd
00000010: 7e2e 173e 948e 093d
-0.007307989 0.042938467 -0.013863261 -0.105002776 0.14763829 0.03358324
