results/runs/single_assembly_friction/Average_TD3_10_Peg-in-hole-single_assembly_seed_2/59000_actor.pth (torch_old, 510312 bytes, 6 tensors)

l1.weight f4 [400, 12]
000000 0f e9 df bc 89 80 c3 ba 2a c1 15 3e 4e 44 4f bc
       -0.02733281 -0.0014915626 0.14624467 -0.012650562
000010 09 84 fb 3d 0c c0 8c 3d 1b fc af bd b0 17 4f be
       0.12281043 0.068725675 -0.08593007 -0.2022388
000020 00 d0 49 3d 39 51 4d be d5 7c c2 3c 4f b4 79 3d
       0.04927063 -0.20050515 0.023741165 0.06096297
000030 60 01 82 bd 48 1a 75 3e 12 e7 36 3d 20 29 f5 3d
       -0.063479185 0.23935807 0.04465396 0.119707346
000040 10 32 fa 3d c0 62 2e be 2a 81 01 be 0a 76 83 3e
       0.1221658 -0.17029858 -0.12646928 0.25675994
000050 1c ee 98 be f8 93 be bc 6d ad af bc 2f 0e 51 3e
       -0.29869163 -0.023263916 -0.021445 0.20415567
000060 f6 71 97 be a1 91 27 bf 31 0a dc 3c b3 21 a0 be
       -0.29579133 -0.6545659 0.026860328 -0.3127571
000070 66 e9 65 bc 34 9d 0f be 92 92 53 bf e1 85 4f bf
       -0.014032697 -0.14024812 -0.82645524 -0.8106366
000080 01 71 86 3e 39 a5 12 bf cb b2 35 3f a8 e4 2d bf
       0.2625809 -0.5728336 0.7097594 -0.67927027
000090 0b 56 19 3f f3 b5 40 3f e9 d0 a6 3d 8c 12 e9 bd
       0.59896916 0.7527763 0.08145315 -0.11380491
0000a0 17 dc c1 bd f7 f3 88 be 2e bb fc be 71 65 28 bd
       -0.09465807 -0.2674863 -0.49361557 -0.041112367
0000b0 26 56 da be a0 97 73 3d 54 a4 21 3f 80 c5 8e bd
       -0.4264385 0.059470773 0.6314137 -0.06971264
0000c0 c0 72 fa 3c c0 94 b4 3c b6 bb 1d 3e 12 92 46 3e
       0.030572295 0.022043586 0.15403637 0.19391659
0000d0 46 49 54 3e 56 55 2b 3e 4c 24 90 bd a0 8d 52 bc
       0.20731077 0.16731772 -0.07038173 -0.012851149
0000e0 f8 4a 70 bd 3e f6 2b 3e 10 51 03 3d c0 cb 88 3e
       -0.058665246 0.16793153 0.03205973 0.2671795
0000f0 e9 65 00 3f 66 f2 3f bf 86 d6 e7 3d 9e 14 e7 3e
       0.501555 -0.74979246 0.11320214 0.45132917
000100 b3 4e fb 3e 80 a6 94 bb f9 13 01 3e d4 aa a2 bf
       0.4908348 -0.00453645 0.12605275 -1.2708383
000110 d4 12 31 be 20 40 fb be d8 de 65 bd 08 0b 72 3f
       -0.17292339 -0.4907236 -0.056120723 0.9454808
000120 1d bd f6 3e 96 6c 86 3e fe d5 bc bd df e9 6c be
       0.48191157 0.2625472 -0.09220503 -0.2313609
000130 28 aa b5 bb 78 2b 8a be 65 6f f5 bd 8a 9b 8b be
       -0.005543966 -0.2698629 -0.119841374 -0.27267104
000140 b8 0c 7f 3e c2 2e 52 bd 56 e3 05 bf 24 db 1c bf
       0.24907196 -0.051314123 -0.5230001 -0.6127188
000150 12 51 28 3e 10 06 12 3f c6 f3 b8 3d 66 19 02 3e
       0.16437176 0.570405 0.09030871 0.12705001
000160 da 80 a9 be c2 42 1c be 56 16 c2 be ee 4d 19 bf
       -0.33106118 -0.15259841 -0.37907666 -0.59884536
000170 2b fc 1b 3e 64 34 8f be 35 f7 ff 3e f6 26 ae 3e
       0.15232913 -0.27969658 0.49993291 0.340141
000180 a1 ca 59 bf a0 f2 fd be 60 b6 33 bd 11 dd d6 be
       -0.8507481 -0.4959917 -0.0438751 -0.41965535
000190 25 89 49 bd dc 85 3e bd dd 50 c4 be b4 0d d2 3e
       -0.049203057 -0.046514377 -0.38342944 0.4102608
0001a0 75 33 aa 3d 78 2c ed 3e 64 17 14 ba 43 56 54 bf
       0.08310596 0.4632299 -0.00056492374 -0.82944125
0001b0 fa e7 91 be 10 9c 32 3d 3e 1a 89 3e 87 3a 56 be
       -0.28497297 0.043605864 0.26777834 -0.20920764
0001c0 68 9e 03 be 60 12 79 bc d2 e3 37 be 08 dd 5e bd
       -0.12853396 -0.015202135 -0.17958 -0.05441001
0001d0 d8 b9 2e bd e0 af 83 3e 90 b2 94 bc 22 4c 20 3e
       -0.042657703 0.2572012 -0.018151551 0.15654042
0001e0 eb b2 87 bc 30 a2 4d 3f c9 02 04 ba 0b 3e e6 3d
       -0.016564807 0.80325603 -0.00050358154 0.112423025
0001f0 6a 98 b4 3e 18 e8 53 be c1 16 a1 bf b1 13 83 3e
       0.35272533 -0.20694005 -1.2585069 0.2560096
000200 92 25 7a bf 92 6c 56 be a4 7b 88 3f 8f 3e 14 3f
       -0.9771358 -0.20939854 1.0662732 0.57907957
000210 2a ae c8 be 87 b6 29 bd 1a db 51 3c c2 25 ac 3e
       -0.39195377 -0.041433837 0.012808586 0.33622557
000220 14 2d db bd ce 43 7d be 3d f5 b2 3e 9b 87 3c be
       -0.10701957 -0.24732897 0.34952727 -0.18411104
000230 57 86 f1 be 5a cc 64 be 2d fc cb 3e d8 50 b9 3f
       -0.47172806 -0.22343579 0.39840832 1.4477797
000240 2a 46 09 bd 07 0a 4b 3e 71 75 e5 3c 6e 3b 14 3e
       -0.03351418 0.19828044 0.028010102 0.14475796
000250 af c7 d4 3e f8 be 33 be 5a f9 a4 be ef c7 58 be
       0.41558596 -0.17553318 -0.3222149 -0.21170019
000260 07 68 24 bf a4 da 4d be 90 cc 95 3e a9 e2 c2 bd
       -0.64221233 -0.20102936 0.2925763 -0.09515888
000270 a0 65 57 be c0 66 ce 3b 9e 05 89 3e c8 ab d3 3d
       -0.2103486 0.00629887 0.26762098 0.10335499
000280 00 ad 44 be 4a e4 4b 3e 40 1d c2 3c 68 6c 90 be
       -0.1920662 0.19911304 0.023695588 -0.28207707
000290 40 5a 60 3c 94 c2 3d 3e f8 d0 2d be 60 9e 59 bc
       0.013693392 0.18531257 -0.16974247 -0.013282388
0002a0 90 95 07 3f 46 c9 8a bf e7 79 a2 3d 80 30 7f 3e
       0.5296259 -1.0842674 0.07933407 0.24920845
0002b0 f2 ec 41 3f 08 b8 5b bd a0 aa bd bf a0 cb b1 bc
       0.75752175 -0.053642303 -1.4817696 -0.021703541
0002c0 43 d3 31 bf 56 0b de 3d c3 84 c0 3f a4 52 12 3f
       -0.69462985 0.10842006 1.5040516 0.5715735
0002d0 cc 11 ae bf cc 03 bf 3e f4 40 9b bd 95 ab 71 be
       -1.3599181 0.37307584 -0.07580748 -0.2360061
0002e0 40 d6 42 be 6c 57 2c be 4b 62 79 bd b9 da 7e 3d
       -0.19027042 -0.16830224 -0.060884755 0.06222031
0002f0 51 ed 9f 3e dd f5 2e 3e 0c c4 41 be 80 2a a7 bf
       0.31235746 0.17085977 -0.18922442 -1.3059845
000300 b8 2e f2 bd 82 a6 ce 3e c6 3b f7 3c 06 2f 96 bd
       -0.11825317 0.4036141 0.03017987 -0.07333188
000310 c5 a4 ab 3e 0f 3b 20 be 11 6b 6e be 5a 37 e6 3e
       0.33524147 -0.15647529 -0.2328303 0.44964105
000320 55 40 69 bf fb df d4 3c aa ad ba 3e fb ee 06 3f
       -0.9111379 0.025985708 0.3646062 0.52708405
000330 08 9b 07 bd 66 1d 38 3e e8 45 dd 3d cc 84 be bd
       -0.033106834 0.17979965 0.10804349 -0.09302673
000340 48 ca 12 bd 00 8c 00 be 80 9f 6e be fa 5c a1 bd
       -0.03583744 -0.12553406 -0.23303032 -0.07879062
000350 70 34 a3 3c 5f e8 15 be 7a 75 5d be a4 b1 ac 3d
       0.019922465 -0.14639424 -0.21626845 0.0843232
000360 af f3 bb be 14 e6 df 3c 41 fa 10 3e 7e a5 d2 3e
       -0.36709353 0.02733139 0.14157964 0.41141886
000370 67 5b dd bb e4 99 4a be 40 16 11 3f 8f 4d d1 3d
       -0.006755281 -0.19785267 0.56674576 0.10219871
000380 a4 85 19 3e be d6 93 be 1a 1b 33 be 46 ff a9 3f
       0.14992386 -0.28874773 -0.17490807 1.3281028
000390 21 f8 0c 3e 7f 35 55 bf bb ae 89 3d 8a 9a c5 bd
       0.13766529 -0.83284754 0.0672278 -0.096486166
0003a0 3b e8 01 be 70 ca 85 bc 5d 7d d3 bc 03 f9 e9 be
       -0.12686245 -0.016331881 -0.025816614 -0.45697793
0003b0 fd e5 73 3d e0 13 1f bf da 1f fd bd 55 79 4a bf
       0.059545506 -0.621397 -0.12359591 -0.7909139
0003c0 39 34 a7 bf 88 be 4d 3f 8f 1d 23 bd 77 31 b3 be
       -1.3062812 0.8036885 -0.03982311 -0.34998676
0003d0 b2 f3 4c 3e fc 3d d4 3d ec 5e d4 bd 4b 77 6d bf
       0.20014837 0.10363385 -0.103696674 -0.9276015
0003e0 7a d5 38 be 91 69 9f bf fc 0a 15 3e de 2d 4c bd
       -0.18050185 -1.2454091 0.14554971 -0.04984843
0003f0 5a 49 00 bf 5c 04 dd 3d 95 31 7c 3d 06 14 57 3e
       -0.50111926 0.10791847 0.061570723 0.21003732

l1.bias f4 [400]
000000 e4 ee 7f 3c fd 30 45 be 9a 32 a1 be b0 3d bb be
       0.015620921 -0.19256969 -0.31483918 -0.365705
000010 c0 08 4d bc a0 90 0f 3f 7a ea 82 bf d2 06 3e be
       -0.012514293 0.56080055 -1.0227807 -0.18557289
000020 36 76 93 bf cc 2f 21 3e bc 9b 13 3f 80 a1 8d 3f
       -1.152045 0.1574089 0.57659507 1.1064911
000030 eb 6d 59 be f8 5c 3c 3d d2 fe 5e bd 53 ea 43 bf
       -0.21233337 0.0459871 -0.054442234 -0.76529425
000040 3a bc 94 3f d0 ab 99 3d 36 15 33 3f 6f 26 1e 3f
       1.1619942 0.07503474 0.6995424 0.61777395
000050 71 b6 20 3e 42 76 08 3f 9f 90 3b 3e 91 4c 92 bf
       0.15694596 0.5330545 0.18316887 -1.1429616
000060 f7 7f 2d 3e d6 e5 90 bd 52 25 73 3d 0d 73 41 bf
       0.16943346 -0.07075088 0.059361763 -0.7556618
000070 c9 34 0f bf ca 90 8d bf cb d2 8f 3e 0e 8d 93 be
       -0.5593992 -1.1059811 0.2809051 -0.28818554
000080 60 eb e0 bd 94 a8 63 3e c3 35 96 bf 4c d5 e4 3d
       -0.10982394 0.22232276 -1.1735157 0.11173496
000090 29 6e 8b be 94 f9 af bd d7 54 18 bf e9 fa 1d 3f
       -0.27232483 -0.08592525 -0.59504455 0.61710984
0000a0 17 d5 a0 be 8e df 8c bf 59 3d 7e bf 58 16 32 3d
       -0.31412575 -1.1005723 -0.9931236 0.04347834
0000b0 1c c2 7d be 97 4d f0 be 92 06 3f bf 12 ec 46 bf
       -0.24781078 -0.46934196 -0.746194 -0.77703965
0000c0 5b a4 05 bf 37 3e 3c bf c8 8a 46 3f de 10 9d 3f
       -0.5220391 -0.7353243 0.77555513 1.2270772
0000d0 38 bd ef 3e 58 5b a1 3d 62 46 26 bf 48 b5 7a bf
       0.4682405 0.078787506 -0.64951146 -0.97932863
0000e0 43 b6 c4 be db ad f9 bd 38 72 97 3e c6 98 60 3f
       -0.38420305 -0.121913634 0.2957933 0.87733114
0000f0 05 d9 c6 be f2 4e ab be 34 a0 62 3f 6b 42 e6 bd
       -0.38837448 -0.33458668 0.885257 -0.11243137
000100 c5 2b ef 3e a8 d2 40 bf c7 d5 02 be b8 a6 07 3d
       0.4671308 -0.75321436 -0.12776862 0.03311798
000110 4a 55 0a bf 81 12 97 3f 90 4b 89 bf 0f 86 11 3f
       -0.5403639 1.1802522 -1.0726185 0.5684518
000120 03 1b 7f be a7 73 69 3f 26 3e 14 3f 20 02 98 bf
       -0.24912648 0.91192096 0.5790733 -1.1875648
000130 fb e2 96 bf 0b 46 37 bf 7b df 0c 3f cd ee db 3e
       -1.1788019 -0.7159125 0.55028504 0.42955628
000140 92 33 33 be 0e 0d 83 be 17 6a 8e be 6f 41 42 bf
       -0.17500141 -0.25595897 -0.27815315 -0.75881094
000150 b2 77 fe 3e 57 a2 92 3e b3 8d 53 3e c3 f4 04 3e
       0.49700695 0.2863948 0.20659523 0.12983994
000160 27 f0 61 3e 6f 6f 9b be 6c 24 01 3f ac 0a d1 3d
       0.22064267 -0.30358455 0.504462 0.102071136
000170 f6 8c 13 3c 6f fc 3a bf 35 29 23 be 18 dd 43 3e
       0.009005776 -0.73041433 -0.15933688 0.1912731
000180 d5 51 89 be 3c 7f 41 bf f7 7c 89 bf e7 a6 3e bf
       -0.26820245 -0.7558477 -1.0741261 -0.7447342
000190 cc f2 7a bf a4 e7 73 3f 3c c3 04 3f 8e 69 49 be
       -0.9802673 0.9527533 0.51860404 -0.19669172
0001a0 ec ae 02 be 28 8c 5f 3e d6 a6 ad bf 6c 79 6d bf
       -0.1276204 0.21830809 -1.3566539 -0.927634
0001b0 f6 9c 2f 3e e9 6d b8 3f f4 af cf 3e dc 57 7b 3c
       0.1714972 1.4408542 0.4056393 0.0153407715
0001c0 25 c2 30 3e d6 e2 0a bf 0b 48 71 bf 97 54 8a be
       0.1726156 -0.54252374 -0.94250554 -0.27017662
0001d0 2c 59 5d 3e c6 50 49 3e 0a 8f f2 3c f6 46 83 3e
       0.21616048 0.19659719 0.029609222 0.25640076
0001e0 78 14 ad be 54 48 79 be 55 99 41 3f a6 e2 71 3e
       -0.3380468 -0.24343997 0.7562459 0.23621616
0001f0 3c cd b2 3d ac 40 0c 3e 8e 1b 16 3f 2d d7 54 3e
       0.087305516 0.13696545 0.58635795 0.20785208
000200 84 e4 8a bd 6c 65 68 be 69 e7 be 3e d4 1e 5e 3e
       -0.06781867 -0.2269494 0.37285927 0.21691447
000210 ba eb 8c 3e a2 bc 8f be ce 8b f8 3e e6 8b 25 3e
       0.27523595 -0.28073603 0.48544163 0.16166648
000220 34 12 b3 3d 1c d9 3c be 92 f1 0c be 8c d6 01 3e
       0.08743706 -0.18442196 -0.13764027 0.126795
000230 20 af 10 3f 80 30 32 be 90 e3 44 be f8 68 02 3f
       0.5651722 -0.17401314 -0.19227433 0.5094142
000240 36 6b 4e bf 6d 5f ae 3e 93 b5 26 bf 5d c5 16 3e
       -0.8063234 0.3405718 -0.6512081 0.14723726
000250 d9 6f da bd 61 aa f3 3e 31 b7 6c be 42 f6 e0 3d
       -0.106658645 0.47590926 -0.23116757 0.1098447
000260 bd 90 c7 3d 5d a2 7c bf 48 5e 8a bd 49 b6 3c 3f
       0.097444035 -0.98685247 -0.06756264 0.73715645
000270 ca f3 3f bf b6 67 35 be 24 ba a9 3e ec ef 4a 3e
       -0.7498137 -0.17715344 0.33149827 0.19818085
000280 62 88 11 3d ea b2 b3 3e bc 93 8c 3f c4 ea 2a 3e
       0.035530455 0.35097438 1.0982585 0.16691118
000290 f9 6d 23 3f d1 bf 70 be a9 c3 3c 3f ee 83 37 bf
       0.6383968 -0.23510672 0.73736054 -0.71685684
0002a0 52 c5 0d 3e 9c 64 7e bd ea bc 9f bf fc 3b 7a 3f
       0.13844803 -0.062107667 -1.2479527 0.9774778
0002b0 6c ab b3 3d 3d f0 bd 3c 64 ae 7b bf 5a 53 40 3f
       0.087729305 0.023185844 -0.98312974 0.75127184
0002c0 5c 22 c8 3e 0c 38 b8 3d e0 22 1a bf e8 76 5e 3d
       0.39088714 0.08995065 -0.60209465 0.054312617
0002d0 87 44 82 3f e4 3f d2 3d 47 2f b3 3d 0d 5d 04 3e
       1.0177163 0.102660924 0.08749252 0.12926121
0002e0 79 2d 1d 3e 8c d7 8f be 30 2c 92 3f f2 fb 85 3e
       0.15349378 -0.28094137 1.1419735 0.26168782
0002f0 e5 fb 46 bf 6b ad a7 3f 70 69 30 bf 42 da 5c be
       -0.7772811 1.3099798 -0.68910885 -0.21567634
000300 2e 59 2c be 9a f1 18 bf 34 b8 51 3e 62 79 0d bf
       -0.16830894 -0.59743655 0.20480424 -0.5526334
000310 e7 bd 4e bd 34 0d 54 be ae 4f 25 3f 71 3a 46 bc
       -0.050474074 -0.20708162 0.64574707 -0.012098894
000320 17 71 92 bf 88 be 3f bf 61 74 78 be ef c3 c8 3d
       -1.1440762 -0.749001 -0.24263145 0.09802996
000330 34 be 57 be b4 b2 b7 3e 38 41 49 be 3b 30 89 bf
       -0.2106865 0.35878527 -0.19653785 -1.0717844
000340 9d 65 4d 3f 3b 58 9f be e7 10 91 bf 5e 9f 47 bf
       0.80233175 -0.31122002 -1.1333283 -0.7797755
000350 d8 4a 1e 3f 58 16 49 3f 08 d8 8f 3d 9c 5a 0a 3f
       0.6183295 0.7854972 0.070236266 0.5404451
000360 3b 67 82 3f a3 24 7b be 20 47 2a 3d 1f b6 34 bf
       1.0187753 -0.24525695 0.041571736 -0.70590395
000370 f2 52 cc 3d 4b 81 6f bf e4 8e 86 3f 43 92 f1 3e
       0.09976758 -0.9355666 1.0512357 0.471819
000380 f9 b5 63 3f 51 5b 7a 3e b4 bb 4c bf 3e 65 74 bf
       0.88949543 0.24448897 -0.7997391 -0.95466983
000390 77 e3 22 bd 07 dc 03 be a0 2a 08 be d0 a3 7d 3e
       -0.03976771 -0.12876903 -0.1329751 0.24769521
0003a0 6c 57 6d bf 75 9d 58 bf fa 52 9d bb 40 20 f2 bb
       -0.9271152 -0.8461526 -0.0048011513 -0.0073890984
0003b0 16 d0 bc bd a9 62 2b bf d7 14 f4 3d 9e 03 97 be
       -0.09219377 -0.6694742 0.119180374 -0.29494947
0003c0 90 a8 ea 3e b1 1d 77 bf 58 9d 21 bf f7 57 3f bf
       0.45831728 -0.9652968 -0.6313071 -0.747436
0003d0 de 3e 46 be 3e 21 88 be d8 2f 96 bd a2 cb 6e be
       -0.1935992 -0.26587862 -0.07333344 -0.23319867
0003e0 fe b1 35 be b1 c8 0f bf 74 00 0f be ba d3 fe bd
       -0.1774368 -0.56165606 -0.13965017 -0.124427274
0003f0 e2 e1 33 bf de af 91 3e c3 3b 82 be 2a ec be bd
       -0.70266545 0.2845449 -0.2543622 -0.093223885

l2.weight f4 [300, 400]
000000 fc e0 76 3d 86 ab 82 bc 72 47 8a 3e 8e 59 76 3e
       0.060273156 -0.01595093 0.27007633 0.240576
000010 d0 68 ad bc b7 c8 46 3e e0 71 3d bd c3 e8 06 3e
       -0.021168143 0.19412504 -0.046251178 0.13174729
000020 60 59 9e bd 38 b3 17 bd d9 78 d2 3b a8 6a 91 be
       -0.07731891 -0.03703615 0.0064230976 -0.28401685
000030 33 97 40 3e 40 d6 a5 3b ed 68 3b bf 6e 95 9b 3b
       0.18807678 0.005060941 -0.7320698 0.004748038
000040 31 36 d1 bc fa 07 85 bc 61 d3 03 bf d9 dd 08 be
       -0.025538536 -0.016239155 -0.51494414 -0.13365878
000050 b1 05 c2 be f5 9d 1b be ea 52 e9 bd 48 1f da 3d
       -0.37894967 -0.15196975 -0.11392768 0.10650498
000060 b7 40 a4 3c 94 ba 0e bc 4f 30 b7 bd 87 d3 90 bd
       0.02005039 -0.008711476 -0.08944761 -0.07071596
000070 be 91 8e 3e 22 2e 6b be 57 2e 8a be c7 23 cc 3d
       0.27845567 -0.22966817 -0.2698848 0.099677615
000080 42 01 56 3e 0d 31 2c 3d 80 f6 20 3e b0 05 f8 bb
       0.20898917 0.042038966 0.15719032 -0.0075690374
000090 79 1a a9 3e 54 d3 26 3c ea 43 88 bc e7 02 e0 3d
       0.3302801 0.0101822205 -0.016633946 0.109380536
0000a0 6f d9 ee be 0b 0d bd 3c 67 2a b3 bc 97 4a b8 bc
       -0.46650264 0.023077508 -0.021870805 -0.022496505
0000b0 5b 37 1c 3d d3 38 97 3d 05 9e c2 3e 8e 4e 55 3c
       0.03813873 0.07383885 0.38011184 0.013019217
0000c0 8e be 14 3e 1a 13 5a be 2e ac b6 3e 97 4d 87 be
       0.14525816 -0.21296349 0.35678238 -0.26426384
0000d0 34 ae ff 3d 32 40 f6 3c c3 2f ca 3d e4 10 83 3d
       0.124843985 0.030059908 0.09872391 0.06399706
0000e0 34 c9 97 3e b1 e7 aa 3e f9 4c 36 3e a4 44 db be
       0.29645693 0.33379892 0.178028 -0.42825806
0000f0 03 72 b4 3e 94 03 91 3e 8a c2 21 bf e7 0f 4f 3a
       0.35243234 0.28323042 -0.6318747 0.0007898793
000100 03 3c d6 bd f2 af 8d bc d0 f1 c5 bb 20 1a 2d bc
       -0.10460665 -0.017295811 -0.006040789 -0.010565311
000110 ee 71 54 3d d2 24 23 be 42 a5 c1 3d 5c d3 b8 3c
       0.051866464 -0.15932015 0.094553486 0.022561722
000120 b8 33 4b bc 86 f9 a9 bc 6b dd 17 bf c9 95 0f be
       -0.012402467 -0.020748865 -0.5932223 -0.14021982
000130 75 6f 98 bd 29 89 ab be 09 71 55 be 6c 8a 07 bf
       -0.07443134 -0.33503082 -0.208439 -0.5294559
000140 9b 8c 4a 3e a6 fd 84 bd 71 e8 bb 3c c7 0e 54 3e
       0.19780199 -0.06493692 0.022937985 0.20708762
000150 c4 49 db be 28 9e 97 bd 65 83 ae bd 19 59 36 3d
       -0.42829716 -0.07403213 -0.08521155 0.044518564
000160 58 43 d3 3b ec 9b 7b 3e a5 7c c2 be a2 1e 9e 3c
       0.006447237 0.24571198 -0.3798572 0.019301716
000170 cb 44 40 3e 71 e3 1e 3e 4d 41 c4 bc cc 9d 0b 3c
       0.18776242 0.1551645 -0.02395692 0.008521508
000180 38 e8 52 bd 3f 19 78 3e d0 62 e4 bd 42 27 1d bc
       -0.051490992 0.2422838 -0.111516595 -0.009591879
000190 2d e9 58 be 5e f7 b4 be d2 5f 80 bd e5 22 04 3d
       -0.211827 -0.35344976 -0.06268276 0.03225984
0001a0 71 47 2f 3e 9e 6e aa bd 36 7c d4 bd 30 07 83 bd
       0.17117096 -0.0832188 -0.10375254 -0.06397855
0001b0 82 b1 7a 3e e3 aa 13 be 56 dd ae bd fb d7 96 be
       0.24481776 -0.14420657 -0.0853831 -0.29461655
0001c0 aa 00 ca 3d 4a 47 91 3d bb ee b0 3d 7a 12 ad bc
       0.09863408 0.070936754 0.08639284 -0.021126974
0001d0 46 42 d3 3c 68 ea 74 bc 4f 5f b8 bd b0 a9 d4 bb
       0.025788438 -0.014948465 -0.09002554 -0.006489955
0001e0 64 7c 6d 3c 22 b6 b1 3c 35 aa 71 be bf 58 46 3e
       0.014494989 0.021693293 -0.23600085 0.19369791
0001f0 95 c7 15 3d 82 7c d5 3c ad 0e 98 be dd 32 95 3e
       0.03656729 0.026060347 -0.29698697 0.29140368
000200 80 37 8b be 4e 0f 9d bd f1 1c 9f bf 82 1d f2 3c
       -0.2719078 -0.07668935 -1.2430707 0.029555086
000210 8e 20 09 bd fe 56 29 3d 16 79 9d 3e 0c 04 5b bc
       -0.033478312 0.041342728 0.30756444 -0.013367664
000220 80 e9 70 3a 2d 16 74 3e ab 71 44 bc de d9 b6 3c
       0.00091900676 0.23836584 -0.011989991 0.022320684
000230 21 e9 16 3e 6d 49 a9 be f0 c9 e5 3b c3 46 a4 bd
       0.14737369 -0.33063832 0.007012598 -0.08021309
000240 c7 94 18 bd ba 26 cc be 13 ad 3e 3e 3f f1 6d 3d
       -0.03725126 -0.39873296 0.1862071 0.0580914
000250 c6 41 e9 bd 45 4e 8b be 44 db 43 3e 78 6d f7 bd
       -0.113894984 -0.27208152 0.19126612 -0.120814264
000260 2d 33 29 3e 44 a4 7b bd 00 63 96 ba c2 8b 84 bd
       0.16523428 -0.061435953 -0.0011473596 -0.06471969
000270 16 e1 6b 3c db 46 da b9 89 c9 14 3c 01 4c 3e 3d
       0.014396926 -0.00041632992 0.009081253 0.0464592
000280 85 5a 87 bc 7b 46 ac bd 91 88 8b bd 26 ec e6 3c
       -0.016522655 -0.084118806 -0.06813157 0.028188776
000290 83 f4 f9 be 50 76 b3 3b bc b5 a8 3e 8b 9c 56 3c
       -0.4881936 0.0054767504 0.32951152 0.013098846
0002a0 10 8e ae be 0d af 64 bd 41 f8 9f be df 92 69 be
       -0.3409276 -0.055831004 -0.3124409 -0.22809933
0002b0 93 ed 35 3e 17 15 e7 3e 18 d2 c6 3c cc 0c 12 bf
       0.17766409 0.45133278 0.024270102 -0.57050776
0002c0 36 d6 0e 3d 30 00 90 bb db 46 c7 bd 4d 37 fb bc
       0.034872256 -0.0043945536 -0.097303115 -0.030666018
0002d0 a6 5b d3 bd c0 39 b8 3b 57 c0 8d be bb ff ba bd
       -0.10320215 0.0056221187 -0.27685806 -0.09130808
0002e0 8d 18 00 bd e8 8c ad bb fe ee 3a be a4 a4 ce 3d
       -0.031273413 -0.0052963383 -0.18255231 0.100899965
0002f0 b1 89 36 be f2 05 9d be 05 90 dc 3d 7d 89 0c bd
       -0.17825963 -0.30668598 0.10769657 -0.034310807
000300 5a f3 e5 bc 67 08 a2 bb 94 50 9d bd 8f 36 9b 3e
       -0.02807014 -0.0049448493 -0.07681385 0.30315062
000310 51 b6 c5 3e 7d 36 b4 bc c2 e5 96 bd 95 d8 f2 3d
       0.3861566 -0.021998638 -0.073680416 0.11857716
000320 c4 2b 7b bd 91 9b 09 3e f7 39 ae 3e 02 a1 b0 3c
       -0.061321035 0.1343825 0.340286 0.02156115
000330 56 73 f9 3c 5d 55 10 be 79 c8 06 3d 92 c0 9b bd
       0.030450504 -0.14095064 0.03290603 -0.07605089
000340 e5 53 1c bf e6 99 4d 3e 6a 54 8f be c6 25 c2 bd
       -0.6106551 0.20078239 -0.2799409 -0.09479861
000350 dd 55 36 be 95 4c af 3d 72 49 b2 3e f8 bf bd 3d
       -0.17806192 0.08559529 0.3482166 0.09265131
000360 36 b7 a4 be 7c af 95 3c f2 01 b6 3e a4 06 a0 be
       -0.3217103 0.018272154 0.3554836 -0.31255066
000370 be 10 a0 3d 4b 59 7b be c8 08 10 be 7e 93 28 be
       0.07815693 -0.24545781 -0.1406585 -0.16462514
000380 2c af 17 be c6 54 30 3e 85 11 68 bd 7b 69 3f be
       -0.14812917 0.17219839 -0.056657333 -0.18692581
000390 1a 61 3f bc 88 03 5c bc 3d 13 db 3d c8 f5 09 bd
       -0.011680866 -0.013428576 0.10697029 -0.03368166
0003a0 6c 2d b2 bb 38 f4 22 bd af a6 d1 bd 99 29 27 3d
       -0.0054375436 -0.039783686 -0.102368705 0.040811155
0003b0 ca 3a d2 bc ce 0e 95 3d d8 41 8d 3e 53 84 53 3d
       -0.025662798 0.072782144 0.27589297 0.051639866
0003c0 80 33 2d be 3f 9c 15 be 8a d3 0a be d8 01 bf be
       -0.16914177 -0.14610384 -0.13557258 -0.37306094
0003d0 31 82 0d 3d 27 32 0e 3d 8e 12 1e bd a4 61 b3 3e
       0.03454799 0.034715798 -0.038591914 0.3503543
0003e0 af ec 93 be 73 2d 52 3e ee 63 db 3c 80 09 7d 3b
       -0.28891513 0.2052515 0.026781049 0.0038610399
0003f0 81 1c ac bd bd 9d e6 bc a6 eb 54 3c 13 87 3c 3d
       -0.08403874 -0.028151387 0.012995636 0.046027254

l2.bias f4 [300]
000000 09 1e 6c be 2b 52 4d bd cc 22 37 3b 19 aa ba 3c
       -0.23058333 -0.05012719 0.0027944325 0.022786187
000010 9c 4b 4f bd 24 57 e2 3c 6f 0b 8e bd 10 ed af bd
       -0.050609216 0.027629443 -0.069357745 -0.08590138
000020 6d ee f1 bc aa 88 9c bd 09 34 8f bd e1 57 47 3e
       -0.029532636 -0.07643254 -0.06992347 0.19467117
000030 dd 2c 99 be 8c 0f b5 bc 0c 80 67 be 01 15 25 3e
       -0.2991704 -0.02210214 -0.2260744 0.16121294
000040 31 53 ff be 65 27 05 3c c4 b5 24 be 91 23 f4 be
       -0.49868158 0.008127068 -0.16084963 -0.47683385
000050 34 1f 7a 3c 87 06 aa be a1 85 15 3b c4 82 a0 bd
       0.0152662285 -0.33208105 0.0022815245 -0.078374416
000060 eb 78 f1 bc 18 0d 5c be 1c 98 6e 3e 42 76 0f bd
       -0.029476603 -0.2148937 0.23300213 -0.03502489
000070 39 b6 2b bd 17 20 de bb b8 35 7a bf 0b a6 c1 bb
       -0.041921828 -0.0067787278 -0.9773822 -0.0059096864
000080 f7 e5 fa 3e 58 a7 d3 3e 4f 89 ca be 08 b7 b8 be
       0.49003574 0.4133861 -0.39557883 -0.36077142
000090 7e 8a 86 bd 66 ea ee bc ec 97 a7 bb 13 36 9b 3c
       -0.06569384 -0.029164504 -0.005114546 0.018946683
0000a0 a2 c5 bc 3e f0 17 a8 bd 10 54 0f bd 52 95 0e bf
       0.36869532 -0.08207691 -0.034992278 -0.55696595
0000b0 3c 8d 87 bd a9 e3 92 be 58 0a 14 bd 27 9d a4 be
       -0.06618735 -0.28689316 -0.036142677 -0.32151148
0000c0 79 3d b1 3d 3d 61 54 bc 3e c0 2f bb fd 7e f5 3c
       0.08654303 -0.012962637 -0.0026817466 0.02996778
0000d0 a3 8e 76 bc 92 cc b1 be 85 13 fb 3c b0 86 11 be
       -0.015048656 -0.34726387 0.030648956 -0.14211535
0000e0 0e 57 7e bd 7c d9 de be 84 6b a1 bd 32 cb 3e bd
       -0.06209474 -0.43525302 -0.07881835 -0.0465805
0000f0 42 7a f4 be 83 8b a9 bd b2 47 db be 8d 10 c4 be
       -0.47749525 -0.08278563 -0.42828137 -0.38293877
000100 d0 55 a1 bd 52 f8 3c be 5e 54 84 bd 15 fc dd be
       -0.078776956 -0.18454102 -0.06461404 -0.43356386
000110 83 6d 92 be 02 e1 90 bb 57 0f 9f bd 21 54 3c 3f
       -0.28599176 -0.0044213543 -0.07766598 0.7356587
000120 9d f5 8b 3d 61 12 23 3e 5d ac 00 3d 77 bd 41 bf
       0.068339564 0.1592498 0.03141438 -0.75679725
000130 53 b2 80 bf d9 b8 fb bc 52 f8 fc 3e 0b c4 a8 bd
       -1.005442 -0.03072779 0.49408203 -0.08240517
000140 69 8b ff bb 05 1c 63 be 08 c8 5f bd 5e eb 98 3e
       -0.0077986014 -0.22178657 -0.054634124 0.2986707
000150 e3 9c ca 3d 2d 21 82 bd 1a f5 a4 be 89 40 b1 bd
       0.09893205 -0.06353984 -0.32218248 -0.08654887
000160 78 9c 3f bd 6b 31 f9 be 82 87 3a bd 03 89 b8 39
       -0.04678008 -0.48670515 -0.045539387 0.00035197297
000170 fb d1 38 bd 20 ab 3e 3e 38 fd 80 bd 20 ac 85 3e
       -0.045122128 0.18619967 -0.06298298 0.26107883
000180 17 65 19 bd 6a cc fa bc ef b5 9a be a5 98 13 3f
       -0.037449922 -0.03061505 -0.3021693 0.5765479
000190 cc fd 29 bd 4b 02 28 be 8d 74 c2 be d8 b1 f4 bd
       -0.041501805 -0.16407125 -0.37979546 -0.119479835
0001a0 01 b3 cc bd 64 80 04 3f 4a b8 93 bc 6b f6 93 be
       -0.0999508 0.5175841 -0.018032212 -0.2889894
0001b0 ad 6d b8 bd 92 94 ba 3e cd 14 82 be 34 09 12 3d
       -0.09005294 0.36441475 -0.25406495 0.035653308
0001c0 c3 28 6c bd 0a c4 d6 bc f6 22 aa be e9 f0 16 3f
       -0.05765606 -0.026216526 -0.33229798 0.5896135
0001d0 f4 eb 00 3d 46 75 54 3d 37 a4 34 bd a7 51 c8 3e
       0.031475022 0.051869653 -0.04410192 0.39124796
0001e0 92 b9 2a 3c b3 b2 02 bd c2 fe 0c bc 39 40 c5 be
       0.01042022 -0.031908702 -0.008605661 -0.3852556
0001f0 60 7b eb 3d 26 63 94 bc b4 fe af bd 3b 0c 20 bd
       0.11498141 -0.018113684 -0.08593503 -0.039074164
000200 b2 4b cb 39 e1 a2 b1 bc d2 5e 4b 3f d5 f2 4a 3c
       0.00038775575 -0.021684112 0.7944156 0.012386997
000210 ab 41 06 3e a7 16 ac bc 33 48 38 3c 2f 8e 87 bb
       0.13110988 -0.021006895 0.011247682 -0.0041368227
000220 0c a3 42 bd 18 2f 1e 3e e3 49 28 bd a0 5b 83 bd
       -0.047518775 0.15447652 -0.04108609 -0.064139605
000230 42 96 b0 bd ec e7 59 3a f7 d9 ce bc 0c d5 2f be
       -0.086224094 0.0008312452 -0.025250418 -0.17171115
000240 b7 63 c6 3e cc b3 fd 3d 58 86 8f bd c6 cb 15 3c
       0.3874795 0.12387809 -0.07008046 0.009142822
000250 72 7c ac bc c5 8b 4e bd 28 2e cf be 5c 80 1d 3d
       -0.021055434 -0.050426263 -0.40464902 0.03845249
000260 af d8 5a 3b 87 88 4d bd 69 23 89 3d b6 ed 03 bf
       0.0033393314 -0.05017903 0.06696207 -0.51534593
000270 53 ee c7 3e 3e d4 85 bd d6 0a aa bc eb 74 bf 3e
       0.39049014 -0.065346226 -0.02075712 0.3739389
000280 20 05 ff 3b 67 6b f7 bd c1 84 3b bd d7 3d ab bd
       0.0077825934 -0.12081032 -0.0457809 -0.083614044
000290 87 b6 52 3e b1 20 93 3e da ed 00 3d 2d f3 b3 3c
       0.20577441 0.2873588 0.031476833 0.021966541
0002a0 1c 71 c9 be 7d c1 8f 3e d2 0d db 3d 77 c9 91 bd
       -0.39344108 0.28077307 0.106959954 -0.071185045
0002b0 30 31 25 bd 9f 26 c1 bd 67 82 79 bd 58 81 43 bd
       -0.040330112 -0.094311945 -0.060915377 -0.047730774
0002c0 35 1e 58 bd 49 20 2a 3e 62 ab 6f bc ba ef 92 3b
       -0.052763183 0.16613878 -0.014628263 0.004484144
0002d0 3e e8 ad bd 06 7d 0a be 52 a4 03 bd a8 8f 8e 3e
       -0.08491562 -0.13524255 -0.03213913 0.27843976
0002e0 dc 96 9a bd 20 7a 50 bc 2a 76 fc bc 2c 6f d3 be
       -0.075483054 -0.012724429 -0.030818064 -0.41295755
0002f0 57 6e c7 bd 8f e0 8b 3e ad c5 2f 3c 5c fa 08 be
       -0.097378425 0.27319762 0.010728282 -0.13376755
000300 59 12 d8 3e da e0 64 bd 16 68 c7 be d2 a9 1b bd
       0.42201498 -0.055878498 -0.389466 -0.03800375
000310 87 0b 15 bd 3f 86 a0 bc 3b d3 20 bd e5 83 b4 bc
       -0.036387946 -0.019595264 -0.039263945 -0.022035548
000320 fb a2 eb be 53 df 3f bd f6 02 89 3e c4 5d 9e bb
       -0.46022782 -0.046843838 0.26760072 -0.004832955
000330 d3 86 57 bc 33 97 82 bd 06 c6 0d bd 00 56 be be
       -0.013154703 -0.06376495 -0.034612678 -0.37174988
000340 53 bd b3 be dd a7 8b bc ae e2 c2 3e a3 b4 28 3c
       -0.3510538 -0.017047817 0.38063568 0.010296973
000350 86 72 83 be 8e cb b9 be a4 9a 7e 3e 4e 5f 4f bc
       -0.25673312 -0.36288112 0.24863678 -0.012657
000360 e5 fc 81 be 0e 77 63 bd d1 7a 42 bd c8 88 3b 3e
       -0.25388256 -0.05553346 -0.047480408 0.18313897
000370 bf 58 27 3f ef 48 c0 be 84 0c 24 bd 7c 3d cd 3e
       0.6536979 -0.37555644 -0.040051 0.4008597
000380 ba a1 95 bd 7b 35 86 bc 7c 61 80 bd ac 5f ec bb
       -0.073062375 -0.016382923 -0.06268594 -0.0072135534
000390 ef 4e 83 bd bc d2 93 bc 08 48 89 bd e4 ec 0b bc
       -0.0641154 -0.018044822 -0.06703192 -0.008540366
0003a0 e9 6b e5 be 1d c1 9c 3c 71 e5 1f 3b 79 3b f6 be
       -0.4480889 0.019135052 0.0024398232 -0.4809225
0003b0 35 83 c3 bd 13 66 09 bd 10 64 0c 3c 88 fa ff 3d
       -0.0954651 -0.03354461 0.008568779 0.12498957
0003c0 c4 e6 07 bd ee 3f f8 bc ca e0 e4 bd dc d2 42 bb
       -0.03317906 -0.030303922 -0.111756876 -0.0029727733
0003d0 c2 fd 54 be 0a 90 0e bf f2 57 9d bc 43 9d ba bd
       -0.20799926 -0.55688536 -0.019206975 -0.091120265
0003e0 86 f0 95 bd 10 c9 8e bd 8b e9 14 be 73 6e f2 be
       -0.07321267 -0.069719434 -0.14542215 -0.4734989
0003f0 60 92 fd be fe 8b 67 3e e9 e0 29 3c fb f0 20 bc
       -0.49525738 0.22611997 0.010368564 -0.009823079

l3.weight f4 [6, 300]
000000 1b 3c 51 be 08 da 45 bd 6e be 4f bd 1f fc 36 bd
       -0.20433085 -0.048303634 -0.050718717 -0.044674035
000010 d0 fe 09 bd c5 14 01 bc ac 34 11 bd 6e 1b c4 bc
       -0.033690274 -0.007878487 -0.035450622 -0.02393886
000020 1d d8 38 3d 52 3e 4c 3d fb 4c 5a 3d 43 f7 0b 3e
       0.045127977 0.04986412 0.05329607 0.13668542
000030 9b 99 38 3e e1 31 4e bd 01 3f e6 3d 95 21 f9 3d
       0.18027346 -0.050340537 0.11242486 0.121646084
000040 da ac 5d 3d 17 6f 66 bb 4e 18 cd 3e 92 9a e9 3c
       0.054119922 -0.003516143 0.40057606 0.028516088
000050 81 ad 22 bd c3 47 f2 3d 61 14 1c 3e 45 ce d6 3c
       -0.039716247 0.11830094 0.15242149 0.026221404
000060 02 f6 43 bd 66 6c 47 3e 27 dc bf 3e ae 2c f9 3c
       -0.047842033 0.19474944 0.3747265 0.030416813
000070 64 59 c1 3d a7 17 23 bd 80 ff 44 bc f6 06 22 3d
       0.09440878 -0.03981748 -0.012023807 0.03955742
000080 49 06 66 bd 12 e0 d4 3e a2 04 b4 3e 6c 54 92 3e
       -0.056158338 0.41577202 0.35159785 0.28580034
000090 22 4c 2d 3d aa 11 e5 bc d1 d9 41 bd 60 e2 4f bd
       0.042308934 -0.027962524 -0.047326867 -0.050752997
0000a0 c8 ec 1a 3f 92 5c a1 bc 7b 37 85 3c 1a fb 1c 3e
       0.6051755 -0.019697461 0.016261807 0.15330163
0000b0 79 34 45 bd aa d0 11 3e 18 ae d7 bc 21 a6 ff 3d
       -0.048145745 0.14239755 -0.026328132 0.124828584
0000c0 5b a0 80 bc 1f 39 85 3c 8e 33 0e 3d 3b d6 07 3f
       -0.015701463 0.016262589 0.034717135 0.53061265
0000d0 13 c7 41 bc f0 77 93 3e 4f f2 11 3f 2f 05 46 3f
       -0.011827248 0.28802443 0.5701036 0.7735166
0000e0 01 29 c8 bb 0a 5b 8e 3e 28 2e c1 bb ce b9 86 bc
       -0.0061084037 0.27803832 -0.005895395 -0.01644602
0000f0 f8 17 dc bc dc e1 56 bc ae 67 c6 3e 2a d8 ee 3e
       -0.026866898 -0.0131153725 0.38750976 0.46649295
000100 40 30 28 bd 01 73 b0 3d 6a b5 4f 3d 43 cc 0f 3e
       -0.04106164 0.08615685 0.05071012 0.14042763
000110 8a 64 d4 3d c6 46 bb 3c c0 79 13 3d 08 1a 00 3e
       0.10370739 0.022860896 0.03600478 0.1250993
000120 cf 15 e4 bc 10 5a 18 3e 57 ce 42 3d cc 55 43 3e
       -0.02784243 0.14878106 0.047560062 0.19075698
000130 ad 6f c4 3d cd c1 76 3a c1 c5 e3 3d 90 f6 05 bd
       0.09591613 0.0009413034 0.11121703 -0.032705843
000140 63 6a 24 bb 79 71 aa 3e 36 56 13 3d 66 1f 56 3f
       -0.0025087825 0.33289698 0.03597089 0.8364166
000150 41 53 78 3e 87 28 95 3d 5d 93 40 3e 01 3d 53 bb
       0.24250509 0.072831206 0.18806215 -0.0032232406
000160 4e b0 92 3e b9 25 34 3d cd 14 f1 bc ef 97 5c 3d
       0.28650135 0.043981288 -0.029428864 0.053855833
000170 d7 98 98 bc b9 f2 1f 3e 86 0a a6 bb 85 50 05 be
       -0.018627567 0.15619935 -0.0050671725 -0.13018997
000180 1b fb c4 bc f8 33 d2 3c fc 26 ee 3d 4d 2a b0 3d
       -0.024045518 0.025659546 0.116285294 0.08601818
000190 a0 8b c6 3c 76 00 19 3f 03 3a 5c bd 2f 13 a6 3e
       0.0242365 0.5976633 -0.05376626 0.3243651
0001a0 38 0e 36 bc dd ab 5f 3e 16 42 86 3c 20 93 45 3e
       -0.011111788 0.21842904 0.016388934 0.19294405
0001b0 cd 5e 3b bc 72 16 1b 3f 35 56 31 3e 80 62 84 3e
       -0.0114361765 0.60581124 0.17318042 0.258564
0001c0 4a 75 0d 3d 7f 63 4d bb 40 86 c0 3a 7a 1a f9 3d
       0.034535684 -0.0031339822 0.0014688447 0.12163253
0001d0 ec a3 0a 3d 75 7f a8 3e 27 e0 35 bd 50 8a 2f 3e
       0.033847734 0.32909742 -0.04440322 0.17142606
0001e0 00 f0 29 3a a2 56 c5 3c 81 21 25 bd 50 5b d3 3d
       0.0006482601 0.024089161 -0.040315155 0.10320151
0001f0 57 d1 68 be e1 a3 52 bb 1b 7b 36 bc 4d 5e 32 bd
       -0.22736107 -0.0032141136 -0.011137749 -0.043546963
000200 fa 83 ea 3c d9 8a 48 bd f6 08 f0 3e 98 71 45 bd
       0.028627384 -0.04896054 0.46881837 -0.048204035
000210 dc cd cf 3e a3 36 9b 3b 21 dc 3d 3f 5c 78 1c bd
       0.40586746 0.004736738 0.74164015 -0.03820072
000220 27 16 29 3d 9c 74 5e 3f 2b ab 1a 3d a0 67 f2 bc
       0.04128089 0.8689668 0.037760895 -0.029590428
000230 a8 af de 3e 73 5e d3 bc 56 bf ae 3b 1f 5a 0e 3f
       0.4349339 -0.025801873 0.0053328676 0.55606264
000240 e4 6a 43 3e df ef 04 be 15 ab 23 bd d0 f5 45 bd
       0.19083744 -0.12982129 -0.03995808 -0.04833013
000250 bc 13 f7 3c f2 ab a3 ba 93 16 26 bd fc 5f b0 3e
       0.030160777 -0.0012487157 -0.040548872 0.3444823
000260 dc 68 cf 3d 76 e7 c1 3a 90 73 cf 3e 99 ff 15 3f
       0.10127422 0.0014793712 0.40517855 0.58593136
000270 a3 d4 36 3e 0a ec 15 bd 15 51 4a bd 46 54 70 3e
       0.17854552 -0.036602058 -0.049393732 0.23469648
000280 d1 4b 59 bb a2 c3 88 bd 3f 40 d2 3b 85 63 b1 3c
       -0.0033156762 -0.06677939 0.00641635 0.0216539
000290 cd 22 5c 3e db 5f 34 3d 24 e9 ba bc cf 29 0b bd
       0.2149765 0.044036727 -0.022816248 -0.03397542
0002a0 ce b4 e0 3d 30 05 5e 3e e9 db da 3d 91 4b 07 bd
       0.10971986 0.21681666 0.10686476 -0.03303105
0002b0 0e 45 a9 bc 45 01 e6 3b 8d d7 26 bd 47 8c 51 bd
       -0.02066281 0.0070191943 -0.04073291 -0.05115917
0002c0 12 25 cd 3d f1 b5 2b 3e 14 eb 08 bc bf 01 1f bd
       0.10016836 0.16768624 -0.008356828 -0.038820025
0002d0 23 9b 21 3d 7f e9 86 3b 42 8c dd 3c d1 20 d9 3e
       0.03945459 0.0041171904 0.02704442 0.4240785
0002e0 a9 37 45 3b cb 22 68 bc ee 56 b7 3d dd 3a 48 3c
       0.003009299 -0.014168452 0.089521274 0.012221065
0002f0 ac a0 9a 3e 79 30 32 3e 7c f9 8b bd 71 3f fe 3c
       0.30200708 0.17401303 -0.06834695 0.03103611
000300 b1 e2 40 3e ae f5 07 3d e7 f2 0a 3c 98 d8 7c 3d
       0.18836476 0.033193283 0.008480764 0.061729997
000310 f0 d5 64 3d d2 65 61 3d fa 28 cb bc 1b d8 e7 3c
       0.05586809 0.055028744 -0.024799813 0.02830129
000320 3f 33 9d bc a3 de cc 3c 67 6d 65 be e0 7d 69 3c
       -0.019189475 0.025008505 -0.22405015 0.014251202
000330 d5 e1 3d bd ba 94 52 bd b8 f4 ab bc 43 d4 09 3e
       -0.04635795 -0.051411368 -0.020990714 0.13459878
000340 32 38 85 3f 06 c2 1a bb 9e 79 16 3e 27 20 27 3e
       1.0407774 -0.0023614182 0.14694831 0.16320859
000350 9a 2a 50 be a0 92 dc 3e e7 eb 48 3e 81 dd a1 bc
       -0.20328751 0.43080616 0.1962124 -0.019758942
000360 84 85 40 3e dd 87 dc bc 3b db 90 ba ad 4a 29 3f
       0.18800932 -0.026920253 -0.0011051664 0.6612957
000370 af 90 ea 3d 65 c7 fe 3d 6f 0f c1 bc ed 46 5f 3f
       0.114533775 0.12440375 -0.02356693 0.872176
000380 28 ac 04 bc e4 20 6f bc 40 84 8e 3b ec 4e d3 bc
       -0.008097686 -0.014595244 0.0043492615 -0.025794469
000390 8e 36 46 bd 23 11 8d 3b 20 f2 25 3b 96 ea 58 bd
       -0.04839187 0.0043050214 0.002532132 -0.052958094
0003a0 b4 e1 7f bd 4e 86 64 3e f8 b1 34 bc e7 cd 65 3e
       -0.062471107 0.22316858 -0.011028759 0.22441827
0003b0 07 92 14 3f d4 f0 a6 3c 40 b8 a5 3e 46 78 3f 3f
       0.5803532 0.020378508 0.32367134 0.747929
0003c0 1d df 09 bd fd c6 d2 3c 97 b1 45 bc 46 77 44 bd
       -0.033660043 0.02572965 -0.0120662665 -0.04796531
0003d0 5a 51 3a 3f 5e 97 e7 3e 39 94 4d 3d 90 a1 9f 3d
       0.7278038 0.45232671 0.050190184 0.077944875
0003e0 a0 43 d1 bc 7d 64 1c 3e 5b 7d b4 3d 92 aa 22 bc
       -0.025544941 0.15272708 0.08812972 -0.009928362
0003f0 8b 26 87 3d c8 d6 13 bd db 2b 9e 3a 9d 97 ec bc
       0.06599148 -0.036093503 0.0012067513 -0.028880889

l3.bias f4 [6]
000000 c9 ee 31 3f 6c 64 9e 3e 25 ed 1e be fb f2 71 3d
       0.6950498 0.3093599 -0.15520151 0.059069615
000010 29 80 ef bd 79 57 34 bd
       -0.116943665 -0.044028733
