results/runs/single_assembly_rerun_nochange/Average_TD3_5_Peg-in-hole-single_assembly_seed_2/82000_actor.pth (torch_old, 510312 bytes, 6 tensors)

l1.weight f4 [400, 12]
0	0x3dd4ab2d	0.10384212
1	0x3f8a94fe	1.0826719
2	0x3e573b77	0.21018778
3	0xbdf3d8a3	-0.119065545
4	0x3d67458f	0.05646282
5	0xbea1fa68	-0.31636357
6	0xbd50aaed	-0.050944258
7	0xbece4bf2	-0.40292317
8	0x3db57a8f	0.08861267
9	0xbea00d80	-0.312603
10	0x3e1ed4b7	0.15510832
11	0xbe89cd80	-0.26914597
12	0xbed69e29	-0.41917542
13	0x3f0764be	0.52888095
14	0xbcb5659a	-0.022143174
15	0x3ec8d90b	0.3922809
16	0x3ed3fc5b	0.4140347
17	0xbde9913b	-0.11404654
18	0xbf01b9ca	-0.50674117
19	0x3f3752eb	0.716109
20	0xbe26a80c	-0.16275042
21	0x3ec5fe54	0.386706
22	0x3e728c8e	0.2368643
23	0x3f0fe1e3	0.5620405
24	0xbf002e19	-0.5007034
25	0xbf16c343	-0.58891696
26	0xbd5f5028	-0.054519802
27	0xbf8d3f29	-1.10349
28	0x3faf6a4a	1.3704312
29	0xc003772e	-2.0541492
30	0xbd147876	-0.036247693
31	0xbe7d3988	-0.24728978
32	0xbc5396e5	-0.012914394
33	0x3e2d1eaa	0.16906229
34	0xbee7c44c	-0.4526695
35	0xbf3ac92c	-0.72963214
36	0x3f14773c	0.5799444
37	0xbeeba634	-0.4602524
38	0xbcc6db21	-0.02427441
39	0xc023d6e8	-2.5599918
40	0x406f4e49	3.7391531
41	0xc08ce4e7	-4.402942
42	0x3e80d249	0.25160435
43	0x3eb41954	0.35175574
44	0xbe522a6f	-0.20524
45	0x3ee7f476	0.45303696
46	0xbeb4f62e	-0.3534407
47	0xbe5d3a4f	-0.21604274
48	0x3cfa72c0	0.030572295
49	0x3cb494c0	0.022043586
50	0x3e1dbbb6	0.15403637
51	0x3e469212	0.19391659
52	0x3e544946	0.20731077
53	0x3e2b5556	0.16731772
54	0xbd90244c	-0.07038173
55	0xbc528da0	-0.012851149
56	0xbd704af8	-0.058665246
57	0x3e2bf63e	0.16793153
58	0x3d035110	0.03205973
59	0x3e88cbc0	0.2671795
60	0x3dd8a86f	0.10579001
61	0xbe659b16	-0.22422442
62	0x3e0c1798	0.13680875
63	0x3e8eb80a	0.27874786
64	0x3e834bcb	0.25643763
65	0x3a0c8efa	0.00053618813
66	0x3d615fed	0.055023123
67	0xbe61b3b6	-0.2204121
68	0xbe10f3ee	-0.14155552
69	0x3e2a1685	0.16610153
70	0xbe81e217	-0.25367805
71	0x3e8661a0	0.26246357
72	0xbf3b5ed3	-0.73191565
73	0x3e68adcd	0.2272255
74	0x3ef8f828	0.48626828
75	0x3f11cae3	0.56950206
76	0xbe62cc0c	-0.2214815
77	0x3f1868bd	0.5953482
78	0x3e470d38	0.19438636
79	0x3d169c18	0.036769956
80	0x3e283fb4	0.16430551
81	0x3dd7397a	0.1050901
82	0xbf3c46e1	-0.7354565
83	0xbe756619	-0.23964728
84	0x3f473425	0.7781394
85	0xbd6bd13b	-0.057572585
86	0x3ea884fd	0.32913962
87	0xbe1a5468	-0.15071261
88	0xbf0972bc	-0.53690696
89	0xbefa4da4	-0.4888736
90	0x3e0e6a79	0.13907804
91	0xbf0c8742	-0.5489389
92	0x3e2cd66d	0.16878672
93	0xbe83f606	-0.25773638
94	0xbd8829cc	-0.06648597
95	0xbeffdaf4	-0.49971735
96	0xbde71907	-0.112840705
97	0xbe62f03c	-0.22161955
98	0xbddfe897	-0.10933035
99	0xc009246d	-2.1428483
100	0x3ff16a91	1.8860646
101	0xc03faefa	-2.9950547
102	0xbe356501	-0.17714311
103	0x3e3bf877	0.183565
104	0xbcf5e7a2	-0.030017678
105	0x3e0a1e19	0.13488044
106	0xbe90561c	-0.28190696
107	0xbe81a602	-0.25321966
108	0xbee92dd2	-0.4554277
109	0x3e086577	0.13319956
110	0x3e659c30	0.22422862
111	0xbe50f2d5	-0.20405133
112	0xbd57669a	-0.052588083
113	0x3db0c7b7	0.086318426
114	0xbe925735	-0.2858216
115	0x3c857046	0.016288888
116	0xbd233ca5	-0.039852757
117	0x3eeaddff	0.45872495
118	0x3c888c21	0.016668381
119	0xbc690e57	-0.01422461
120	0x3cbcdf99	0.023055838
121	0x3f7a72c7	0.97831386
122	0x3d15d61e	0.03658115
123	0xbf098ab3	-0.53727263
124	0x3bcfe44b	0.0063443533
125	0x3ef55a64	0.47920525
126	0xbee1e588	-0.4412043
127	0x3d8c56ab	0.06852468
128	0xbe97f15d	-0.29676333
129	0xbeca04a8	-0.39456677
130	0x3d95a8c5	0.07307581
131	0x3ec6594b	0.3874
132	0xbe17f339	-0.14838876
133	0xbe6772cc	-0.22602385
134	0x3e12fb98	0.14353788
135	0x3e0d0390	0.1377089
136	0x3dd8d23e	0.105869755
137	0xbe6bdeea	-0.23034254
138	0x3e906caf	0.2820792
139	0xbcddaa9d	-0.027058894
140	0xbe7b4a4e	-0.24540064
141	0xbd330a84	-0.0437112
142	0x3e409f64	0.18810803
143	0x3e08224a	0.1329433
144	0xbda57c72	-0.08080377
145	0x3fa9e459	1.3272811
146	0xbd155194	-0.036454752
147	0xbfbc8f97	-1.473132
148	0x3f8c12b5	1.0943209
149	0xbf47eef4	-0.7809899
150	0xbd451e16	-0.048124395
151	0xbf0c4431	-0.5479155
152	0xbdd0b447	-0.10190635
153	0xbf1eb1ef	-0.61990255
154	0x3e02237e	0.12708852
155	0xbf464386	-0.7744678
156	0xbe369f32	-0.17834166
157	0xbcd2625f	-0.025681673
158	0x3ea3fe27	0.3202984
159	0x3dd5fa53	0.10448136
160	0xbe474989	-0.19461645
161	0x3e4ec726	0.20193157
162	0x3d97f020	0.07418847
163	0xbe6a51a8	-0.22882712
164	0xbd2212a1	-0.039568547
165	0x3e5a15d3	0.21297388
166	0xbe47081c	-0.19436687
167	0xbbb33d42	-0.005469949
168	0xbf085678	-0.5325694
169	0xbf182227	-0.5942711
170	0x3e451951	0.19247939
171	0x3ce379ba	0.027768005
172	0x3f1a20fd	0.60206586
173	0xbf03b336	-0.5144533
174	0xbefad42f	-0.48990008
175	0xbeba9237	-0.36439678
176	0xbea8d0de	-0.32971853
177	0xbf119124	-0.5686209
178	0x3eae19b9	0.34004
179	0x3e2d3506	0.16914758
180	0xbf1096a0	-0.56479836
181	0xbf9f1c92	-1.2430594
182	0xbc1d1f85	-0.009590034
183	0x3fa8b3d3	1.3179878
184	0x3ebef5c6	0.37296885
185	0xbf2374b6	-0.6384996
186	0xbe7d4546	-0.24733457
187	0x3e3db32a	0.18525377
188	0x3cd7a5f9	0.02632426
189	0x3e55eb96	0.2089065
190	0x3dfd9247	0.12381416
191	0xbf87719f	-1.058155
192	0xbc3d68f2	-0.011560665
193	0x3f6c0fce	0.92211616
194	0xb92cd420	-0.00016482221
195	0x400cc53b	2.199538
196	0xc03a4b70	-2.9108543
197	0x4065d952	3.5913892
198	0xbecee6be	-0.40410417
199	0x3f43e1d6	0.76516473
200	0xbe82fa9f	-0.25581834
201	0x3e8d8f7f	0.2764854
202	0x3f1f4dad	0.622279
203	0x3e4e416c	0.20142144
204	0xbe35c8a2	-0.17752317
205	0x3eaf428b	0.34230456
206	0xbc160aaa	-0.009157816
207	0xbf6fe8ac	-0.93714404
208	0x3e5fc379	0.2185191
209	0xbed15555	-0.40885416
210	0xbeb03784	-0.34417355
211	0xbe7a1ee0	-0.2442584
212	0xbcadf299	-0.021233844
213	0xbf14c3bb	-0.5811116
214	0xbe66648d	-0.22499295
215	0x3e4a1a9e	0.19736716
216	0x3db17b47	0.086660914
217	0xbdcd3623	-0.100200914
218	0x3c857ba7	0.016294314
219	0x403b5e55	2.9276326
220	0xc04530a9	-3.081095
221	0x4006b50d	2.1048005
222	0x3ef1764b	0.47160563
223	0x3e80291e	0.2503137
224	0x3e091c97	0.13389812
225	0x3c2d58fc	0.010580298
226	0x3d5ae187	0.053437736
227	0x3f91a919	1.137973
228	0x3f4f1717	0.8089461
229	0x3da26d6d	0.079310276
230	0x3d54a1dc	0.051912174
231	0xbcc4da83	-0.024029976
232	0x3f3ff16e	0.7497777
233	0x3ecdbd64	0.40183556
234	0xbf074122	-0.5283376
235	0x3df81e8f	0.121152036
236	0xbf1d4fea	-0.61450064
237	0x3e0a9183	0.13532071
238	0x3dd0a9fa	0.101886705
239	0x3d5e451f	0.054265138
240	0xbffbc436	-1.9669254
241	0x3f528eef	0.8224935
242	0xbdef4ada	-0.11684199
243	0xbdc6123f	-0.09671449
244	0xbf2a377e	-0.66490924
245	0x3fdace44	1.7094197
246	0xbd993637	-0.07481044
247	0x3e988f4c	0.29796827
248	0xbc36dc57	-0.011160932
249	0xbcf2a92e	-0.029621687
250	0x3d366612	0.044530936
251	0xbe8724dc	-0.2639531
252	0xbfa29470	-1.270155
253	0xbebff5d6	-0.37492245
254	0xbd7004c1	-0.058598284
255	0x3eacbff7	0.33740208

l1.bias f4 [400]
0	0x3edd262c	0.43193185
1	0xbf13740f	-0.57598966
2	0xbfabc16e	-1.3418405
3	0xbfa40fe6	-1.2817352
4	0xbc4d08c0	-0.012514293
5	0xbda7d009	-0.081939764
6	0xbeea16be	-0.45720476
7	0x3e8d38fb	0.27582535
8	0xbfd37db8	-1.6522741
9	0x3e26eb8d	0.16300793
10	0xbeacd77f	-0.3375816
11	0x3e24614b	0.1605274
12	0xbf1750a1	-0.59107405
13	0x3c538558	0.01291021
14	0xbf637e2d	-0.88864404
15	0xbe0ea051	-0.13928343
16	0x3f41ebda	0.75750506
17	0xbf6b68bc	-0.91956687
18	0x3f4cd506	0.8001255
19	0x3f1ee592	0.62069046
20	0xbd00f1ed	-0.03148072
21	0x3f36a6c4	0.71348214
22	0xbf5ce674	-0.86289144
23	0xbf2b6aca	-0.6695982
24	0x3e90a41f	0.28250214
25	0x3e29cef3	0.16582851
26	0xbf03fac8	-0.51554537
27	0xbd88aa77	-0.066731386
28	0xbf072d6d	-0.5280369
29	0xbf75e2d6	-0.9604925
30	0x3c7ce29c	0.015434887
31	0xbeac81ea	-0.33692867
32	0xbe3c9d0e	-0.18419287
33	0x3e63a894	0.22232276
34	0xbfb720fe	-1.4306943
35	0x3de4d54c	0.11173496
36	0xbf531190	-0.82448673
37	0xbde612ec	-0.11234078
38	0xbff00326	-1.8750961
39	0x3e575e17	0.21031986
40	0xbec28743	-0.37993822
41	0xbfedeeef	-1.8588542
42	0x3e3e2425	0.18568476
43	0x3d321658	0.04347834
44	0xbf708d9e	-0.9396609
45	0xbec2d8bd	-0.38055983
46	0xbfcca22f	-1.5986995
47	0xbf46c590	-0.77645206
48	0xbf5051ee	-0.81375015
49	0x3f3c0cba	0.7345692
50	0x3ee4c110	0.44678545
51	0x3f22972d	0.63511926
52	0xbf680429	-0.9063135
53	0x3f5d8ac4	0.86539865
54	0x3e3bd635	0.18343432
55	0xc0013272	-2.018704
56	0xbf0383c7	-0.5137295
57	0xbe45e3a4	-0.1932512
58	0x3ec0a351	0.376246
59	0x3fac3749	1.3454372
60	0xbefc43bf	-0.49270436
61	0xbfb3175d	-1.3991505
62	0x3f543847	0.8289837
63	0xbf275127	-0.65358204
64	0x3f6f30ba	0.93433726
65	0x3e6fc1c8	0.23413765
66	0xbe18ab17	-0.14909016
67	0x3caf36c3	0.021388417
68	0xbe0f9cbb	-0.14024632
69	0x3fa99d3c	1.3251109
70	0xbea157b3	-0.31512222
71	0x3e39d6c7	0.18148337
72	0xbe7f1b03	-0.24912648
73	0x3f9a1ffb	1.204101
74	0xbda6a61c	-0.081371516
75	0xbef3971a	-0.4757622
76	0xbe817fae	-0.25292724
77	0xbf66ee70	-0.90207577
78	0x3ea86b6c	0.32894456
79	0xbf83d44d	-1.0299164
80	0x3d5d9388	0.054095775
81	0xbe73c030	-0.23803782
82	0xbf4f04d1	-0.80866724
83	0xbebd1383	-0.3692895
84	0x3e176c69	0.14787449
85	0xbec43ea6	-0.38329047
86	0xbe251d47	-0.1612445
87	0x3f4415f4	0.76596
88	0x3e5b25e8	0.21401179
89	0xbe9b177e	-0.3029136
90	0xbe2b0150	-0.1669972
91	0x3dd10aac	0.102071136
92	0x3efda184	0.4953729
93	0xbf3eaf93	-0.74486655
94	0xbe277beb	-0.16355865
95	0x3f334e7e	0.70041645
96	0xbf682419	-0.9068008
97	0xbfa5098b	-1.2893537
98	0xbfce37ba	-1.6110756
99	0xbe6f7874	-0.23385793
100	0xbec821f2	-0.39088398
101	0x3f1cd9b3	0.6126968
102	0x3f7ec077	0.9951243
103	0xbe0ab731	-0.13546444
104	0xbe842adf	-0.25813958
105	0xbebe37f1	-0.37152055
106	0xbf01e202	-0.50735486
107	0xbfc11492	-1.5084403
108	0x3e4f87d8	0.20266664
109	0x3f8c65b7	1.0968541
110	0x3f811ca2	1.0086863
111	0xbe9d9f59	-0.30785635
112	0xbe5f1f2d	-0.21789236
113	0xbf4930ab	-0.78589886
114	0xbfedd491	-1.8580495
115	0xbe8a5497	-0.27017662
116	0x3e5d592c	0.21616048
117	0x3f00f86b	0.50379056
118	0x3d5bdff8	0.05368039
119	0x3e8346f6	0.25640076
120	0xbf3e9184	-0.7444079
121	0xbe8404b7	-0.25784847
122	0x3f11f779	0.5701824
123	0x3f0d71fe	0.55252063
124	0x3db2cd3c	0.087305516
125	0x3f67bcfa	0.9052273
126	0x3c81d6ff	0.015849588
127	0x3f357715	0.7088483
128	0xbe42c483	-0.19020276
129	0xbfb6ca71	-1.428053
130	0xbf1e6d35	-0.61885387
131	0x3d9abd1b	0.075556
132	0xbed57eba	-0.41698247
133	0xbfe7ec17	-1.8118924
134	0x3f098f07	0.5373387
135	0x3e258be6	0.16166648
136	0x3d5dc737	0.054145064
137	0xbf638917	-0.8888106
138	0xbf192007	-0.59814495
139	0x3e01124a	0.12604633
140	0xbde106b8	-0.109876096
141	0xbf91f410	-1.1402607
142	0xbe44e390	-0.19227433
143	0x3ecf6d8b	0.40513262
144	0xbffaa2ea	-1.9580967
145	0x3f6ba8eb	0.92054623
146	0xbf47522e	-0.7785977
147	0xbeb8197d	-0.35956946
148	0xbe85ef54	-0.26159155
149	0x3f1ea728	0.6197381
150	0x3f2a39ab	0.66494244
151	0x3ab73076	0.0013976234
152	0x3f67f1b7	0.906032
153	0xbecde2a3	-0.40211973
154	0xbd8a5e48	-0.06756264
155	0x3ec2d11e	0.3805017
156	0xbeb47620	-0.35246372
157	0xbedb3170	-0.42811155
158	0xbf2f9b74	-0.6859658
159	0x3e98a47d	0.29812995
160	0x3e42c06e	0.19018719
161	0x3ec5599e	0.38544935
162	0x3f9be129	1.2178088
163	0x3ead0fc7	0.338011
164	0xbf0812cc	-0.5315368
165	0xbf989d52	-1.192301
166	0x3ea810a4	0.32825196
167	0xbf53177a	-0.824577
168	0xbe4986ef	-0.1968038
169	0x3f2b9eb6	0.6703905
170	0xbdf13fd8	-0.11779755
171	0x3e7d164d	0.24715538
172	0x3ef7baaa	0.483846
173	0x3cb6f921	0.02233559
174	0xbf2e866b	-0.68173856
175	0x3e7bd06a	0.24591222
176	0xbf2845ac	-0.6573131
177	0x3db8380c	0.08995065
178	0xbf05cc3e	-0.52264774
179	0x3f14c4bf	0.5811271
180	0x3eb61851	0.35565427
181	0x3e8b4315	0.27199617
182	0x3e7e43d7	0.24830566
183	0xbf6c29e7	-0.9225144
184	0xbf648acd	-0.89274293
185	0xbfcb1d4b	-1.5868315
186	0x3f61dfb9	0.88232
187	0xbeb5bafe	-0.35494226
188	0xbd93b531	-0.07212294
189	0x3facfb93	1.3514274
190	0xbf04d1d4	-0.5188267
191	0xbe5cda42	-0.21567634
192	0xbe2c592e	-0.16830894
193	0x3d8293b3	0.06375828
194	0x3ed5efa6	0.417844
195	0xbfe683c8	-1.8008966
196	0xbe9d61a4	-0.30738556
197	0xbe540d34	-0.20708162
198	0x3f5e14e1	0.8675061
199	0xbf6e47e8	-0.9307847
200	0xbff14419	-1.8848907
201	0xbf43870e	-0.7637795
202	0x3c814c05	0.01578332
203	0x3aba0e89	0.0014195006
204	0xbe5f73f9	-0.21821584
205	0x3ed7c802	0.4214478
206	0xbe494138	-0.19653785
207	0xbc1ccc71	-0.009570227
208	0x3f892791	1.07152
209	0x3da97258	0.082737625
210	0x3e63b612	0.22237423
211	0xbf3742c1	-0.71586233
212	0x3cf002bc	0.029298179
213	0x3f3b3a61	0.73135954
214	0x3d331ab1	0.043726627
215	0xbe2f3272	-0.17109087
216	0x3faa6c19	1.3314239
217	0xbe7b2f09	-0.24529661
218	0xbeb8dd54	-0.3610636
219	0xbec12358	-0.37722278
220	0xbf71d0b2	-0.9445907
221	0xbea0d951	-0.314158
222	0x3f96d762	1.178448
223	0x3f689682	0.90854657
224	0x3f102f3a	0.5632206
225	0x3f77e16b	0.96828336
226	0xbf91e6cd	-1.139856
227	0xbf0a1fd2	-0.53954804
228	0x3ea6a5d0	0.3254838
229	0xbe3ee651	-0.18642546
230	0xbf0c925a	-0.54910815
231	0x3e6d36d5	0.23165448
232	0xbf7ce41a	-0.98785555
233	0xbfa12bdb	-1.2591509
234	0x3e13b087	0.14422809
235	0xbbf22040	-0.0073890984
236	0xbdbcd016	-0.09219377
237	0xbf7de3e7	-0.99175876
238	0xbe5cd9b8	-0.21567428
239	0xbeb88d27	-0.3604519
240	0x3f43a298	0.76419973
241	0xbefbda33	-0.4918991
242	0xbdab4ea1	-0.08364607
243	0xbea083cf	-0.31350562
244	0xbe463ede	-0.1935992
245	0xbe88213e	-0.26587862
246	0xbdb57555	-0.0886027
247	0x3f3ef7af	0.74596685
248	0xbfa92bd6	-1.3216503
249	0x3eb53ca4	0.35397828
250	0xbe1fb249	-0.15595354
251	0xbe067892	-0.13131931
252	0xbe9f4e77	-0.3111455
253	0x3e9a614e	0.30152363
254	0xbef7995e	-0.48359197
255	0xbdec6db9	-0.115443654

l2.weight f4 [300, 400]
0	0x3eb90bf7	0.3614194
1	0xbec8da75	-0.3922917
2	0xbc9d5c0f	-0.019208936
3	0xbb27d571	-0.0025609399
4	0xbcad68d0	-0.021168143
5	0xbd3cd662	-0.04610289
6	0x3e949d8c	0.2902645
7	0x3e3d743b	0.1850137
8	0xbe7d8f47	-0.24761687
9	0x3cbb7b3c	0.022885911
10	0xbea15566	-0.31510466
11	0x3a1d9600	0.00060114264
12	0xbea3e0a6	-0.3200733
13	0x3ba5d640	0.005060941
14	0xbda742ae	-0.08167015
15	0x3cd2febd	0.025756234
16	0xbed40cde	-0.41416067
17	0x3d3fbda1	0.046811704
18	0xbd9d4100	-0.076784134
19	0x3e3084dd	0.17238183
20	0xbefea922	-0.49738413
21	0xbf3b2232	-0.7309905
22	0xbe61669f	-0.22011803
23	0x3e8262e5	0.25466076
24	0xbd789cc3	-0.060696375
25	0x3e8404de	0.25784963
26	0xbdade3bc	-0.084907025
27	0xbdc24e05	-0.09487537
28	0x3dc099ee	0.0940436
29	0xbea91dc8	-0.33030534
30	0xbe1337f0	-0.14376807
31	0xbda204d8	-0.0791108
32	0x3ce3ee1e	0.027823504
33	0x3d2c310d	0.042038966
34	0xbef2aa85	-0.4739572
35	0xbbf805b0	-0.0075690374
36	0x3e8f61d9	0.2800434
37	0x3c26d354	0.0101822205
38	0xbd770366	-0.060305975
39	0xbe7a6fee	-0.2445676
40	0xbe81a499	-0.2532089
41	0xbdc97b3c	-0.09837958
42	0xbcd5f68f	-0.026118545
43	0xbcb84a97	-0.022496505
44	0x3dcbbf83	0.09948637
45	0xbf07f138	-0.53102446
46	0xbe85aa2a	-0.26106387
47	0x3e41918b	0.18903176
48	0x3df4b917	0.119493656
49	0x3e812e74	0.25230753
50	0x3d91ec17	0.07125109
51	0xbeda4201	-0.42628482
52	0xbef8e82d	-0.48614636
53	0xbdbb863b	-0.09156462
54	0xbc91d014	-0.017799415
55	0x3bd34a52	0.0064480687
56	0x3e115722	0.14193395
57	0x3eea8bc6	0.45809764
58	0xbcfae671	-0.030627461
59	0xbee934c5	-0.45548072
60	0xbeacd5a7	-0.33756754
61	0xbcce0998	-0.025151059
62	0xbe11868e	-0.14211485
63	0xbedfc779	-0.43706873
64	0xbddf57f0	-0.109054446
65	0x3e3f1436	0.18660054
66	0xbbc5f1d0	-0.006040789
67	0xbc2d1a20	-0.010565311
68	0x3dbf8ebc	0.09353396
69	0xbe985655	-0.29753366
70	0xbcaa2498	-0.020769402
71	0xbf0e02ae	-0.5547284
72	0xbc4b33b8	-0.012402467
73	0xbeab68ba	-0.33478338
74	0xbecb5f06	-0.39720935
75	0x3e82edee	0.2557215
76	0x3ea8d9f1	0.32978776
77	0xbea8d3bc	-0.3297404
78	0xbea02f64	-0.31286156
79	0x3ce28b56	0.027654331
80	0xbe974c5b	-0.29550442
81	0xbd1654c2	-0.036701925
82	0xbe49d700	-0.19710922
83	0x3f25ca0a	0.6476141
84	0xbde31ca6	-0.11089449
85	0xbe47562b	-0.19466464
86	0xbeb2959b	-0.34879765
87	0xbe30c4ca	-0.17262569
88	0x3bd34358	0.006447237
89	0xbe332777	-0.17495523
90	0x3e943dc2	0.28953367
91	0x3c9e1ea2	0.019301716
92	0x3dfa69ac	0.122271866
93	0xbcaed8e5	-0.021343658
94	0xbc43ac93	-0.011943
95	0xbe7852bd	-0.24250312
96	0xbf10b99a	-0.56533206
97	0xbc6ee77b	-0.014581556
98	0xbccf0fb9	-0.025276052
99	0xbe277735	-0.16354068
100	0xbd175dd9	-0.036954734
101	0xbea68474	-0.3252293
102	0x3f2633f5	0.6492303
103	0xbe80248f	-0.25027892
104	0x3ea8ab06	0.3294298
105	0x3e70f8c1	0.23532392
106	0x3edf3c53	0.4360071
107	0x3dee4dcf	0.116359346
108	0x3d362140	0.044465303
109	0x3d1caca1	0.03825057
110	0xbe0ff05c	-0.14056534
111	0x3d772673	0.060339402
112	0x3e1b4990	0.1516478
113	0x3c65f232	0.014034795
114	0xbc933624	-0.017970152
115	0xbcad127a	-0.021126974
116	0x3cd34246	0.025788438
117	0x3e02122e	0.12702248
118	0x3e725174	0.23663884
119	0xbbd4a9b0	-0.006489955
120	0x3eaba512	0.33524376
121	0x3cb1b622	0.021693293
122	0xbea22630	-0.3166976
123	0x3f00a6c2	0.5025445
124	0x3d15c795	0.03656729
125	0x3ec5d437	0.3863847
126	0xbedee1bf	-0.43531606
127	0xbe8d602d	-0.2761244
128	0x3eed6bdd	0.46371356
129	0x3e0afd26	0.13573131
130	0xbef1f3cd	-0.47256318
131	0xbdb4f470	-0.08835685
132	0xbeff5058	-0.49865985
133	0xbdda23d7	-0.10651367
134	0x3f106bf7	0.5641474
135	0xbc5b040c	-0.013367664
136	0xbe58cebd	-0.21172614
137	0xbd29cab0	-0.041453063
138	0x3e0de2a1	0.13855983
139	0x3cb6d9de	0.022320684
140	0x3ece09e1	0.40241912
141	0xbd42aa6e	-0.047525816
142	0x3be5c9f0	0.007012598
143	0xbeff8cc9	-0.49912098
144	0xbc554c68	-0.013018705
145	0xbe0bf5a7	-0.13667928
146	0x3dfab2b8	0.12241119
147	0xbef30a5e	-0.47468847
148	0xbe487199	-0.19574584
149	0xbd550291	-0.0520044
150	0x3c42b5a7	0.01188413
151	0xbeb4ef5c	-0.35338867
152	0xbdc226b1	-0.09480036
153	0x3e5e6b5b	0.2172064
154	0xba966300	-0.0011473596
155	0xbe011d26	-0.12608775
156	0xbd8886e2	-0.06666352
157	0x3e9a3876	0.301212
158	0x3e075657	0.1321653
159	0x3ec515ea	0.38493282
160	0xbec77103	-0.3895341
161	0xbed6daea	-0.41963893
162	0xbf019c9c	-0.5062959
163	0x3e4d615e	0.20056674
164	0xbdb637e5	-0.0889738
165	0x3c412e78	0.011790864
166	0xbe052b89	-0.13004889
167	0xbc9afe5e	-0.01892012
168	0x3ed6380b	0.41839632
169	0xbee0db29	-0.43917206
170	0x3c1670c6	0.009182161
171	0xbd0f76a3	-0.03502525
172	0xbd636c23	-0.05552305
173	0x3d35b7dd	0.0443648
174	0x3ddb0d80	0.10695934
175	0xbeecd922	-0.4625941
176	0xbe8c5032	-0.27404934
177	0xbb900030	-0.0043945536
178	0xbf037b06	-0.51359594
179	0xbd1af04b	-0.037826817
180	0xbf129afb	-0.5726773
181	0x3dff428f	0.12463867
182	0x3e445e5c	0.1917662
183	0xbf298a0c	-0.6622627
184	0xbe1b4bad	-0.15165587
185	0x3d905d25	0.07049016
186	0xbf162491	-0.58649546
187	0xbf0d60c8	-0.552258
188	0x3ddf9339	0.10916752
189	0xbeca18fb	-0.39472184
190	0xbdb1aae2	-0.086751714
191	0xbd0c897d	-0.034310807
192	0xbce5f35a	-0.02807014
193	0xbc98f9d8	-0.018673822
194	0xbecd2530	-0.40067434
195	0xbe8955a4	-0.2682315
196	0x3e68522b	0.22687595
197	0xbcb4367d	-0.021998638
198	0xbf1b513b	-0.6067082
199	0xbe8a0c21	-0.2696238
200	0xbe973cb5	-0.29538503
201	0x3ebe1eeb	0.37132964
202	0x3ccf1692	0.025279317
203	0x3e306518	0.17226064
204	0x3ced5ad8	0.028973982
205	0x3e0bd14f	0.13654064
206	0x3d06c879	0.03290603
207	0x3e672140	0.22571278
208	0xbef5a876	-0.47980088
209	0xbd2a0132	-0.041505046
210	0xbdfaa8bc	-0.12239215
211	0xbe160a2f	-0.14652322
212	0xbef8a80b	-0.48565707
213	0xbc6a73b6	-0.014309814
214	0xbebe80f1	-0.3720775
215	0xbe7a6c92	-0.24455479
216	0xbea862c6	-0.32887858
217	0x3c95ce32	0.018286798
218	0x3c8827b6	0.016620498
219	0x3bcd84a8	0.0062719174
220	0xbe7498f6	-0.23886475
221	0xbba96123	-0.0051690503
222	0xbe44ae4f	-0.19207118
223	0xbebc568a	-0.36784774
224	0xbf10566d	-0.56381875
225	0xbe89d035	-0.26916662
226	0xbe95fa5d	-0.29292575
227	0xbe869192	-0.26282936
228	0x3e76a339	0.24085702
229	0xbe9563ec	-0.29177797
230	0xbf030711	-0.5118266
231	0xbd086d7c	-0.033307537
232	0x3e41f373	0.18940525
233	0x3d05a850	0.03263122
234	0x3e0f2e2f	0.13982461
235	0x3d272999	0.040811155
236	0xbcd23aca	-0.025662798
237	0x3d856d86	0.065150306
238	0x3e100b17	0.1406673
239	0xbef186a3	-0.47173032
240	0xbed976a4	-0.42473328
241	0x3effa521	0.4993067
242	0xbc973ed4	-0.018462576
243	0xbe9bee9c	-0.30455482
244	0x3d0d8231	0.03454799
245	0x3d0e3227	0.034715798
246	0xbd1e128e	-0.038591914
247	0x3e649396	0.22321925
248	0xbca64ce3	-0.020300334
249	0x3e9fe458	0.312289
250	0x3cdb63ee	0.026781049
251	0x3b7d0980	0.0038610399
252	0x3dfca51b	0.12336179
253	0x3ea1463b	0.31498894
254	0x3e6fb05f	0.23407124
255	0x3d27348e	0.040821604

l2.bias f4 [300]
0	0xbf1b2c22	-0.60614216
1	0xbd6ff3f8	-0.058582276
2	0xbdb2fc39	-0.08739514
3	0x3b84dd8c	0.0040547308
4	0xbd4af24c	-0.04954748
5	0x3c1ac650	0.009446695
6	0xbd3b68da	-0.04575429
7	0xbe9399c9	-0.28828266
8	0xbe7d8f35	-0.2476166
9	0xbd642065	-0.055694956
10	0xbdd896c2	-0.1057563
11	0xbc4e099f	-0.012575536
12	0xbe1e0111	-0.15430094
13	0x3d3c7df6	0.046018563
14	0xbea3af4b	-0.31969675
15	0xbd17b495	-0.03703745
16	0x3d0e4600	0.034734726
17	0x3cafa5f4	0.021441437
18	0xbe6f9227	-0.23395596
19	0x3e989d7f	0.2980766
20	0x3bb42b35	0.0054983147
21	0xbf2430ba	-0.6413685
22	0xbc7b74b8	-0.015347652
23	0x3e95f25d	0.2928647
24	0xbedd4d82	-0.43223196
25	0xbee3e95e	-0.44513983
26	0xbf144b05	-0.5792697
27	0x3e034fc2	0.12823394
28	0x3f17e83f	0.59338754
29	0xbd95ef4c	-0.07321033
30	0xbf27b659	-0.65512615
31	0xbce874db	-0.028376034
32	0xbcd20124	-0.02563531
33	0xbce79f34	-0.028274156
34	0x3b08f7cc	0.0020899652
35	0xbe796dda	-0.24358311
36	0xbd8a9b9f	-0.067679636
37	0xbdf28d65	-0.11843375
38	0x3c22932a	0.009922782
39	0x3d929e4d	0.071591
40	0xbceb5a1c	-0.028729491
41	0xbda4f2e0	-0.08054137
42	0xbd214ca7	-0.039379742
43	0xbc9bad9d	-0.019003684
44	0xbd719c1a	-0.05898676
45	0xbd70d21b	-0.058794122
46	0xbe187193	-0.14887075
47	0xbe49abae	-0.19694397
48	0xbebdf07a	-0.37097532
49	0xbc87d8fa	-0.016582955
50	0xba30a187	-0.00067379366
51	0xbed3ad8a	-0.41343337
52	0x3f5ca9bc	0.86196494
53	0xbbbb1417	-0.005709182
54	0xbd8a18eb	-0.06743034
55	0x3f396b02	0.72428906
56	0xbd3b2bd1	-0.045696083
57	0x3eb95b24	0.36202347
58	0x3e85c95c	0.26130188
59	0xbd58f953	-0.05297215
60	0xbd1766cc	-0.03696327
61	0xbd64f450	-0.055897057
62	0xbdaa02f6	-0.08301346
63	0xbd2e69c4	-0.042581335
64	0xbdd392ec	-0.103307575
65	0xbf039a68	-0.5140748
66	0x3ce95f69	0.028487878
67	0xbd3e0aed	-0.04639714
68	0x3dd3caf2	0.10341443
69	0xbea27e9b	-0.31737217
70	0x3e533fb6	0.20629773
71	0xbd5e68b8	-0.054299086
72	0xbbcddc8e	-0.0062823957
73	0xbed5c442	-0.41751295
74	0xbcd9678b	-0.026538631
75	0xbb1709ad	-0.0023046539
76	0xbd398271	-0.045290414
77	0x3ee0de91	0.43919805
78	0x3be9bf06	0.0071333675
79	0xbe13a2b7	-0.1441754
80	0xbf271695	-0.6526883
81	0x3cce96c8	0.025218382
82	0xbd4e0851	-0.0503009
83	0x3f4aa788	0.7916188
84	0xbe27e97f	-0.16397665
85	0xbdbd88d6	-0.09254615
86	0x3d303bb8	0.043025702
87	0x3ed922ee	0.42409462
88	0xbf35ed9d	-0.71065694
89	0xbd2c7929	-0.042107735
90	0xbd124c90	-0.035717547
91	0xbf3d6fc7	-0.73998684
92	0xbd20ff84	-0.03930618
93	0x3e9065ec	0.2820276
94	0xbd72c9cd	-0.059274483
95	0x3e8927ff	0.26788327
96	0xbd220441	-0.039554838
97	0xbdd07bec	-0.10179886
98	0xbec51632	-0.38493496
99	0xbd7a5062	-0.061111815
100	0xbf22cfab	-0.63598126
101	0x3c5881c8	0.013214536
102	0xbc268ce2	-0.010165425
103	0x3ea08f83	0.3135949
104	0xbf3305dd	-0.6993082
105	0x3c1794d1	0.009251789
106	0xbcde7fbb	-0.027160516
107	0x3e7ff546	0.24995908
108	0xbd7ac269	-0.06122056
109	0x3df0f0ca	0.11764677
110	0x3eba79c6	0.3642103
111	0x3bd0bcd4	0.0063701663
112	0xbd39c9b6	-0.045358382
113	0xbc13b98e	-0.009016408
114	0xbe9550d4	-0.2916323
115	0xbd404318	-0.046938986
116	0x3ce93d38	0.028471574
117	0xbda507eb	-0.08058151
118	0xbd6df0ca	-0.058090962
119	0x3daa4c58	0.08315343
120	0x3c34352e	0.010999007
121	0xbd333296	-0.043749414
122	0xba425106	-0.0007412586
123	0xbce148d6	-0.027500551
124	0xbe302647	-0.17202102
125	0xbcd0f602	-0.02550793
126	0xbf1c1c8a	-0.6098105
127	0xbcf62491	-0.030046733
128	0x3ee1384d	0.43988267
129	0xbccff173	-0.025383687
130	0xbf226fdc	-0.63451934
131	0x3c8cb085	0.017174015
132	0xbdd41741	-0.10355998
133	0xbb338271	-0.0027390982
134	0xbe353ec9	-0.17699732
135	0xbc7cad63	-0.015422198
136	0xbd1506dd	-0.0363835
137	0xbd9a072c	-0.07520899
138	0xbe988874	-0.29791605
139	0xbd1327fe	-0.03592681
140	0xbf165615	-0.587251
141	0x3c4df83d	0.012571392
142	0x3f0ae7c2	0.54259884
143	0x3e7091f2	0.23493174
144	0xbd329166	-0.043595694
145	0xbc152250	-0.009102419
146	0x3e6b9877	0.2300738
147	0x3e5ebd6b	0.21751945
148	0x3f1aa5e6	0.6040939
149	0x3ed2f6bd	0.4120387
150	0xbf067394	-0.5252011
151	0xbd76783b	-0.060173254
152	0xbe2e4a48	-0.17020524
153	0xbf2435b6	-0.64144456
154	0xbe5a79c6	-0.21335515
155	0x3c6b7dc8	0.01437325
156	0x3e9c7ecd	0.3056549
157	0xbcf66090	-0.030075341
158	0xbda6cf8c	-0.08145055
159	0x3ed8c2c5	0.42336097
160	0x3c4b1735	0.01239567
161	0xbec38a69	-0.38191536
162	0x3f040d32	0.51582634
163	0xbd235ac1	-0.03988147
164	0xbd77ec3d	-0.06052803
165	0x3e5a302b	0.21307437
166	0x3e8ff924	0.28119767
167	0x3ef371c1	0.47547725
168	0xbd42dde4	-0.047574893
169	0xbbfdb174	-0.0077421013
170	0x3e69014a	0.22754398
171	0xbd9b88a9	-0.07594425
172	0xbe8628c0	-0.26202965
173	0xbf11320f	-0.5671701
174	0xbd5e4dff	-0.0542736
175	0x3d5a66bb	0.053320628
176	0xbeb29451	-0.3487878
177	0xbe5e9d72	-0.21739748
178	0x3cc64908	0.024204746
179	0xbd38a7ce	-0.045081906
180	0xbf01e25e	-0.50736034
181	0x3c95ed17	0.01830153
182	0xbd19e2f9	-0.037569974
183	0xbccdc0ba	-0.025116313
184	0xbd95b851	-0.07310546
185	0x3c274fe2	0.010211917
186	0xbf14c467	-0.58112186
187	0xbe4d63e4	-0.20057636
188	0x3c374ffe	0.011188505
189	0xbe90f30e	-0.28310436
190	0xbe8f0c42	-0.2793904
191	0xbdab4af8	-0.083639085
192	0xbf1a81fa	-0.6035458
193	0xbdca0a8e	-0.098652944
194	0x3c829bda	0.015943456
195	0xbf37e065	-0.71826774
196	0xbea043bf	-0.31301686
197	0x3f142430	0.5786772
198	0xbc9fdf17	-0.019515557
199	0xbf1d7bc4	-0.61516976
200	0xbda0d136	-0.07852404
201	0xbf026b63	-0.5094511
202	0x3c90f196	0.017693322
203	0xbbdc3d1a	-0.006721151
204	0xbca9db3e	-0.020734426
205	0xbdfb3a01	-0.12266923
206	0xbdaf5fd5	-0.085632004
207	0xbd8feb58	-0.0702731
208	0xbda71ce4	-0.08159807
209	0x3ec75d2b	0.3893827
210	0xbf15142f	-0.5823392
211	0x3c71d5ac	0.014760416
212	0xbde6a83d	-0.11262558
213	0xbd10fe82	-0.035398968
214	0x3f195647	0.59897274
215	0xbd8e5af2	-0.0695094
216	0xbda605be	-0.08106564
217	0xbeb004fd	-0.34378806
218	0xbf0fb0d5	-0.561292
219	0xbeb56d1b	-0.35434803
220	0xbd950a83	-0.072773956
221	0xbd5b1114	-0.053483084
222	0xbcdbe7ef	-0.026843993
223	0x3c4657ed	0.012105924
224	0xbdd62fae	-0.10458313
225	0xbc36794c	-0.011137318
226	0xbeac3d68	-0.336406
227	0x3c0ce121	0.008598597
228	0xbdef48dd	-0.116838194
229	0xbdae772c	-0.08518824
230	0xbd959aca	-0.07304914
231	0x3db085c3	0.08619263
232	0x3d9c14fb	0.07621189
233	0xbd0a347a	-0.03374145
234	0x39a0267e	0.00030546257
235	0xbd0158f5	-0.031578977
236	0xbda7feb8	-0.082028806
237	0xbefdbd1a	-0.49558336
238	0x3e45391e	0.1926007
239	0xbec4b4e4	-0.3841926
240	0xbf0a1b32	-0.53947747
241	0xbcdb07f2	-0.026737187
242	0xbd6c416b	-0.057679575
243	0xbe95cb54	-0.2925669
244	0xbd84378c	-0.06455907
245	0xbd01a924	-0.031655446
246	0xbc18aa01	-0.009317876
247	0xbd9152e4	-0.07095888
248	0x3f21fa93	0.6327297
249	0xbecd5e55	-0.40111032
250	0xbecc3723	-0.39885816
251	0xbd87c7a2	-0.06629874
252	0xbd1c8b3e	-0.03821873
253	0x3cc61167	0.02417822
254	0x3ee4815e	0.4462995
255	0xbe97c4ca	-0.29642326

l3.weight f4 [6, 300]
0	0xbdf78160	-0.12085223
1	0xbd0785c7	-0.033086564
2	0xbe02b45f	-0.12764119
3	0xbd36fc1d	-0.044674028
4	0xbd0af9d0	-0.033929646
5	0xbcc422f5	-0.02394245
6	0xbd5d2c3a	-0.053997256
7	0x3f0215fb	0.5081479
8	0x3d847e7c	0.064694375
9	0x3ceb80ff	0.028748034
10	0x3d3e9c1a	0.04653559
11	0x3d09c062	0.033630736
12	0x3d06fd09	0.032956157
13	0x3e44e5cf	0.1922829
14	0x3e67cca0	0.22636652
15	0x3be11e4b	0.0068700663
16	0xbd19e535	-0.037572104
17	0x3cc7edba	0.024405349
18	0xbf0f670f	-0.5601663
19	0x3d83a760	0.064284086
20	0xbcdd1651	-0.02698818
21	0xbd0f030d	-0.03491502
22	0x3caf9d05	0.021437177
23	0x3ea27e3d	0.31736937
24	0xbd62ee49	-0.055403028
25	0xbe1a9425	-0.15095575
26	0x3d9ec6c7	0.077527575
27	0x3f02e6d2	0.51133454
28	0xbeae162a	-0.34001285
29	0xbe8892b4	-0.26674426
30	0x3e3306da	0.17483082
31	0x3d052418	0.032505125
32	0xbc00704e	-0.0078392755
33	0x3d8f0ee7	0.06985264
34	0x3caf1c18	0.0213757
35	0x3e6872d7	0.22700058
36	0x3d33f56c	0.043935224
37	0xbc4b7184	-0.012417201
38	0xbd0cf9be	-0.03441786
39	0x3c5a636e	0.01332937
40	0xbc1c878f	-0.009553804
41	0xbca195fa	-0.019724835
42	0x3d54b28a	0.05192808
43	0xbd556e5f	-0.05210721
44	0xbd46670e	-0.048438124
45	0x3ce7746f	0.028253762
46	0xbb274af3	-0.002552685
47	0xbdb4270f	-0.08796512
48	0xbe07e0bc	-0.13269323
49	0xbb2d7010	-0.00264645
50	0x3c35b919	0.011091494
51	0xbe692a53	-0.22770052
52	0x3e689c2e	0.22715828
53	0x3d146771	0.036231462
54	0x3c8a17b6	0.01685701
55	0x3e594044	0.21215922
56	0xbc0a23d1	-0.008431391
57	0x3f9fe36d	1.249128
58	0xbe270b0a	-0.16312805
59	0xbc87f22c	-0.016594969
60	0xbb8a80c4	-0.004226776
61	0xbc2a91df	-0.010410755
62	0x3c440a71	0.01196538
63	0xbce854a5	-0.028360674
64	0xbd25004e	-0.040283494
65	0xbe1bd8df	-0.15219449
66	0x3dee009a	0.116212085
67	0x3ce8e234	0.028428175
68	0xbc3fdf32	-0.011710929
69	0xbead2b42	-0.33822066
70	0x3ec1cdf5	0.37852445
71	0x3d39bea8	0.04534784
72	0x3d016860	0.03159368
73	0xbe376ec2	-0.17913345
74	0x3d328e2c	0.043592617
75	0xbd358aa0	-0.044321656
76	0xbcff983b	-0.031200519
77	0x3eae9e94	0.3410536
78	0xbc34f41e	-0.01104453
79	0x3cf16f6c	0.029472075
80	0xbece8ad5	-0.40340295
81	0x3ebd662d	0.36992016
82	0x3bd93fb8	0.0066299103
83	0x3edefa5c	0.43550384
84	0x3e93c331	0.28859857
85	0xbde83227	-0.11337691
86	0xbc6697d9	-0.014074289
87	0xbe00a277	-0.12561975
88	0xbe952eca	-0.2913726
89	0x3d3eb0f0	0.04655546
90	0xb9e67a22	-0.00043960015
91	0x3dadda02	0.08488847
92	0xbaba895f	-0.0014231614
93	0xbcb8971a	-0.022532988
94	0x3be3d29f	0.006952598
95	0xbe68be3f	-0.22728823
96	0x3b853a02	0.004065753
97	0x3e726271	0.23670365
98	0x3ebc43cb	0.36770472
99	0x3d4565e2	0.048192866
100	0xbc9ada0b	-0.0189028
101	0xbc88840a	-0.016664524
102	0x3b52937c	0.0032131365
103	0xbed809ba	-0.4219492
104	0xbdc79b53	-0.097464226
105	0xbd38a0f7	-0.045075383
106	0xbbe8b812	-0.007102021
107	0x3e814748	0.25249696
108	0xbc3d0e26	-0.011539018
109	0x3f143bfe	0.5790404
110	0x3bb979a3	0.005660252
111	0x3d8cfc05	0.068840064
112	0x3d827691	0.06370271
113	0x3b9ca473	0.004780346
114	0xbcdc00e0	-0.026855886
115	0x3cc6f1e8	0.024285272
116	0x3d117376	0.035510503
117	0x3eb24eb6	0.34825677
118	0xbd363d50	-0.044492066
119	0x3eccb32a	0.3998044
120	0x3a2a36df	0.0006493162
121	0x3a323a67	0.0006798864
122	0xbd251f13	-0.040312838
123	0x3f163a01	0.58682257
124	0xbcff50f6	-0.031166535
125	0xbb52a3f0	-0.0032141171
126	0x3d2db71f	0.042410966
127	0x3b937925	0.0045005255
128	0x3f6db55e	0.9285487
129	0xbd25a934	-0.040444568
130	0x3ec75a38	0.3893602
131	0x3b652020	0.0034961775
132	0x3c8e7b56	0.017392796
133	0x3d40187e	0.046898358
134	0xbc0b1914	-0.008489866
135	0xbcf626d5	-0.030047813
136	0x3d137374	0.035998777
137	0x3cc486d3	0.02399007
138	0x3e8d4c67	0.27597353
139	0xbcb2f158	-0.021843597
140	0x3d664ddf	0.056226607
141	0xbcd3bb52	-0.025846157
142	0x3ef3a8b6	0.47589654
143	0x3db0c882	0.08631994
144	0x3d349cd0	0.04409486
145	0xbbfca553	-0.007710138
146	0x3f56a651	0.8384753
147	0x3d05ca26	0.032663487
148	0x3e76adde	0.24089763
149	0xbe913c42	-0.28366286
150	0x3d48fa24	0.049066678
151	0x3e93f02e	0.2889418
152	0x3e4290d1	0.19000556
153	0xbd2ecb80	-0.04267454
154	0xbe330e3e	-0.17485902
155	0x3d61c59a	0.05512009
156	0xbdc2bf62	-0.095091596
157	0xbcfcb1f9	-0.030846583
158	0x3ea8ee11	0.3299413
159	0x3f646488	0.892159
160	0xbd0e86a4	-0.034796372
161	0x3dc93a9a	0.098256305
162	0x3e2ee9a7	0.17081319
163	0x3baa785c	0.0052023362
164	0x3e4f40ca	0.20239559
165	0x3b4a0eb0	0.0030831508
166	0xbe6113e5	-0.21980245
167	0x3f0c9f5e	0.54930675
168	0xbac362ba	-0.0014906742
169	0x3c72375f	0.014783709
170	0x3e511621	0.20418598
171	0xbd0591e2	-0.032609828
172	0xbd5ed9ad	-0.05440681
173	0xbc8f8a07	-0.017521871
174	0xbd12e916	-0.03586682
175	0xbdec9fba	-0.11553903
176	0x3e4f2142	0.2022753
177	0x3af76ec8	0.001887762
178	0x3d0c7401	0.034290317
179	0xbcaf3dfe	-0.021391865
180	0x3e53568a	0.20638481
181	0x3cbf3e1a	0.023345042
182	0x3cc6b874	0.024257876
183	0xbe609d10	-0.21934915
184	0x3b69130b	0.003556433
185	0xbc694374	-0.0142372735
186	0x3f8068e5	1.0032011
187	0x3d306aef	0.04307073
188	0xbccea45d	-0.025224859
189	0x3e54eeb1	0.20794179
190	0xbe921157	-0.28528854
191	0x3e5816c3	0.21102433
192	0x3e7233b2	0.23652533
193	0x3cb61060	0.022224605
194	0xbe08bbb4	-0.13352853
195	0xbe364edd	-0.17803521
196	0x3dbf913c	0.09353873
197	0x3df72062	0.120667234
198	0xbd220796	-0.039558016
199	0x3efcc6d3	0.4937044
200	0xbc8b403f	-0.016998408
201	0xbda4c4e5	-0.08045367
202	0xbb1e9269	-0.0024196154
203	0xbc643e05	-0.013930802
204	0xbd3e2a78	-0.04642722
205	0xbef8d5af	-0.48600528
206	0xbcabf4f8	-0.020990834
207	0x3afd3582	0.0019318315
208	0xbd2f2ca2	-0.042767175
209	0x3e0b4689	0.13601126
210	0xbf1ee728	-0.62071466
211	0x3ae1b296	0.001721936
212	0xbe53b5a2	-0.20674756
213	0xbcb92fa3	-0.022605723
214	0xbd9bab41	-0.076010235
215	0xbbd3d8fb	-0.006465075
216	0xbc54996b	-0.012976031
217	0xbda36d88	-0.07979876
218	0x3ca97cce	0.020689394
219	0x3e883cb2	0.26608807
220	0x3d283164	0.041062728
221	0xbd467a80	-0.04845667
222	0xbcb8111c	-0.022469096
223	0x3bb3df27	0.0054892483
224	0xbd0e3503	-0.034718525
225	0xbc83ba22	-0.016079966
226	0x3e8cacde	0.27475637
227	0xbced18b8	-0.02894245
228	0x3b556e44	0.0032566944
229	0x3e88151a	0.265786
230	0x3b25f1dd	0.0025321164
231	0xbd903c82	-0.07042791
232	0x3e35e2ce	0.177623
233	0xbd525f26	-0.051360272
234	0x3c92ef85	0.017936477
235	0xbd4bd78e	-0.049766116
236	0x3f50cf84	0.81566644
237	0xbe50ec92	-0.20402744
238	0x3e2899b5	0.16464885
239	0xbe171313	-0.1475337
240	0xbe20fca9	-0.15721382
241	0x3d835979	0.0641355
242	0x3c8d5461	0.017252149
243	0xbe2fb80e	-0.17160055
244	0xbd00f608	-0.031484634
245	0xbccdec7c	-0.025137179
246	0x3d4d93fe	0.050189964
247	0xbd9174c7	-0.07102352
248	0x3e97f843	0.29681596
249	0xbe2f7524	-0.1713453
250	0x3f14aa3a	0.58072245
251	0x3ce88105	0.028381834
252	0x3cd7281b	0.026264241
253	0xbce59711	-0.028026136
254	0xbe02bce5	-0.1276737
255	0xbdf3767d	-0.11887834

l3.bias f4 [6]
0	0x3ee3bea7	0.44481394
1	0xbe2046ef	-0.15652059
2	0xbe8f2097	-0.27954552
3	0xbea8fd58	-0.33005786
4	0x3e865966	0.2624008
5	0x3d270426	0.04077544
