results/runs/single_assembly_smallaction/Average_TD3_10_Peg-in-hole-single_assembly_seed_1/23000_actor.pth (torch_old, 510312 bytes, 6 tensors)

l1.weight f4 [400, 12]
000000 db 68 f8 be 68 ed bf be b9 74 35 3c 75 de c1 3e
       -0.48517498 -0.37485814 0.011075192 0.37865034
000010 bf b6 77 3d fb 10 48 3f bd 50 d4 be 62 5a 10 3f
       0.060477015 0.7815091 -0.41467848 0.56387913
000020 2f cb a6 be b5 f5 a0 3e 53 e0 d4 3e 23 4f f2 3e
       -0.32576892 0.3143746 0.41577396 0.47326002
000030 1f 7d 80 3e 9d d2 4d be e5 c0 51 3c cd 17 08 be
       0.2509546 -0.20099874 0.012802337 -0.1329033
000040 b7 02 5d bf 4b 61 a2 3f e5 65 e8 3e 18 89 9c bd
       -0.8633227 1.2685941 0.4539024 -0.07643336
000050 66 fd 83 be 41 05 8f be b0 3a ac bb 29 3e 6b 3e
       -0.25779265 -0.27933696 -0.0052560195 0.22972931
000060 5c 35 4f be 6e 2a 17 3f a6 9a b1 3e 01 90 17 bd
       -0.20235199 0.5904912 0.346883 -0.037002567
000070 17 89 b1 be 17 f8 97 be ff eb 49 3e 1e f1 85 3e
       -0.34674904 -0.29681465 0.19718932 0.2616052
000080 23 e6 2e 3e 9e c3 c4 be ba 21 ed be a6 5d b1 bd
       0.17079978 -0.38430494 -0.46314794 -0.0866044
000090 50 c9 81 3e 10 f4 44 bd 30 03 fd 3d c8 5e 09 be
       0.25348902 -0.04808432 0.123541236 -0.13415062
0000a0 92 06 91 3e 7c 23 fa bd 24 ae 5d 3e 00 07 60 3b
       0.28325325 -0.12213799 0.2164846 0.003418386
0000b0 9f ba 1b be ca f1 17 3e 86 e9 1c be 6c e0 ad 3d
       -0.15207909 0.14838329 -0.15323457 0.08490071
0000c0 9f 31 09 bd a8 e1 d3 3e 1b 77 4c bd 00 72 08 be
       -0.033494588 0.413831 -0.049918275 -0.13324738
0000d0 50 7e 99 3e 58 cb af bf 8f 73 d4 3d fe af 08 3f
       0.2997918 -1.373393 0.103736036 0.5339354
0000e0 27 72 af bc 5a 34 dc 3d 6d 89 1a 3e 15 f7 aa bc
       -0.021416737 0.10752173 0.15091486 -0.020869771
0000f0 76 15 3f be ee 01 40 3e 18 76 33 3e a6 15 83 3e
       -0.1866053 0.18750736 0.17525518 0.25602454
000100 0b b4 25 be e0 a1 42 bd 80 3e b7 bb 48 b3 2c 3d
       -0.16181962 -0.047517657 -0.0055921674 0.042163163
000110 ba 56 60 be 49 c4 51 be 40 cf 20 3e 1a a2 8a bd
       -0.21908084 -0.20485033 0.1570406 -0.067692
000120 62 8f 0d 3e f6 57 d5 3c 47 fc 04 3e e8 ff 81 3d
       0.13824227 0.02604292 0.12986861 0.06347638
000130 11 e0 d5 3d 47 f8 12 3e 4b 04 6e be d5 8f fa 3d
       0.10443128 0.14352523 -0.23243825 0.12234465
000140 b8 d6 72 be b6 d4 61 be a7 7f 84 3b 61 47 4b bd
       -0.23714721 -0.22053799 0.0040435377 -0.04962862
000150 e0 0c 67 3f 24 6c 81 3e 58 9d 5c 3d 25 df 84 3d
       0.9025402 0.25277817 0.053860992 0.06487874
000160 8c 05 90 be b4 dd 00 bf bb 9e 82 bd 1b 23 c6 bd
       -0.28129232 -0.5033829 -0.06377932 -0.096746646
000170 80 be d5 bd 61 fd 6b 3e 89 be 04 be 96 25 f2 bb
       -0.104367256 0.23045875 -0.12963308 -0.0073897345
000180 cf ff eb be 53 d6 84 3e f8 5c 23 3d 9c a1 8f 3c
       -0.46093604 0.25944766 0.039883584 0.017533116
000190 f5 74 21 3c cf 2e bc 3d 5f b7 31 be 6a 11 5a 3d
       0.009854545 0.091886155 -0.17355107 0.053239264
0001a0 60 10 23 bf b0 a4 ab be 23 e0 07 3f 91 13 be bd
       -0.6369686 -0.33524084 0.5307638 -0.09281076
0001b0 13 da 57 3e b9 20 95 3e 51 ca 27 3e 4c 91 28 3e
       0.21079282 0.29126528 0.16385771 0.16461676
0001c0 37 59 9d bd 29 e9 22 bc a8 8e 4d 3e 16 fc 99 3e
       -0.07683032 -0.009943285 0.2007395 0.3007514
0001d0 6c f3 8e 3e e6 1e 83 3e ef 73 b1 be ef cf bd be
       0.2792009 0.2560951 -0.34658763 -0.37072703
0001e0 94 27 37 bf 26 cf 48 3d d7 a7 50 3e de 11 77 bf
       -0.71544766 0.049025677 0.20376526 -0.9651164
0001f0 58 50 4a 3f 21 1e e6 be df 56 0f bf 24 1b f6 be
       0.79028845 -0.44944862 -0.5599193 -0.48067582
000200 29 5b 22 3e fc 1b e6 3d 16 31 1f bd a1 00 e2 be
       0.15855087 0.11235806 -0.03886517 -0.44141105
000210 b5 bb 19 3e 09 05 d9 3e 40 3d b6 3d e6 e9 cb be
       0.15013011 0.42386654 0.08898401 -0.39826888
000220 1f f8 9f 3e 2a 73 06 bd 98 e4 b1 be 74 b3 1a bf
       0.3124399 -0.032824673 -0.34744716 -0.60430074
000230 f6 7e ce bc 34 24 5d be 7e 5b 41 bd da e1 fb be
       -0.025207024 -0.21595842 -0.047206394 -0.4919575
000240 f3 df b2 bd a6 52 a1 3d 90 08 7d 3d fa 2e 79 bd
       -0.08734121 0.07877092 0.061775744 -0.060835816
000250 90 62 14 3f 4a 09 2a 3f e1 46 da bd c7 4e 1d 3f
       0.57962894 0.66420424 -0.1065805 0.6144833
000260 7e 61 0e 3e 14 84 a9 3e cd 1c 19 be 27 fb 54 be
       0.13904378 0.3310858 -0.14952393 -0.20798932
000270 48 b1 2c be 66 df fc bd 3c 2a 52 3e f4 31 c1 bd
       -0.16864502 -0.12347297 0.20523924 -0.09433356
000280 18 e6 5c be 78 77 e3 3d 50 49 bd 3d a2 75 3f 3e
       -0.21572149 0.11106771 0.09242499 0.18697217
000290 6c f7 18 be b8 2e 80 3d aa 3a d7 bd 46 d4 84 bd
       -0.14938134 0.06258911 -0.10509236 -0.064858004
0002a0 b1 54 a7 be 68 e3 7c 3e ae c6 e1 bc fc bb f7 3d
       -0.32681802 0.24696124 -0.027560558 0.12096402
0002b0 f4 5f 28 3e fa 43 15 bf bc 0c 8e 3e d7 9b 0e 3e
       0.16442853 -0.5830685 0.2774409 0.13926636
0002c0 ea 28 6e 3e df f8 a5 bd 42 5c d2 be 68 0a 29 bc
       0.23257795 -0.08104109 -0.41086012 -0.010317422
0002d0 70 f1 28 3d b3 4a c9 3e 05 b9 15 3c 70 1f 3f be
       0.041245878 0.39314803 0.00913835 -0.18664336
0002e0 e3 14 52 3d 7b 5e 58 be d8 9a 2a bf d4 0b 44 be
       0.05128945 -0.21129791 -0.6664252 -0.19145137
0002f0 14 bf 23 be 91 2a 2d bd f7 61 cb 3e 75 fe 33 3d
       -0.1599086 -0.042276923 0.3972318 0.04394384
000300 61 cf d7 be d2 74 22 3f bf 33 18 3e ec b3 0c bf
       -0.42150405 0.63459504 0.1486349 -0.5496204
000310 0b 03 f2 3e fc 4a f8 be 02 1a 9b 3e 9c a5 12 bf
       0.47267947 -0.4849471 0.3029328 -0.5728395
000320 d6 67 45 3e 79 04 f9 be ef ec 48 3e b7 24 0a bd
       0.19277892 -0.48636225 0.19621633 -0.03372642
000330 3c c1 df b9 22 87 84 be 87 af 05 3d 1c aa bc 3d
       -0.00042677845 -0.25884348 0.0326381 0.09212133
000340 65 34 27 3f 76 0d 28 be d3 68 0e bf 14 b5 bf bd
       0.6531432 -0.16411385 -0.556287 -0.0936071
000350 9b 50 3e bf f5 65 bb bd 02 c6 60 3f 57 e9 cb 3e
       -0.74341744 -0.09150306 0.87802136 0.39826462
000360 6f ed 0b 3f 53 47 64 bd f7 c9 16 3e 81 28 df 3e
       0.5465917 -0.055732083 0.14725481 0.4358559
000370 67 b9 9b be 7d d0 40 3e 5f ba f8 be a3 42 74 be
       -0.30414888 0.18829532 -0.4857969 -0.23853545
000380 f2 24 7b bd d5 d9 de bd 52 51 db 3d 7b 03 c3 3e
       -0.06131453 -0.10881392 0.1070887 0.38088593
000390 c4 0b 08 3e ac ac 0b 3f 26 e2 51 bc df a9 d8 be
       0.13285738 0.5456035 -0.012810266 -0.423171
0003a0 eb 11 e2 3e 34 ee 96 be 0b 64 07 bf 71 7a 6a be
       0.44154295 -0.2947861 -0.5288703 -0.2289827
0003b0 23 c0 65 bf a9 04 06 be b9 1d fe 3e a8 33 d9 be
       -0.897463 -0.13087715 0.49632052 -0.42422223
0003c0 a6 6c 21 be 3b c3 54 3e d8 4f aa 3b fa 43 f7 bd
       -0.15764102 0.207776 0.0051975064 -0.120735124
0003d0 96 83 03 bd 36 93 89 3e ad 89 2d bf 42 a2 0f bf
       -0.032107912 0.26870126 -0.677882 -0.5610696
0003e0 c9 83 12 be c9 79 92 3d 72 81 1e 3f fa 15 c4 bd
       -0.14308085 0.07152135 0.6191627 -0.09574504
0003f0 62 3a 02 be 5b 2c 4d 3e 1e 6b fd 3d 53 59 25 3e
       -0.12717584 0.20036452 0.123739466 0.16147356

l1.bias f4 [400]
000000 aa b1 58 3f 6c 50 3d 3f b4 cb 8d bb 05 32 21 be
       0.84646094 0.7395084 -0.004327262 -0.15741737
000010 c3 b9 83 bf 00 f9 c1 3d fc 91 4e bc 11 25 ef bd
       -1.0291065 0.09471321 -0.012608048 -0.11676992
000020 19 4b 37 3e 24 16 13 be 7f d0 e1 3e 49 2f b6 bd
       0.17899741 -0.14363915 0.44104382 -0.08895738
000030 ba 57 7b 3e c8 c1 18 3d 16 f7 5b bf 0c 4c 97 be
       0.24545184 0.03729418 -0.859239 -0.29550207
000040 20 6e 64 3e e5 ae 5a 3e 67 f6 bb bd ea d7 8e bd
       0.22307634 0.2135578 -0.09177857 -0.06974776
000050 b0 12 2b 3f 77 c0 06 bf 64 dc 0e 3d df 19 20 bf
       0.6682539 -0.5263743 0.03487815 -0.62539476
000060 46 04 16 3e 82 5a e5 3d 58 d9 70 3e 66 da f8 bd
       0.14650068 0.111989036 0.2352041 -0.12151031
000070 94 31 bd 3e 27 47 4e be 35 a6 2c 3f 94 5c 45 3e
       0.36951888 -0.2014433 0.6744111 0.19273597
000080 f6 35 bf 3d 8f ea 44 3e 05 41 19 3c 5e 99 4b 3d
       0.09336464 0.19230102 0.009353881 0.04970681
000090 82 2e 45 3c 41 be ea be f3 4e ef bd d5 22 0b 3f
       0.012035014 -0.45848277 -0.1168498 0.54350024
0000a0 9b 73 00 3e 34 9e ef 3e 95 11 20 bf ff 52 88 3e
       0.125441 0.46800387 -0.6252683 0.2662582
0000b0 a3 4e e6 3d ba 16 87 3e 78 1e 79 be 07 1f 74 bf
       0.112454675 0.26384526 -0.24328029 -0.95359844
0000c0 86 29 24 3f 52 a9 8a bd 18 78 a6 3d 03 c1 95 bd
       0.6412586 -0.067705765 0.08128375 -0.07312205
0000d0 68 80 39 bf 2c ef de be ef 27 b2 3e 2d 4e 43 be
       -0.7246156 -0.4354185 0.34796092 -0.1907279
0000e0 da 70 0f bf 72 06 81 be 8c f1 80 3d 40 9c 17 3f
       -0.5603157 -0.2520023 0.062960714 0.59222794
0000f0 0b 03 e9 3b 7a 33 10 3e 50 b6 9e be d4 42 8c 3e
       0.0071109585 0.14082137 -0.30998468 0.27394736
000100 fb 67 69 bf 43 0c 02 bf ec 30 4a bd 48 b0 e2 3e
       -0.91174287 -0.5079996 -0.04936306 0.44275117
000110 a1 71 a5 3d 97 a0 f7 be f8 22 0e bf 79 38 00 be
       0.080783136 -0.48364708 -0.5552211 -0.12521543
000120 94 14 ed be 6c 0c e8 be 36 29 38 be c4 99 96 3e
       -0.46304762 -0.45321977 -0.1798447 0.2941419
000130 89 9d f5 bd ef 4f 65 3e 2d 6e 1f 3f d1 ae 46 be
       -0.11992938 0.22393773 0.6227749 -0.19402625
000140 5f 86 e0 be 37 6d 25 bf 59 94 f4 be a8 cf 0b 3f
       -0.43852517 -0.64619774 -0.4776943 0.54613733
000150 1b 39 81 be a6 b5 da 3e 20 7e 06 bc b0 4a 6a be
       -0.2523888 0.42716712 -0.0082087815 -0.22880054
000160 43 da 54 3e 40 6f ee 3d 10 45 1e be 8b 54 34 3d
       0.20786385 0.11642313 -0.15456033 0.04402594
000170 eb 2b 78 3e da da b0 be 97 b7 6c bd 52 3c 08 3d
       0.24235503 -0.3454197 -0.057792272 0.03326065
000180 d6 3a eb 3e 21 d4 32 bd 69 b0 e0 be 62 ab d1 3d
       0.45943326 -0.043659333 -0.4388459 0.10237767
000190 1c f2 7b bd 93 ac f7 3d bd fa 92 3e b4 16 01 3e
       -0.06151019 0.12093463 0.28706923 0.12606317
0001a0 f2 73 80 be a0 75 ca be a7 32 bf be b7 d3 b9 be
       -0.2508846 -0.39542866 -0.37343332 -0.36294338
0001b0 5c 8c 96 be e9 09 0a 3f 70 1e e8 3e ff 78 c5 3e
       -0.2940396 0.5392137 0.45335722 0.38568875
0001c0 aa 1c 83 3e 7d 2f a6 be 68 c8 78 bf 01 8b 5f be
       0.25607806 -0.32458106 -0.97180796 -0.2183037
0001d0 53 95 c7 be 70 65 61 bd 46 55 28 3e f8 02 57 be
       -0.38981113 -0.05502838 0.16438779 -0.20997226
0001e0 30 4d cd 3c 33 72 24 3f 5a f0 a7 be d3 00 23 bf
       0.02506122 0.64236754 -0.3280056 -0.6367313
0001f0 37 a1 89 3e 7d f4 b8 ba 00 8c b6 3d c3 81 d1 bd
       0.2688081 -0.0014110949 0.08913422 -0.10229828
000200 b4 13 89 3e 3d 15 cd be f0 e7 5e be d8 71 0d bf
       0.26772845 -0.40055266 -0.21768165 -0.55251837
000210 ad 77 d6 be b4 6f 4d be 52 1e 4a 3d bc 8d 82 3e
       -0.4188818 -0.20062143 0.049345322 0.2549876
000220 d6 70 07 bf 67 ac 31 bf 5e 54 5e bf d5 a5 36 bf
       -0.5290655 -0.6940369 -0.86847484 -0.7134679
000230 96 4d 8b 3b c3 64 d6 3e 63 18 2d 3e b5 e4 61 bc
       0.0042511923 0.4187375 0.16903834 -0.013787438
000240 21 ad 01 bf 23 be 16 be 6c 78 20 be 7a 0a 00 be
       -0.506548 -0.14720969 -0.15670937 -0.12503996
000250 a2 34 87 be 6c 6b 78 be f0 85 1f 3f cc 4e a9 3d
       -0.26407343 -0.24259728 0.6231375 0.082669824
000260 bb 06 58 bf 61 6f 24 3f 6e df a8 be 0f 43 6b bf
       -0.8438527 0.6423245 -0.32982963 -0.918992
000270 09 68 58 bf 7d ca 82 bf 69 fb 92 bf 0e 39 f6 bd
       -0.84533745 -1.0218045 -1.1482974 -0.12022601
000280 2f ba a8 3e e9 64 74 be d1 c6 30 3f 7d 64 4e 3e
       0.32954547 -0.23866619 0.6905337 0.2015552
000290 b9 3b 89 be 4b 2b 4d be ff 54 77 3e 2a 2e 60 bf
       -0.26803377 -0.20036046 0.24153517 -0.8757044
0002a0 32 c9 12 be f5 9f e2 be 0b db 7f be 00 3b 31 3d
       -0.14334562 -0.44262663 -0.24985902 0.043269157
0002b0 fc cc 60 be c3 29 ce 3e 25 82 a4 be be 2c cf 3d
       -0.21953195 0.40266237 -0.32130542 0.10115956
0002c0 51 1c 8e 3e ea ee 43 3d 0f a7 5f be 56 90 21 bf
       0.2775598 0.047835268 -0.21841072 -0.63110864
0002d0 74 62 73 be 90 a1 b4 bb fe bd f4 3d 37 79 79 be
       -0.23768026 -0.005512424 0.11950301 -0.24362646
0002e0 64 e0 bb be c1 55 2c bf 6f b9 fc be ef 7d a9 be
       -0.36694634 -0.6731835 -0.49360225 -0.33103892
0002f0 03 56 ae 3e 42 4e c3 be 30 8f 69 be e1 70 e3 be
       0.34049997 -0.38145643 -0.22808528 -0.44422057
000300 be 46 b4 bd d4 19 0c be 9d 5a b3 be 58 37 dc be
       -0.088025555 -0.13681728 -0.3503007 -0.43010974
000310 28 ac 75 3e 3b 8d 88 bd 69 fd 4b bc 45 60 8a 3e
       0.23991454 -0.066675626 -0.012450554 0.27026573
000320 e6 6c f4 bc 9a 6e ab bd 24 e4 77 bc d8 42 c6 3e
       -0.029837083 -0.08370705 -0.015130077 0.38722873
000330 ab 98 cf bd 01 2e de 3c 03 fa 2c 3f 4f 55 af bd
       -0.10136541 0.027121546 0.6756899 -0.08561193
000340 fd 6f d9 be c6 a2 ca 3e 5c 69 3b 3f e1 26 a7 3b
       -0.42468253 0.3957731 0.7320764 0.0051010703
000350 db 22 fe be 53 b2 35 3f 86 7e 2b 3f d1 db 83 bd
       -0.49635968 0.70975226 0.66989934 -0.06438411
000360 46 16 49 bf 97 32 54 3f 8d 91 1e 3f e8 23 0a 3d
       -0.7854961 0.82889694 0.6194084 0.03372565
000370 c2 f0 54 bd 64 33 54 be dc 33 a3 be 9c 8d 6e bf
       -0.051987417 -0.20722729 -0.31875503 -0.9318483
000380 55 0c 20 3c aa 6b 7f be 86 4b af bd 01 6a 1e 3e
       0.009768565 -0.24943414 -0.08559327 0.15470125
000390 39 5a 97 bf e8 65 13 3e 5d ed 3e 3e a4 73 ca 3b
       -1.1824409 0.14394343 0.18645234 0.006178336
0003a0 40 72 9c 3b b9 81 6a ba 62 9e c3 3e 69 87 d5 3d
       0.004774362 -0.0008945722 0.38206774 0.10426218
0003b0 45 09 05 be 56 2e d7 3e 56 6a 12 3e b3 7e 60 3e
       -0.12991817 0.4202754 0.14298376 0.21923332
0003c0 fd 3d 9a be 1c de 10 3e ff 21 22 bf 6c 50 0d 3e
       -0.30125418 0.14147228 -0.63333124 0.1380021
0003d0 49 64 ec be 98 05 0d 3d 85 b7 4a bf c9 38 10 bf
       -0.46170262 0.034429163 -0.7918628 -0.5633665
0003e0 25 6c 5a 3e 55 d5 a2 3e ee 5b 3c 3e 7a 54 2f 3e
       0.21330316 0.31803384 0.18394443 0.17122069
0003f0 43 43 c9 bd d7 e0 94 3e 46 25 24 bf e4 0c 8b be
       -0.09827282 0.2907779 -0.64119375 -0.27158272

l2.weight f4 [300, 400]
000000 0e 7c a5 bd cc 65 0e 3e 8c 74 67 be f1 9b 04 3d
       -0.08080302 0.1390602 -0.22603053 0.03237528
000010 f3 7a 24 be a7 58 ca bc 10 e0 54 bd d0 39 23 3e
       -0.16062526 -0.024700476 -0.051971495 0.15940022
000020 fa 3c 9d 3d 56 c4 d5 bc 34 94 ce bd 66 f0 79 3d
       0.07677646 -0.026094597 -0.10086861 0.061020277
000030 37 69 bb 3c 28 ca 07 3c a8 85 d8 bd 75 dd 46 3d
       0.022877319 0.008287944 -0.10572368 0.04855104
000040 65 20 ed be 2f 59 e0 be ed 7f c8 3d f9 5f 52 3d
       -0.46313778 -0.43818042 0.09790025 0.051361058
000050 cc c9 32 3e 7d 9b bf bd 7e aa d6 bd b1 82 c0 bd
       0.17459792 -0.09355829 -0.104817376 -0.093999274
000060 14 22 97 bd 9c 37 a0 3d db 1f f5 3d 3a 4d 5d 3d
       -0.07379547 0.07823107 0.119689666 0.054028727
000070 80 ec 88 bd 1e 30 1f be f2 75 e6 3d d0 bb 58 bb
       -0.06685734 -0.15545699 0.11252965 -0.003307093
000080 4d e0 39 be 5d 3a 01 bd d1 17 9f bc f7 b1 a4 3d
       -0.1815197 -0.0315498 -0.019420536 0.080417566
000090 35 64 4a 3e 0f c6 8c bb 68 06 81 be e5 95 a9 3d
       0.19764788 -0.0042960714 -0.252002 0.08280543
0000a0 2c f4 8b 3d 64 3b 33 bd cb 3b 28 3c b9 47 7c 3e
       0.068336815 -0.04375781 0.010268162 0.24636735
0000b0 79 ca ae 3d 11 ef b7 be d5 ab 82 3d 4f d3 6f be
       0.08534712 -0.3592458 0.063804306 -0.23420452
0000c0 96 81 df 3d 83 77 c4 3c e3 6c fe bc 47 6f 24 be
       0.109133884 0.023982769 -0.03105778 -0.16058074
0000d0 3b 01 a6 bd 91 b8 df bd 8b d7 a9 3d 3a 4f 32 3c
       -0.081057034 -0.10923875 0.08293065 0.010883147
0000e0 5e 41 f0 bc 58 47 f8 bb 38 3f 11 3c 23 4b 73 be
       -0.029328045 -0.007576864 0.00886517 -0.23759131
0000f0 bd 04 47 3b 90 4c 97 bb c1 3c 02 be 2a 27 82 3e
       0.0030367814 -0.0046172813 -0.12718488 0.25420505
000100 4b 3e 26 be 96 06 72 bd 2e 2e 98 be 1e 51 56 3d
       -0.162347 -0.059088312 -0.29722732 0.052323453
000110 80 05 20 be 9b 0a 78 3d cb 81 90 bd a7 75 12 3d
       -0.15627098 0.06055699 -0.07056006 0.035756733
000120 fc 2b b3 3d 12 36 85 bb 2a 8c b2 bc f2 9d 97 bc
       0.08748624 -0.0040652836 -0.021795351 -0.018507931
000130 9c ce ae 3d 8e 66 a5 bd 01 38 9f bd f7 98 00 be
       0.08535501 -0.080762014 -0.07774354 -0.12558351
000140 3f cf d1 bd 0a ff 49 bd 0f 99 63 bd 58 be e3 3d
       -0.10244607 -0.04931549 -0.05556589 0.111202896
000150 94 14 6f be 6f f8 a3 3e 87 4b 33 3d 5d 07 a8 3d
       -0.23347694 0.32025477 0.0437732 0.082045294
000160 60 ad 2a 3d 18 6e ba bc 8f c6 3f 3d 80 33 6e be
       0.04166925 -0.022757575 0.04682022 -0.23261833
000170 40 f9 81 3d 9c 00 70 bd 11 7b be bc 1f 34 9e 39
       0.06346369 -0.05859433 -0.023252042 0.00030174942
000180 fc 8c 10 bd 05 c4 71 3e 20 0a e9 bd eb 17 6d be
       -0.035290703 0.23609932 -0.11378884 -0.23153655
000190 a8 7f fb 3b 73 dc 80 be ed 0d 4e be f8 25 06 3e
       0.00767513 -0.2516819 -0.201225 0.13100421
0001a0 6e 29 c3 3c 48 cf 5b bd 0b 2a 0b 3e cf 09 37 be
       0.023823466 -0.053664476 0.13590257 -0.17874835
0001b0 b3 96 9d be ef 6b 80 3d 0e ee b0 3d 5f e8 13 3e
       -0.30779037 0.06270587 0.08639155 0.14444111
0001c0 5f 36 50 3d 7f a3 a8 3c c6 55 e6 bd f8 67 fe 3c
       0.050833102 0.020585774 -0.11246829 0.031055436
0001d0 9e 7b c0 3d 0b f0 2c 3d 9c a4 56 be 55 8f 01 3e
       0.09398578 0.04222111 -0.20961231 0.12652333
0001e0 3b 6b 12 3d 75 da 12 3e 22 da a3 bc c9 47 37 be
       0.035746794 0.14341147 -0.020001475 -0.17898478
0001f0 ee c3 42 bc 89 1a 69 3c b5 97 40 3d e3 f0 4e bd
       -0.011887534 0.014227518 0.04701968 -0.050522696
000200 46 ae 23 bd dd 58 11 3e a4 55 cd bd 5b be 14 3d
       -0.039961122 0.14194055 -0.100261 0.03631435
000210 b3 9d d3 3d 28 ed e2 bd d9 2b b8 be 37 6d 3b 3e
       0.10332813 -0.1108039 -0.35970953 0.18303381
000220 b4 29 66 3d 27 2d 85 bd c7 59 63 be bd b1 b5 bb
       0.056192115 -0.06502753 -0.22202216 -0.0055448697
000230 20 42 ae 3d 9f 15 fb 3d 6f 1f 6f be a1 42 1d bc
       0.08508706 0.12259983 -0.23351835 -0.009598405
000240 ee b5 ad bd f6 5b 03 be 9f fb 25 3e c9 50 1d 3d
       -0.08481966 -0.12828049 0.16209267 0.03840712
000250 fd 47 0b be d8 a6 9f 3b a8 1f 52 be 70 4d e6 bb
       -0.1360168 0.0048721842 -0.20519888 -0.0070282742
000260 a7 25 9e be 0b 5d 16 3d 53 31 1d be 0c 90 c9 bd
       -0.308881 0.036709826 -0.15350847 -0.09841928
000270 bb 2b 58 bd 9f 1c 43 be 3f 95 99 be cc 16 96 bc
       -0.05277608 -0.19053887 -0.29996678 -0.018321417
000280 0c 79 94 be 6f 77 37 3e 5d 1c 45 3e 33 3d 30 be
       -0.289986 0.17916654 0.19249101 -0.17210846
000290 92 28 e2 bc 11 1e 1d bd 8c 5d 3e bc 78 79 d8 3b
       -0.027607236 -0.03835875 -0.011618983 0.006606277
0002a0 d0 35 c7 3d ad 91 10 3e d6 1b 24 bd fa 22 1f bd
       0.09727061 0.14118071 -0.04006561 -0.038851716
0002b0 18 b7 99 bb d6 1b c8 3d 40 6d 9d 3d 1a 9b 8f be
       -0.004691016 0.09770934 0.076868534 -0.2804802
0002c0 d5 b5 01 3d 7f 57 70 3e e0 52 42 3b bd 34 66 bb
       0.03166755 0.23470877 0.0029651448 -0.003512665
0002d0 db 88 29 bd 80 fd 3c 3a 8c af af 3d 06 a7 b5 3d
       -0.04139028 0.00072094053 0.08578405 0.08869748
0002e0 69 bd 20 bc 01 e4 b5 bd fd 4c 29 3e c6 b7 40 be
       -0.009810784 -0.08881379 0.16533275 -0.18820104
0002f0 bb 51 6e 3e 48 e3 e1 bd 90 c7 a8 3c 13 da d2 3d
       0.23273365 -0.110296786 0.020602971 0.102955006
000300 29 b0 18 3d b3 0e 34 bd 84 2f a1 3d a9 65 3c bd
       0.037277374 -0.04395933 0.07870391 -0.04599539
000310 7c 58 75 3c 37 d7 89 3d 29 94 55 be 35 e7 14 bd
       0.01497471 0.06730502 -0.208573 -0.03635331
000320 f4 8f 68 be 7c 38 24 be a2 d8 55 be d0 c3 fa bc
       -0.22711164 -0.16037172 -0.2088342 -0.030610949
000330 01 98 74 3c 0b bf b0 3b a8 e3 f7 3d a6 85 18 3d
       0.014928819 0.005393868 0.12103969 0.037236832
000340 7a db 86 bd ea 23 13 3e 75 62 35 3e 45 ae 71 be
       -0.065848306 0.14369169 0.1771334 -0.23601635
000350 8c a1 bc bc d6 bb c2 3d b5 6f eb 3e 25 25 3b be
       -0.02302625 0.09508483 0.45983663 -0.18275888
000360 cd 21 2d be 64 24 97 bc 88 74 31 3d 45 7c 19 3d
       -0.16907425 -0.01844997 0.043324023 0.03747203
000370 93 c8 c8 bd 82 9d 8c bc 6b aa 4b 3d df 28 10 be
       -0.098038815 -0.01716495 0.04972307 -0.14078091
000380 1f 52 81 3d 80 ac c1 bd d5 5d 2b 3c 77 aa ff bd
       0.063144915 -0.0945673 0.010459383 -0.124836855
000390 c1 fd 78 be 20 48 6b bc 77 f3 30 be e0 de 8a 3d
       -0.2431555 -0.014360458 -0.17280374 0.06780791
0003a0 a3 4f 53 be 8d 01 b8 3b a7 1f b3 3d 81 56 fa 3d
       -0.20635848 0.0056154192 0.087462716 0.122235306
0003b0 80 9a 42 bd f5 a7 ce 3d fc 37 6d 3e 0f 34 7d 3e
       -0.047510624 0.10090629 0.23165888 0.2472689
0003c0 e3 bb 93 bd 9e 64 50 be ee 59 27 bd 26 5a 22 3e
       -0.07213571 -0.20350882 -0.040857248 0.15854701
0003d0 f3 90 e0 3c d2 7b b8 3c 4e e7 d2 bd 43 45 a1 bc
       0.027412867 0.02251998 -0.10298024 -0.019686347
0003e0 49 0a ba be 88 11 a7 bb 37 51 d3 bc f4 2a 2f 3e
       -0.36335972 -0.0050985254 -0.025795562 0.17106229
0003f0 eb 7b b2 3d 8e 3e 82 3e 06 75 26 bd a8 e7 37 bd
       0.08715042 0.2543835 -0.040638946 -0.04489866

l2.bias f4 [300]
000000 eb 12 53 3e 9e f5 a6 be 0e d3 1e bc b2 41 54 bd
       0.20612685 -0.32609266 -0.009693874 -0.051820464
000010 62 b4 2c be 21 5f 22 bd c3 97 50 3e 58 4f e8 be
       -0.16865686 -0.039641503 0.20370393 -0.45373034
000020 05 41 76 3c 3e ec 22 3d ba 51 95 be 9a e7 49 3e
       0.01503015 0.03977608 -0.29163915 0.19717255
000030 f1 66 9e 3d 66 1d 9a be 12 82 90 3d b8 4e fe 3d
       0.07734478 -0.30100554 0.07056059 0.12417358
000040 66 01 4e be a2 35 fe 3c 96 f5 08 be 1d 8b ba 3c
       -0.20117721 0.031031433 -0.13374934 0.022771413
000050 04 28 ce 3e 05 7e 52 bd 5b ff 48 3c c0 9f c6 3d
       0.40264904 -0.051389713 0.012267913 0.09698439
000060 2e 39 51 3d e8 06 10 3d fa 7f 60 bd 5f 4a ba 3d
       0.05107992 0.035162836 -0.054809548 0.090962164
000070 87 90 48 be a4 a5 e4 bc 43 77 4f bd 1f b6 bd be
       -0.19586383 -0.027911015 -0.050650846 -0.3705301
000080 31 a2 68 bd 4e 05 4a 3e a7 0f e9 3c 23 d3 5e bb
       -0.056795303 0.19728586 0.028449846 -0.003400036
000090 09 f3 5b bd 50 89 e0 bc 58 f6 14 be b8 c1 1e be
       -0.053698573 -0.027409226 -0.14547098 -0.15503585
0000a0 02 7d 10 be c6 c4 bd 3e 89 85 77 bd eb 51 9a 3b
       -0.14110187 0.3706419 -0.060430083 0.0047094724
0000b0 1c 43 91 bd 0b 3a 10 bd 1d 75 1e 3d 37 72 74 bd
       -0.07092878 -0.035211604 0.038685907 -0.059679236
0000c0 9d 8c 02 3d d9 b0 2e bd ee 83 85 bd 5c 6f ce bd
       0.03187238 -0.042649124 -0.06519304 -0.10079834
0000d0 37 9a 20 bc 82 fe d1 3e 39 c4 33 3d e5 61 90 bd
       -0.009802393 0.41014487 0.043888304 -0.07049922
0000e0 6c fb 06 be c5 64 d2 3e 9b 78 13 bd 90 69 59 bb
       -0.13181847 0.41092506 -0.03600369 -0.0033174492
0000f0 f1 49 dd bd 21 f7 74 b9 9f 34 88 3b 25 bc 1b bd
       -0.10805119 -0.00023361716 0.0041566635 -0.038021225
000100 18 97 05 be 0c 14 e3 3e 8f d9 9c 3e 65 10 46 be
       -0.13045919 0.44351232 0.30634734 -0.19342192
000110 aa b8 d5 bb 55 9f 81 3d d4 b9 49 bc 74 d6 3b be
       -0.006522258 0.06329218 -0.012312371 -0.18343526
000120 16 aa a9 bc e1 0f f4 3d 53 74 85 3e 59 00 63 bd
       -0.020710986 0.11917091 0.2606531 -0.055420253
000130 76 b3 ea 3b ac 03 99 be da fe 96 3e c8 54 94 bc
       0.0071625067 -0.29885614 0.2949131 -0.018106833
000140 ea 6f aa bc 5c f0 84 bd 2d e7 c2 be 01 0a 49 3d
       -0.020805318 -0.064911574 -0.38066998 0.049081806
000150 1d 69 20 be db e3 08 bd 24 02 70 3e 81 8f 5c 3e
       -0.15665098 -0.033420425 0.23438317 0.21539117
000160 ef d7 6e be b4 20 03 3e e1 b9 22 be b3 74 c3 3b
       -0.2332456 0.12805444 -0.1589122 0.0059648394
000170 3e 43 4c bd 5c f2 18 3e d4 16 a9 3e ef c1 87 3e
       -0.049868815 0.14936203 0.3302523 0.26515147
000180 ab 88 46 bd 06 f7 88 3e 5f 25 ae 3e 41 2e b4 bc
       -0.04847018 0.26750964 0.34012887 -0.021994712
000190 ec f6 a8 bd a1 16 a5 3e e7 3e f5 3d 2a e3 c2 ba
       -0.082502216 0.32243827 0.11974888 -0.0014868726
0001a0 84 99 98 bd ce 81 83 bb d2 e3 e7 bc 9e 08 4b 3c
       -0.07451156 -0.0040132767 -0.028306875 0.012392191
0001b0 bb cd 93 bc 2a 72 34 be f3 2c a9 be e3 77 5b 3e
       -0.018042436 -0.17621675 -0.33042106 0.21432452
0001c0 4a 27 e8 3e e7 b9 7e 3d 41 8a 6c bd 32 fc 53 bd
       0.45342475 0.06218901 -0.057749037 -0.051754184
0001d0 bf f8 50 be c8 ea b0 3c 6f 01 11 bd 46 21 83 be
       -0.20407389 0.021596327 -0.035401758 -0.25611323
0001e0 2b 8f 0d bd 91 50 a9 3d 2d a7 2b be 85 b1 f8 3a
       -0.034560364 0.0826732 -0.16762991 0.0018973803
0001f0 1b 54 8f bc 80 e2 f6 3c 04 10 96 3c e2 80 4b bd
       -0.01749616 0.0301373 0.018318184 -0.04968346
000200 cd 79 3f 3e 2d 9e 79 3e fb ed 29 3c 81 fc 09 bd
       0.18698807 0.24376746 0.01037168 -0.033688072
000210 f9 31 55 bd e2 49 91 3c ce 68 04 be 89 15 36 bc
       -0.05204961 0.017735425 -0.12930605 -0.011113533
000220 63 42 ad bc db 54 6a ba 54 0f 2e 3e 0c 4e 0d 3c
       -0.02114982 -0.0008939036 0.16998035 0.008624565
000230 13 88 60 bd c9 91 0f bd 14 89 04 3d b7 f8 02 bc
       -0.05481727 -0.03505114 0.03235729 -0.007993869
000240 01 10 74 bc b0 0c 2e be 5a a7 17 bd d2 41 a9 be
       -0.014896394 -0.16997027 -0.037024833 -0.3305803
000250 10 6a 58 3d 91 ad 50 bc fb ec 58 bc e6 fb bc be
       0.052835524 -0.012736694 -0.013240094 -0.36910933
000260 83 92 90 3d 62 d7 04 3d 56 57 15 be f7 b7 ab 3d
       0.07059195 0.032431968 -0.14584097 0.08384698
000270 94 bb de 3d 42 63 2a 3d 32 70 5c 3d 31 26 f3 3b
       0.108756214 0.041598566 0.053817935 0.0074203243
000280 43 f5 91 bc e0 bf c0 3d 68 c9 d7 bd 51 67 15 bd
       -0.017817145 0.09411597 -0.10536462 -0.036475483
000290 75 09 67 3e 66 78 f6 bc a3 db 3d 3e d9 7c fd bc
       0.22562201 -0.030086707 0.18540816 -0.030943321
0002a0 ed ba 48 3a 88 c2 f9 bd 82 ab 0b be f4 e0 17 3e
       0.00076572486 -0.12195307 -0.13639644 0.14831907
0002b0 7e ed bb 3e 8f 03 e8 bc 78 54 a9 3e 36 a2 ad 3c
       0.3670463 -0.02832201 0.33072257 0.021195512
0002c0 87 53 88 be 09 34 b4 bc 60 df 42 bb 1b 02 8f 3d
       -0.26626226 -0.021997469 -0.0029735193 0.069828235
0002d0 2b b8 a9 3e 6c 64 5f be 11 b1 5b bd 5e 49 91 be
       0.33148322 -0.21815652 -0.05363566 -0.28376287
0002e0 25 26 3d bd 60 b7 40 3e b3 b3 7e bd c4 11 4f bd
       -0.046178956 0.18819952 -0.062183093 -0.050554052
0002f0 68 13 77 3e dd 85 c3 be f3 41 14 bd c8 eb 2d bd
       0.24128497 -0.38188067 -0.036195707 -0.042461187
000300 6e 6c 46 bd 46 d9 8d bd 0f 44 57 3e 6f 19 69 bd
       -0.04844325 -0.06926207 0.21022056 -0.05690902
000310 e0 5c 1f bd d0 38 79 3d 95 55 7c bd 71 be e9 ba
       -0.038906932 0.060845196 -0.061605055 -0.0017833245
000320 82 d7 9e 3e b7 13 1e bd ba f7 9b 3e 7d b8 8b be
       0.31023794 -0.03859302 0.30462438 -0.2728919
000330 ac 45 d5 3b 3e cc 51 bd ce e8 3c 39 5a 04 11 bd
       0.0065085497 -0.05122017 0.00018015804 -0.03540454
000340 82 31 0b bd 37 14 1d bd da e3 3e bd 84 e1 8c bc
       -0.03398276 -0.038349357 -0.046604015 -0.017197378
000350 11 dc 98 3c f1 ba c3 3b 5d e8 a3 be e9 a1 8f bd
       0.018659623 0.005973213 -0.32013217 -0.07013304
000360 f1 21 66 bd 4f a4 4f be 51 e7 36 bd 36 db 96 bd
       -0.056184713 -0.20277523 -0.044654194 -0.0736603
000370 d2 59 0b 3d 13 19 8e 3c ce 21 97 bd 62 74 5e bd
       0.034021206 0.01734594 -0.073794946 -0.05431021
000380 9d fd 89 be ef 3f 05 bd 1e 43 1f 3b 1c c9 12 3e
       -0.26951304 -0.032531675 0.002430148 0.1433453
000390 06 22 9a 3e d1 af 6b 3c 77 30 18 bd 9d e0 e3 3e
       0.30104083 0.01438518 -0.037155595 0.44507304
0003a0 14 e2 89 bc cf 09 fd bc 7e bb c1 3e c7 30 25 3e
       -0.016831435 -0.030888466 0.37838358 0.16131888
0003b0 de 4d a9 bc 88 a7 e7 be be 1a 1a 3e a6 21 aa bb
       -0.020667013 -0.45245004 0.15049264 -0.0051919995
0003c0 f5 e9 b8 be 90 89 0f bd 9a 2a 25 bc 51 31 49 be
       -0.36115995 -0.0350433 -0.010080958 -0.19647719
0003d0 d1 bb fa be 0a 12 00 3d 37 c6 9f bd dc 85 29 bd
       -0.48971418 0.031267203 -0.07801478 -0.041387424
0003e0 fe 9f ac be 7a c5 c5 be 6d bb 23 bd 86 70 e3 3c
       -0.33715814 -0.38627225 -0.039973665 0.027763616
0003f0 7e 90 2d 3e 81 1f 47 3c 99 fe 2b 3e e2 b4 01 3d
       0.1694965 0.012153507 0.1679634 0.031666644

l3.weight f4 [6, 300]
000000 92 f7 71 3e 51 e6 1c bd 10 9b bd bc ac 4b 47 3d
       0.23629597 -0.038305584 -0.023145229 0.04865615
000010 a6 88 90 bd c8 68 2d 3d 50 e0 61 bd 04 16 31 3e
       -0.070573136 0.042336255 -0.05514556 0.17293555
000020 27 5d 36 bd bb ab 8b bc 11 23 5d be 60 ae ed 3d
       -0.04452243 -0.01704966 -0.21595408 0.11605525
000030 4e 1b 37 3a 81 41 6d be ec 4a e6 3d 1b 3b 9e 3c
       0.0006984965 -0.23169519 0.11244759 0.019315293
000040 7c 17 5a bd 1f b8 03 3d 95 b0 90 bd c0 47 09 3d
       -0.053245053 0.032158013 -0.0706493 0.03351569
000050 eb 78 73 3e b1 60 92 3c af 39 7a 3d e2 0c 20 3d
       0.23776595 0.017868372 0.061090168 0.039074786
000060 a8 78 fd 3d a5 5e 40 bd 17 b0 89 3c ce bf 3a be
       0.12376529 -0.04696526 0.016807599 -0.1823723
000070 d5 88 0d be 39 c0 f0 3b 8e 79 e1 3c 58 06 80 be
       -0.13821729 0.0073471335 0.027523782 -0.2500484
000080 a9 52 5b 3e 39 e7 e6 3d b3 3b 03 3e a4 d0 e2 3c
       0.21418251 0.11274571 0.12815742 0.027687378
000090 43 fa 88 bc 2b 26 df 3c 31 a3 a2 bc 0c 0a 73 bd
       -0.016720897 0.02723988 -0.019853206 -0.059335753
0000a0 e5 ff da bd 77 f3 14 3e a0 39 62 bd 58 34 0a bd
       -0.10693339 0.14546 -0.055230737 -0.033741325
0000b0 00 e9 3a bc 0f 16 0e 3d 0a e1 d1 3b 4b 19 8e bc
       -0.011408091 0.034689005 0.0064050006 -0.017346045
0000c0 ef be f3 bd 0f 3c 08 3d 2a 48 34 3d d8 28 f2 bc
       -0.11901652 0.0332604 0.044014134 -0.029560491
0000d0 3c de 2a bd a7 ae b0 3e 5a 81 3c 3c ae ef aa 3c
       -0.041715845 0.3450825 0.011505449 0.020866241
0000e0 d4 36 36 be cd be a4 3e 57 7a af bd cc ee 29 bc
       -0.17794353 0.3217682 -0.08568256 -0.010371875
0000f0 7b a7 9e bd 65 9a d8 bc ff 7f 32 bd 32 32 d5 bc
       -0.07746788 -0.026440809 -0.043579098 -0.026024912
000100 85 1f 97 bd 6b 66 92 3e cf 1e 0a 3e e4 c2 ae bb
       -0.07379059 0.28593764 0.13488315 -0.0053332914
000110 4a 12 f8 bb 1b 9a 0b be 5f f0 06 bd 47 bb 89 bd
       -0.0075705396 -0.13633005 -0.03294408 -0.067251734
000120 a8 1a 02 3c cf 67 1c 3e 77 26 1d 3e 31 bd 20 3d
       0.007940926 0.15273975 0.15346704 0.039242927
000130 ce 16 e4 bc 77 f5 0c be 4a 38 01 3e b0 b3 e4 3c
       -0.027842905 -0.13765512 0.12619129 0.027917713
000140 46 da aa 3c ee cc 8e 3e 57 f2 33 bd 4e d8 38 bd
       0.020856034 0.27890724 -0.043932285 -0.04512816
000150 b2 0b 26 3e 96 b6 a7 bc 3c 70 bf 3d 23 47 f3 3c
       0.16215399 -0.020472806 0.09347579 0.029697007
000160 26 a9 f5 bd 5a f4 76 3e 60 63 80 bc 08 b9 1f bc
       -0.11995153 0.2411665 -0.015672386 -0.009748705
000170 04 dd 63 bc 6b c9 f4 bb 44 30 93 3e e2 80 67 3d
       -0.013907675 -0.0074703 0.2874776 0.056519397
000180 6f c5 d0 3c d3 9a 41 3e e2 8f 89 3e fc 2d 33 bd
       0.025484769 0.18906717 0.26867586 -0.043745026
000190 f5 63 1d bd cf 01 0a 3e 05 9b 89 bc 4f 46 7a 3c
       -0.038425405 0.13477252 -0.016797552 0.015275552
0001a0 59 e3 89 3c 32 7f 67 3c 6f 7d c5 bc d6 58 11 bd
       0.01683204 0.014129447 -0.024107663 -0.03548511
0001b0 84 39 0a bd d4 1d 93 3e 32 bc 19 be 6a 8c 4a bc
       -0.033746257 0.28733695 -0.15013197 -0.012362579
0001c0 a8 62 f3 3e 0f b3 1f 3c d0 e3 13 bc 86 b6 8e 3b
       0.47536206 0.009747281 -0.009026483 0.0043552546
0001d0 7a 8f ae bd 5f 86 31 3d 24 d9 38 bc 5a 94 17 be
       -0.0852346 0.043341037 -0.011282239 -0.14802685
0001e0 57 57 f2 3c 32 e6 cf bc 55 d6 79 bd 49 c6 a9 3b
       0.029582663 -0.02537832 -0.06099542 0.005181108
0001f0 e1 3f 15 3d e0 77 b5 bd a7 da 18 3c 84 d4 9a 3d
       0.036437873 -0.08860755 0.0093294745 0.075600654
000200 42 39 b7 3c 6d 8a 82 bd f7 f8 57 bd 4e 07 a5 3b
       0.02236617 -0.06374059 -0.052727666 0.005036271
000210 be c8 4a b8 0b 67 36 bd 15 73 75 bd d4 0f 00 bc
       -4.834751e-05 -0.044531863 -0.059924204 -0.007816274
000220 94 06 35 bd b2 78 32 3d 40 01 c2 bc ad a3 cd bc
       -0.044195727 0.043572135 -0.023682237 -0.02510246
000230 c3 b9 c1 bc f2 45 8a 3c a9 45 a9 3c 6e 61 04 3d
       -0.023648148 0.016879056 0.0206631 0.03231948
000240 df fd 10 bd 24 25 71 bd 80 9a 48 3e 0b af de bd
       -0.03539836 -0.05887331 0.19590187 -0.108732305
000250 13 64 5a 3d 30 8d 33 bc 35 21 88 bc 73 e6 91 be
       0.053318094 -0.010958955 -0.016617397 -0.2849613
000260 44 88 cd 3c 85 f2 b2 3c 4d 09 c9 bd 3e cb 6d bd
       0.02508939 0.021844158 -0.09816227 -0.058055155
000270 ad db 8a bd d4 54 49 bd f0 33 ce bc 21 2e ac bc
       -0.06780181 -0.049153164 -0.02517125 -0.02101809
000280 41 a8 10 3d 44 11 41 be 8f b8 10 3e 11 7e 3e bd
       0.03531671 -0.18854243 0.14132904 -0.046506945
000290 96 1b 03 3b 3b c4 13 bd ce a0 aa 3d d2 e5 83 38
       0.0020005456 -0.03607581 0.08331452 6.289374e-05
0002a0 24 1b 93 3d aa 6f 97 bd b8 ff 51 bd 68 0c 3c bd
       0.07182911 -0.07394345 -0.051269263 -0.04591027
0002b0 89 c4 ad 3d 78 8d 38 bd 18 db 3d 3d c1 7b c7 bc
       0.08484752 -0.04505679 0.046351522 -0.024351003
0002c0 8c 48 9e bd 56 14 27 bd 83 02 74 3c 86 67 3a 3d
       -0.07728681 -0.04079088 0.014893177 0.045508884
0002d0 1e 88 21 3e 4c 3d 50 3e a1 a0 a7 3c d2 51 38 3e
       0.15774581 0.20335883 0.020462336 0.17999962
0002e0 97 02 65 bc 9a 92 04 3d 5b 73 a8 3c 1a ce 5c bc
       -0.013977668 0.032366373 0.020562818 -0.013476873
0002f0 8e 51 f7 3e 3f fc c5 bd aa 65 b7 3c c8 37 b1 3c
       0.4830441 -0.09667253 0.022387344 0.021633044
000300 cc a4 4e 3d b3 e5 37 bc 2b a7 21 3e 31 1a ff bd
       0.05045013 -0.011224198 0.15786426 -0.124561675
000310 4d 0e 18 3d 02 21 12 3a 0a e2 49 3d 1b e6 b2 bb
       0.037123013 0.00055743766 0.049287833 -0.0054595596
000320 9a 27 fc 3d ec 42 0b 3b 61 90 b4 3d 4a 53 0a be
       0.12312241 0.0021249605 0.088166006 -0.13508335
000330 b7 5a 21 bd 7e 04 b1 bc d2 5a 4b 3c 91 56 39 bd
       -0.039393153 -0.021608587 0.01241179 -0.04524857
000340 52 88 b8 3c 9a c6 16 3d e0 68 ad 3b 75 42 cb bc
       0.02252594 0.036810495 0.005292043 -0.024811963
000350 07 48 dd bc 96 1d 34 bd ac f4 00 be 79 ff 86 bd
       -0.027011884 -0.043973528 -0.12593335 -0.06591696
000360 5b 28 25 bd 7b 3d f4 bd e9 62 85 3c 9f 1a 93 bc
       -0.04032169 -0.11925789 0.016282516 -0.01795703
000370 fb bc b9 3c 4c 8d 0a 3c 48 26 52 3d df f3 96 bc
       0.02267312 0.008456539 0.05130604 -0.018426834
000380 4e 72 85 bc c5 9f ee bc e5 1d ea 3c 51 34 e8 3d
       -0.016289856 -0.029128918 0.028578708 0.113381036
000390 c0 c5 06 3e b2 65 22 3e 6e 86 ae bc 0a 44 2c 3e
       0.13161373 0.15859106 -0.021304335 0.1682283
0003a0 34 73 40 bd b3 c1 15 bc c7 37 0d 3e f0 ed e9 b8
       -0.046984866 -0.00914042 0.13790809 -0.00011154625
0003b0 35 8f 8c bc 5f 16 f6 be 38 d3 a5 3e 5f 23 22 3d
       -0.01715813 -0.48063943 0.3238771 0.039584514
0003c0 93 75 c7 bd 0a 07 29 3a 90 ea 0d 3d a8 d5 33 bc
       -0.097392224 0.0006447887 0.034647524 -0.010976233
0003d0 71 f7 b5 be 10 d8 cd bc 77 6a 1c 3d a2 ef 46 bc
       -0.35540345 -0.02512744 0.03818747 -0.012142094
0003e0 de 11 03 bc 79 d8 0c 3d 19 d0 cb bb d0 3e 9c 3c
       -0.007999865 0.034386132 -0.0062198755 0.01907292
0003f0 83 c9 da 3b 40 14 38 3a 19 c3 ae bc 19 a6 0c 3d
       0.006676854 0.00070220605 -0.021333264 0.03433809

l3.bias f4 [6]
000000 26 e5 a6 3e 7d 60 7b 3d 83 51 36 3e 49 e6 6b bc
       0.325967 0.061371315 0.17804532 -0.014398166
000010 31 52 f6 bd 54 aa 3b 3d
       -0.120273955 0.045816734
